example/cloudManufacturing/rl/phase2/ckpts/policy-model-weight-array.global-step-5000.pth (torch_old, 31923 bytes, 7 tensors)

fc1._model.0.weight f4 [24, 141]
-0.18944055 -0.0841053 0.09593475 0.071312346 -0.091168545 0.1262551 0.050065428 -0.17762001
0.17158535 0.024667613 -0.13255261 -0.022644388 -0.0683717 -0.13137254 -0.10324244 0.12594542
-0.07235003 0.14274862 0.1647599 -0.17568555 0.17320086 0.041441165 -0.1871655 0.05447082
-0.09408986 -0.14803797 -0.08693712 0.09209346 0.14751351 -0.002666565 -0.1373518 -0.18183538
0.13999256 -0.02721471 -0.07517841 -0.060846765 -0.010142672 -0.05113372 0.021857606 0.16119924
0.09475656 -0.18157119 -0.13137597 -0.08071708 -0.017316103 0.12838085 0.14046526 0.12837616
0.07201928 -0.10950875 -0.11276624 0.09347704 0.10064616 0.100690454 -0.10957977 -0.08994743
0.17182541 -0.11215512 0.07397109 -0.15840514 -0.0097110905 -0.17635667 -0.0020058479 0.14713998
0.124526165 -0.10243457 0.15447013 0.11009771 0.06376271 -0.022453185 -0.0041923327 0.12950507
-0.16709766 0.117333405 0.14528568 0.17428741 0.0074760276 0.1785974 -0.11490348 -0.12400783
-0.075887434 -0.13604754 0.16777001 -0.18255202 0.14264256 -0.16109566 0.1896961 0.09989775
-0.16384919 -0.02475719 -0.13170446 0.06954014 -0.1436977 0.06906111 0.06261348 -0.043070134
-0.06929538 0.11496001 0.18273528 -0.056654457 -0.07309526 0.10755122 -0.14927448 0.019385874
0.0725379 0.01060076 -0.06981569 0.12554573 -0.14584416 -0.16675669 0.017370583 -0.025556467
0.061336607 -0.1039598 -0.00041121774 -0.043107253 0.057127304 -0.16648003 -0.07917778 -0.14308096
0.014343771 -0.17265902 -0.012758938 -0.15783519 -0.046824027 -0.053852692 0.00087164197 0.09453016
-0.030499859 -0.17348796 0.021253942 0.0380148 0.043749366 0.047718816 0.04585411 -0.081601195
-0.15616798 -0.09056782 0.10206704 -0.0022006393 0.07584774 0.14334755 0.13614748 0.017219372
-0.17323053 0.01184668 0.112464204 -0.118255466 -0.13582179 -0.09977713 -0.18654445 0.036711663
0.06624006 0.11067007 -0.112842135 0.0794118 -0.13079973 0.08894189 0.12414369 0.06914068
-0.05026227 -0.14151765 0.1850675 0.03280156 -0.008533534 0.17839622 -0.13984093 -0.09623386
0.0030611684 0.0848254 -0.005287394 -0.0017959427 0.098097995 0.032878786 -0.10704119 0.039139073
-0.013274198 -0.12269002 0.09272172 0.0473193 -0.17574435 -0.1594852 0.18589322 0.1322789
0.10939255 0.18134429 0.18405493 -0.05591813 -0.024662584 -0.0356249 -0.15826043 0.023176467
0.0022905422 -0.109462984 0.06954377 -0.15275984 -0.1723317 -0.1785209 -0.06027556 0.1319173
0.035990167 -0.08960632 -0.18682532 0.027924776 0.14258218 0.015508807 -0.18055055 0.029564353
-0.092969276 -0.13595118 -0.17660306 0.14850579 0.104481936 0.1754841 0.030331267 0.05209395
0.14523593 -0.036392666 0.07372414 -0.047392625 0.16510284 0.15469567 0.053664368 0.07318778
-0.03913376 -0.086844206 0.0885105 -0.123067915 -0.032335762 0.11632856 0.05641904 0.049793612
0.05192489 -0.0036683432 -0.038669314 -0.039819743 0.053292595 0.028838815 0.14923286 0.10030993
-0.17209688 -0.07107522 -0.0069285873 0.1543145 -0.1581921 -0.078770645 0.031670984 0.08946535
0.16516292 0.16228451 -0.045721136 -0.006624344 0.07920699 -0.028662995 -0.16718459 -0.119408175
00000000: b4fc 41be 663f acbd 7079 c43d 350c 923d
00000010: 93b6 babd 0449 013e 6811 4d3d 05e2 35be
00000020: 12b4 2f3e bc13 ca3c dfbb 07be b980 b9bc
00000030: 7606 8cbd 8686 06be c670 d3bd d6f7 003e
00000040: 412c 94bd b22c 123e d2b6 283e eae6 33be
00000050: 915b 313e 36be 293d 50a8 3fbe cb1c 5f3d
00000060: 2fb2 c0bd 4497 17be 170c b2bd 7f9b bc3d
00000070: c80d 173e 89c1 2ebb f3a5 0cbe 0e33 3abe
00000080: 365a 0f3e 62f1 debc 23f7 99bd 753a 79bd
00000090: 732d 26bc 9771 51bd b90e b33c 6a11 253e
000000a0: ba0f c23d cced 39be 6c87 06be ff4e a5bd
000000b0: 80da 8dbc 4576 033e 20d6 0f3e 0a75 033e
000000c0: d87e 933d 2046 e0bd fdf1 e6bd e470 bf3d
000000d0: 931f ce3d cc36 ce3d 5c6b e0bd 5c36 b8bd
000000e0: 00f3 2f3e 95b1 e5bd 287e 973d f534 22be
000000f0: 441b 1fbc d896 34be 8b74 03bb ddab 163e
00000100: 9307 ff3d 37c9 d1bd 6b2d 1e3e e87a e13d
00000110: 0696 823d beef b7bc d65f 89bb fa9c 043e
00000120: a61b 2bbe 7f4c f03d c5c5 143e 6678 323e
00000130: 77f9 f43b 3de2 363e 8452 ebbd d1f7 fdbd
00000140: df6a 9bbd 0c50 0bbe e7cb 2b3e ebee 3abe
00000150: e410 123e 43f6 24be b23f 423e 3197 cc3d
00000160: 15c8 27be 97cf cabc 89dd 06be 106b 8e3d
00000170: 7d25 13be e96f 8d3d 7f3b 803d 4f6a 30bd
00000180: bcea 8dbd 2770 eb3d f51e 3b3e 810e 68bd
00000190: f8b2 95bd d043 dc3d 69db 18be 20cf 9e3c
000001a0: c08e 943d cfae 2d3c 87fb 8ebd 0f8f 003e
000001b0: 2c58 15be 44c2 2abe c14c 8e3c cc5b d1bc
000001c0: 183c 7b3d e0e8 d4bd b698 d7b9 3b91 30bd
000001d0: 52fe 693d be79 2abe f627 a2bd d183 12be
000001e0: 2302 6b3c 87cd 30be dd0a 51bc 8c9f 21be
000001f0: 8dca 3fbd a494 5cbd e77e 643a 0799 c13d
00000200: d7da f9bc d4a6 31be bf1c ae3c 68b5 1b3d
00000210: 8932 333d ce74 433d 85d1 3b3d 871e a7bd
00000220: 80ea 1fbe 9f7b b9bd 8608 d13d 9a38 10bb
00000230: 0f56 9b3d b3c9 123e 3f6a 0b3e a40f 8d3c
00000240: 5863 31be 9418 423c a253 e63d ec2f f2bd
00000250: de14 0bbe f457 ccbd 8205 3fbe f85e 163d
00000260: dea8 873d fda6 e23d c719 e7bd a7a2 a23d
00000270: 5df0 05be 2a27 b63d 0c3f fe3d a199 8d3d
00000280: cfdf 4dbd 01ea 10be 5682 3d3e ee5a 063d
00000290: 3cd0 0bbc 80ad 363e 7632 0fbe 4216 c5bd
000002a0: e29d 483b f0b8 ad3d e041 adbb d665 ebba
000002b0: 9ae7 c83d e8ab 063d 6938 dbbd 4b50 203d
000002c0: 067c 59bc e844 fbbd e3e4 bd3d e2d1 413d
000002d0: 54f6 33be 1750 23be cb5a 3e3e 1f74 073e
000002e0: 3409 e03d 51b2 393e e578 3c3e 690a 65bd
000002f0: 3009 cabc 6aeb 11bd 060f 22be 93dc bd3c
00000300: ec1c 163b 212e e0bd f76c 8e3d 136d 1cbe
00000310: b977 30be 2fce 36be 81e3 76bd 5415 073e
00000320: 6d6a 133d 8583 b7bd 234f 3fbe 80c2 e43c
00000330: 1001 123e a718 7e3c 3ee2 38be f130 f23c
00000340: ad66 bebd c936 0bbe 6fd7 34be e711 183e
00000350: a0fa d53d 1bb2 333e 4779 f83c 7760 553d
00000360: bab8 143e 7a10 15bd affc 963d c51e 42bd
00000370: b810 293e 8b68 1e3e 2bcf 5b3d 7ae3 953d
00000380: b94a 20bd 60db b1bd fe44 b53d 080b fcbd
00000390: 8172 04bd ab3d ee3d a717 673d 63f4 4b3d
000003a0: 32af 543d 9668 70bb b763 1ebd 071a 23bd
000003b0: 5649 5a3d 613f ec3c 80d0 183e 4b6f cd3d
000003c0: 2a3a 30be e38f 91bd 3409 e3bb 9f04 1e3e
000003d0: 1cfd 21be 8152 a1bd 6fb9 013d 9c39 b73d
000003e0: 7820 293e e92d 263e 1646 3bbd 0611 d9bb
000003f0: 4637 a23d a8ce eabc 7032 2bbe 468c f4bd

fc1._model.0.bias f4 [24]
0.0005620895 0.0007248584 0.0006762196 -0.00050850736 -0.00038409082 0.0007152409 -0.00030100226 -0.00092034205
-0.0006896861 -0.000591879 0.0006413457 0.00012797558 -0.00084447314 0.00072645815 -0.00044682444 -0.0004675864
-0.00065914326 -0.00047385666 -0.00057790487 0.0008758435 -0.00085987605 -0.00042462297 -0.00047994874 -0.00084972597
00000000: 3059 133a 6c04 3e3a 5444 313a 5a4d 05ba
00000010: cc5f c9b9 017f 3b3a d7cf 9db9 1c43 71ba
00000020: 0dcc 34ba 5428 1bba fb1f 283a 2f31 0639
00000030: a25f 5dba c86f 3e3a c343 eab9 6226 f5b9
00000040: 5bca 2cba f76f f8b9 8a7e 17ba dd98 653a
00000050: 4e69 61ba ee9f deb9 a1a1 fbb9 25c0 5eba

fc2._model.0.weight f4 [20, 48]
-0.12386918 -0.22724146 0.1799441 -0.09379241 -0.24942139 -0.29675123 -0.24640685 -0.050939724
0.037096232 0.005122572 0.26087397 -0.031466544 0.09931019 0.12129417 0.22428697 -0.2906021
-0.0908532 0.1259081 -0.21099012 0.19240895 0.14963007 0.1626901 -0.27727827 0.16867465
0.030585974 0.031326503 -0.16078219 -0.117960736 0.27760476 -0.27575463 0.048971027 -0.0586638
-0.22507796 0.24558586 -0.12456404 0.07778591 0.010067791 -0.073534235 -0.26964417 0.0694077
-0.090549976 0.059420586 0.011784881 -0.20357078 -0.095728114 0.26853257 0.07999599 -0.22397965
0.26925886 0.13821298 0.26468235 0.2943412 0.13501415 0.24694341 0.22240734 0.21280354
-0.09565729 0.26566905 0.088798195 -0.19136944 -0.011393517 -0.0027188063 -0.22686246 -0.04756415
0.13087341 -0.24909918 -0.20270011 -0.20194265 -0.025796682 0.021199286 -0.09718937 -0.12515791
0.28400227 -0.05752667 -0.09041777 0.22771183 0.21838513 -0.26690426 0.22332288 0.18817748
0.1440799 0.09081545 0.28369647 0.101264894 0.2871329 -0.11078304 -0.06835241 0.037208073
0.19232862 0.038394976 0.08231833 -0.053446427 0.1038869 -0.1971198 -0.06164177 0.26891917
0.20336717 0.033209473 -0.2094674 -0.24930637 -0.0866276 0.16541377 0.18752348 0.22756386
0.08183968 -0.19632828 -0.20571835 0.07669702 0.23173755 -0.16056646 -0.2493484 0.24772096
0.1942623 0.08659184 -0.20846793 0.2833165 0.28146458 -0.11640321 -0.044861674 -0.09455815
0.12249001 0.051810518 0.01104749 -0.106417395 0.14823341 -0.12653202 0.18033253 0.1818911
-0.032822274 -0.12645073 -0.17147928 -0.15118708 -0.03336039 0.027727462 -0.18957455 -0.23607571
-0.28858864 -0.059851702 -0.024721406 -0.0038480193 -0.22382754 0.05907766 -0.02657746 -0.16609378
-0.2827036 0.0010757446 -0.15780434 0.020797104 -0.040760785 0.13889208 -0.07496159 -0.10364455
-0.28952792 0.20228294 -0.21734035 0.11336884 -0.04319766 0.21900666 0.06387073 0.2969386
0.13837492 -0.072220504 -0.0017742515 -0.09312326 -0.22435838 -0.10737896 0.20428842 0.2271303
-0.03543493 -0.2724589 -0.13227317 0.16283274 -0.11510429 -0.2295693 -0.011401607 -0.17842409
-0.0403914 -0.20081908 -0.03626045 0.14214647 -0.12644877 -0.10415725 -0.293175 0.23021245
0.10079217 0.0070510167 0.21677089 -0.2051771 0.14956647 -0.14161837 0.10093379 -0.2933248
0.28453594 0.11574879 0.2617687 -0.24244004 -0.15983209 0.046610087 0.18443802 0.12218541
-0.25799713 0.2433396 0.22875673 0.09588075 -0.2474378 0.01089859 0.027240902 0.13944715
0.16465247 -0.033943594 -0.10498409 0.11716667 -0.1742639 0.062187016 -0.10992165 -0.08848664
0.08278171 -0.09322471 0.026662411 -0.15020913 -0.24242225 0.0061430647 0.2557219 0.2935728
-0.011330416 0.09625424 -0.1079051 -0.24852395 0.1784473 -0.2811759 0.0064632297 -0.17238234
-0.07202292 0.065481864 -0.062397636 -0.24733092 -0.08166004 0.04849675 0.22597907 0.26748958
-0.02329496 -0.108237356 0.08117918 -0.17439163 -0.21338843 -0.25429508 -0.092787005 -0.21709873
-0.16421708 0.024741335 -0.098072626 -0.26021022 0.012152015 -0.27941793 0.19142886 -0.06643445
00000000: 20af fdbd fcb1 68be 4443 383e 3c16 c0bd
00000010: 5268 7fbe c7ef 97be 1452 7cbe 2ca6 50bd
00000020: 38f2 173d 40db a73b 4691 853e 10e3 00bd
00000030: 2463 cb3d 1469 f83d 7cab 653e ccc9 94be
00000040: 3e11 babd 0eee 003e cb0d 58be da06 453e
00000050: a038 193e 3c98 263e 6bf7 8dbe 0cb9 2c3e
00000060: 708f fa3c 3850 003d 16a4 24be 6695 f1bd
00000070: 3622 8e3e b62f 8dbe d895 483d 7449 70bd
00000080: d67a 66be dc7a 7b3e 6e1b ffbd 384e 9f3d
00000090: 60f3 243c 1e99 96bd cd0e 8abe a025 8e3d
000000a0: 4472 b9bd 0063 733d 6015 413c dc74 50be
000000b0: 1a0d c4bd 1a7d 893e f0d4 a33d ec5a 65be
000000c0: 4cdc 893e b487 0d3e 7284 873e e4b3 963e
000000d0: 2641 0a3e bcde 7c3e c0be 633e 2ce9 593e
000000e0: f8e7 c3bd c605 883e d4db b53d 5af6 43be
000000f0: e0ab 3abc 002e 32bb a24e 68be a0d2 42bd
00000100: ae03 063e db13 7fbe 9e90 4fbe 0eca 4ebe
00000110: 9053 d3bc 20aa ad3c 380b c7bd 6529 00be
00000120: bf68 913e 16a1 6bbd f42c b9bd 4a2d 693e
00000130: 5aa0 5f3e ada7 88be c1ae 643e 99b1 403e
00000140: ae89 133e 73fd b93d aa40 913e f863 cf3d
00000150: 1503 933e 38e2 e2bd 59fc 8bbd 7e67 183d
00000160: cbf1 443e 0d44 1d3d 8396 a83d a4ea 5abd
00000170: a8c2 d43d c6d9 49be 157c 7cbd c6af 893e
00000180: 7c3f 503e a806 083d 9f7e 56be 2b4a 7fbe
00000190: d069 b1bd 3a62 293e 2806 403e 8006 693e
000001a0: 909b a73d 480a 49be d5a7 52be 5413 9d3d
000001b0: 9c4c 6d3e 896b 24be 3055 7fbe 90aa 7d3e
000001c0: b2ec 463e 1057 b13d 9e78 55be dc0e 913e
000001d0: 201c 903e ce64 eebd e0c0 37bd b4a7 c1bd
000001e0: 0bdc fa3d 4437 543d 8800 353c 5df1 d9bd
000001f0: 80ca 173e 9c91 01be 17a9 383e a941 3a3e
00000200: a670 06bd 4d7c 01be 4498 2fbe c9d0 1abe
00000210: e8a4 08bd b424 e33c d51f 42be d5bd 71be
00000220: e4c1 93be 0f27 75bd 8c84 cabc 0d2f 7cbb
00000230: 0c33 65be 6bfb 713d f9b8 d9bc 7d14 2abe
00000240: 87be 90be 0000 8d3a 7697 21be b05e aa3c
00000250: c8f4 26bd ba39 0e3e 7685 99bd 9843 d4bd
00000260: 013d 94be 4223 4f3e 788e 5ebe ec2d e83d
00000270: 08f0 30bd 4843 603e a8ce 823d 5608 983e
00000280: 28b2 0d3e 58e8 93bd 008e e8ba 68b7 bebd
00000290: 34be 65be 80e9 dbbd fc30 513e d894 683e
000002a0: 3824 11bd bc7f 8bbe 9e72 07be a0bd 263e
000002b0: ccbb ebbd 3714 6bbe cecd 3abc ceb4 36be
000002c0: 7471 25bd 84a3 4dbe d685 14bd d88e 113e
000002d0: c97b 01be 6550 d5bd 091b 96be d0bc 6b3e
000002e0: 206c ce3d 370c e73b 30f9 5d3e f219 52be
000002f0: f427 193e 6804 11be 60b6 ce3d ab2e 96be
00000300: b2ae 913e b40d ed3d 8c06 863e 3442 78be
00000310: 06ab 23be 38ea 3e3d 52dd 3c3e 583c fa3d
00000320: 3318 84be 042e 793e 343f 6a3e 205d c43d
00000330: 5660 7dbe 0090 323c 5028 df3c 3ccb 0e3e
00000340: a89a 283e 7008 0bbd e601 d7bd 14f5 ef3d
00000350: 3c72 32be d0b7 7e3d 9a1e e1bd 7c38 b5bd
00000360: 7589 a93d 99ec bebd 216b da3c 6cd0 19be
00000370: 8a3d 78be c34b c93b fbed 823e 2d4f 963e
00000380: 36a3 39bc f120 c53d 59fd dcbd 107d 7ebe
00000390: e4ba 363e 4af6 8fbe 80c9 d33b ff84 30be
000003a0: c180 93bd 5b1b 863d aa94 7fbd 5144 7dbe
000003b0: 613d a7bd 87a4 463d 0f67 673e 65f4 883e
000003c0: 12d5 bebc 8cab ddbd 4541 a63d b893 32be
000003d0: 7f82 5abe f732 82be 1d07 bebd 214f 5ebe
000003e0: 8628 28be 57ae ca3c 4dda c8bd 463a 85be
000003f0: 3f19 473c de0f 8fbe ed05 443e c90e 88bd

fc2._model.0.bias f4 [20]
3.496119e-13 2.6911637e-06 6.590144e-08 2.2277005e-09 2.2120676e-06 0.0005829274 1.13276315e-07 1.0493782e-05
5.2388043e-07 5.566956e-05 1.05660085e-10 3.5769866e-11 0.00010281879 7.558402e-12 3.10747e-06 0.00046553716
1.9330102e-08 -0.0008822123 0.0006493425 1.207444e-09
00000000: 62d0 c42a d799 3436 b385 8d33 1f16 1931
00000010: 0873 1436 98cf 183a 5042 f333 730e 3037
00000020: caa0 0c35 bc7e 6938 5759 e82e 4a51 1d2e
00000030: 6ba0 d738 04f8 042d ee89 5036 5713 f439
00000040: 580b a632 4444 67ba a338 2a3a 29f3 a530

fc3._model.0.weight f4 [64, 48]
0.026793415 0.11239681 -0.20574415 0.19389012 0.014128085 -0.10233117 -0.0525283 -0.14611627
-0.05501624 -0.093301736 -0.07857492 -0.16663341 0.08375516 0.066569895 0.1585133 0.17190322
0.22620532 0.0066061867 -0.07881267 0.17878962 0.15703014 -0.030624056 -0.22174124 0.064370565
0.11748753 -0.10128084 0.0919708 -0.0051152655 -0.20169336 -0.11949926 0.063508235 0.09153814
-0.16406785 0.02039786 0.05110247 -0.11071134 -0.00096094434 0.006430759 0.20132333 -0.0827675
0.026862973 0.17457692 0.055727065 -0.13803999 0.15980348 -0.07901913 -0.035742484 0.11636877
0.091158055 -0.05941581 0.17420694 -0.15374747 0.093713686 -0.05286544 -0.061124362 -0.05152791
0.21965934 0.16890275 0.093295954 -0.11538215 -0.22383288 0.13069728 0.0027954136 0.08844191
0.19399525 -0.15270934 0.03810032 -0.16882153 -0.052343205 0.22596298 -0.08503379 0.076993115
0.027509525 -0.16098145 -0.08621229 0.043909337 -0.09686676 0.16081367 0.08472395 0.07992111
-0.12744653 -0.16719615 0.07421215 -0.22375885 -0.20442492 -0.020397352 0.105097994 -0.078518115
-0.05562418 -0.06310501 -0.076508746 -0.19172598 0.032828774 -0.23111823 0.007856848 -0.17214629
0.18799531 0.030322809 -0.08986734 0.17409877 0.17325884 0.21754345 -0.036362432 0.2126616
-0.20686308 0.03913801 0.16247195 0.20754495 -0.13758288 0.08825358 0.12955719 -0.014209543
-0.017685253 0.08995097 0.025346212 0.0604383 0.20637493 0.1740687 0.15028857 0.07582901
0.1414431 -0.019774029 -0.07570337 0.093204044 -0.00017353661 -0.105892345 0.20064388 -0.037576456
0.18848333 0.1477112 -0.18797034 -0.1182494 -0.20138787 -0.19871807 -0.115569234 0.0959039
0.0061630746 0.21756446 0.03840616 0.12243177 0.0012878749 -0.19028762 0.17664154 0.14983717
-0.118496254 0.110668994 0.1308081 -0.19317406 -0.048690114 0.19713522 0.16375315 -0.08558416
0.14679131 0.21815073 -0.13478506 0.22588696 -0.07504341 0.1542283 -0.09924444 -0.07649277
0.13726956 -0.04706764 -0.18630603 -0.18174474 0.027301233 -0.15907343 -0.14400466 -0.20663291
-0.0040211785 0.17620102 -0.14529578 0.041480243 -0.03780572 0.12657012 -0.0072693736 0.04188395
0.21202724 0.21446407 -0.037883505 0.108733304 0.12514777 -0.05719111 0.1089834 -0.12406511
0.049423408 0.21570349 0.14773726 -0.07667828 0.16646096 -0.054893292 0.23148791 0.12248318
-0.04932591 -0.16812001 0.080657735 0.11768655 -0.07913832 0.14858152 0.17643619 0.15348148
0.1281895 0.037948653 -0.101725146 0.17991343 -0.08246844 0.12974165 0.09049995 -0.21341905
0.15541448 0.13135907 0.10002761 -0.11369559 -0.0051708366 -0.06719734 -0.091987185 0.090462334
-0.013534138 0.025881592 0.21644107 -0.21189371 0.0042781373 -0.07694003 -0.1349939 -0.06942773
-0.22708832 -0.046980225 -0.08715197 -0.20635228 0.07109395 0.17535624 -0.014809097 0.06460617
-0.10347734 -0.18213248 -0.031196784 0.14301765 -0.03976165 0.194913 0.02416755 0.076158024
-0.023974413 0.17925058 0.07949927 0.03189685 -0.20092988 0.034295123 -0.1131408 -0.17715704
0.17872006 -0.052648354 0.07568968 0.058450207 0.048935313 -0.1425496 -0.054465696 -0.1426335
00000000: dd7d db3c 4c30 e63d 98ae 52be 228b 463e
00000010: 7c79 673c 0193 d1bd ea27 57bd 819f 15be
00000020: b558 61bd fb14 bfbd e3eb a0bd f3a1 2abe
00000030: d387 ab3d cc55 883d 4f51 223e 6607 303e
00000040: 5ea2 673e b678 d83b 8a68 a1bd a014 373e
00000050: 82cc 203e 4ddf fabc 2310 63be b7d4 833d
00000060: 4d9d f03d 546c cfbd 305b bc3d f59d a7bb
00000070: b488 4ebe 07bc f4bd 9b10 823d 5978 bb3d
00000080: 6701 28be 6a19 a73c d350 513d a1bc e2bd
00000090: e2e7 7bba 1eb9 d23b b427 4e3e 0282 a9bd
000000a0: bd0f dc3c 4bc4 323e 1042 643d 5b5a 0dbe
000000b0: 86a3 233e c8d4 a1bd b666 12bd c052 ee3d
000000c0: 13b1 ba3d fe5d 73bd 4e63 323e fa6f 1dbe
000000d0: f6ec bf3d 6e89 58bd 8a5d 7abd ee0e 53bd
000000e0: 61ee 603e d8f4 2c3e f311 bf3d 7a4d ecbd
000000f0: 7234 65be 82d5 053e 4233 373b 0821 b53d
00000100: b1a6 463e d65f 1cbe 150f 1c3d 8ddf 2cbe
00000110: d465 56bd d762 673e 3226 aebd 91ae 9d3d
00000120: a85b e13c 52d8 24be 1290 b0bd 47da 333d
00000130: 1462 c6bd 57ac 243e c083 ad3d aead a33d
00000140: 5881 02be 7835 2bbe 8afc 973d 0a21 65be
00000150: c454 51be 5918 a7bc 9e3d d73d 1bce a0bd
00000160: 2ed6 63bd 333d 81bd 9eb0 9cbd d153 44be
00000170: 7777 063d 42aa 6cbe 02ba 003c 1e47 30be
00000180: d881 403e 8a67 f83c 5e0c b8bd f346 323e
00000190: c46a 313e b6c3 5e3e c6f0 14bd f6c3 593e
000001a0: ead3 53be 2e4f 203d 0c5f 263e aa86 543e
000001b0: 87e2 0cbe 4bbe b43d a4aa 043e 25cf 68bc
000001c0: aae0 90bc 3738 b83d dca2 cf3c 278e 773d
000001d0: f353 533e 113f 323e 3fe5 193e 3d4c 9b3d
000001e0: 76d6 103e 25fd a1bc 5e0a 9bbd c3e1 be3d
000001f0: 61f7 35b9 16de d8bd 9775 4d3e c5e9 19bd
00000200: c601 413e 9b41 173e 4c7b 40be be2c f2bd
00000210: 9f38 4ebe c07c 4bbe 90af ecbd 4469 c43d
00000220: 9ef3 c93b 38c9 5e3e c74f 1d3d 82bd fa3d
00000230: e9cd a83a c2da 42be 85e1 343e ea6e 193e
00000240: 2aae f2bd 6da6 e23d 8ff2 053e 6ccf 45be
00000250: 496f 47bd d1dd 493e e8ae 273e c046 afbd
00000260: 7650 163e e862 5f3e 1805 0abe e94e 673e
00000270: 5cb0 99bd 06ee 1d3e ab40 cbbd 3ea8 9cbd
00000280: 6490 0c3e ffc9 40bd 02c7 3ebe 4b1b 3abe
00000290: d6a6 df3c 25e4 22be f575 13be 9497 53be
000002a0: 17c4 83bb 0a6e 343e 6bc8 14be 30e7 293d
000002b0: 2cda 1abd 999b 013e ed33 eebb 818e 2b3d
000002c0: ab1d 593e 789c 5b3e bc2b 1bbd 91af de3d
000002d0: bd26 003e 3a41 6abd b032 df3d d915 febd
000002e0: 3370 4a3d 60e1 5c3e 7048 173e 8109 9dbd
000002f0: be74 2a3e cad7 60bd 2b0b 6d3e 76d8 fa3d
00000300: f709 4abd a727 2cbe e22f a53d a505 f13d
00000310: 4613 a2bd c125 183e b0ab 343e 402a 1d3e
00000320: 1c44 033e 0c70 1b3d 4655 d0bd 3a3b 383e
00000330: 37e5 a8bd ffda 043e 0a58 b93d 868a 5abe
00000340: f924 1f3e fe82 063e 47db cc3d 3cd9 e8bd
00000350: 1f70 a9bb c29e 89bd c763 bcbd 5144 b93d
00000360: 4abe 5dbc a205 d43c baa2 5d3e aafa 58be
00000370: 9e2f 8c3b bc92 9dbd d73b 0abe 2030 8ebd
00000380: d789 68be 566e 40bd bb7c b2bd 034e 53be
00000390: b499 913d 9690 333e dba1 72bc 3d50 843d
000003a0: edeb d3bd f080 3abe 6690 ffbc 3873 123e
000003b0: 1ddd 22bd 4697 473e 07fb c53c bdf8 9b3d
000003c0: fd65 c4bc 778d 373e 83d0 a23d 45a6 023d
000003d0: 90c0 4dbe 0b79 0c3d 5db6 e7bd a868 35be
000003e0: 6402 373e cda5 57bd 3103 9b3d 7c69 6f3d
000003f0: 6570 483d 86f8 11be 6c17 5fbd 840e 12be

fc3._model.0.bias f4 [64]
-0.00071310386 -0.00070491445 -0.0007036702 -0.0007043766 -0.0007046398 -0.0007048721 0.00070316147 -0.0007034269
0.0007044105 0.00070490356 0.0007043483 -0.0007034345 0.0007031794 -0.0007035247 -0.0007032486 -0.00070415944
-0.0007037837 -0.0007044425 0.0007048338 -0.00070445304 -0.0007048933 0.00070306717 0.0007044187 0.0007036707
0.00070443464 0.000704105 -0.0007046572 0.0007044627 -0.0007041961 -0.0007023456 0.00070426695 0.0007019473
-0.0007049184 -0.0007048602 0.0007032571 -0.00070366194 0.0007034187 -0.0007043932 -0.0007037573 -0.00070536364
0.00070284825 -0.0007055816 0.0007034341 -0.0007023857 -0.0007029046 -0.0007030333 0.00070429774 0.00070325803
0.000703753 0.00070271344 0.0007038405 -0.0007043338 -0.00070438633 0.00070240337 0.0007024359 0.00070428115
-0.0007043773 0.00070342084 -0.00070490595 -0.0007034944 0.00070453517 0.00070334855 0.00070355064 0.0007035719
00000000: 97ef 3aba 02ca 38ba 8276 38ba eaa5 38ba
00000010: 94b7 38ba 2ac7 38ba 5e54 383a 2e66 38ba
00000020: 30a8 383a 47c9 383a 04a4 383a b166 38ba
00000030: 9255 383a be6c 38ba 375a 38ba 5797 38ba
00000040: 207e 38ba 56aa 38ba 98c4 383a 0bab 38ba
00000050: 97c8 38ba 0a4e 383a bda8 383a 8b76 383a
00000060: cfa9 383a b093 383a bfb8 38ba b1ab 383a
00000070: cd99 38ba 9e1d 38ba 8e9e 383a e302 383a
00000080: 46ca 38ba 5ec6 38ba c95a 383a f475 38ba
00000090: a165 383a 07a7 38ba 5a7c 38ba 27e8 38ba
000000a0: 593f 383a c8f6 38ba aa66 383a 4e20 38ba
000000b0: 2143 38ba c44b 38ba 9fa0 383a d95a 383a
000000c0: 107c 383a 4d36 383a f081 383a 0ba3 38ba
000000d0: 91a6 38ba 7e21 383a ad23 383a 829f 383a
000000e0: f6a5 38ba c665 383a 70c9 38ba b66a 38ba
000000f0: 8eb0 383a ec60 383a 7c6e 383a e96f 383a

fc4._model.0.weight f4 [1, 64]
-0.011853032 -0.1661807 -0.26208627 -0.20681596 -0.08644899 -0.08112767 0.12465182 -0.16110322
0.08563842 0.12568198 0.28914708 -0.17741776 0.16810691 -0.29122674 -0.14538501 -0.28469598
-0.2830896 -0.10449821 0.035167817 -0.19711386 -0.027193664 0.12718758 0.19939792 0.2938571
0.26051074 0.1176597 -0.10322055 0.2931469 -0.16335003 -0.07215138 0.17513388 0.02448384
-0.083374605 -0.13299656 0.14090784 -0.24435103 0.14706323 -0.2820776 -0.18758138 -0.08690256
0.11214106 -0.05935955 0.07780404 -0.04785299 -0.15127121 -0.13449167 0.2453905 0.21359004
0.16342108 0.052547622 0.16744427 -0.1888373 -0.034158792 0.107197806 0.03667162 0.027365377
-0.2553375 0.11029184 -0.15653616 -0.2757475 0.25717112 0.19545591 0.24477829 0.25135788
00000000: 3833 42bc 462b 2abe 2c30 86be 90c7 53be
00000010: 2b0c b1bd 4426 a6bd 7449 ff3d 3ef8 24be
00000020: 3263 af3d c7b2 003e 160b 943e 00ad 35be
00000030: 3824 2c3e ac1b 95be cfdf 14be acc3 91be
00000040: 1ff1 90be 2803 d6bd 210c 103d 37d8 49be
00000050: 3fc5 debc 763d 023e f82e 4c3e 7074 963e
00000060: aa61 853e 92f7 f03d 4c65 d3bd 5a17 963e
00000070: 3b45 27be 1ac4 93bd 4c56 333e 5692 c83c
00000080: 4ec0 aabd 4030 08be 254a 103e 2837 7abe
00000090: be97 163e 7a6c 90be 5515 40be f8f9 b1bd
000000a0: 36aa e53d 0023 73bd b957 9f3d 7f01 44bd
000000b0: d7e6 1abe 2fb8 09be a647 7b3e 59b7 5a3e
000000c0: db57 273e 2d3c 573d 8376 2b3e 915e 41be
000000d0: 17ea 0bbd 868a db3d fb34 163d 5b2d e03c
000000e0: 99bb 82be b0e0 e13d 044b 20be c72e 8dbe
000000f0: efab 833e 9825 483e 29a7 7a3e fbb1 803e
