example/cloudManufacturing/rl/phase2/ckpts/policy-model-weight-array.global-step-4000.pth (torch_old, 31923 bytes, 7 tensors)

fc1._model.0.weight f4 [24, 141]
0	0xbd00b620	-0.031423688
1	0xbe388bca	-0.18022075
2	0xbd79bae4	-0.06096925
3	0xbce8e4f9	-0.028429495
4	0xbd8defa2	-0.06930472
5	0x3c27c9d3	0.01024099
6	0x3ba75bbf	0.0051073725
7	0x3e0bd4ce	0.13655397
8	0xbe1a77c7	-0.15084754
9	0x3da65c40	0.08123064
10	0xbd7fcd7e	-0.062451832
11	0xbdd6f1ec	-0.10495362
12	0x3ddab2de	0.106786475
13	0x3dfde0c6	0.12396388
14	0xbe1b0c0a	-0.15141311
15	0x3e182e2e	0.14861366
16	0xbd458f7f	-0.04823255
17	0x3e20b6b2	0.15694693
18	0xbde8371b	-0.113386355
19	0x3b82ee72	0.00399571
20	0x3d98daf2	0.074636355
21	0x3e0a6bf3	0.13517742
22	0xbe355224	-0.17707115
23	0x3d55cf9f	0.052199956
24	0x3ca70f2e	0.02039298
25	0xbe2b0c7c	-0.16703981
26	0xbb28eb91	-0.0025775174
27	0x3da70546	0.08155303
28	0x3dfdbfa3	0.123900674
29	0x3d8eada5	0.06966714
30	0x3e3737e9	0.17892422
31	0x3e2a835a	0.16651669
32	0x3e06fa9c	0.13181537
33	0xbdc2618a	-0.0949126
34	0xbe3eee60	-0.1864562
35	0x3e0629e4	0.13101918
36	0x3d90f864	0.07078627
37	0xbd88db5b	-0.06682464
38	0x3da67044	0.08126882
39	0x3db0e451	0.08637298
40	0x3e1f2749	0.1554233
41	0xbdfefad7	-0.12450188
42	0x3d657001	0.05601502
43	0x3d9e027b	0.07715317
44	0xbd815751	-0.063154824
45	0x3e12ca54	0.14334995
46	0xbdd367fa	-0.10322566
47	0xbd23d6b6	-0.039999686
48	0x3dc4e7f2	0.096145526
49	0x3e0af78e	0.13570997
50	0x3c08d71b	0.008352066
51	0xbdfe8fdf	-0.12429785
52	0x3e34fc7d	0.17674442
53	0xbdd6834f	-0.10474264
54	0x3d228285	0.039675254
55	0x3dec0196	0.1152374
56	0xbe0437f5	-0.12911971
57	0x3e0e9969	0.13925709
58	0xbe1ce1c3	-0.15320496
59	0x3dad5c43	0.08464863
60	0x3d078857	0.03308901
61	0x3d220e30	0.03956431
62	0x3d15173e	0.03639912
63	0xbd3414c7	-0.043965127
64	0x3ddd0ec0	0.10793829
65	0x3ddaef4c	0.106901735
66	0x3b66f896	0.0035243384
67	0xbd696edb	-0.056990486
68	0x3d0290f9	0.031876538
69	0xbd81ffc1	-0.06347609
70	0x3d0bddf6	0.034147225
71	0x3daed03d	0.08535812
72	0x3bda4723	0.006661312
73	0xbdd42555	-0.10358683
74	0xbd339362	-0.043841727
75	0xbe231a55	-0.15928014
76	0xbcfcd74f	-0.030864386
77	0x3e145c50	0.1448834
78	0x3c98e404	0.018663414
79	0x3d589e8a	0.05288557
80	0xbbc06154	-0.0058709774
81	0x3db4319c	0.08798525
82	0x3de4d49d	0.11173365
83	0xbcb3b548	-0.021937028
84	0x3ce9485b	0.028476885
85	0xbe2b885a	-0.16751233
86	0xbd9a1a0c	-0.07524499
87	0x3c4b7918	0.012419008
88	0x3b9e3626	0.0048282323
89	0xbce24375	-0.027620057
90	0xbc8e6648	-0.017382756
91	0x3d8bf3f6	0.06833641
92	0x3e2194ed	0.15779467
93	0xbd655998	-0.055993646
94	0xbda5ab8f	-0.08089363
95	0x3e13af17	0.1442226
96	0x3da57b99	0.08080215
97	0xbd8f77a8	-0.070052445
98	0xbc7716fe	-0.015081165
99	0x3dc545ce	0.09632455
100	0x3e212c39	0.15739526
101	0x3d938e8c	0.07204923
102	0xbced17b5	-0.028941968
103	0x3e009760	0.12557745
104	0xbe30210e	-0.1720011
105	0xbc8b0c88	-0.016973749
106	0x3ded2280	0.11578846
107	0x3e33827f	0.17530249
108	0xbe17ebdd	-0.14836068
109	0x3dc62e90	0.0967685
110	0x3dfd8f58	0.12380856
111	0x3e172e05	0.14763649
112	0xbd434913	-0.04767711
113	0x3dcee65f	0.101025335
114	0x3c75c2c6	0.015000051
115	0xbddf673a	-0.10908361
116	0xbe0f3c96	-0.13987955
117	0x3b69f467	0.0035698654
118	0xbdc3a7c4	-0.09553483
119	0xbe1b07cc	-0.15139693
120	0x3d9dca9b	0.077046596
121	0xbdb4f0dc	-0.08835003
122	0xbe34e2cb	-0.1766464
123	0xbd8dd7f9	-0.06925959
124	0x3e084b76	0.13310036
125	0x3cd1a9bf	0.025593637
126	0x3e389a7e	0.18027684
127	0x3d4eb6df	0.05046737
128	0x3de19d65	0.11016349
129	0x3cd7e409	0.026353853
130	0x3dee0ab6	0.11623137
131	0xbd3fe40c	-0.04684834
132	0xbe104b96	-0.14091334
133	0x3da3442f	0.07971989
134	0x3e078eae	0.13238022
135	0x3e3780fa	0.17920294
136	0x3e0f2a20	0.13980913
137	0xbe256616	-0.16152224
138	0xbc8ec0e0	-0.017425954
139	0xbe19984f	-0.14999507
140	0xbe1e622b	-0.15467136
141	0x3e18a981	0.1490841
142	0x3d3ba9d2	0.04581625
143	0xbdbb3e8f	-0.091427915
144	0x3e073d0f	0.13206886
145	0x3c909c36	0.017652612
146	0x3dbfc25f	0.09363245
147	0xbd223dab	-0.039609592
148	0x3e16bf38	0.14721382
149	0xbe20437b	-0.15650742
150	0x3cbb8737	0.022891624
151	0x3e413107	0.18866359
152	0x3d6629b2	0.056192107
153	0xbe37063e	-0.17873475
154	0x3ddddb8f	0.10832893
155	0x3e224fab	0.15850703
156	0xbe3bd624	-0.18343407
157	0xbcf64c86	-0.030065786
158	0xbda20d74	-0.07912722
159	0x3e26d03a	0.1629037
160	0xbe447f84	-0.19189268
161	0xbe1f5f1a	-0.15563622
162	0xbd46343c	-0.04838966
163	0xbc5b4d26	-0.013385093
164	0x3df8a679	0.12141127
165	0xbe13104a	-0.14361683
166	0x3de74f2f	0.112944
167	0x3e32314c	0.17401618
168	0x3ddffd43	0.10936978
169	0xbdc83a5d	-0.09776757
170	0xbca11188	-0.01966168
171	0x3d164110	0.036683142
172	0xbe03aa62	-0.12857965
173	0x3e1a65bc	0.15077871
174	0x3c880d06	0.016607773
175	0x3dd372bd	0.10324619
176	0xbe0a3626	-0.13497218
177	0x3c6da6cc	0.0145050995
178	0x3d6c5ba7	0.057704594
179	0xbd8779f2	-0.06615056
180	0x3dfaa0a0	0.12237668
181	0xbdc74fc3	-0.0973201
182	0xbdbd1631	-0.09232748
183	0xbe1ebcd5	-0.15501721
184	0xbe23e992	-0.16007069
185	0x3e1bc3fe	0.15211484
186	0xbd4234cf	-0.047413643
187	0xbe068606	-0.13137063
188	0xbd596dce	-0.053083234
189	0xbc991ab6	-0.018689495
190	0x3df9644a	0.12177332
191	0xbde5ed9e	-0.112269625
192	0x3bcac300	0.0061877966
193	0x3dfd7453	0.12375703
194	0xbd215b6f	-0.03939384
195	0xbceec5db	-0.02914708
196	0xbd5ce624	-0.053930417
197	0xbe1980bb	-0.14990513
198	0xbdcbbad9	-0.09947748
199	0xbe1b93a9	-0.15193047
200	0x3dae7f50	0.08520377
201	0xbe42a284	-0.19007307
202	0x3e20cb6b	0.15702598
203	0x3d970224	0.07373455
204	0xba4fae1f	-0.00079223694
205	0xbe17812d	-0.1479537
206	0xbc68929c	-0.014195111
207	0x3c947d70	0.01812622
208	0x3de8a4d6	0.11359565
209	0xbe0c9b8d	-0.13731213
210	0xbe32f9d0	-0.17478108
211	0xbd6c74c1	-0.057728533
212	0xbe01b4b0	-0.12666583
213	0x3e3763d8	0.17909181
214	0x3db59e45	0.08868078
215	0xbe117cf5	-0.14207824
216	0x3e3d48c0	0.18484783
217	0xbb65d624	-0.0035070265
218	0x3e37d07a	0.17950621
219	0x3e0b813e	0.1362352
220	0xbdbd289c	-0.09236261
221	0xbe0d6020	-0.138062
222	0x3bc61fb2	0.006046259
223	0x3ca2c310	0.019868404
224	0xbe2e48b2	-0.17019919
225	0x3e33c486	0.17555436
226	0x3d357204	0.044298187
227	0xbdc791cc	-0.097446054
228	0x3df5410f	0.119752996
229	0x3c84dd41	0.016218783
230	0xbbf10a6c	-0.0073559787
231	0x3d6e8763	0.058234584
232	0x3e3527cc	0.17690963
233	0xbbbd82c7	-0.005783412
234	0x3d72c3fa	0.05926893
235	0xbe3c4a9a	-0.18387833
236	0x3e044fec	0.12921113
237	0xbd9a134f	-0.07523214
238	0xbe15c5e5	-0.14626272
239	0xbde8c641	-0.11365939
240	0x3e00049f	0.12501763
241	0x3dbf2475	0.093331255
242	0xbdf8f4d9	-0.12156076
243	0xbd9d84c6	-0.0769134
244	0xbdab9dea	-0.08379729
245	0x3d11e78a	0.035621203
246	0xbe097837	-0.13424765
247	0xbe354f00	-0.17705917
248	0x3d779dd9	0.06045327
249	0xbdddbaa0	-0.108266115
250	0x3df233a0	0.11826253
251	0xbe12d8e8	-0.14340556
252	0x3d531304	0.051531807
253	0xbd058ad1	-0.03260309
254	0xbb4899fe	-0.0030609365
255	0x3db7c71b	0.08973523

fc1._model.0.bias f4 [24]
0	0xb98383b5	-0.00025084396
1	0xbab0b1ed	-0.001348076
2	0x3a768054	0.00094032777
3	0xba9cbfb4	-0.0011958987
4	0x3a8cf165	0.0010753094
5	0x3a9c8c95	0.0011943752
6	0x3a62d617	0.00086531177
7	0xba01bd2c	-0.0004949148
8	0x3a576cee	0.0008217831
9	0x396d8c01	0.00022654237
10	0xba95f895	-0.0011441881
11	0x3a43613d	0.00074531493
12	0xb8b029b5	-8.4001025e-05
13	0xb9e5f4f7	-0.00043860797
14	0xba7d7ec8	-0.0009670076
15	0x3a880c6b	0.0010379677
16	0xb9668d36	-0.00021987114
17	0xba9283e7	-0.0011178226
18	0x3a9aae0a	0.0011801135
19	0xba1a9394	-0.00058966246
20	0xb9b710b6	-0.0003491693
21	0xba201f49	-0.00061081775
22	0x3aa9d084	0.0012955819
23	0xb961b7fe	-0.00021526215

fc2._model.0.weight f4 [20, 48]
0	0x3e0b3c51	0.13597228
1	0x3e56d478	0.20979488
2	0x3d9f05ee	0.07764803
3	0x3e03f37c	0.1288585
4	0x3e93cd60	0.28867626
5	0xbe5875b0	-0.21138644
6	0xbe0b4fe8	-0.136047
7	0x3e0f8534	0.14015657
8	0xbdff03b0	-0.12451875
9	0xbdaabe57	-0.08337086
10	0x3e1745d7	0.14772736
11	0xbe3e4fd6	-0.18585142
12	0xbe91bb63	-0.28463277
13	0x3e43fb8f	0.1913893
14	0xbd1b005e	-0.037842147
15	0xbe880a92	-0.26570565
16	0xbe471472	-0.19441393
17	0x3d74f676	0.059805356
18	0x3e1456a7	0.1448618
19	0xbe045038	-0.12921226
20	0xbe8b8e54	-0.27257025
21	0x3bf8bd59	0.0075909314
22	0xbe851174	-0.25989878
23	0xbdb9eb31	-0.09078062
24	0x3dfc3194	0.12314144
25	0xbe13b4d0	-0.14424443
26	0xbd52bf4f	-0.051451977
27	0xbe10d09f	-0.14142083
28	0x3d1c6108	0.038178474
29	0x3e8ab76a	0.2709306
30	0xbc20a548	-0.009805031
31	0x3df5806a	0.11987384
32	0xbe8dc5b2	-0.27689892
33	0x3e8ea70c	0.27861822
34	0x3d03ae29	0.032148514
35	0x3e3d1071	0.18463303
36	0xbe5f38b7	-0.21798979
37	0x3d468a25	0.04847159
38	0x3cd45539	0.025919544
39	0xbe892428	-0.26785398
40	0xbe573d34	-0.21019441
41	0x3e0ed009	0.13946547
42	0x3e42a174	0.19006902
43	0xbe868b9f	-0.26278397
44	0x3e11787c	0.14206117
45	0x3d95388a	0.072861746
46	0x3e8d14b1	0.2755485
47	0xbde47f09	-0.111570425
48	0xbe97309d	-0.29529276
49	0x3e5d8920	0.2163434
50	0xbe781ee2	-0.24230531
51	0x3d5855f8	0.05281636
52	0xbd1fc148	-0.039002687
53	0x3d5cf670	0.05394596
54	0x3e7b4b30	0.245404
55	0xbe1c21ad	-0.15247221
56	0xbda66a20	-0.081257105
57	0x3e15fe32	0.14647749
58	0xbe3729e8	-0.1788708
59	0xbe2079ab	-0.15671413
60	0xbd361bd8	-0.044460148
61	0xbe7faeaa	-0.24968973
62	0x3e6d3d10	0.23167825
63	0x3e06f60c	0.13179797
64	0xbe82cc9b	-0.25546727
65	0x3bcda180	0.006275356
66	0xbd7b3680	-0.061331272
67	0x3e954f0a	0.29161865
68	0xbe061d3e	-0.13097093
69	0x3e6ebf14	0.23315078
70	0xbe6f6604	-0.2337876
71	0xbcb53620	-0.022120535
72	0xbe9156ec	-0.2838663
73	0x3e77707c	0.24164003
74	0xbd9261b6	-0.07147543
75	0xbc102880	-0.008798718
76	0x3e541914	0.20712692
77	0x3e5ee100	0.21765518
78	0x3e0edd14	0.13951522
79	0x3e17f4a8	0.14839423
80	0x3e372bd0	0.17887807
81	0xbe8e6fd2	-0.27819687
82	0xbe432ae7	-0.19059335
83	0x3e6aac78	0.22917354
84	0xbc2d9cc0	-0.010596454
85	0xbdacf830	-0.084457755
86	0xbe841d0e	-0.25803417
87	0x3e6c0894	0.23050147
88	0xbd71ddd8	-0.059049457
89	0xbe643448	-0.22285569
90	0xbe3a232c	-0.1817748
91	0xbc6b9720	-0.014379293
92	0xbcfbc9d0	-0.03073588
93	0xbe90eba8	-0.2830479
94	0xbd63e290	-0.05563599
95	0x3e2ee864	0.17080837
96	0x3e81a627	0.25322077
97	0x3da7a2d9	0.081853576
98	0x3e941fba	0.28930455
99	0xbe7f295e	-0.24918124
100	0xbe352345	-0.17689236
101	0x3d827bde	0.06371282
102	0xbe94a4fa	-0.29032117
103	0x3e386754	0.18008167
104	0x3e316e7d	0.17327304
105	0x3d3917b1	0.04518861
106	0x3e4ff7d3	0.20309381
107	0xbe54d162	-0.20782998
108	0x3e68545f	0.22688435
109	0xbe0b668c	-0.13613337
110	0xbe843aec	-0.25826204
111	0x3e3ff727	0.18746625
112	0x3dbc6636	0.09199183
113	0xbce65754	-0.028117813
114	0xbe813c33	-0.2524124
115	0xbd938acd	-0.072042085
116	0xbe78467d	-0.24245639
117	0xbe46fca8	-0.19432318
118	0xbe8b64fd	-0.27225485
119	0x3c97a94c	0.018513344
120	0x3da1e5aa	0.07905133
121	0xbe8c4788	-0.27398324
122	0x3e202b70	0.1564157
123	0xbdf3d1ff	-0.11905288
124	0xbd62b6a9	-0.05534998
125	0xbd326789	-0.04355577
126	0x3db0f804	0.08641055
127	0x3e693e1f	0.22777604
128	0xbe930db8	-0.28721404
129	0xbe8f453d	-0.27982512
130	0x3e8b6355	0.27224222
131	0x3e18b715	0.1491359
132	0x3c86cfc0	0.016456485
133	0x3e6bd329	0.2302977
134	0x3e209f89	0.15685858
135	0xbd6c7906	-0.057732604
136	0xbe505f28	-0.20348799
137	0xbd22c848	-0.039741784
138	0xbe83c20b	-0.2573398
139	0xbe6f1ad0	-0.23350072
140	0xbe6846ce	-0.2268326
141	0xbe3ada8b	-0.1824743
142	0xbddca398	-0.107733905
143	0x3d9288f3	0.07155027
144	0xbe308734	-0.17239076
145	0x3e963466	0.29336852
146	0x3e96e152	0.2946878
147	0xbe43b148	-0.19110596
148	0xbe6b0658	-0.22951639
149	0x3e342388	0.17591679
150	0xbe39d5bb	-0.18147938
151	0xbdd26056	-0.10272281
152	0xbe255309	-0.16144957
153	0x3e8d3c00	0.2758484
154	0xbe6ae1b5	-0.22937663
155	0x3e6ced54	0.23137408
156	0xbddf082a	-0.10890229
157	0x3e21f768	0.15817034
158	0x3e89a970	0.26887083
159	0x3e126328	0.14295638
160	0xbe280488	-0.16407979
161	0x3c275020	0.010211974
162	0x3d0c2630	0.034216106
163	0xbe8aa3bf	-0.27078053
164	0xbe59cddb	-0.21269934
165	0xbe1d4887	-0.15359698
166	0x3e4566c8	0.19277489
167	0xbe08f882	-0.13376048
168	0x3cfe1a60	0.031018436
169	0xbe8e3082	-0.27771384
170	0xbe29a700	-0.16567612
171	0xbd660c7c	-0.05616425
172	0xbd5b526c	-0.0535454
173	0xbdc3cd68	-0.095606625
174	0xbe24fff0	-0.16113257
175	0x3e026e6e	0.12737438
176	0xbe484664	-0.19558102
177	0x3e057668	0.1303345
178	0xbe868d03	-0.26279458
179	0xbba847c0	-0.0051355064
180	0x3e4cde1c	0.20006603
181	0xbe47adc8	-0.19499886
182	0x3e31cf40	0.17364216
183	0x3e55e288	0.20887196
184	0xbdcafc6c	-0.09911427
185	0xbe5c2916	-0.21500048
186	0xbe2e870b	-0.17043702
187	0xbe89885c	-0.26861846
188	0x3be6d840	0.007044822
189	0xbe6cac51	-0.23112608
190	0xbe3057be	-0.17220971
191	0x3e6be8d0	0.2303803
192	0xbc867740	-0.016414285
193	0xba6b0e00	-0.0008966625
194	0xbe73264c	-0.23745078
195	0x3e388cda	0.1802248
196	0xbe927618	-0.28605723
197	0xbc077920	-0.008268625
198	0xbe902776	-0.28155106
199	0x3e8b647c	0.272251
200	0xbe26e342	-0.1629763
201	0xbe70b5c8	-0.23506844
202	0xbde369a2	-0.11104132
203	0x3e215a4c	0.15757102
204	0xbdee905c	-0.11648628
205	0x3dcf2940	0.1011529
206	0xbd15bee0	-0.036558986
207	0x3e943252	0.2894464
208	0x3e8494ae	0.25894684
209	0xbe592f1d	-0.21209379
210	0x3e8c57b4	0.27410662
211	0x3cae2950	0.021259934
212	0x3d168d00	0.03675556
213	0xbe94296f	-0.2893786
214	0xbd61d72c	-0.055136845
215	0x3e64d5e8	0.22347224
216	0x3e89d53e	0.26920503
217	0x3e42162e	0.18953773
218	0xbe0454f4	-0.12923032
219	0x3dcc5018	0.09976214
220	0xbd8dcc26	-0.06923704
221	0xbe8a06be	-0.2695827
222	0x3e02f44a	0.12788501
223	0xbe885c5c	-0.26632965
224	0x3e04975e	0.12948367
225	0xbe682ca6	-0.22673282
226	0xbce2bd60	-0.027678192
227	0x3e90ab32	0.28255612
228	0x3dffb584	0.12485793
229	0xbe7f19fe	-0.24912259
230	0x3e5c7a84	0.21531111
231	0xbe640d2f	-0.22270654
232	0x3e7d5f3c	0.2474336
233	0x3d4f9578	0.050679654
234	0x3e162762	0.14663461
235	0xbe7af0ee	-0.2450597
236	0xbd2be4c8	-0.04196623
237	0xbe86ed0b	-0.26352724
238	0x3e866fd8	0.26257205
239	0x3e3a27d8	0.18179262
240	0x3e61cce8	0.22050822
241	0x3e3147b4	0.17312509
242	0x3e76e868	0.24112093
243	0xbe941547	-0.28922483
244	0xbca0d3d0	-0.01963225
245	0xbe189381	-0.14900018
246	0x3dd18cb0	0.10231912
247	0xbdbaa116	-0.09112756
248	0x3e2c5490	0.16829133
249	0x3e3bb5c0	0.18331051
250	0x3dac5af4	0.084157854
251	0xbe91c2a7	-0.2846882
252	0x3d0168c8	0.031594068
253	0x3d6b0d88	0.05738595
254	0xbe39ae13	-0.1813281
255	0xbd13d208	-0.036088973

fc2._model.0.bias f4 [20]
0	0x33a7211b	7.782565e-08
1	0x00000000	0.0
2	0xb88bf2ec	-6.673284e-05
3	0x00000000	0.0
4	0x8f39d50c	-9.1622356e-30
5	0x00000000	0.0
6	0x00000000	0.0
7	0x00000000	0.0
8	0x00000000	0.0
9	0x00000000	0.0
10	0x00000000	0.0
11	0x00000000	0.0
12	0x00000000	0.0
13	0xb3a6e1c4	-7.771044e-08
14	0x00000000	0.0
15	0xb999954b	-0.00029293666
16	0x00000000	0.0
17	0x39b25673	0.00034015215
18	0x00000000	0.0
19	0x9e3aca94	-9.88865e-21

fc3._model.0.weight f4 [64, 48]
0	0x3d82ee8a	0.06393154
1	0x3e3f6cdf	0.18693875
2	0x3e0aa4ed	0.13539477
3	0xbca2ab4a	-0.019857068
4	0x3dbca160	0.09210467
5	0xbe350578	-0.17677867
6	0x3dac0e95	0.08401219
7	0x3d2fee33	0.042951774
8	0x3d0ca5d2	0.034337826
9	0x3d4ba5c3	0.04971863
10	0x3dc4a14f	0.0960108
11	0x3d1de2bd	0.038546313
12	0x3d104ec0	0.03523135
13	0xbc9f57aa	-0.019450981
14	0xbe159e88	-0.14611256
15	0xbe275245	-0.16339977
16	0xbdf4e71e	-0.119581446
17	0xbd56a63f	-0.05240464
18	0xbdf55180	-0.119784355
19	0x3e2383c4	0.15968233
20	0xbe4c9bb3	-0.1998127
21	0x3e1fcfe5	0.15606649
22	0x3df7fa58	0.12108296
23	0x3e43a5e5	0.19106252
24	0x3d87056c	0.06592831
25	0x3e5bcb7a	0.21464339
26	0xbe4c4ddb	-0.19951575
27	0x3e08b6f3	0.1335104
28	0x3e671ea2	0.22570279
29	0xbc41ea97	-0.011835716
30	0x3e1e7e66	0.15477905
31	0x3de654bc	0.112466305
32	0xbe5b87b5	-0.21438487
33	0x3e11899a	0.14212647
34	0xbc8ed83c	-0.017437093
35	0xbd7355c9	-0.059407983
36	0x3cce59d0	0.02518931
37	0x3da8f29e	0.082494006
38	0x3c630ffb	0.0138587905
39	0xbe2cda76	-0.16880211
40	0x3dce4cc0	0.10073233
41	0x3e327b28	0.17429793
42	0xbc0ca252	-0.008583622
43	0x3e6dd7d8	0.23226869
44	0x3e37c051	0.17944457
45	0xbce9b173	-0.028526997
46	0x3ac33309	0.0014892529
47	0x3ba07837	0.004897143
48	0xb9f550f8	-0.00046790368
49	0xbdab0ba3	-0.08351829
50	0x3e1e4f24	0.15459877
51	0x3cab6f0f	0.02092698
52	0x3d3ce6d5	0.046118576
53	0x3d9e6004	0.07733157
54	0x3e220673	0.15822773
55	0xbe22ba77	-0.15891443
56	0xbe27fa6f	-0.16404127
57	0x3ca58efa	0.020209778
58	0x3d656e4c	0.05601339
59	0x3e0ea8b8	0.13931549
60	0x3e52a2c5	0.20569904
61	0xbc573d96	-0.013137242
62	0x3ddd4d63	0.10805776
63	0x3d789aa2	0.060694344
64	0xbcd59c76	-0.026075583
65	0x3cb68c81	0.022283794
66	0x3e2d6f5a	0.16937009
67	0xbe1f9d54	-0.1558736
68	0xbdf5be91	-0.11999238
69	0xbdcffc86	-0.10155587
70	0xbd3a44f8	-0.04547593
71	0xbe58691f	-0.2113385
72	0x3c2cec0b	0.010554324
73	0xbe521d90	-0.2051909
74	0x3dbfe0ff	0.093690865
75	0xbdcde26b	-0.100529514
76	0x3d80581a	0.06266804
77	0x3e0de34b	0.13856237
78	0xbdb1d403	-0.08683016
79	0x3d360fda	0.04444871
80	0xbdfe27c2	-0.12409927
81	0xbda96619	-0.08271427
82	0xbd6fd98b	-0.058557075
83	0x3e3336dc	0.17501396
84	0x3d03891a	0.032113172
85	0x3d23c36c	0.03998129
86	0x3d794c91	0.060864035
87	0xbdb033ef	-0.086036555
88	0xbe3cdefc	-0.18444437
89	0xbe13cf50	-0.14434552
90	0x3d33913f	0.04383969
91	0xbe5ffe4f	-0.21874355
92	0x3e5301c7	0.20606147
93	0xbd849e0f	-0.0647546
94	0x3e1f4c1c	0.15556377
95	0x3e0eabbf	0.13932703
96	0xbd1fe130	-0.039033115
97	0xbe204f4a	-0.15655246
98	0x3db934f6	0.090433046
99	0x3e417c08	0.1889497
100	0xbe12fe6c	-0.14354867
101	0x3e3db202	0.18524936
102	0xbd565ee8	-0.052336603
103	0xbe6a44ad	-0.2287776
104	0x3e12bc47	0.14329635
105	0xbe4e4614	-0.2014392
106	0x3e4b5489	0.19856466
107	0x3d86f01e	0.065887675
108	0x3c7e1cd2	0.015509801
109	0x3e30c35b	0.17262022
110	0xbcb25b04	-0.021771915
111	0xbe286927	-0.16446362
112	0xbd60ff4b	-0.054930966
113	0xbe510d1d	-0.20415159
114	0xbe16125d	-0.14655443
115	0x3e463d83	0.19359402
116	0x3a2de65d	0.0006633753
117	0x3e531d09	0.20616545
118	0x3dab0368	0.08350259
119	0xbe2ba107	-0.16760646
120	0xbcb08f42	-0.021552686
121	0xbd3df1ed	-0.046373297
122	0xbd2faa0e	-0.042886786
123	0x3e0b1668	0.13582766
124	0xbdb800e7	-0.08984547
125	0xbe63f547	-0.22261535
126	0xbd6879ac	-0.05675666
127	0xbc323edf	-0.010879247
128	0xbdb4259d	-0.08796237
129	0xbe31d06f	-0.17364667
130	0xbe1ed3d6	-0.15510496
131	0xbd95eae2	-0.07320191
132	0x3d7ddacf	0.06197625
133	0xbe221989	-0.15830053
134	0x3d9903d1	0.07471431
135	0x3bacccb4	0.005273426
136	0x3e4eac80	0.20182991
137	0x3e02a067	0.12756501
138	0xbd9f2be3	-0.077720426
139	0xbda3aeac	-0.079923004
140	0x3e4bdfb2	0.19909552
141	0x3e3ae419	0.18251075
142	0xbdc40969	-0.09572107
143	0x3e4b34d8	0.19844377
144	0x3d636667	0.05551758
145	0xbd2afe1c	-0.041746244
146	0xbdf30e02	-0.11867906
147	0xbe072151	-0.13196303
148	0xbdf62e85	-0.12020592
149	0x3e2b3d8e	0.167227
150	0xbe2747f9	-0.16336049
151	0x3d1f1e15	0.038847048
152	0xbe1a2f93	-0.1505721
153	0x3e1bfb5e	0.15232608
154	0xbe38536f	-0.18000577
155	0x3d04f972	0.032464452
156	0x3e5871ec	0.21137208
157	0xbd1b79c7	-0.037957933
158	0xbe625696	-0.22103342
159	0xbe66fb7f	-0.22556876
160	0x3dd81ddd	0.10552571
161	0xbda31809	-0.07963569
162	0x3e2184a7	0.15773259
163	0x3e49443e	0.19654939
164	0x3d637601	0.05553246
165	0x3dff41af	0.124637
166	0x3e56f502	0.209919
167	0x3d4e0830	0.050300777
168	0xbdd4e549	-0.10395295
169	0x3dfd1f2a	0.1235946
170	0x3e468bc6	0.19389257
171	0xbd09411f	-0.03350937
172	0xbcb4cbca	-0.02206983
173	0xbdb7a9ce	-0.089679345
174	0x3e0ea1da	0.13928929
175	0xbe0d3e75	-0.13793357
176	0xbdd6977d	-0.10478113
177	0xbd7d0e90	-0.061781466
178	0xbbc74aca	-0.0060819136
179	0x3e4c288d	0.19937344
180	0x3dc814cf	0.09769594
181	0xbe3ec2e8	-0.18629038
182	0xbe5a41b7	-0.2131413
183	0x3e2d64e8	0.16933024
184	0x3e058e0b	0.13042466
185	0xbe4f79da	-0.20261326
186	0xbd609cc7	-0.054837015
187	0xbc897964	-0.016781516
188	0x3d07baff	0.033137318
189	0x3c9a1725	0.018809864
190	0x3dd0c73a	0.101942495
191	0x3da4791e	0.08030914
192	0xbe61dd09	-0.22056974
193	0x3bf4a0b6	0.0074654473
194	0xbe51a2ab	-0.20472209
195	0xbd7b024f	-0.0612815
196	0xbd015199	-0.03157196
197	0x3db7a099	0.089661784
198	0xbdefae39	-0.11703152
199	0x3d7d1cfb	0.061795216
200	0x3e5057c7	0.20345984
201	0xbddb2af2	-0.107015505
202	0x3cc0b180	0.023522139
203	0xbe2e5663	-0.17025141
204	0x3e45fd97	0.19335018
205	0xbddb471c	-0.107069224
206	0xbe099354	-0.13435107
207	0x3c6ce61d	0.01445916
208	0xbb8d1f71	-0.0043067266
209	0x3e2bc949	0.16776003
210	0x3c85ba9e	0.016324338
211	0xbe3f1cd5	-0.18663342
212	0x3e5c85f5	0.21535476
213	0xbe05caef	-0.13065694
214	0xbe203a74	-0.15647298
215	0x3da5b26b	0.08090671
216	0xbdd2b30b	-0.10288056
217	0xbe279e9d	-0.163691
218	0x3c89fe85	0.016844997
219	0xbe245a23	-0.1605001
220	0xbe5da5b4	-0.21645242
221	0xbe2fa24b	-0.17151754
222	0x3e2995a4	0.1656099
223	0xbd94e0f1	-0.07269467
224	0xbe23df99	-0.16003264
225	0xbd93f9b2	-0.0722536
226	0x3df87f66	0.12133674
227	0xbe52286b	-0.2052323
228	0x3e5b141d	0.21394391
229	0x3dbb3759	0.09141416
230	0x3e2849cf	0.16434406
231	0xbe66536e	-0.22492763
232	0x3d2eeaf9	0.042704556
233	0xbe3a69b4	-0.18204385
234	0x3e62fa07	0.2216569
235	0x3e1d676c	0.15371484
236	0x3e4f390d	0.20236607
237	0x3e046eb3	0.12932853
238	0xbcbaab13	-0.022786653
239	0x3da44ea5	0.08022813
240	0x3d7537bf	0.059867617
241	0x3e22997a	0.15878859
242	0x3e2c8926	0.16849193
243	0x3ccd97ee	0.02509686
244	0xbe2e9813	-0.17050199
245	0x3e035897	0.12826763
246	0xbe2837c5	-0.16427524
247	0x3e63521b	0.2219929
248	0x3e22ff7e	0.15917775
249	0xbe53b868	-0.20675814
250	0x3df44c7e	0.11928652
251	0xbe5b9a02	-0.21445468
252	0xbe5ca5a7	-0.21547566
253	0xbdd2da54	-0.10295549
254	0xbe6b40f9	-0.22974004
255	0x3d92c5c5	0.07166628

fc3._model.0.bias f4 [64]
0	0x3ab3c672	0.0013715758
1	0xbab3cb99	-0.0013717293
2	0x3ab3d356	0.0013719599
3	0x3ab3c4e2	0.0013715292
4	0xbab31b2a	-0.0013664712
5	0x3ab3d693	0.0013720564
6	0xbab3d2ea	-0.0013719473
7	0x3ab3df82	0.0013723227
8	0x3ab3be0a	0.0013713252
9	0xbab3b945	-0.0013711831
10	0x3ab3d979	0.0013721428
11	0x3ab3d87a	0.0013721131
12	0x3ab2ea4f	0.0013650152
13	0x3ab3c2f6	0.0013714719
14	0x3ab3d49f	0.0013719982
15	0x3ab3f148	0.0013728524
16	0xbab3c55c	-0.0013715434
17	0x3ab3dabb	0.0013721803
18	0xbab3ee30	-0.0013727602
19	0xbab3d996	-0.0013721462
20	0xbab3c66a	-0.0013715748
21	0x3ab3c832	0.0013716279
22	0x3ab3c3e0	0.0013714992
23	0xbab3d521	-0.0013720134
24	0xbab3e1aa	-0.0013723869
25	0x3ab3df07	0.0013723084
26	0x3ab37c18	0.0013693599
27	0x3ab3e121	0.001372371
28	0xbab3bf72	-0.0013713671
29	0xbab3c8a0	-0.0013716407
30	0xbab3cf59	-0.0013718411
31	0xbab3bc98	-0.0013712822
32	0x3ab3da02	0.0013721588
33	0xbab3cd42	-0.0013717788
34	0xbab3df94	-0.0013723248
35	0x3ab3dd7c	0.0013722624
36	0xbab3e083	-0.0013723526
37	0xbab3e0b2	-0.0013723581
38	0xbab3ba3d	-0.001371212
39	0x3ab3d7ac	0.0013720891
40	0x3ab32410	0.0013667364
41	0xbab3e2fe	-0.0013724265
42	0x3ab3cd54	0.0013717809
43	0x3ab3c10d	0.001371415
44	0xbab3da3f	-0.0013721659
45	0xbab3df1a	-0.0013723106
46	0xbab3bfc6	-0.0013713769
47	0x3ab3d970	0.0013721418
48	0xbab3e33f	-0.0013724341
49	0x3ab3c694	0.0013715797
50	0xbab3e5e7	-0.0013725132
51	0xbab3d07c	-0.0013718749
52	0xbab3de1f	-0.0013722813
53	0xbaaba267	-0.0013094664
54	0xbab3d6b8	-0.0013720607
55	0x3ab3bada	0.0013712302
56	0xbab3e2f3	-0.0013724252
57	0xbab32404	-0.001366735
58	0xbab3c669	-0.0013715747
59	0x3ab3d55a	0.00137202
60	0x3ab41713	0.0013739787
61	0x3ab3c2d9	0.0013714685
62	0x3ab3867e	0.0013696698
63	0x3ab3b83b	0.0013711521

fc4._model.0.weight f4 [1, 64]
0	0x3cd101e3	0.025513595
1	0xbdd74b9b	-0.105124675
2	0x3db2041f	0.08692192
3	0x3e2e155e	0.17000338
4	0xbcbc8220	-0.023011267
5	0x3e424f98	0.18975675
6	0xbdc62d83	-0.096766494
7	0x3e65d5a6	0.22444782
8	0x3e5047c7	0.20339881
9	0xbdc24138	-0.09485096
10	0x3e8e8b4c	0.2784065
11	0x3e8a3167	0.26990816
12	0x3c9b2a73	0.01894114
13	0x3e82aec6	0.25523967
14	0x3e00142d	0.12507696
15	0x3cbe53d8	0.02323334
16	0xbe147c41	-0.14500524
17	0x3d9cc245	0.076542415
18	0xbdff8ed8	-0.12478417
19	0xbd5deaaf	-0.05417889
20	0xbe28232d	-0.16419668
21	0x3e411fe3	0.1885982
22	0x3e6196cf	0.22030185
23	0xbe561256	-0.20905432
24	0xbe682cf7	-0.22673403
25	0x3e72bfff	0.23706053
26	0x3c347d79	0.011016243
27	0x3e1ce6eb	0.15322463
28	0xbdc032c2	-0.09384681
29	0xbe7eea31	-0.24894024
30	0xbe1c7f94	-0.15283042
31	0xbe16ca69	-0.14725651
32	0x3d643563	0.055714976
33	0xbe8c129e	-0.27357954
34	0xbe869adb	-0.2629002
35	0x3e630ca7	0.22172795
36	0xbe60afaa	-0.2194201
37	0xbe0bbb19	-0.13645591
38	0xbd648cb5	-0.05579825
39	0x3db6bd0f	0.08922779
40	0x3b7ac6aa	0.0038265386
41	0xbe65f29a	-0.22455826
42	0x3e94f4ab	0.29092917
43	0x3e0ed016	0.13946566
44	0xbdd3c1d1	-0.10339702
45	0xbe3ea7ae	-0.18618652
46	0xbe258f74	-0.16168004
47	0x3dc9f6be	0.098615155
48	0xbd80f98a	-0.06297596
49	0x3e6b31e3	0.22968249
50	0xbe9c4c96	-0.3052718
51	0xbe8e4c7f	-0.27792737
52	0xbe280a6e	-0.16410229
53	0xba44159c	-0.00074800267
54	0xbe9889d2	-0.2979265
55	0x3dbb9901	0.091600426
56	0xbddfe0f1	-0.10931576
57	0xbcf31c70	-0.029676646
58	0xbe3ae580	-0.1825161
59	0x3e93e5c8	0.28886247
60	0x3d5f1854	0.05446656
61	0x3d99c8f5	0.07509033
62	0x3d73222f	0.059358772
63	0x3e1d82f5	0.15381987
