example/cloudManufacturing/rl/phase2/ckpts/policy-model-weight-array.global-step-4000.pth (torch_old, 31923 bytes, 7 tensors)

fc1._model.0.weight f4 [24, 141]
0	0x3d85fa07	0.065418296
1	0xbdbccdee	-0.092189655
2	0x3d00a9f7	0.03141209
3	0xbd19585a	-0.037437774
4	0x3e3ccd80	0.18437767
5	0x3de23b37	0.110464506
6	0x3e3cae09	0.18425764
7	0x3c873c0f	0.01650813
8	0xbd99143c	-0.074745625
9	0x3dc23881	0.094834335
10	0xbe2be7c2	-0.16787627
11	0xbe17de24	-0.14830834
12	0x3e40d971	0.18832947
13	0xbe38d6a0	-0.18050623
14	0xbd9ef244	-0.07761052
15	0x3d80168a	0.06254299
16	0x3d104496	0.03522166
17	0x3e30ae10	0.172539
18	0xbd19e362	-0.037570365
19	0x3dbc789a	0.092026904
20	0xbdda45ab	-0.10657819
21	0xbdb0ac2b	-0.086265884
22	0x3e1e0591	0.15431811
23	0x3e008897	0.12552105
24	0xbdbc79af	-0.09202897
25	0x3dfff7f4	0.12498465
26	0xb9de49ac	-0.0004239803
27	0x3da02e18	0.07821292
28	0x3e3a6788	0.18203557
29	0x3cd15ea8	0.02555783
30	0x3de862f4	0.11346999
31	0xbe3702cf	-0.17872165
32	0x3d81f0bd	0.06344745
33	0x3cb4f305	0.022088537
34	0x3e2189d4	0.15775234
35	0x3e08b205	0.13349159
36	0x3d9759bc	0.07390162
37	0x3dd3f7f4	0.10350028
38	0xbce17d3e	-0.02752554
39	0xbd607399	-0.054797743
40	0xbbf9902e	-0.0076160645
41	0x3b132b1e	0.002245612
42	0xbcb7ece4	-0.022451825
43	0xbc29374f	-0.010328128
44	0xbd5c66df	-0.053809043
45	0xbe12ea91	-0.14347292
46	0xbe053f4f	-0.13012432
47	0x3e1b34a9	0.15156807
48	0x3daf4915	0.08558861
49	0x3e1cf530	0.15327907
50	0xbdf3a408	-0.11896521
51	0x3e1f7a1c	0.15573925
52	0x3e2d4bc1	0.16923429
53	0x3dfb787d	0.12278841
54	0x3e2513ed	0.16120882
55	0xbe1c2998	-0.15250242
56	0x3e1a61c2	0.15076354
57	0x38964117	7.164681e-05
58	0xbd1a5da1	-0.037686948
59	0x3e17acf7	0.14812075
60	0x3e233225	0.15937097
61	0xbda9d0a1	-0.08291746
62	0xbdc4fcac	-0.09618506
63	0x3d4b26d9	0.049597595
64	0xbdf0bf57	-0.11755245
65	0xbc019be0	-0.007910699
66	0xbe297c02	-0.16551211
67	0x3e3180d8	0.17334306
68	0xbda4a772	-0.0803975
69	0xbd905ad3	-0.07048573
70	0xbdb00cd9	-0.085962005
71	0xbcf096cd	-0.029368782
72	0xbe27569e	-0.16341636
73	0x3ccc735e	0.024957355
74	0x3ce8d7be	0.028423186
75	0x3b8636b6	0.0040958775
76	0x3e1e4064	0.1545425
77	0xbd122144	-0.035676256
78	0xbcffb66d	-0.031214917
79	0xbd4300d4	-0.04760821
80	0xbe27e6ad	-0.1639659
81	0xbd9a9d34	-0.07549515
82	0x3e29ad2c	0.16569966
83	0xbd29ce5e	-0.041456573
84	0xbe0d6e65	-0.13811643
85	0xbd87bca5	-0.06627778
86	0x3d3968c5	0.04526593
87	0xbb5519a6	-0.0032516508
88	0x3e40a3c1	0.18812467
89	0x3d446d1f	0.04795563
90	0x3e14839a	0.14503327
91	0x3d83b9ff	0.0643196
92	0xbaf06a08	-0.0018342147
93	0x3dacb641	0.084332
94	0xbe37f6cc	-0.1796524
95	0x3e219894	0.1578086
96	0x3d9ba900	0.076005936
97	0x3d8a9566	0.06766777
98	0x3e240ac6	0.16019735
99	0x3df411ad	0.11917434
100	0xbe21dcdc	-0.15806907
101	0xbd08b72a	-0.033377804
102	0x3cc144d1	0.023592385
103	0xbc8425a6	-0.016131233
104	0x3d929106	0.07156567
105	0x3d3f3c76	0.04668852
106	0xbe29cadc	-0.16581291
107	0xbe07216c	-0.13196343
108	0x3e3deeff	0.18548201
109	0xbd02c164	-0.031922713
110	0x3e08bc4c	0.1335308
111	0xbde5594a	-0.11198671
112	0x3e10f5d7	0.1415628
113	0x3e14595e	0.14487216
114	0xbda5cf78	-0.08096212
115	0x3e0e9b17	0.1392635
116	0x3db136aa	0.086530045
117	0xbe3aa8c2	-0.18228438
118	0xbdee5215	-0.1163675
119	0x3e19ef5a	0.15032712
120	0x3e390bf3	0.18070965
121	0xbe3ed88e	-0.18637297
122	0xbd92e54a	-0.0717264
123	0xbdfb57c6	-0.12272601
124	0x3e0b58b6	0.1360806
125	0xbe091ba4	-0.1338945
126	0xbd7bc2f7	-0.06146523
127	0x3e2e1889	0.17001547
128	0x3e1b3af2	0.15159205
129	0xbe0fe99d	-0.1405396
130	0xbdbc1766	-0.091841504
131	0xbe3931b7	-0.18085371
132	0xbe1bac92	-0.15202549
133	0xbc17d310	-0.00926663
134	0xbe4358c2	-0.19076827
135	0x3d1e980b	0.03871922
136	0xbcd43893	-0.025905883
137	0xbe1cf152	-0.15326431
138	0x3d843b9a	0.064566806
139	0xbd516b67	-0.051127817
140	0xbd8c1f03	-0.068418525
141	0xbe33b2bb	-0.17548649
142	0x3db28228	0.087162316
143	0x3d8bc76f	0.06825148
144	0xbdd54fbb	-0.10415598
145	0x3dd321d3	0.10309186
146	0xbe0844aa	-0.13307443
147	0xbe3f71ef	-0.18695806
148	0xbc80948e	-0.015695836
149	0x3d27b2ea	0.04094211
150	0x3e284dcb	0.16435926
151	0x3d2df8ca	0.042473592
152	0xbe0e1006	-0.138733
153	0x3df29458	0.118447006
154	0xbe01920d	-0.1265337
155	0x3e400b29	0.18754257
156	0x3e08d34b	0.13361852
157	0x3d4d1bc0	0.050075293
158	0x3e1c18e3	0.15243869
159	0xbd23fdb8	-0.040036887
160	0x3dc90e6e	0.09817205
161	0x3d52a3fd	0.051425923
162	0x3dc5dc33	0.0966114
163	0x3cf66281	0.030076267
164	0x3e26de0b	0.1629564
165	0x3e3b0b95	0.18266137
166	0xbdcffcd7	-0.10155647
167	0xbe0f4c0d	-0.13993855
168	0xbd51be0e	-0.05120664
169	0x3de0d6ac	0.109784454
170	0x3d8b6b1a	0.068075374
171	0xbd1fa5d3	-0.0389765
172	0x3de5e01e	0.112243876
173	0xbe4023a9	-0.18763603
174	0x3d8db471	0.06919182
175	0x3e0c0a09	0.13675703
176	0x3dfbcd26	0.12294988
177	0x3e3ac4cb	0.18239133
178	0xbe1a4c3e	-0.15068147
179	0xbe006b78	-0.12540996
180	0x3dbab827	0.091171555
181	0xbd9807a3	-0.074233316
182	0xbc503444	-0.012707774
183	0xbcdf02c1	-0.027222993
184	0xbd750584	-0.059819713
185	0xbd501b0f	-0.050807055
186	0xbdca7de4	-0.09887293
187	0xbe02df5b	-0.12780516
188	0xbd8ea203	-0.06964495
189	0x3d80d106	0.06289868
190	0x3dfce75a	0.12348814
191	0xbdb47849	-0.08812005
192	0x3d36d21d	0.044633973
193	0x3d1fbf0f	0.039000567
194	0x3d3a6ce9	0.04551402
195	0x3d0f1850	0.034935296
196	0x3e38bf01	0.18041612
197	0xbdfefa80	-0.12450123
198	0x3e188a52	0.14896515
199	0xbdc389c1	-0.09547759
200	0xbd4c6626	-0.049902104
201	0x3c1bd428	0.009511031
202	0xbd402a29	-0.046915207
203	0x3e221068	0.15826571
204	0x3e1d7df2	0.15380076
205	0xbd108be3	-0.035289656
206	0x3da84b2a	0.082174614
207	0x3db277a0	0.08714223
208	0xbe0d3fa0	-0.13793802
209	0x3b8c31ee	0.004278413
210	0x3db4d49c	0.088296145
211	0x3df7ec53	0.12105622
212	0xbd03b316	-0.03215321
213	0xbb755e99	-0.0037440418
214	0xbdbda25d	-0.09259484
215	0xbe02f246	-0.12787732
216	0x3dfe7d1b	0.12426206
217	0xbd9ce135	-0.07660142
218	0xbdb1002f	-0.08642613
219	0x3df9f1e2	0.122043386
220	0xbdb14b43	-0.08656933
221	0xbdcbbdce	-0.09948312
222	0x3dc6bbed	0.09703813
223	0x3df5ebf8	0.12007898
224	0xbe38de2e	-0.18053505
225	0x3d3095f1	0.043111745
226	0xbc888b7f	-0.01666808
227	0xbdfde77c	-0.12397668
228	0x3cddb751	0.027064951
229	0xbcb71c96	-0.022352498
230	0x3dd34685	0.10316185
231	0x3d11f6b0	0.03563565
232	0x3d93da09	0.07219321
233	0x3c9b9a40	0.01899445
234	0x3d455fc8	0.048187047
235	0x3dfb0350	0.12256491
236	0x3d85ce69	0.0653351
237	0xbdf6f553	-0.12058511
238	0xbd726f21	-0.059188012
239	0xbda9a563	-0.08283498
240	0x3e2f0d50	0.17094922
241	0xbc6eba33	-0.014570761
242	0x3e3b4b96	0.18290552
243	0x3dbca47c	0.092110604
244	0xbdffd29c	-0.124913424
245	0x3dc9ee76	0.09859936
246	0xbe150b54	-0.14555103
247	0x3cf1d69a	0.029521275
248	0xbe2a0582	-0.16603664
249	0xbded03f1	-0.115730174
250	0x3dd35779	0.103194185
251	0x3e211b59	0.15733089
252	0x3e073c40	0.13206577
253	0x3cced699	0.025248813
254	0x3d179038	0.037002772
255	0x3df5111c	0.11966154

fc1._model.0.bias f4 [24]
0	0xba13b23a	-0.0005634163
1	0x3a0fe983	0.0005489813
2	0x3943062b	0.00018598947
3	0x3a05ac5e	0.0005099232
4	0xba4f3987	-0.00079049956
5	0x3a0678ab	0.0005129675
6	0x3a4b98c0	0.0007766597
7	0x3a49fad3	0.0007704917
8	0x39b4b019	0.00034463478
9	0x3a44c0a5	0.0007505513
10	0x39d934f3	0.00041428916
11	0xba1a4066	-0.000588423
12	0x3a4afa30	0.00077429693
13	0x3a383507	0.00070269447
14	0xba45bba1	-0.00075429125
15	0x39eb5c44	0.00044891436
16	0x39f80a9e	0.00047310157
17	0x3a632bc5	0.0008665885
18	0x3a4c9e9d	0.00078056176
19	0xba0e3936	-0.0005425395
20	0x3a3d8f77	0.0007231156
21	0xba727fa4	-0.00092505873
22	0x3a04ed2d	0.00050707423
23	0xb95afda9	-0.00020884596

fc2._model.0.weight f4 [20, 48]
0	0x3e603ced	0.21898241
1	0x3e89ef52	0.269404
2	0x3e9519d3	0.29121265
3	0xbe9185ea	-0.2842248
4	0x3dee48b3	0.1163496
5	0xbddf8a1e	-0.10915016
6	0xbe3054fe	-0.17219922
7	0xbe7e8087	-0.24853717
8	0xbe38fdd0	-0.18065572
9	0xbe89dbb7	-0.26925442
10	0xbdd510be	-0.10403584
11	0xbc8d7401	-0.017267229
12	0xbdb5f69a	-0.08884926
13	0xbd549e8b	-0.05190901
14	0xbe848176	-0.2588002
15	0xbe8fa8dc	-0.28058517
16	0x3dc7affa	0.09750362
17	0x3e1b0af1	0.15140893
18	0x3bd647f6	0.00653934
19	0x3e18f127	0.14935742
20	0xbe59bde2	-0.21263841
21	0xbd48f37d	-0.049060334
22	0xbe45b528	-0.19307387
23	0xbd94090e	-0.072282895
24	0x3dc2466f	0.094860904
25	0x3df410cf	0.119172685
26	0x3e2d2e3d	0.1691217
27	0x3e080809	0.13284315
28	0x3be180fb	0.0068818307
29	0x3e79f13d	0.24408431
30	0xbe70f907	-0.23532496
31	0x3e01efed	0.1268918
32	0x3e944f1b	0.28966603
33	0xbd9d00f0	-0.076661944
34	0x3df5b0ef	0.11996638
35	0x3cb96f2b	0.022636017
36	0xbdc1b59a	-0.09458466
37	0x3d20e805	0.03928377
38	0x3c970fc7	0.01844014
39	0xbda62982	-0.08113386
40	0x3e458a54	0.19291049
41	0xbc18455e	-0.009293882
42	0xbe67343e	-0.22578523
43	0xbe931ee7	-0.28734514
44	0xbe07ab67	-0.13248979
45	0x3e30dcb4	0.17271692
46	0x3d9181eb	0.07104858
47	0x3e250f63	0.16119151
48	0xbda1dccb	-0.07903441
49	0xbc20f69a	-0.009824419
50	0xbda595e8	-0.08085233
51	0xbd5ac152	-0.05340702
52	0xbe3c089c	-0.18362659
53	0x3e2dbabe	0.16965768
54	0xbe35d77c	-0.17757982
55	0x3d40a5fc	0.047033295
56	0xbe7bfc9a	-0.24608079
57	0x3d9051ae	0.07046829
58	0x3dd7c0fd	0.105348565
59	0x3e852164	0.26002038
60	0xbe627bc3	-0.22117524
61	0xbe5dcdc3	-0.21660523
62	0x3e107b3a	0.14109507
63	0xbe1d2a7b	-0.15348236
64	0xbd564fda	-0.052322246
65	0xbe6fd5e8	-0.23421443
66	0x3d874e96	0.06606786
67	0xbe8f30bb	-0.27966866
68	0xbe888f17	-0.2667167
69	0x3e5c9321	0.215405
70	0x3cf9b22e	0.03048047
71	0xbd467f89	-0.04846147
72	0xbe6cd818	-0.23129308
73	0xbe685499	-0.22688521
74	0xbe1bb98c	-0.152075
75	0x3e44156e	0.191488
76	0xbe440269	-0.19141544
77	0xbe7ba520	-0.24574709
78	0x3e906973	0.2820545
79	0xbdafba91	-0.085805066
80	0x3e896238	0.26832747
81	0x3e2d12ac	0.16901654
82	0x3d477027	0.04869094
83	0xbe3cf759	-0.1845373
84	0x3e64b690	0.22335267
85	0xbd0b9544	-0.034077898
86	0x3e4547fc	0.19265741
87	0x3dc12405	0.09430698
88	0x3e4c0940	0.19925404
89	0xbdc20342	-0.09473278
90	0xbda48304	-0.08032802
91	0xbdb37e54	-0.087643296
92	0xbe2c409c	-0.16821522
93	0x3e8547ca	0.26031333
94	0x3e85d069	0.26135567
95	0x3e195b17	0.14976154
96	0xbe5557e4	-0.20834309
97	0x3e459ad6	0.19297346
98	0xbd04a2ee	-0.032381944
99	0xbdb22e9f	-0.087002985
100	0x3d986415	0.07440964
101	0xbd699a93	-0.05703218
102	0xbe6eb6ae	-0.23311874
103	0xba34de7f	-0.00068996096
104	0x3e8d2f76	0.27575272
105	0xbe80b0a5	-0.2513477
106	0x3d5eef6d	0.054427553
107	0xbdc4c394	-0.09607616
108	0x3ce971d8	0.028496668
109	0x3e6ac0b6	0.22925076
110	0x3c10cf79	0.008838528
111	0x3e1f178f	0.1553633
112	0x3df168a4	0.11787537
113	0xbe864849	-0.26227024
114	0x3e802e09	0.25035122
115	0xbd805c06	-0.06267552
116	0x3e87d258	0.26527667
117	0xbdcfdc7f	-0.10149478
118	0xbe52e87d	-0.205965
119	0x3e6d4531	0.23170926
120	0xbe492992	-0.19644764
121	0x3e808e8a	0.2510875
122	0x3deaa7e9	0.114578076
123	0xbe8f1db2	-0.27952343
124	0xbdfc6ffb	-0.12326046
125	0x3e400f7a	0.18755904
126	0x3e1bc415	0.15211518
127	0x3e1639b4	0.1467045
128	0x3df7306f	0.12069785
129	0x3e558f85	0.2085553
130	0xbc73a3c9	-0.014870592
131	0xbe24d884	-0.16098219
132	0xbd9fed63	-0.0780895
133	0x3d509641	0.050924543
134	0x3e0d360f	0.13790153
135	0xbe901d11	-0.28147176
136	0xbe781881	-0.24228097
137	0xbe22d177	-0.15900217
138	0xbc8b05da	-0.016970564
139	0x3e846fcf	0.25866553
140	0x3d80c1b8	0.06286949
141	0x3e8843e4	0.26614296
142	0xbe973c94	-0.29538405
143	0xbe46302e	-0.19354317
144	0xbe495240	-0.19660282
145	0x3da215c4	0.07914308
146	0xbe42fe92	-0.19042423
147	0x3c2578a0	0.01009956
148	0x3a328a00	0.0006810725
149	0xbe50fb72	-0.20408419
150	0xbe010d90	-0.1260283
151	0x3e91edbc	0.2850169
152	0x3dc9f824	0.09861782
153	0xbe886943	-0.26642808
154	0x3e36d5b8	0.17854965
155	0x3e82b158	0.25525928
156	0xbe6b808b	-0.22998254
157	0xbdb32c1c	-0.087486476
158	0xbe828c87	-0.2549784
159	0xbd7e9fd8	-0.062164158
160	0x3cab0710	0.020877391
161	0xbe91b10e	-0.28455395
162	0xbd1a3f30	-0.037657917
163	0xbe507c9a	-0.20360032
164	0xbd9db6f2	-0.0770091
165	0xbe74a70b	-0.23891847
166	0x3bdd7d00	0.006759286
167	0xbe68681a	-0.22695962
168	0x3e8286c6	0.2549345
169	0xbd8b1456	-0.06790988
170	0xbe3b500b	-0.18292253
171	0x3df941b4	0.12170735
172	0xbda972b2	-0.082738295
173	0x3e96c3d4	0.2944628
174	0x3d8d74d0	0.06907046
175	0x3dfd34b8	0.12363571
176	0xbe47e052	-0.19519165
177	0x3e1e7a92	0.15476444
178	0xbd49bcac	-0.049252197
179	0x3e123bf6	0.14280686
180	0x3e35264e	0.17690393
181	0xbe43f751	-0.19137312
182	0xbd788274	-0.060671285
183	0x3d716358	0.058932632
184	0xbe52bdf4	-0.20580274
185	0x3e5a8db0	0.21343112
186	0xbe20e965	-0.15714033
187	0xbe7a942e	-0.24470589
188	0xbe915b50	-0.28389978
189	0xbe5eae42	-0.21746162
190	0xbdeb21a6	-0.11481027
191	0xbe15213c	-0.14563459
192	0x3e39156d	0.1807458
193	0x3c22f3f7	0.009945861
194	0xbd8b6262	-0.068058744
195	0x3dbec2d7	0.093145065
196	0x3e8eb692	0.27873665
197	0x3e1f943a	0.15583888
198	0x3e7925ae	0.2433078
199	0xbd83a2dd	-0.06427548
200	0x3d11d0b0	0.03559941
201	0x3e870313	0.26369533
202	0xbd826c5b	-0.063683234
203	0x3d09543a	0.03352759
204	0x3d62f8fa	0.055413224
205	0x3c908c2a	0.01764496
206	0x3d92c74f	0.07166921
207	0xbe473583	-0.19454007
208	0x3e1c4381	0.15260126
209	0x3e960f1c	0.29308403
210	0x3d930e53	0.071804665
211	0xbdcab6f0	-0.09898174
212	0xbc1726bf	-0.009225546
213	0x3e625d6e	0.22105953
214	0x3c1b4788	0.009477504
215	0xbd0adde8	-0.033903033
216	0xbdd518b9	-0.10405106
217	0xbd9db7ae	-0.0770105
218	0xbe7d3d4e	-0.24730417
219	0x3da120f3	0.07867613
220	0xbe5696cd	-0.20955963
221	0xbce30ebd	-0.027716989
222	0xbe8ac86a	-0.2710603
223	0xbe0738c3	-0.13205247
224	0x3cc105e4	0.02356238
225	0x3de85237	0.11343806
226	0x3e4801a0	0.1953187
227	0x3e32a419	0.17445411
228	0xbe17370c	-0.14767092
229	0xbe8106e7	-0.2520058
230	0x3e44d46d	0.19221659
231	0xbe3d4c9f	-0.1848626
232	0x3df0229b	0.117253505
233	0xbe45915d	-0.19293733
234	0x3da7bc2d	0.081901886
235	0xbe379257	-0.17926918
236	0xbe635fc7	-0.22204505
237	0x3df10117	0.11767786
238	0xbd470cc6	-0.048596166
239	0xbe450fb7	-0.19244276
240	0x3de6c90b	0.11268815
241	0xbe8ab0c5	-0.2708799
242	0xbe3d7ba9	-0.18504204
243	0xbe49e009	-0.19714369
244	0xbe853a9a	-0.26021272
245	0xbdd5a355	-0.10431544
246	0x3e04b6b6	0.12960324
247	0xbe2c39f2	-0.1681898
248	0xbdf81a24	-0.12114361
249	0x3de5359b	0.11191865
250	0xbcaf45ad	-0.021395529
251	0xbe2e676a	-0.17031637
252	0xbe8da06e	-0.2766146
253	0x3dde2a9b	0.1084797
254	0x3e12fe9a	0.14354935
255	0xbe04f30b	-0.12983339

fc2._model.0.bias f4 [20]
0	0xb9bd5cb3	-0.00036117955
1	0xb58bf0b2	-1.0426359e-06
2	0xb6916559	-4.333135e-06
3	0x00000000	0.0
4	0x36912f3d	4.326836e-06
5	0xb5977008	-1.1282982e-06
6	0x39bd670f	0.00036125674
7	0x00000000	0.0
8	0x36d3ec03	6.3157654e-06
9	0xb6c10dcd	-5.753455e-06
10	0x8e55165a	-2.6265039e-30
11	0x00000000	0.0
12	0x35747496	9.106674e-07
13	0x340e19ec	1.3234211e-07
14	0x30db7e76	1.597029e-09
15	0x00000000	0.0
16	0x9de45462	-6.0438347e-21
17	0x00000000	0.0
18	0x00000000	0.0
19	0xb0db55a5	-1.5958689e-09

fc3._model.0.weight f4 [64, 48]
0	0xbe222fa6	-0.15838489
1	0x3de0d07b	0.109772645
2	0x3d823ba0	0.06359029
3	0x3d0b562a	0.03401772
4	0x3dac9945	0.08427671
5	0x3c42fe0c	0.01190139
6	0xbcdedc58	-0.027204677
7	0x3e15aed7	0.14617477
8	0x3e5a11ab	0.21295802
9	0xbe1ba391	-0.15199114
10	0xbd5b7189	-0.053575072
11	0xbdae49a8	-0.085101426
12	0x3d9b9c6c	0.075981945
13	0xbe2d9946	-0.16953
14	0xbe0309ba	-0.12796679
15	0xbd1646f1	-0.03668875
16	0x3e26ea28	0.16300261
17	0x3d812982	0.06306745
18	0xbca51942	-0.020153645
19	0xbe48daeb	-0.1961476
20	0x3ca10250	0.019654423
21	0xbe108ad4	-0.14115459
22	0x3d8c7b6d	0.06859479
23	0x3d80c817	0.06288164
24	0x3e3eed3a	0.18645182
25	0x3c41f172	0.01183735
26	0x3e132f90	0.14373612
27	0x3b3b1884	0.0028548548
28	0x3d39cadb	0.045359474
29	0xbc848fe7	-0.0161819
30	0xbdbadf9e	-0.09124683
31	0xbe4ec8b7	-0.20193754
32	0x3e5c06a6	0.21486911
33	0x3d8c6a55	0.06856219
34	0x3e29c244	0.16578013
35	0xbd94d7e3	-0.072677396
36	0xbdb590d0	-0.088655114
37	0x3d81421a	0.06311436
38	0xbd4a0fc7	-0.049331453
39	0xbc8b2fde	-0.016990598
40	0xbcf09f19	-0.029372739
41	0x3d6179f1	0.055047933
42	0xbc77f7db	-0.015134777
43	0xbc323ca7	-0.010878718
44	0x3e518781	0.20461847
45	0xbe0524b8	-0.13002288
46	0xbdae6761	-0.08515812
47	0x3e3de7c2	0.1854544
48	0xbe677840	-0.22604465
49	0x3e4ff316	0.20307574
50	0x3de2fd1a	0.110834315
51	0xbde4f816	-0.11180131
52	0xbe45452a	-0.19264665
53	0x3cfda046	0.030960213
54	0x3e6097fe	0.2193298
55	0x3e3cffa7	0.18456899
56	0xbe149912	-0.14511517
57	0xbd8cf6df	-0.068830244
58	0xbad3176e	-0.0016105005
59	0x3d614b87	0.05500367
60	0xbda397fe	-0.079879746
61	0xbdcd1bd5	-0.10015074
62	0x3e400747	0.18752776
63	0x3e2c0b8f	0.16801284
64	0x3e20ee84	0.15715986
65	0xbdb16bc8	-0.08663136
66	0x3dbcb535	0.0921425
67	0xbda4c488	-0.08045298
68	0xbe026dfb	-0.12737267
69	0x3e2d5249	0.1692592
70	0xbdea0290	-0.1142627
71	0x3e149355	0.14509328
72	0x3e5a85f7	0.21340166
73	0xbbc398df	-0.0059691514
74	0xbe391ebd	-0.18078132
75	0xbc97bab8	-0.018521652
76	0x3d9c51db	0.076328
77	0xbe252aa9	-0.16129555
78	0x3d6a1dad	0.057157207
79	0xbe42ec40	-0.19035435
80	0x3d1ccfe4	0.038284197
81	0xbd002ac5	-0.03129079
82	0x3c88d269	0.016701894
83	0xbcafdb6f	-0.021466939
84	0xbe49e5bf	-0.19716547
85	0x3da44bc0	0.08022261
86	0xbcb3b9b8	-0.021939144
87	0x3db1b306	0.08676724
88	0x3d58bdfb	0.052915554
89	0x3dc8badf	0.09801268
90	0xbdeced06	-0.11568646
91	0x3e685516	0.22688708
92	0xbe4b78b4	-0.19870263
93	0x3e2d9cec	0.16954392
94	0xbe45e49d	-0.1932549
95	0x3ca6cb77	0.020360691
96	0x3df2c90a	0.118547514
97	0xbe67294e	-0.2257435
98	0xbd8ca932	-0.06868209
99	0xbde97cb4	-0.11400738
100	0xbd38932a	-0.04506222
101	0xbe367dfa	-0.17821494
102	0x3d477dc0	0.04870391
103	0x3d0e2874	0.034706548
104	0x3d8d090c	0.06886491
105	0x3e238a87	0.15970813
106	0x3dbeab35	0.09309999
107	0x3dcfe8e6	0.10151844
108	0x3d1c8469	0.038212214
109	0xbe4da550	-0.20082593
110	0x3ddaf556	0.10691325
111	0xbdd0dbe6	-0.10198192
112	0x3d49e084	0.04928638
113	0xbdbcd1e9	-0.09219725
114	0x3de3c934	0.11122361
115	0x3d1b0975	0.037850816
116	0x3e1a392e	0.15060875
117	0x3e148e72	0.14507464
118	0x3dab36cd	0.08360062
119	0x3e38e735	0.18056948
120	0xbdd4ef10	-0.1039716
121	0xbd94f1c7	-0.07272678
122	0x3e1fe201	0.15613557
123	0x3dc4c07a	0.096070245
124	0xbe4b778a	-0.1986982
125	0xbdfa7d8f	-0.1223098
126	0x3d87e583	0.06635573
127	0xbddefdc2	-0.10888244
128	0xbdbf65b6	-0.09345572
129	0x3e2a5962	0.1663566
130	0xbdecca6b	-0.11562046
131	0xbd829e28	-0.06377822
132	0xbc0bf8f2	-0.00854324
133	0xbe61cea7	-0.22051488
134	0x3ba57200	0.0050489902
135	0xbe6c46fc	-0.23073953
136	0x3d3dcbf1	0.04633707
137	0x3d98e380	0.07465267
138	0xbe5a7073	-0.21331958
139	0x3e094d0b	0.13408296
140	0xbe558b18	-0.20853841
141	0x3d73bd07	0.059506442
142	0xbd70c866	-0.058784865
143	0x3dd63453	0.10459199
144	0xbe04b35c	-0.12959045
145	0x3e09d981	0.13461877
146	0x3e46bd73	0.19408207
147	0xbe4a953a	-0.19783488
148	0xbdf7e6e2	-0.12104584
149	0x3d5594ef	0.052143987
150	0xbda68ae5	-0.08131961
151	0xbe6c0f8c	-0.23052806
152	0x3d59ccf7	0.053173985
153	0x3e3a3502	0.18184283
154	0x3c576fe9	0.01314924
155	0xbe10b604	-0.14131933
156	0xbe1ae3c5	-0.1512595
157	0xbdb3e74b	-0.0878435
158	0xb909a678	-0.00013127353
159	0xbe46afee	-0.1940305
160	0x3e2e5fc8	0.17028725
161	0xbdbdeed9	-0.09274072
162	0xbded71ad	-0.115939476
163	0xbc913fcc	-0.017730616
164	0x3d3c3450	0.045948327
165	0xbe0dfc9b	-0.13865893
166	0x3e448a93	0.19193487
167	0x3dabfcc1	0.08397818
168	0xbe3d363c	-0.1847772
169	0x3d88004c	0.066406816
170	0x3e5607d0	0.20901418
171	0xbc1221cf	-0.008919193
172	0x3e11d5a0	0.14241648
173	0xbdf5eeb2	-0.12008418
174	0x3e0f2c69	0.13981785
175	0xbe1e2aff	-0.15446089
176	0x3e26bdc2	0.16283324
177	0xbe2892ee	-0.16462299
178	0xbe2545ca	-0.16139904
179	0x3e22a2db	0.15882437
180	0xbc5525e6	-0.013009524
181	0xbde6afaf	-0.11263978
182	0xbe47337f	-0.19453238
183	0x38e53b60	0.000109306304
184	0x3ccc4d05	0.02493907
185	0x3d8de3fc	0.0692825
186	0x3e5b3c5b	0.21409743
187	0x3e1ed8fa	0.15512457
188	0xbd6a9913	-0.05727489
189	0xbe3860a8	-0.18005621
190	0xbe3fffbf	-0.18749903
191	0x3e3c7ac6	0.1840621
192	0xbe69a924	-0.22818428
193	0xbe3c9c93	-0.18419103
194	0x3e0149f5	0.12625869
195	0x3dc8ca66	0.098042294
196	0x3cf9630e	0.03044274
197	0x3e69ff35	0.2285126
198	0x3dcdc74f	0.10047781
199	0x3da57111	0.08078206
200	0x3e2b33b4	0.16718942
201	0xbdce098a	-0.10060413
202	0xbe2e3d61	-0.17015602
203	0x3e09389a	0.13400498
204	0x3ba9c566	0.0051810024
205	0x3d7c0e95	0.061537344
206	0x3e55f3d6	0.20893797
207	0x3e46de85	0.19420822
208	0x3e0a2fe4	0.13494831
209	0xbe388445	-0.18019207
210	0xbe2e1cac	-0.17003125
211	0xbe54e17c	-0.2078914
212	0x3e3238ad	0.17404433
213	0x3d9ff3e4	0.0781019
214	0x3d8ac24d	0.06775341
215	0xbd92353d	-0.07139061
216	0xbe6caa1e	-0.2311177
217	0xbda15e5f	-0.07879328
218	0x3db8601b	0.09002706
219	0x3d841a85	0.06450371
220	0x3de5a309	0.11212737
221	0x3de306ae	0.110852584
222	0x3d9dedfb	0.07711407
223	0x3cda3db8	0.026640758
224	0x3deeeccf	0.116662614
225	0x3c125fe9	0.008934
226	0x3e391402	0.18074039
227	0xbc5a235a	-0.0133140925
228	0xbe2f7f79	-0.1713847
229	0x3e2048f5	0.15652831
230	0xbe3a2a36	-0.18180165
231	0xbdf8e407	-0.12152868
232	0x3de21f13	0.11041083
233	0x3df2c6aa	0.118542984
234	0x3e13143f	0.14363192
235	0x3e2a6b9b	0.1664261
236	0x3da46409	0.08026893
237	0x3e2672e5	0.16254766
238	0xbe4a3de1	-0.19750167
239	0xbe67bd41	-0.22630788
240	0xbe35fa64	-0.17771298
241	0x3d72b1e6	0.05925169
242	0x3d21dc3c	0.039516672
243	0x3c02bb3b	0.00797921
244	0x3e40646c	0.18788308
245	0x3dc917e7	0.09819012
246	0x3d9661cd	0.07342873
247	0x3dea5c7d	0.11443422
248	0xbe594e36	-0.21221241
249	0xbdfffedb	-0.12499782
250	0x3d74d796	0.05977591
251	0x3d1a6d19	0.0377017
252	0x3dc2de95	0.095151104
253	0xbe569097	-0.20953594
254	0xbe57594b	-0.21030156
255	0xbe0ee4f5	-0.13954528

fc3._model.0.bias f4 [64]
0	0xba3b5436	-0.00071460323
1	0xba4ab321	-0.0007732381
2	0xba4e8e93	-0.00078795216
3	0x3a4ccd22	0.00078125496
4	0x3a4e727c	0.0007875336
5	0x3a4dbb50	0.0007848041
6	0x3a4c2ffc	0.00077891327
7	0xba4df605	-0.0007856789
8	0x3a4d7fe4	0.00078391866
9	0x3a4d5edc	0.00078342645
10	0x3a4e3aa0	0.0007867012
11	0x3a4e8a00	0.000787884
12	0xba4e72ff	-0.0007875412
13	0xba4959b3	-0.0007680908
14	0x3a4dba6a	0.0007847907
15	0xba4e8a9a	-0.00078789296
16	0x3a4d9b69	0.00078432873
17	0x3a4de507	0.0007854257
18	0x3a4d8055	0.00078392524
19	0x3a4ec0d7	0.0007887012
20	0x3a4cd5fa	0.00078138674
21	0x3a4430ca	0.0007484077
22	0x3a48960a	0.0007651752
23	0xba4df6e6	-0.000785692
24	0x3a4c7cf0	0.00078005996
25	0x3a4e5665	0.000787115
26	0x3a4e9c7c	0.00078815944
27	0x3a0bbe6a	0.0005330803
28	0x3a4e6872	0.000787384
29	0x3a4e8606	0.00078782474
30	0xba4e1376	-0.0007861176
31	0xba49c3f3	-0.000769674
32	0xba4bb115	-0.0007770223
33	0xba4e2c18	-0.0007864847
34	0xba4e9751	-0.0007880824
35	0x3a4e7f05	0.0007877204
36	0xba4c99e9	-0.0007804917
37	0xba4e5db2	-0.0007872238
38	0x3a3e66d8	0.000726325
39	0xba4dde19	-0.00078532245
40	0x3a4e8e50	0.00078794826
41	0x3a4ed545	0.0007890056
42	0xba4c7f2c	-0.00078009325
43	0xba4d1b26	-0.0007824175
44	0xba4ed620	-0.00078901835
45	0xba4e4a7e	-0.00078693766
46	0xba4dd1fc	-0.00078514195
47	0x3a4de1c3	0.00078537705
48	0x3a4b51d1	0.0007756027
49	0xba4ebef0	-0.0007886728
50	0xba4caf62	-0.00078081165
51	0x3a461ae0	0.0007557105
52	0x3a4de62a	0.00078544265
53	0xba4df1e2	-0.0007856173
54	0xba4d8575	-0.0007840016
55	0xba4e703c	-0.00078750006
56	0xba4e9008	-0.00078797387
57	0xba4dffe9	-0.0007858263
58	0xba47708a	-0.0007608017
59	0xba4cbea9	-0.0007810393
60	0x3a4deb62	0.0007855204
61	0x3a4ea5aa	0.0007882962
62	0xba4cd804	-0.0007814171
63	0x3a4e36f5	0.00078664656

fc4._model.0.weight f4 [1, 64]
0	0x3c79f59e	0.015256314
1	0x3d825cd5	0.063653626
2	0x3e80f4e3	0.25186834
3	0xbde4ef4e	-0.11178456
4	0xbe7623ba	-0.24037066
5	0xbe15234f	-0.1456425
6	0xbdbfba6b	-0.09361728
7	0x3e3960c5	0.18103321
8	0xbe0b67e3	-0.13613848
9	0xbe08dbc0	-0.13365078
10	0xbe493669	-0.19649662
11	0xbe778e79	-0.24175443
12	0x3e6df243	0.23236947
13	0x3d46605c	0.04843174
14	0xbe15feb1	-0.14647938
15	0x3e693189	0.22772802
16	0xbe0e1bc7	-0.13877784
17	0xbe1fcf92	-0.15606526
18	0xbe079b22	-0.13242772
19	0xbe9309db	-0.28718457
20	0xbddff41f	-0.10935234
21	0xbcd7127d	-0.026253933
22	0xbd36cdf5	-0.04463001
23	0x3e2d48d6	0.16922316
24	0xbdd17321	-0.10227037
25	0xbe5679d0	-0.20944905
26	0xbe7849d1	-0.24246909
27	0xbb393add	-0.0028263845
28	0xbe5735ec	-0.21016663
29	0xbe75daa9	-0.24009193
30	0x3e4624ab	0.19349925
31	0x3d509bc2	0.050929792
32	0x3daa8be5	0.08327464
33	0x3e492bdc	0.19645637
34	0x3e89f02d	0.26941052
35	0xbe80a59e	-0.25126356
36	0x3dd9b432	0.10630073
37	0x3e69a65f	0.22817372
38	0xbc951710	-0.018199474
39	0x3e31da0d	0.17368336
40	0xbe6d8b90	-0.2319777
41	0xbe9b6f2c	-0.30358255
42	0x3dc6226f	0.096745364
43	0x3df80d2c	0.12111887
44	0x3e94c99a	0.2906006
45	0x3e50618c	0.20349711
46	0x3e1a12c1	0.15046217
47	0xbe2428d3	-0.16031198
48	0xbd982a2e	-0.0742992
49	0x3e88c7f3	0.2671505
50	0x3de09023	0.10964992
51	0xbd012f26	-0.031539105
52	0xbe34d881	-0.17660715
53	0x3e38b24e	0.18036768
54	0x3e0ce214	0.13758117
55	0x3e7739ea	0.24143186
56	0x3e7855c6	0.2425147
57	0x3e3d0859	0.18460216
58	0x3d1dc915	0.038521845
59	0x3dda9b5b	0.10674163
60	0xbe334afb	-0.17509072
61	0xbe7cfa68	-0.24704897
62	0x3dec7adb	0.1154687
63	0xbe3e9238	-0.18610466
