example/cloudManufacturing/rl/phase2/ckpts/policy-model-weight-array.global-step-3000.pth (torch_old, 32003 bytes, 7 tensors)

fc1._model.0.weight f4 [24, 141]
0	0xbdaa9c00	-0.08330536
1	0x3d428b89	0.047496352
2	0x3dcdbc37	0.10045665
3	0xbe4165c8	-0.18886483
4	0x3e0dbef5	0.13842376
5	0x3d5ffb81	0.054683212
6	0xbde9863b	-0.114025556
7	0x3cd8ff12	0.026488815
8	0x3dce922a	0.10086472
9	0x3cca8978	0.024723753
10	0x3e069f96	0.13146815
11	0xbddc4676	-0.10755627
12	0xbe224dd5	-0.15850003
13	0xbd03844e	-0.032108597
14	0x3d993af8	0.074819505
15	0xbe27b642	-0.1637812
16	0x3dcf0a83	0.10109427
17	0x3dfd8ecf	0.12380754
18	0x3e33d90e	0.17563269
19	0x3dd357d7	0.103194885
20	0x3e1d4ea7	0.15362035
21	0xbe0f948b	-0.14021508
22	0x3d93bcea	0.07213767
23	0x3d48f262	0.04905928
24	0xbc93885d	-0.018009359
25	0x3d6f76f2	0.058463044
26	0x3c44ebc7	0.012019104
27	0xbe0e2f1c	-0.13885158
28	0xbe328a25	-0.1743551
29	0xbdc51dd0	-0.09624827
30	0xbdf2ee78	-0.118618906
31	0xbcb42e25	-0.02199466
32	0xbe3f1416	-0.18660006
33	0x3e0e15a1	0.13875438
34	0x3c920a6e	0.017827239
35	0x3e07976d	0.13241358
36	0x3e1281bb	0.14307301
37	0xbe1dc779	-0.15408124
38	0x3e1946d6	0.14968428
39	0x3e355ae9	0.1771046
40	0x3e05938f	0.1304457
41	0xbd27439f	-0.040835973
42	0xbe11ca45	-0.14237316
43	0xbd1482e1	-0.03625763
44	0x3cc5b90b	0.024136087
45	0x3c351421	0.011052162
46	0xbdcdc39d	-0.10047076
47	0x3d17e7e1	0.03708637
48	0x3ddfb199	0.10922546
49	0x3d35dd80	0.044400692
50	0x3c210868	0.009828664
51	0xbc19701d	-0.009365109
52	0x3df12b13	0.11775794
53	0xbdd760d6	-0.10516517
54	0x3ae06e05	0.0017122632
55	0xbe3d3329	-0.18476547
56	0x3e20694d	0.15665169
57	0xbe04fdbc	-0.12987417
58	0x3db4bd4c	0.08825168
59	0xbb901984	-0.004397573
60	0x3d7f502e	0.062332325
61	0xbaf998ec	-0.0019042767
62	0xbcbfbc83	-0.02340532
63	0xbe30f429	-0.1728064
64	0xbe1db868	-0.15402377
65	0x3e38812e	0.18018028
66	0xbb941980	-0.0045196414
67	0xbe1fa156	-0.15588889
68	0x3e39e850	0.18155026
69	0x3d9c1174	0.076205164
70	0x3e3994dc	0.18123192
71	0x3e07d990	0.13266587
72	0xbe3db0d5	-0.18524487
73	0xbdcac429	-0.09900696
74	0x3e1303c4	0.14356905
75	0x3d82683c	0.063675374
76	0xbe1137ec	-0.14181489
77	0xbc55c3b0	-0.013047144
78	0xbd383a0c	-0.044977233
79	0x3d862230	0.065494895
80	0x3d8584c0	0.06519461
81	0x3e2283f0	0.15870643
82	0x3db2c1dc	0.08728382
83	0xbdf61c88	-0.12017161
84	0x3e267278	0.16254604
85	0x3b99db60	0.004695341
86	0x3db28da8	0.08718425
87	0x3ca95bd8	0.020673677
88	0x3e3b8f54	0.18316394
89	0x3db90b5c	0.0903537
90	0x3d370438	0.044681758
91	0xbe14c199	-0.14526977
92	0xbd103228	-0.035204083
93	0x3e3a90b6	0.18219265
94	0x3d27f51c	0.04100524
95	0x3e1680b2	0.14697531
96	0xbda83dca	-0.0821491
97	0x3e108fe6	0.14117393
98	0xbdbf02cb	-0.093267046
99	0x3e1ac70a	0.1511499
100	0xbdb7e707	-0.08979612
101	0xbdf5df5e	-0.120054945
102	0x3df95418	0.12174243
103	0xbcb36890	-0.021900445
104	0x3e1d685c	0.15371841
105	0xbd799b20	-0.060938954
106	0xbe34ca0e	-0.17655203
107	0x3d1760c4	0.036957517
108	0x3cf9cc08	0.030492797
109	0x3d7cbf38	0.061705798
110	0xbe3cd1fa	-0.18439475
111	0xbd9d9917	-0.07695215
112	0xbdfbdb83	-0.12297728
113	0xbe055b2e	-0.13023064
114	0x3d43638c	0.047702357
115	0xbdc921e6	-0.09820919
116	0x3d1e7b8c	0.038692042
117	0x3e376ef2	0.17913416
118	0x3d5fad68	0.054608732
119	0xbd902cdf	-0.070398085
120	0xbc8e8310	-0.01739648
121	0xbd925f3f	-0.07147073
122	0xbd917666	-0.07102661
123	0xbd49f538	-0.049306124
124	0x3e23cd78	0.15996349
125	0x3c3f7c00	0.011687279
126	0x3d118c1c	0.03553401
127	0x3d864d2c	0.06557688
128	0xbda26585	-0.079295196
129	0xbe3ca839	-0.18423547
130	0xbddfe73d	-0.10932777
131	0xbdfa0279	-0.12207503
132	0xbd0f5d18	-0.03500089
133	0x3da09134	0.07840195
134	0xbe193d7f	-0.14964865
135	0x3e20b856	0.15695319
136	0x3e3afe28	0.18261015
137	0x3e2d08b0	0.16897845
138	0xbe24dffe	-0.16101071
139	0x3ddb9580	0.10721874
140	0x3dc820c8	0.097718775
141	0xbe15ceea	-0.14629713
142	0x3e27c9da	0.16385594
143	0xbd90c7c9	-0.07069356
144	0xbdfe056c	-0.12403378
145	0xbde747ac	-0.11292967
146	0xbd354b26	-0.04426112
147	0x3d053b96	0.03252753
148	0xbdb91fe4	-0.09039286
149	0x3deb1a0e	0.11479579
150	0x3e22c62a	0.15895906
151	0x3e3dd4bb	0.18538181
152	0xbe14a4e3	-0.14516024
153	0xbbc59cc8	-0.0060306527
154	0x3e0c6802	0.13711551
155	0xbc9cf627	-0.019160343
156	0x3e329aad	0.17441817
157	0x3e257960	0.16159582
158	0xbda473c1	-0.08029891
159	0xbba1b3af	-0.00493475
160	0x3d4e2ef5	0.05033775
161	0x3e346633	0.17617111
162	0x3d786e0b	0.06065182
163	0x3dcefb22	0.101064935
164	0xbdf886a0	-0.12135053
165	0x3d4c42ea	0.0498685
166	0x3e2a0330	0.16602778
167	0xbcf62551	-0.03004709
168	0x3d88233d	0.06647346
169	0x3e3efb6d	0.18650599
170	0xbe40b319	-0.1881832
171	0x3d958360	0.073004484
172	0xbcd417e8	-0.025890306
173	0xbe34925a	-0.17633954
174	0x3b454e98	0.003010666
175	0xbb7a57f5	-0.00381994
176	0x3d933728	0.071882546
177	0x3e029da9	0.12755455
178	0x3d85647c	0.065133065
179	0x3e257c95	0.16160806
180	0x3cfee5ce	0.031115439
181	0xbd381dfe	-0.044950478
182	0xbd018cb1	-0.031628314
183	0x3e1f3dac	0.1555087
184	0xbe2993fb	-0.16560356
185	0x3d7a7c35	0.06115361
186	0xbb5dcf18	-0.0033845361
187	0xbe1b612b	-0.15173785
188	0xbbe08f72	-0.0068530375
189	0x3d5af7dc	0.053459033
190	0xbe18f5cd	-0.14937516
191	0xbe28d17d	-0.16486163
192	0xbbb6145d	-0.0055566267
193	0x3c14fdd6	0.009093722
194	0xbd9592c4	-0.07303384
195	0xbe15de7c	-0.14635652
196	0xbc8a9b67	-0.016919805
197	0xbde1adb2	-0.11019458
198	0xbcbe0ccc	-0.023199461
199	0xbde54c1b	-0.111961566
200	0xbda63fce	-0.081176385
201	0x3aac2ae4	0.0013135341
202	0xbdd7667d	-0.10517595
203	0xbc7a207e	-0.015266536
204	0xbe0c7bf2	-0.13719156
205	0x3dce5ca0	0.100762606
206	0xbc651580	-0.013982177
207	0x3dcf70d4	0.10128942
208	0xbdab9f29	-0.08379967
209	0xbe10f834	-0.14157182
210	0xbe00f82e	-0.12594673
211	0xbde18848	-0.11012322
212	0xbe01f402	-0.12690738
213	0xbdd86950	-0.10566962
214	0xbc82ba28	-0.015957907
215	0x3e350094	0.17676002
216	0x3e0255b8	0.12728012
217	0xbcda32f0	-0.026635617
218	0x3e05dc70	0.13072371
219	0x3d36ded8	0.044646114
220	0xbd67f7dc	-0.05663286
221	0xbdf7a04e	-0.120911226
222	0xbe3d5b0e	-0.18491766
223	0xbcfbb9e8	-0.030728295
224	0x3d001bc0	0.031276464
225	0x3d8882dc	0.066655844
226	0xbe2ad8c4	-0.16684252
227	0x3d3182e4	0.043337718
228	0xbd2f5b9c	-0.042811975
229	0xbc635bc0	-0.013876855
230	0x3e0fa290	0.14026856
231	0x3cced8b0	0.025249809
232	0x3ce32b38	0.02773057
233	0xbd1a77f0	-0.037712038
234	0xbbe850a0	-0.0070896894
235	0xbde3f807	-0.11131292
236	0x3d33b950	0.0438779
237	0xbe202f9a	-0.15643159
238	0xbe40509b	-0.18780749
239	0xbe3ef61e	-0.18648574
240	0xbd872194	-0.065982014
241	0xbd8c1328	-0.06839591
242	0xbdee7133	-0.11642685
243	0xbc83f7a8	-0.016109303
244	0x3d905578	0.07047552
245	0x3e09fa20	0.13474321
246	0x3d25f638	0.040518016
247	0xbe1ba310	-0.15198922
248	0x3e3cc1ae	0.18433258
249	0x3e1b8146	0.15186033
250	0xbe30dcc0	-0.1727171
251	0xbd8e4b90	-0.06948006
252	0x3db22838	0.08699077
253	0x3d3bf484	0.045887485
254	0xbcb2f898	-0.021847054
255	0x3aa9c600	0.0012952685

fc1._model.0.bias f4 [24]
0	0x3a56500e	0.0008175381
1	0x3a865c80	0.0010250956
2	0xba515fb3	-0.00079869776
3	0xb9eeb8ef	-0.00045532684
4	0x3ab9ff92	0.0014190546
5	0x3a9873d3	0.0011631198
6	0x3ab5b9e2	0.0013864601
7	0xbaab8ba9	-0.0013087887
8	0x3a75a280	0.00093702227
9	0xbab1c3b0	-0.0013562348
10	0x3aa0c66c	0.0012266166
11	0x3ab76550	0.0013991985
12	0xba8646b9	-0.0010244466
13	0xb981dc5f	-0.00024768987
14	0xb7c64d33	-2.3639388e-05
15	0x3aba20c9	0.0014200445
16	0x3aba2508	0.001420171
17	0x3a943e30	0.0011310037
18	0xbab42226	-0.0013743087
19	0x3aa0a61b	0.0012256535
20	0x3aaf7f64	0.0013389406
21	0x3aa34370	0.0012456011
22	0x3ab4b3fc	0.001378655
23	0x3aa1131e	0.0012289023

fc2._model.0.weight f4 [20, 48]
0	0x3e64764c	0.22310752
1	0x3e4866d6	0.19570479
2	0xbe318b69	-0.17338337
3	0x3e90f0c7	0.283087
4	0xbd6c6fc5	-0.05772378
5	0xbe6ba52e	-0.2301223
6	0x3c11645f	0.008874028
7	0xbe74ada0	-0.23894358
8	0x3d9f3fc5	0.07775835
9	0x3e5b7323	0.2143064
10	0xbe4d3b60	-0.20042181
11	0x3e1caa5f	0.15299366
12	0x3dcf5a39	0.101246305
13	0xbd070484	-0.03296329
14	0xbe969e96	-0.29417866
15	0xbdaad6f8	-0.08341783
16	0x3e086c35	0.13322528
17	0xbe62aa40	-0.22135258
18	0x3e416a55	0.18888219
19	0xbe06cd24	-0.13164192
20	0xbd0c21bf	-0.03421187
21	0x3d9d0776	0.07667439
22	0x3e501069	0.2031876
23	0x3ddca40e	0.107734784
24	0x3e4bee6b	0.19915168
25	0xbe97248f	-0.2952008
26	0xbe14c5b0	-0.14528537
27	0x3e80b194	0.2513548
28	0x3e3fddc7	0.18736945
29	0xbe81f09f	-0.25378892
30	0xbe3a95fb	-0.18221276
31	0xbe16017d	-0.14649005
32	0xbe5733e4	-0.21015888
33	0x3a83ce13	0.0010055922
34	0xbdb44dd9	-0.08803911
35	0xbe84d033	-0.25940093
36	0xbe8879b3	-0.2665535
37	0x3e290856	0.16507086
38	0x3e06b5a2	0.13155225
39	0x3e97bfc5	0.29638496
40	0xbd09a7fa	-0.03360746
41	0x3bc83b4f	0.0061105858
42	0xbdc91841	-0.09819079
43	0x3e48b86f	0.19601606
44	0xbc4ea913	-0.012613553
45	0x3dc14673	0.09437265
46	0x3dc1e5f6	0.0946769
47	0x3d62cd84	0.055371776
48	0x3def387c	0.116806954
49	0x3d866cf0	0.06563747
50	0x3e3497ac	0.17635983
51	0x3da43734	0.08018342
52	0x3dcc99d0	0.09990275
53	0x3d438de7	0.04774275
54	0x3d67ef47	0.056624677
55	0x3cfab1c2	0.03060234
56	0x3e6aa05c	0.22912735
57	0x3cd3bf12	0.025847945
58	0x3dfd24ac	0.1236051
59	0x3e199234	0.14997178
60	0xbdffd360	-0.124914885
61	0x3dfe1dc0	0.12408018
62	0x3e80580e	0.2506718
63	0xbe228bdb	-0.15873663
64	0xbe7d3d1e	-0.24730346
65	0x3d768230	0.06018275
66	0xb9332691	-0.00017085137
67	0xbe26a9e9	-0.16275753
68	0xbe56a8c2	-0.20962813
69	0xbde9c020	-0.11413598
70	0x3d27983f	0.040916678
71	0x3e38a3fc	0.18031305
72	0x3da38a23	0.07985332
73	0x3dd24e22	0.10268809
74	0xbe8493a4	-0.2589389
75	0x3e1569be	0.14591119
76	0x3e0059bf	0.12534235
77	0xbe75d6a2	-0.24007657
78	0x3dc6607d	0.096863724
79	0x3e2be481	0.16786386
80	0x3e7db852	0.24777344
81	0xbe65755e	-0.22408053
82	0xbe73f5df	-0.23824261
83	0x3e51d29a	0.20490494
84	0x3e62c0a9	0.22143807
85	0x3e0b08a9	0.13577522
86	0x3e96c1db	0.29444775
87	0xbe6d380d	-0.23165913
88	0xbe8b6660	-0.27226543
89	0xbe591031	-0.21197583
90	0x3e821400	0.25405884
91	0x3e210da0	0.15727854
92	0xbe13bf92	-0.14428547
93	0x3e82d656	0.2555415
94	0x3da081f2	0.07837285
95	0x3e83f414	0.25772154
96	0x3e8e10d2	0.27747208
97	0x3e8d6bc2	0.27621275
98	0xbe183b1f	-0.14866303
99	0xbe50c93b	-0.20389263
100	0xbe8784ff	-0.26468655
101	0xbddc92a0	-0.10770154
102	0xbe8f6360	-0.28005505
103	0xbe51f058	-0.2050184
104	0x3e925520	0.2858057
105	0x3c8e4582	0.017367128
106	0x3e0b35f0	0.13594794
107	0x3e08d83c	0.13363737
108	0x3e058269	0.13038029
109	0xbe24a1f1	-0.160774
110	0xbe09c6cb	-0.1345474
111	0x3e6cd3b4	0.23127633
112	0x3e90caca	0.28279716
113	0x3d83a031	0.064270385
114	0xbc6a2546	-0.014291113
115	0x3e224e9c	0.158503
116	0xbdc34a8f	-0.09535705
117	0x3e8874a9	0.26651505
118	0xbd99814f	-0.07495367
119	0x3e2e13e0	0.16999769
120	0xbc812f5d	-0.015769655
121	0x3e2bf631	0.16793133
122	0xbc822074	-0.015884615
123	0xbd51117d	-0.05104207
124	0xbe2d2664	-0.16909176
125	0x3e493ffb	0.19653313
126	0x3e8187ee	0.2529902
127	0x3da4a3ad	0.08039031
128	0x3e82cb9c	0.25545967
129	0xbe6d4fac	-0.23174924
130	0xbcae5bab	-0.021283945
131	0xbe7e991f	-0.24863099
132	0xbe582761	-0.21108772
133	0x3e244d68	0.16045153
134	0xbe6fadec	-0.2340619
135	0xbe5cdf2a	-0.21569505
136	0x3e19e3cd	0.15028305
137	0x3e17e61c	0.14833874
138	0xbe028044	-0.12744242
139	0x3c3aba13	0.011396903
140	0xbe97aec5	-0.29625526
141	0xbe7fa4be	-0.24965188
142	0xbe464582	-0.19362453
143	0xbe10e3eb	-0.14149444
144	0xbdc838b3	-0.097764395
145	0xbe779418	-0.24177587
146	0xbe6b2ac2	-0.2296553
147	0xbdb98ae1	-0.09059692
148	0x3ca4763d	0.020075912
149	0x3e0eba55	0.13938268
150	0x3e465760	0.19369268
151	0x3db9bc46	0.090691134
152	0xbd5ce44f	-0.05392867
153	0xbdb5a2df	-0.08868956
154	0x3d8d8973	0.06910982
155	0x3e903c56	0.28171033
156	0x3c62c7ea	0.013841609
157	0xbd8c58c1	-0.06852866
158	0xbd9f4862	-0.07777478
159	0xbdc45e34	-0.0958828
160	0x3e1837b4	0.14864999
161	0x3d436ecf	0.047713097
162	0x3dcde6cc	0.10053787
163	0xbe95155d	-0.2911786
164	0x3e8f4e65	0.27989498
165	0x3e91fd6d	0.2851366
166	0x3d738d25	0.059460778
167	0x3d9d2123	0.07672336
168	0xbd4a9395	-0.04945715
169	0x3e385c52	0.18003967
170	0xbdaac8f3	-0.08339109
171	0xbdb3aad2	-0.08772816
172	0xbe62a807	-0.2213441
173	0xbde89e5d	-0.113583304
174	0x3e4e78d2	0.20163277
175	0x3e92c19f	0.28663346
176	0x3c924cac	0.017858826
177	0xbe4e9205	-0.2017289
178	0xbe3e0590	-0.1855681
179	0x3d0f09dd	0.034921516
180	0x3db50fc4	0.08840898
181	0x3e3e8e3f	0.1860895
182	0xbe5be712	-0.21474865
183	0x3e31bcb7	0.17357145
184	0x3e53130c	0.20612735
185	0x3e4b9d70	0.19884276
186	0xbdfd32be	-0.12363194
187	0xbe0a0875	-0.13479789
188	0x3e8500e0	0.2597723
189	0xbc1ffa28	-0.009764232
190	0xbe7b43b0	-0.2453754
191	0x3e94e91b	0.29084095
192	0xbe1c7c0d	-0.15281697
193	0x3d8fcc4a	0.07021387
194	0x3e3bf40c	0.18354815
195	0x3dc275e1	0.0949514
196	0x3d9e8595	0.077403225
197	0x3d202945	0.039101858
198	0x3c9aa9b4	0.018879749
199	0x3e64af7b	0.22332565
200	0x3d71f06e	0.059067182
201	0x3e8f19c6	0.2794935
202	0xbe80e817	-0.2517707
203	0xbe875dc5	-0.26438728
204	0xbe758e7b	-0.23980133
205	0xbd5d0dde	-0.053968303
206	0x3e36b746	0.17843351
207	0xbe842b27	-0.25814173
208	0x3d453176	0.048142873
209	0x3d9deb54	0.07710901
210	0xbe2268f1	-0.15860344
211	0x3d48edf3	0.04905505
212	0x3ddb9d33	0.10723343
213	0xbe24d349	-0.16096224
214	0x3e01d6d9	0.12679614
215	0xbd65e6fa	-0.05612848
216	0x3e96bdd3	0.294417
217	0x3e22ca74	0.15897542
218	0x3e5bfc34	0.21482927
219	0x3e91451b	0.28373036
220	0xbe980f6d	-0.2969927
221	0xbe7b5d50	-0.24547315
222	0xbe8809d0	-0.26569986
223	0x3e471209	0.19440474
224	0xbe249d44	-0.16075617
225	0xbe1c3e22	-0.15258077
226	0xbc854823	-0.016269749
227	0x3e3d44d5	0.18483289
228	0x3da529c5	0.080646075
229	0xbe443293	-0.19159918
230	0xbe1fa124	-0.15588814
231	0xbe55b758	-0.20870721
232	0xbd8603fc	-0.06543729
233	0xbe27bd4a	-0.16380802
234	0x3dcd8aeb	0.10036262
235	0x3e895b3a	0.26827413
236	0xbe64a170	-0.22327209
237	0xbde467af	-0.111525886
238	0x3e65ee59	0.22454204
239	0x3c818050	0.015808254
240	0xbe817f6c	-0.25292528
241	0xbe3ecbd8	-0.18632448
242	0x3dc54c18	0.09633654
243	0xbc571140	-0.013126671
244	0x3e92a5d6	0.28642148
245	0x3e8cf8e2	0.27533633
246	0xbd873466	-0.06601791
247	0x3cb63a9f	0.02224475
248	0xbe344dfa	-0.1760787
249	0x3d2fd220	0.042925
250	0x3e2bc258	0.16773355
251	0xbd1a7120	-0.03770554
252	0x3dd86e18	0.10567874
253	0xbd5d1fcc	-0.053985402
254	0xbc264500	-0.010148287
255	0x3e725f0c	0.2366907

fc2._model.0.bias f4 [20]
0	0xb88152e0	-6.166636e-05
1	0xb6ce7699	-6.153085e-06
2	0xba05a3c3	-0.000509795
3	0x381e337c	3.7718084e-05
4	0x39e746ad	0.0004411241
5	0x364b91be	3.033419e-06
6	0xba0b3fdf	-0.0005311947
7	0xb99f8be3	-0.00030431067
8	0xb5952845	-1.1113085e-06
9	0xb790421d	-1.7196924e-05
10	0xb81eab47	-3.782965e-05
11	0xba17ac59	-0.00057858747
12	0xb7cf971b	-2.4746687e-05
13	0xb93b5d39	-0.00017868438
14	0xb92aea41	-0.0001629973
15	0xb8f6a8a6	-0.00011761607
16	0xb8fe44c6	-0.00012124474
17	0xb8cdd92d	-9.815614e-05
18	0xb9b10050	-0.00033760304
19	0xb924fe89	-0.0001573508

fc3._model.0.weight f4 [64, 48]
0	0x3c60cb15	0.0137202935
1	0xbda13abc	-0.07872531
2	0x3cf90434	0.030397512
3	0x3cc5a601	0.024127008
4	0xbdced7d3	-0.10099759
5	0x3d2a95a9	0.041646633
6	0x3e4256e3	0.18978457
7	0xbd55ef7d	-0.052230347
8	0xbdf6edc7	-0.12057071
9	0xbdac29ff	-0.084064476
10	0xbde0847f	-0.109627716
11	0x3e5c07c6	0.2148734
12	0x3e5fa8f7	0.21841799
13	0x3c64f1b7	0.013973645
14	0xbd9ec871	-0.07753075
15	0x3dc87469	0.097878285
16	0xbd9401e2	-0.072269216
17	0xbdcc123c	-0.099644154
18	0x3e363478	0.17793453
19	0xbdb86ced	-0.09005151
20	0x3c958fe6	0.018257093
21	0xbe3d291d	-0.18472715
22	0xbcb0a9f1	-0.02156541
23	0x3d463137	0.04838678
24	0xbe437c96	-0.19090495
25	0xbd004822	-0.03131879
26	0x3e243862	0.16037133
27	0x3deefd08	0.11669356
28	0xbd2089b5	-0.039193828
29	0xbe425544	-0.18977839
30	0x3e17bb42	0.14817527
31	0x3d72e6b4	0.059302047
32	0xbe44eac1	-0.19230177
33	0xbd4b97cd	-0.049705315
34	0xbd8be6df	-0.068311445
35	0xbe41711b	-0.18890803
36	0x3e34695b	0.17618315
37	0xbd95bce3	-0.07311418
38	0x3dff4f54	0.124663025
39	0xbde2b5e1	-0.11069847
40	0xbe6c92eb	-0.2310292
41	0xbdbde1ec	-0.09271607
42	0x3cd879fb	0.026425352
43	0x3dff37e5	0.12461833
44	0x3e5ccb3a	0.215619
45	0x3e667bcd	0.22508164
46	0xbd886418	-0.06659716
47	0xbe185572	-0.14876345
48	0x3e1cac40	0.15300083
49	0xbd3e80d9	-0.046509597
50	0x3da81417	0.08206957
51	0x3dc16c11	0.0944444
52	0xbe4f55ec	-0.2024762
53	0x3e65e916	0.22452196
54	0xbd303e7f	-0.04302835
55	0x3bfdc671	0.0077446033
56	0x3db3da1b	0.08781835
57	0x3d99a793	0.07502665
58	0x3c68fc79	0.01422035
59	0xbe041597	-0.12898861
60	0x3da832b4	0.08212796
61	0xbc9ff720	-0.019527018
62	0xbd8ba3ab	-0.068183266
63	0xbd6d428f	-0.057924803
64	0x3d0d97e1	0.03456867
65	0xbc6e128b	-0.014530788
66	0xbd5770fb	-0.05259798
67	0xbdb9e2e8	-0.09076482
68	0xbe6a616f	-0.2288873
69	0xbd4048a9	-0.046944294
70	0x3dd9d42d	0.106361724
71	0xbd027014	-0.031845167
72	0x3da7ebed	0.08199296
73	0xbe6935ef	-0.2277448
74	0xbe17bfec	-0.14819306
75	0x3da357b5	0.07975713
76	0x3d654b39	0.05597994
77	0x3e1ab05c	0.15106338
78	0xbb157be0	-0.002280943
79	0x3ded831d	0.115972735
80	0xbc8e687b	-0.017383805
81	0x3d497d7a	0.04919193
82	0xbdbf2108	-0.09332472
83	0x3d9e3d43	0.077265285
84	0xbd0da960	-0.034585357
85	0x3cd17614	0.025569
86	0x3e06afd6	0.13153014
87	0x3dcae1e8	0.099063694
88	0x3df1e9e8	0.11812192
89	0x3e01b87e	0.12668034
90	0x3d8c1517	0.0683996
91	0xbdbeede3	-0.09322717
92	0xbd817a56	-0.06322162
93	0xbe255ec5	-0.16149433
94	0x3d5954d2	0.053059407
95	0xbdd465be	-0.10370968
96	0x3e27b134	0.16376191
97	0x3e4004e8	0.18751872
98	0x3ce7784f	0.02825561
99	0x3e03d703	0.12874989
100	0x3db16425	0.08661679
101	0xbe115432	-0.14192274
102	0xbe4c8441	-0.19972326
103	0x3e2e4d75	0.17021735
104	0x3d8741d2	0.06604351
105	0x3d4af012	0.049545355
106	0xbdbe85b0	-0.093028426
107	0xbe59b1bd	-0.21259208
108	0x3cda4ce4	0.026647992
109	0x3d2007c4	0.039069906
110	0xbe62c36a	-0.22144857
111	0xbe0c5d77	-0.13707529
112	0x3e6b0c7c	0.22953981
113	0x3d069ddf	0.0328654
114	0x3dc090b2	0.094025984
115	0x3e099777	0.13436686
116	0x3e1f660b	0.1556627
117	0xbe51118e	-0.20416853
118	0xbe3ba161	-0.1832328
119	0xbdc82f07	-0.09774595
120	0xbe5f7ceb	-0.21824996
121	0xbdfb66a4	-0.122754365
122	0x3e07a7ed	0.13247652
123	0x3e430d44	0.19048029
124	0x3e5f240b	0.21791093
125	0x3e333a29	0.17502655
126	0xbddf7c9a	-0.10912438
127	0xbc539d47	-0.012915916
128	0xbc6e66c2	-0.014550867
129	0xbe0cfdcd	-0.13768692
130	0xbe295253	-0.1653531
131	0x3e4b4dce	0.19853899
132	0xbddb23b2	-0.10700168
133	0xbe172dff	-0.1476364
134	0xbde8983c	-0.113571614
135	0xbd91c2e9	-0.07117254
136	0xbe04c756	-0.12966666
137	0x3e39b3f4	0.18135053
138	0xbd8468b3	-0.06465282
139	0x3c1b818e	0.009491337
140	0x3decc0a2	0.11560179
141	0x3d69bddb	0.057065826
142	0x3e2c0579	0.16798963
143	0x3e37b6f0	0.17940879
144	0xbde66002	-0.11248781
145	0x3e653ca9	0.22386421
146	0x3e259c01	0.16172792
147	0x3e163151	0.1466725
148	0x3bb7505d	0.005594297
149	0x3e65ea10	0.22452569
150	0x3d1c7b98	0.038203806
151	0xbbde0736	-0.006775762
152	0x3d8a8bd6	0.06764953
153	0xbdc49b3a	-0.095999196
154	0x3d00d76a	0.031455435
155	0xbda4a8bc	-0.08039996
156	0x3d13e3f9	0.036106084
157	0xbd95e907	-0.07319837
158	0x3d86a2b5	0.06574003
159	0xbd900c7c	-0.07033631
160	0x3e5d1c39	0.21592797
161	0x3d81e39a	0.0634224
162	0xbd217110	-0.039414465
163	0xbe4b6421	-0.19862415
164	0xbe315edd	-0.17321344
165	0x3db49212	0.08816923
166	0x3e26fefb	0.16308205
167	0x3e03d7a5	0.1287523
168	0xbe05fe5a	-0.13085309
169	0x3d95ec78	0.073204935
170	0x3ccc1047	0.024910105
171	0x3e5498b5	0.20761378
172	0xbc236867	-0.009973622
173	0xbc10ad55	-0.008830388
174	0xbe3d0ca3	-0.18461852
175	0xbdb0f02c	-0.08639559
176	0xbd093b9f	-0.033504125
177	0xbd99063c	-0.07471892
178	0xbd3f4385	-0.04669525
179	0x3df6ad48	0.120447695
180	0xbe5a2bb2	-0.21305731
181	0xbcce3c09	-0.025175111
182	0xbe5e12da	-0.21686879
183	0xbdbe08aa	-0.09278996
184	0x3da130a4	0.078706056
185	0xbe22ffbb	-0.15917866
186	0x3d250479	0.04028747
187	0xbcba5c1c	-0.022749
188	0xbe30505c	-0.17218155
189	0xbd7e1310	-0.0620299
190	0xbe31e8aa	-0.1737391
191	0x3e48a3fa	0.19593802
192	0x3e26a67b	0.16274445
193	0x3e001aa0	0.12510157
194	0x3e1c17bc	0.15243429
195	0xbdde3f69	-0.10851938
196	0x3e48a6ca	0.19594875
197	0xbbd8875a	-0.006607932
198	0x3e6bd606	0.23030862
199	0x3df3b3c6	0.118995234
200	0x3e0cc5ed	0.13747378
201	0xbd8a9d9c	-0.06768343
202	0x3e54d2a8	0.20783484
203	0x3e047dfa	0.12938681
204	0x3e372c90	0.17888093
205	0x3e0fec69	0.14055027
206	0xbe58ae22	-0.21160176
207	0x3dca5441	0.098793514
208	0xbc30b9ac	-0.010786455
209	0xbdf79228	-0.12088424
210	0xbdba12c1	-0.09085608
211	0x3e3f7421	0.18696643
212	0x3dab9281	0.08377553
213	0xbe623ef2	-0.22094324
214	0x3dcaed22	0.09908511
215	0x3d79f984	0.061028972
216	0x3b61e601	0.0034469368
217	0x3e013deb	0.12621276
218	0x3e25b69a	0.16182938
219	0xbc1ad046	-0.00944907
220	0x3be6f393	0.0070480793
221	0xbd065e38	-0.032804698
222	0x3ddb1de6	0.10699062
223	0x3cee451f	0.029085694
224	0x3ddd98cc	0.10820159
225	0xbe098e4f	-0.13433193
226	0xbd9d17d3	-0.0767056
227	0x3db5ab06	0.08870511
228	0x3d57cbbb	0.052684527
229	0xbdfc2b10	-0.12312901
230	0x3dad752a	0.08469613
231	0x3e1aede4	0.1512981
232	0x3d212413	0.039341044
233	0xbda8bd46	-0.08239226
234	0x3d2113b4	0.03932543
235	0xbcd0c5c8	-0.025484934
236	0xbd138d7a	-0.036023594
237	0xbe54075b	-0.20705931
238	0xbda87006	-0.08224492
239	0x3e131e34	0.1436699
240	0xbd9a404f	-0.07531797
241	0x3e283c23	0.1642919
242	0xbe060a22	-0.13089803
243	0xbd876435	-0.0661091
244	0x3dda537c	0.10660455
245	0xbd06738d	-0.03282504
246	0x3d89e56c	0.06733212
247	0x3d67f578	0.05663058
248	0x3d995f83	0.074889205
249	0x3e1a9063	0.15094142
250	0x3d91b9f1	0.07115544
251	0x3cebe3d4	0.02879516
252	0xbcc7ba13	-0.02438072
253	0xbe0f9e92	-0.14025334
254	0xbdee3133	-0.11630478
255	0x3e214b30	0.15751338

fc3._model.0.bias f4 [64]
0	0xbac22129	-0.0014810908
1	0x3ac236c3	0.0014817346
2	0x3ac23260	0.0014816038
3	0xbac2119b	-0.0014806272
4	0x3ac22fc4	0.0014815261
5	0x3ac1e2a8	0.001479228
6	0x3ac1dce8	0.0014790567
7	0xbac22345	-0.0014811537
8	0xbac236be	-0.001481734
9	0xbac23577	-0.0014816959
10	0xbac21e94	-0.0014810138
11	0xbac2220a	-0.001481117
12	0x3ac2275b	0.0014812754
13	0xbac1cddc	-0.0014786082
14	0x3ac2033a	0.0014801987
15	0xbac21e83	-0.0014810119
16	0xbac22467	-0.0014811874
17	0x3ac21f46	0.0014810346
18	0x3ac23066	0.0014815449
19	0xbac227d3	-0.0014812894
20	0x3ac23622	0.0014817158
21	0xbac231d6	-0.0014815878
22	0xbac204b0	-0.0014802422
23	0x3ac22f4f	0.0014815124
24	0x3ac2362f	0.0014817173
25	0x3ac234bd	0.0014816743
26	0x3ac00427	0.0014649675
27	0x3ac1ee40	0.0014795735
28	0xbac216d3	-0.0014807828
29	0xbac2272b	-0.0014812698
30	0xbac21c1f	-0.0014809406
31	0xbac2050a	-0.0014802527
32	0x3ac225b7	0.0014812265
33	0xbac21c4c	-0.0014809459
34	0xbac175a0	-0.0014759786
35	0x3ac221b0	0.0014811065
36	0xbac236ac	-0.0014817319
37	0xbac2293a	-0.0014813312
38	0x3ac2362c	0.001481717
39	0x3ac2292d	0.0014813297
40	0x3ac1a31f	0.0014773345
41	0xbac22159	-0.0014810964
42	0x3ac05de1	0.0014676416
43	0x3ac1dea5	0.0014791085
44	0xbac21764	-0.0014807996
45	0xbac203bd	-0.001480214
46	0xbac21f0a	-0.0014810276
47	0xbac226e3	-0.0014812615
48	0xbac235e3	-0.0014817085
49	0xbac234e7	-0.0014816792
50	0xbac22b9c	-0.0014814022
51	0xbac21d64	-0.0014809784
52	0x3abed7c1	0.0014560149
53	0xbac2363f	-0.0014817192
54	0x3ac2041c	0.001480225
55	0xbac235e5	-0.0014817087
56	0xbac2342b	-0.0014816573
57	0xbac1b964	-0.0014779982
58	0xbac2345a	-0.0014816627
59	0xbac1dfeb	-0.0014791464
60	0x3ac22733	0.0014812708
61	0x3ac222b1	0.0014811364
62	0x3ac1c569	0.0014783564
63	0xbac1d535	-0.0014788272

fc4._model.0.weight f4 [1, 64]
0	0xbe4242e6	-0.18970832
1	0x3e949d60	0.29026318
2	0x3e61cab0	0.22049975
3	0xbe06604a	-0.13122669
4	0x3e6469a2	0.2230592
5	0x3d6f401b	0.058410745
6	0x3d5efdd5	0.05444129
7	0xbe230886	-0.1592122
8	0xbe8943d5	-0.26809564
9	0xbe387d78	-0.18016613
10	0xbe4d15e8	-0.20027888
11	0xbe5e9e15	-0.21739991
12	0x3e3b7ed3	0.18310098
13	0xbd4747a0	-0.04865229
14	0x3dbf0c67	0.093285374
15	0xbe4bd696	-0.19906077
16	0xbe83c500	-0.25736237
17	0x3e494cd7	0.19658218
18	0x3e304cac	0.17216748
19	0xbe980976	-0.29694718
20	0x3e4b27e5	0.19839437
21	0xbe940936	-0.28913277
22	0xbdc92829	-0.09822113
23	0x3e350ee7	0.17681466
24	0x3e998147	0.29981443
25	0x3e590537	0.21193396
26	0x3b6a981f	0.0035796238
27	0x3d91413a	0.07092519
28	0xbe16c889	-0.14724936
29	0xbe97eadd	-0.29671374
30	0xbe3cddab	-0.18443935
31	0xbdd0fdc1	-0.1020465
32	0x3d3f58a4	0.046715394
33	0xbe391de7	-0.18077813
34	0xbbfef8cc	-0.0077811237
35	0x3e63166f	0.22176526
36	0xbe80e7e5	-0.2517692
37	0xbdd2c658	-0.10291737
38	0x3e873a46	0.26411647
39	0x3e906523	0.2820216
40	0x3d0670db	0.03282247
41	0xbe65cb16	-0.22440752
42	0x3c1face0	0.009745806
43	0x3d66fb1b	0.056391817
44	0xbe20c27c	-0.1569919
45	0xbd6b6a43	-0.057474386
46	0xbe51ea4f	-0.20499538
47	0xbe96b89a	-0.29437715
48	0xbe5d44cf	-0.2160828
49	0xbe823967	-0.2543442
50	0xbe3d2ca5	-0.18474062
51	0xbe3ed184	-0.18634611
52	0x3b40a36e	0.0029394287
53	0xbe8616b3	-0.26189193
54	0x3dc7da91	0.09758485
55	0xbe77eb85	-0.24210937
56	0xbe069952	-0.13144425
57	0xbd11e585	-0.035619278
58	0xbe37e5b5	-0.1795872
59	0xbd72f988	-0.059320003
60	0x3e9684fe	0.2939834
61	0x3e4a3fa1	0.19750835
62	0x3d3a92a6	0.04555001
63	0xbd577355	-0.052600224
