example/cloudManufacturing/rl/phase2/ckpts/policy-model-weight-array.global-step-12000.pth (torch_old, 31923 bytes, 7 tensors)

fc1._model.0.weight f4 [24, 141]
0	0x3d846b0a	0.064657286
1	0xbdbe5ceb	-0.092950664
2	0x3cfa614f	0.030563978
3	0xbd1db577	-0.038503136
4	0x3e3c50bf	0.18390177
5	0x3de01145	0.10940794
6	0x3e3c42b7	0.18384825
7	0x3c83d940	0.016094804
8	0xbd9aa22c	-0.07550463
9	0x3dc06b41	0.09395457
10	0xbe2cd72f	-0.16878961
11	0xbe192d75	-0.14958747
12	0x3e407dfc	0.18798059
13	0xbe3a147b	-0.18171875
14	0xbda04cd5	-0.078271545
15	0x3d7d10f2	0.06178374
16	0x3d0d6845	0.034523267
17	0x3e2fa6fd	0.17153545
18	0xbd1cd109	-0.03828529
19	0x3dbbe660	0.091748
20	0xbddd6b79	-0.108115144
21	0xbdb16c4a	-0.086632326
22	0x3e1d3e5b	0.15355818
23	0x3dffff75	0.124998964
24	0xbdbe2ca7	-0.092858605
25	0x3dfd761b	0.123760425
26	0xba403e64	-0.00073335157
27	0x3d9fb1f1	0.077976115
28	0x3e39cbf7	0.18144213
29	0x3cc84533	0.02444706
30	0x3de62201	0.112369545
31	0xbe3833c6	-0.179885
32	0x3d7d7026	0.06187453
33	0x3cac0e50	0.021002918
34	0x3e211444	0.15730387
35	0x3e079e08	0.13243878
36	0x3d951284	0.07278922
37	0x3dd1cdf2	0.10244359
38	0xbceb981a	-0.028759051
39	0xbd63475e	-0.055487983
40	0xbc1af333	-0.009457397
41	0x3aa0c80f	0.0012266653
42	0xbcc02ddf	-0.023459373
43	0xbc3ac835	-0.011400272
44	0xbd604388	-0.054751903
45	0xbe14563d	-0.14486022
46	0xbe06c47b	-0.13160889
47	0x3e197768	0.14986956
48	0x3dadc60b	0.08485039
49	0x3e1bf1f2	0.15229014
50	0xbdf7b45a	-0.12094946
51	0x3e1d6de0	0.15373945
52	0x3e2b7eec	0.16747636
53	0x3df7cf31	0.121000655
54	0x3e239907	0.15976344
55	0xbe1cbd1a	-0.15306512
56	0x3e184f24	0.1487394
57	0xbaf9efbd	-0.001906864
58	0xbd2209b6	-0.039560042
59	0x3e15d4a0	0.14631891
60	0x3e215ffd	0.15759273
61	0xbdad6ef6	-0.0846843
62	0xbdc72e51	-0.09725631
63	0x3d4316c3	0.04762913
64	0xbdf2beb4	-0.1185278
65	0xbc0f4c27	-0.0087461835
66	0xbe2ab234	-0.16669542
67	0x3e30ad95	0.17253716
68	0xbda8212b	-0.08209451
69	0xbd92ac5f	-0.071617834
70	0xbdb1b3cb	-0.08676871
71	0xbcf67626	-0.030085634
72	0xbe280cd8	-0.1641115
73	0x3cc78515	0.02435545
74	0x3ce3621c	0.027756743
75	0x3b33acfc	0.002741634
76	0x3e1d90d6	0.15387282
77	0xbd140633	-0.036138725
78	0xbd02ae60	-0.03190458
79	0xbd45ae5c	-0.048261985
80	0xbe287370	-0.16450286
81	0xbd9bc1a2	-0.07605292
82	0x3e28cb44	0.1648379
83	0xbd2f93a1	-0.0428654
84	0xbe0df79f	-0.13863991
85	0xbd8a3bdb	-0.06749698
86	0x3d346d45	0.04404952
87	0xbb8f8383	-0.004379691
88	0x3e3ff262	0.18744805
89	0x3d42cbe7	0.047557738
90	0x3e13dd51	0.14439894
91	0x3d816057	0.063172035
92	0xbb3a0b74	-0.0028388174
93	0x3daad1ca	0.08340795
94	0xbe389c38	-0.18028343
95	0x3e20dd48	0.15709412
96	0x3d9a2da8	0.075282395
97	0x3d89969e	0.06718181
98	0x3e230df6	0.15923294
99	0x3df3e1f5	0.11908332
100	0xbe221c0b	-0.1583101
101	0xbd06bd53	-0.032895397
102	0x3cbf6c9e	0.023367222
103	0xbc83f93c	-0.016110055
104	0x3d92bf76	0.071654245
105	0x3d3dd058	0.04634127
106	0xbe29b2b0	-0.1657207
107	0xbe06efb7	-0.13177381
108	0x3e3e43d5	0.18580563
109	0xbd02d1c7	-0.03193834
110	0x3e08cb27	0.13358746
111	0xbde63f96	-0.11242597
112	0x3e110e0f	0.14165519
113	0x3e13ad8a	0.14421669
114	0xbda70ff4	-0.0815734
115	0x3e0df30c	0.13862246
116	0x3db07f01	0.08617974
117	0xbe3accc2	-0.18242171
118	0xbdef9165	-0.11697654
119	0x3e1951ce	0.14972612
120	0x3e38666b	0.1800782
121	0xbe3f8615	-0.18703492
122	0xbd944ec5	-0.072415866
123	0xbdfc128b	-0.12308224
124	0x3e0ace61	0.1355529
125	0xbe099cd5	-0.13438733
126	0xbd7e06f5	-0.062018353
127	0x3e2d75c5	0.16939457
128	0x3e1a7776	0.15084633
129	0xbe1086f9	-0.14113988
130	0xbdbd69b6	-0.092486784
131	0xbe39b70d	-0.18136235
132	0xbe1b6ff2	-0.15179422
133	0xbc2114d9	-0.009831631
134	0xbe43f329	-0.19135727
135	0x3d1c243d	0.038120497
136	0xbcd9866a	-0.026553351
137	0xbe1d9348	-0.15388215
138	0x3d835264	0.06412199
139	0xbd528fc3	-0.051406633
140	0xbd8d4008	-0.068969786
141	0xbe31ef21	-0.17376377
142	0x3db6095a	0.088885024
143	0x3d8f733b	0.070044
144	0xbdd1e76a	-0.10249217
145	0x3dd4c21f	0.10388588
146	0xbe0897d3	-0.13339166
147	0xbe3f2d8d	-0.1866972
148	0xbc6a4389	-0.014298328
149	0x3d2ec603	0.042669307
150	0x3e2a154f	0.16609691
151	0x3d3339e9	0.0437564
152	0xbe0e0b96	-0.13871607
153	0x3df385c1	0.11890746
154	0xbe00fc81	-0.12596323
155	0x3e41b8ef	0.18918203
156	0x3e0a979d	0.13534398
157	0x3d539187	0.051652458
158	0x3e1dc8f1	0.15408684
159	0xbd20b716	-0.039237104
160	0x3dc894cd	0.097940065
161	0x3d58f033	0.052963447
162	0x3dc858bf	0.09782552
163	0x3d0238c5	0.03179242
164	0x3e287d17	0.16453968
165	0x3e3c8053	0.18408327
166	0xbdcedca8	-0.101006806
167	0xbe0f74fa	-0.14009467
168	0xbd5125ce	-0.051061444
169	0x3de414ef	0.11136805
170	0x3d8f09cf	0.06984293
171	0xbd185ac0	-0.03719592
172	0x3de928a6	0.11384706
173	0xbe3f3c47	-0.18675338
174	0x3d8ffa5b	0.070301734
175	0x3e0c8989	0.1372434
176	0x3dfee42f	0.12445866
177	0x3e3c9648	0.18416703
178	0xbe188902	-0.14896014
179	0xbdfd5fff	-0.123718254
180	0x3dbb61d4	0.091495186
181	0xbd96da96	-0.07365911
182	0xbc5148ac	-0.012773674
183	0xbcd2a71a	-0.025714446
184	0xbd6dd7e3	-0.058067214
185	0xbd4970b4	-0.049179748
186	0xbdc71011	-0.09719861
187	0xbe02fcad	-0.127917
188	0xbd8dc1a1	-0.069216974
189	0x3d815198	0.06314391
190	0x3e002eff	0.12517928
191	0xbdb08242	-0.08618595
192	0x3d3ecea4	0.046583787
193	0x3d26b9e0	0.040704608
194	0x3d3997ea	0.045310892
195	0x3d10d529	0.035359535
196	0x3e388775	0.18020423
197	0xbdfaf653	-0.12254014
198	0x3e1a8ac3	0.15091996
199	0xbdbfca69	-0.093647785
200	0xbd452b95	-0.048137266
201	0x3c1a450b	0.009415875
202	0xbd3a0400	-0.04541397
203	0x3e229c48	0.15879929
204	0x3e1f48bd	0.15555091
205	0xbd0dc934	-0.03461571
206	0x3da973b7	0.08274024
207	0x3db44884	0.08802894
208	0xbe0d965f	-0.13826893
209	0x3bc085e9	0.0058753383
210	0x3db70680	0.08936787
211	0x3df8e122	0.12152316
212	0xbd01ade3	-0.031659972
213	0xbb56ad91	-0.0032757262
214	0xbdbcedde	-0.09225057
215	0xbe028d4e	-0.12749216
216	0x3dff97fd	0.12480161
217	0xbd9c28c2	-0.076249614
218	0xbdb0af7f	-0.08627223
219	0x3dfae978	0.12251562
220	0xbdb05567	-0.08610039
221	0xbdcb1798	-0.099166095
222	0x3dc5e640	0.09663057
223	0x3df70958	0.12062329
224	0xbe379ecc	-0.1793167
225	0x3d31e583	0.04343177
226	0xbc7fa0b6	-0.015602281
227	0xbdfbbd6d	-0.122919895
228	0x3ce5d8d7	0.028057499
229	0xbcb65a97	-0.022259993
230	0x3dd446c9	0.10365064
231	0x3d1405b9	0.03613827
232	0x3d955811	0.07292188
233	0x3ca206b8	0.019778594
234	0x3d484ae0	0.04889953
235	0x3dfc1614	0.123088986
236	0x3d874728	0.06605369
237	0xbdf766bc	-0.12080142
238	0xbd71c686	-0.059027217
239	0xbda822a7	-0.082097344
240	0x3e2f24f1	0.17103936
241	0xbc6abd90	-0.014327422
242	0x3e3acf97	0.18243252
243	0x3dbcf377	0.09226125
244	0xbdff3952	-0.12462105
245	0x3dc9cfab	0.09854063
246	0xbe14bf3d	-0.14526077
247	0x3cf0dac9	0.0294012
248	0xbe2a3fb0	-0.16625857
249	0xbdedcaf7	-0.11610978
250	0x3dd2d856	0.10295169
251	0x3e215cdb	0.15758078
252	0x3e073953	0.13205461
253	0x3ccef050	0.025261074
254	0x3d19ee04	0.037580505
255	0x3df62bb0	0.120200515

fc1._model.0.bias f4 [24]
0	0xb97f840b	-0.00024367885
1	0x3abaab2d	0.0014241688
2	0xb90d6afc	-0.00013486663
3	0x3a9141bd	0.0011082214
4	0xbaca5033	-0.0015435278
5	0x3aa56436	0.0012618366
6	0x3aae6fee	0.0013308504
7	0x3ac6fbac	0.0015181205
8	0x3a36ca39	0.00069728825
9	0x3ac1c326	0.001478289
10	0x3a0a8aae	0.0005284947
11	0xbab61696	-0.0013892229
12	0x3acead4f	0.0015768203
13	0x3a851c8c	0.0010155602
14	0xbac76b91	-0.0015214552
15	0x3a001093	0.0004885282
16	0x3a91e46b	0.0011130696
17	0x3adf4ba1	0.0017036089
18	0x3ac60b54	0.0015109577
19	0xbaabda33	-0.0013111293
20	0x3abe28d2	0.0014508015
21	0xbaf49e3e	-0.0018662883
22	0x3aa07ce2	0.0012244249
23	0xb9054ade	-0.00012711759

fc2._model.0.weight f4 [20, 48]
0	0x3e6063ed	0.21913119
1	0x3e8a00fc	0.26953876
2	0x3e9513de	0.2911672
3	0xbe9178b7	-0.2841241
4	0x3dee12ba	0.116246656
5	0xbddfc075	-0.1092538
6	0xbe307bc5	-0.17234714
7	0xbe7e91b0	-0.24860263
8	0xbe39211c	-0.18079036
9	0xbe89eda8	-0.2693913
10	0xbdd4dd53	-0.10393777
11	0xbc8e6979	-0.017384278
12	0xbdb64246	-0.088993594
13	0xbd55302e	-0.0520479
14	0xbe847a0f	-0.25874373
15	0xbe8fad52	-0.2806192
16	0x3dc7b718	0.09751719
17	0x3e1b2f39	0.15154733
18	0x3bd22d83	0.006414117
19	0x3e190a8a	0.14945427
20	0xbe59cf28	-0.2127043
21	0xbd493400	-0.049121857
22	0xbe459525	-0.19295175
23	0xbd93cc87	-0.07216745
24	0x3dc29f23	0.09503009
25	0x3df3c2ab	0.11902364
26	0x3e2d05be	0.16896722
27	0x3e082fe6	0.13299522
28	0x3bdc14c3	0.006716342
29	0x3e7a188a	0.24423423
30	0xbe70d476	-0.23518547
31	0x3e02182c	0.12704533
32	0x3e9439a0	0.28950214
33	0xbd9cb24a	-0.076511934
34	0x3df560a5	0.11981324
35	0x3cb81ad9	0.02247374
36	0xbdc16b30	-0.094442725
37	0x3d2134a1	0.03935683
38	0x3c95cdaa	0.018286545
39	0xbda5d8c5	-0.08097986
40	0x3e45b2c9	0.19306482
41	0xbc156b45	-0.009119813
42	0xbe670e68	-0.2256409
43	0xbe930a83	-0.28718957
44	0xbe07832e	-0.13233635
45	0x3e30b123	0.17255072
46	0x3d913464	0.07090071
47	0x3e2538e8	0.1613499
48	0xbda18cab	-0.078881584
49	0xbc1e2aed	-0.009653789
50	0xbda5f31c	-0.0810301
51	0xbd5b7b69	-0.05358449
52	0xbe3c2aa7	-0.18375646
53	0x3e2de059	0.16980113
54	0xbe3605b4	-0.17775613
55	0x3d416b5e	0.047221534
56	0xbe7c2cec	-0.24626511
57	0x3d909c83	0.07061102
58	0x3dd8081f	0.10548424
59	0x3e850cc1	0.25986293
60	0xbe625cad	-0.22105666
61	0xbe5df9e0	-0.21677351
62	0x3e104a45	0.14090832
63	0xbe1d50f3	-0.15362911
64	0xbd55a4e9	-0.052159224
65	0xbe6fa88f	-0.23404144
66	0x3d87ab0d	0.06624422
67	0xbe8f465a	-0.2798336
68	0xbe8895f8	-0.26676917
69	0x3e5c6491	0.21522738
70	0x3cfb2be9	0.030660586
71	0xbd45fc9c	-0.04833661
72	0xbe6ca281	-0.23108865
73	0xbe681e78	-0.22667873
74	0xbe1bf025	-0.15228327
75	0x3e43ded3	0.1912797
76	0xbe443433	-0.19160537
77	0xbe7b6fa3	-0.24554305
78	0x3e904e32	0.28184658
79	0xbdaf4d0e	-0.08559619
80	0x3e8946d3	0.26811847
81	0x3e2d47cd	0.16921921
82	0x3d484336	0.048892222
83	0xbe3d2c8a	-0.18474022
84	0x3e6485c3	0.22316651
85	0xbd0c6e35	-0.03428479
86	0x3e45114d	0.19244881
87	0x3dc0b806	0.094101
88	0x3e4c3f7b	0.19946091
89	0xbdc19687	-0.09452539
90	0xbda416a5	-0.080121316
91	0xbdb3e779	-0.08784384
92	0xbe2c73cf	-0.16841052
93	0x3e852c93	0.2601057
94	0x3e85ebbf	0.26156422
95	0x3e19908c	0.14996547
96	0xbe5556b8	-0.20833862
97	0x3e459979	0.19296826
98	0xbd04bed5	-0.032408554
99	0xbdb223b2	-0.086982146
100	0x3d986b3e	0.0744233
101	0xbd69a5f5	-0.057043035
102	0xbe6ebc2b	-0.23313968
103	0xba2e5abb	-0.0006651093
104	0x3e8d2f31	0.27575067
105	0xbe80b076	-0.2513463
106	0x3d5ed40c	0.054401442
107	0xbdc4c8c3	-0.09608605
108	0x3ce9bd90	0.028532773
109	0x3e6ac07a	0.22924986
110	0x3c10762a	0.008817235
111	0x3e1f1c2d	0.15538092
112	0x3df15dc8	0.117854655
113	0xbe8648b0	-0.2622733
114	0x3e802eac	0.25035608
115	0xbd80679f	-0.06269764
116	0x3e87d2d7	0.26528046
117	0xbdcfdc94	-0.10149494
118	0xbe52e921	-0.20596744
119	0x3e6d43ce	0.23170397
120	0xbe48c02e	-0.1960456
121	0x3e805be9	0.25070122
122	0x3de9d710	0.11417973
123	0xbe8ee94f	-0.27912375
124	0xbdfba1f7	-0.12286752
125	0x3e40762d	0.1879508
126	0x3e1c2bdc	0.15251106
127	0x3e16a313	0.14710645
128	0x3df7f070	0.12106407
129	0x3e55f7dd	0.20895334
130	0xbc7a22d3	-0.015267092
131	0xbe253eff	-0.16137312
132	0xbd9f1c5a	-0.077690795
133	0x3d4f05a4	0.05054249
134	0x3e0ccd30	0.13750148
135	0xbe8fe87d	-0.28107062
136	0xbe77b157	-0.24188744
137	0xbe226d9c	-0.15862125
138	0xbc87be83	-0.016570335
139	0x3e84a29e	0.25905317
140	0x3d8191d5	0.063266434
141	0x3e880fce	0.26574558
142	0xbe97083c	-0.2949847
143	0xbe45c7bb	-0.19314472
144	0xbe495240	-0.19660282
145	0x3da215c4	0.07914308
146	0xbe42fe92	-0.19042423
147	0x3c2578a0	0.01009956
148	0x3a328a00	0.0006810725
149	0xbe50fb72	-0.20408419
150	0xbe010d90	-0.1260283
151	0x3e91edbc	0.2850169
152	0x3dc9f824	0.09861782
153	0xbe886943	-0.26642808
154	0x3e36d5b8	0.17854965
155	0x3e82b158	0.25525928
156	0xbe6b808b	-0.22998254
157	0xbdb32c1c	-0.087486476
158	0xbe828c87	-0.2549784
159	0xbd7e9fd8	-0.062164158
160	0x3cab0710	0.020877391
161	0xbe91b10e	-0.28455395
162	0xbd1a3f30	-0.037657917
163	0xbe507c9a	-0.20360032
164	0xbd9db6f2	-0.0770091
165	0xbe74a70b	-0.23891847
166	0x3bdd7d00	0.006759286
167	0xbe68681a	-0.22695962
168	0x3e8286c6	0.2549345
169	0xbd8b1456	-0.06790988
170	0xbe3b500b	-0.18292253
171	0x3df941b4	0.12170735
172	0xbda972b2	-0.082738295
173	0x3e96c3d4	0.2944628
174	0x3d8d74d0	0.06907046
175	0x3dfd34b8	0.12363571
176	0xbe47e052	-0.19519165
177	0x3e1e7a92	0.15476444
178	0xbd49bcac	-0.049252197
179	0x3e123bf6	0.14280686
180	0x3e35264e	0.17690393
181	0xbe43f751	-0.19137312
182	0xbd788274	-0.060671285
183	0x3d716358	0.058932632
184	0xbe52bdf4	-0.20580274
185	0x3e5a8db0	0.21343112
186	0xbe20e965	-0.15714033
187	0xbe7a942e	-0.24470589
188	0xbe915b50	-0.28389978
189	0xbe5eae42	-0.21746162
190	0xbdeb21a6	-0.11481027
191	0xbe15213c	-0.14563459
192	0x3e391441	0.18074133
193	0x3c2309c2	0.009951057
194	0xbd8b5470	-0.068032146
195	0x3dbeb7ec	0.09312424
196	0x3e8eb4c7	0.27872297
197	0x3e1f9714	0.15584975
198	0x3e792b2a	0.24332872
199	0xbd83afe1	-0.064300306
200	0x3d11d2d6	0.03560146
201	0x3e8702e4	0.26369393
202	0xbd825eaf	-0.06365716
203	0x3d095e97	0.033537474
204	0x3d62d329	0.05537716
205	0x3c908e10	0.017645866
206	0x3d92d277	0.07169049
207	0xbe473a20	-0.19455767
208	0x3e1c48eb	0.15262191
209	0x3e960f83	0.2930871
210	0x3d930bcb	0.07179984
211	0xbdcaab59	-0.09895963
212	0xbc173699	-0.009229326
213	0x3e625d77	0.22105967
214	0x3c1b51bc	0.009479936
215	0xbd0ad859	-0.03389773
216	0xbdd5eb82	-0.1044531
217	0xbd9ced2a	-0.07662423
218	0xbe7cd4e3	-0.24690585
219	0x3da04f65	0.07827643
220	0xbe56fdd1	-0.20995261
221	0xbce64460	-0.028108776
222	0xbe8afc4b	-0.2714561
223	0xbe07a222	-0.13245443
224	0x3cbe05ce	0.023196127
225	0x3de78188	0.11304003
226	0x3e486991	0.1957152
227	0x3e330a94	0.17484504
228	0xbe179f90	-0.14806962
229	0xbe80d4d4	-0.25162375
230	0x3e453d4c	0.19261664
231	0xbe3db5c6	-0.18526372
232	0x3def5444	0.11685994
233	0xbe45f533	-0.19331817
234	0x3da6ea58	0.08150166
235	0xbe37f7f5	-0.17965682
236	0xbe63c7d5	-0.22244199
237	0x3df1d17a	0.118075326
238	0xbd48af72	-0.048995443
239	0xbe45782a	-0.1928412
240	0x3de67e04	0.11254504
241	0xbe8abf2f	-0.27098987
242	0xbe3d5674	-0.1849001
243	0xbe4a062b	-0.19728915
244	0xbe852858	-0.26007342
245	0xbdd554a9	-0.10416538
246	0x3e04dbda	0.12974492
247	0xbe2c15ef	-0.16805242
248	0xbdf7cc38	-0.120994985
249	0x3de58067	0.112061314
250	0xbcae3ef8	-0.02127026
251	0xbe2e464e	-0.17019007
252	0xbe8d8d5d	-0.27646914
253	0x3dde6f23	0.108610414
254	0x3e12d6fa	0.1433982
255	0xbe051701	-0.12997057

fc2._model.0.bias f4 [20]
0	0xba018b51	-0.0004941719
1	0xb5f75e68	-1.843041e-06
2	0xb825d6ea	-3.953922e-05
3	0x00000000	0.0
4	0x3825cdd8	3.9530772e-05
5	0xb5e04f4b	-1.6712378e-06
6	0x3a019302	0.00049428653
7	0x9a86960d	-5.566352e-23
8	0x372952df	1.009248e-05
9	0xb71b5df0	-9.2605915e-06
10	0x8ff3e589	-2.4050064e-29
11	0x00000000	0.0
12	0x35c7abeb	1.487669e-06
13	0x34bf5456	3.5637885e-07
14	0x31420886	2.823556e-09
15	0x00000000	0.0
16	0x9e29199f	-8.952084e-21
17	0x00000000	0.0
18	0x00000000	0.0
19	0xb141dab6	-2.820952e-09

fc3._model.0.weight f4 [64, 48]
0	0xbe20b35e	-0.15693423
1	0x3dde94ca	0.10868223
2	0x3d7d8e6b	0.0619034
3	0x3d134f66	0.035964392
4	0x3da9e732	0.0829605
5	0x3c62a197	0.013832471
6	0xbcd1cd39	-0.025610553
7	0x3e17d47e	0.14827153
8	0x3e5b6b70	0.21427703
9	0xbe198fa6	-0.14996204
10	0xbd62533c	-0.05525516
11	0xbdb1eab0	-0.08687341
12	0x3d9f8c59	0.07790441
13	0xbe2ce73a	-0.16885081
14	0xbe05192c	-0.12997884
15	0xbd105939	-0.03524134
16	0x3e288e49	0.16460527
17	0x3d819b17	0.06328409
18	0xbc962aba	-0.01833092
19	0xbe48ccce	-0.19609377
20	0x3cb128c0	0.021625876
21	0xbe11e036	-0.14245686
22	0x3d8bf2b9	0.06833405
23	0x3d82ff8a	0.063963965
24	0x3e3ffc11	0.187485
25	0x3c3f4c44	0.011675898
26	0x3e11eafd	0.14249797
27	0x3b9b9ad7	0.004748683
28	0x3d33da7e	0.043909542
29	0xbc6d71bb	-0.0144924475
30	0xbdb7bc9a	-0.0897152
31	0xbe4d0130	-0.20019984
32	0x3e5d4b30	0.21610713
33	0x3d90367e	0.070416436
34	0x3e286b54	0.16447192
35	0xbd97c926	-0.07411413
36	0xbdb1e75d	-0.08686707
37	0x3d82fa71	0.06395424
38	0xbd516478	-0.051121205
39	0xbc81b031	-0.015831085
40	0xbce43326	-0.02785642
41	0x3d65e778	0.05612895
42	0xbc5cd61e	-0.013478784
43	0xbc485667	-0.012227631
44	0x3e533448	0.20625412
45	0xbe065dc7	-0.1312171
46	0xbdacaedf	-0.084317915
47	0x3e3e743b	0.18599026
48	0xbe65fd7a	-0.22459975
49	0x3e4ed784	0.201994
50	0x3ddf8aa9	0.10915119
51	0xbde0febf	-0.10986089
52	0xbe469c12	-0.19395474
53	0x3d06b490	0.03288704
54	0x3e623751	0.22091414
55	0x3e3f23c2	0.18665984
56	0xbe1340d7	-0.14380203
57	0xbd88d141	-0.06680537
58	0xbb577699	-0.0032877086
59	0x3d5a0fdb	0.053237777
60	0xbd9fac4e	-0.077965364
61	0xbdcbba83	-0.09947684
62	0x3e3df967	0.1855217
63	0x3e2d8543	0.16945367
64	0x3e22919a	0.15875855
65	0xbdb0f60e	-0.08640681
66	0x3dc06ba1	0.093955286
67	0xbda4ae40	-0.08041048
68	0xbe006976	-0.1254023
69	0x3e2bfece	0.16796419
70	0xbdea84dd	-0.11451123
71	0x3e15ac43	0.14616494
72	0x3e5b93ab	0.2144305
73	0xbbc89342	-0.00612107
74	0xbe3a6197	-0.1820129
75	0xbc8849cb	-0.01663675
76	0x3d995ebd	0.07488773
77	0xbe237133	-0.15961151
78	0x3d705855	0.05867799
79	0xbe4126a9	-0.18862404
80	0x3d21da5c	0.039514884
81	0xbcf134e8	-0.029444173
82	0x3c7c5039	0.015399986
83	0xbcbb8ef2	-0.02289531
84	0xbe48135a	-0.19538632
85	0x3da60036	0.08105509
86	0xbcc25108	-0.02372028
87	0x3db40fe1	0.08792091
88	0x3d5eecd5	0.05442508
89	0x3dcaefc8	0.09909016
90	0xbde98e2b	-0.114040695
91	0x3e66f5a3	0.2255464
92	0xbe49cd7a	-0.1970729
93	0x3e2c64d0	0.16835332
94	0xbe450996	-0.19241938
95	0x3cab312f	0.020897476
96	0x3df5c17a	0.11999793
97	0xbe68464c	-0.22683066
98	0xbd901dc7	-0.070369296
99	0xbde58160	-0.11206317
100	0xbd3df47a	-0.04637573
101	0xbe348407	-0.1762849
102	0x3d4e01fd	0.050294865
103	0x3d16bcad	0.03680103
104	0x3d8fbc2b	0.07018312
105	0x3e259e3d	0.16173644
106	0x3dbb3a03	0.09141924
107	0x3dcc4933	0.09974899
108	0x3d24610f	0.040131625
109	0xbe4cf3ef	-0.20014928
110	0x3dd6d7bc	0.10490367
111	0xbdcde613	-0.10053649
112	0x3d5071a2	0.05088962
113	0xbdbc5ded	-0.091976024
114	0x3de7826e	0.11304174
115	0x3d1b3ae1	0.03789795
116	0x3e1c3e05	0.15258034
117	0x3e1339f0	0.1437757
118	0x3daab1ba	0.0833468
119	0x3e3a01b1	0.18164708
120	0xbdd2d29f	-0.10294079
121	0xbd9543b2	-0.072883025
122	0x3e1e9dd0	0.15489888
123	0x3dc89f88	0.09796053
124	0xbe4cf298	-0.20014417
125	0xbdf708bf	-0.12062215
126	0x3d8b0651	0.06788314
127	0xbddb7018	-0.107147396
128	0xbdbcddd8	-0.09222001
129	0x3e2c3ebb	0.16820805
130	0xbdef7765	-0.116926946
131	0xbd858db5	-0.06521169
132	0xbbdd7944	-0.0067588408
133	0xbe60f393	-0.21967916
134	0x3b55d772	0.0032629636
135	0xbe6b17a1	-0.22958232
136	0x3d4400cd	0.047852326
137	0x3d9b19a0	0.07573247
138	0xbe58bf87	-0.21166812
139	0x3e07ec00	0.1327362
140	0xbe53dedd	-0.20690484
141	0x3d6edab3	0.058314037
142	0xbd6d5879	-0.057945702
143	0x3dd74dcc	0.105128855
144	0xbe062fb2	-0.13104132
145	0x3e0af6d6	0.13570723
146	0x3e4877fd	0.19577022
147	0xbe4c9322	-0.19978002
148	0xbdf535ea	-0.11973174
149	0x3d4dabf8	0.05021283
150	0xbda9cd97	-0.08291166
151	0xbe6e34dd	-0.23262353
152	0x3d546621	0.05185521
153	0x3e382118	0.17981374
154	0x3c72fcb2	0.014830755
155	0xbe0ee5e2	-0.13954881
156	0xbe1cdb34	-0.15317994
157	0xbdb54a8c	-0.08852109
158	0x3af651ef	0.0018792729
159	0xbe482b1a	-0.19547692
160	0x3e2cbb4a	0.1686832
161	0xbdbe626d	-0.09296117
162	0xbdf12b93	-0.11775889
163	0xbc91a439	-0.017778503
164	0x3d341fea	0.043975748
165	0xbe0ca7bb	-0.13735859
166	0x3e44cd5d	0.19218965
167	0x3da9c720	0.08289933
168	0xbe3e449e	-0.18580863
169	0x3d8852f8	0.0665645
170	0x3e574c35	0.21025164
171	0xbc311fb8	-0.010810785
172	0x3e135105	0.14386375
173	0xbdf96454	-0.12177339
174	0x3e0d9b9e	0.13828894
175	0xbe1ff232	-0.15619734
176	0x3e257962	0.16159585
177	0xbe2a789d	-0.16647573
178	0xbe23eeef	-0.16009115
179	0x3e241b10	0.16025949
180	0xbc7268a2	-0.014795454
181	0xbde86630	-0.11347616
182	0xbe455ee4	-0.19274479
183	0xba8962e8	-0.0010481747
184	0x3cbfe195	0.023422996
185	0x3d8bad58	0.06820172
186	0x3e598b00	0.2124443
187	0x3e203a60	0.15647268
188	0xbd714b67	-0.0589098
189	0xbe372809	-0.17886366
190	0xbe40dc06	-0.18833932
191	0x3e3bee09	0.18352522
192	0xbe6b25c9	-0.22963633
193	0xbe3b7f13	-0.18310194
194	0x3e030490	0.12794709
195	0x3dc4ce68	0.09609681
196	0x3d0214ba	0.031758048
197	0x3e6804fd	0.22658153
198	0x3dca840a	0.09888466
199	0x3da1264d	0.078686334
200	0x3e29d9c3	0.16586976
201	0xbdd23187	-0.10263353
202	0xbe2c8484	-0.16847426
203	0x3e0b08ca	0.13577572
204	0x3b55a443	0.0032599128
205	0x3d7947f5	0.06085964
206	0x3e5802f6	0.2109488
207	0x3e456335	0.19276126
208	0x3e088b44	0.13334376
209	0xbe38bde7	-0.18041192
210	0xbe2ff9cb	-0.17185132
211	0xbe54ee5c	-0.20794052
212	0x3e3033bc	0.17207235
213	0x3da29da9	0.079402275
214	0x3d8b4884	0.06800941
215	0xbd946b54	-0.07247034
216	0xbe6db892	-0.23214939
217	0xbda10b80	-0.078635216
218	0x3dbae959	0.09126539
219	0x3d803a83	0.0626116
220	0x3de89a36	0.113575384
221	0x3ddf9132	0.10916366
222	0x3d9acbfc	0.07558438
223	0x3ccc038a	0.024904031
224	0x3dec6404	0.11542514
225	0x3be80707	0.007080916
226	0x3e3a6aed	0.18204851
227	0xbc429f44	-0.011878792
228	0xbe3153ba	-0.17317095
229	0x3e1f6d86	0.15569124
230	0xbe385589	-0.18001379
231	0xbdfb436a	-0.122687176
232	0x3ddf03b4	0.10889378
233	0x3df09018	0.11746234
234	0x3e1162c4	0.14197832
235	0x3e2bcd29	0.16777481
236	0x3da10adb	0.07863399
237	0x3e27ab9e	0.1637406
238	0xbe4b1a2b	-0.19834201
239	0xbe6849f9	-0.22684468
240	0xbe37781b	-0.1791691
241	0x3d772b51	0.060344044
242	0x3d28c9b5	0.041207988
243	0x3bc5a67d	0.00603181
244	0x3e41be1d	0.18920179
245	0x3dc52286	0.096257254
246	0x3d931c5b	0.07183143
247	0x3de610b7	0.11233657
248	0xbe5aa914	-0.2135356
249	0xbe021402	-0.12702945
250	0x3d7bbdbc	0.06146024
251	0x3d21afc5	0.039474268
252	0x3dbeeddd	0.093227126
253	0xbe5742a0	-0.21021509
254	0xbe5549ab	-0.20828883
255	0xbe10610a	-0.14099517

fc3._model.0.bias f4 [64]
0	0xbb28a409	-0.0025732538
1	0xbb2fe34a	-0.0026838356
2	0xbb31e582	-0.0027144854
3	0x3b3125c3	0.0027030564
4	0x3b31e70f	0.0027145778
5	0x3b31a681	0.00271073
6	0x3b30b2f7	0.002696214
7	0xbb31a804	-0.0027108202
8	0x3b31905b	0.00270941
9	0x3b315d88	0.0027063806
10	0x3b31ccea	0.0027130195
11	0x3b31e866	0.0027146577
12	0xbb31d8b1	-0.0027137215
13	0xbb2fa67c	-0.0026802113
14	0x3b31aaa8	0.0027109776
15	0xbb3206be	-0.0027164663
16	0x3b319cf3	0.0027101606
17	0x3b31c0a7	0.0027122886
18	0x3b318e23	0.0027092777
19	0x3b3215a8	0.0027173553
20	0x3b310a4d	0.0027014196
21	0x3b2d5cf8	0.0026453119
22	0x3b2f66b7	0.0026764104
23	0xbb31b5d7	-0.0027116442
24	0x3b30d579	0.0026982708
25	0x3b31d3d2	0.0027134311
26	0x3b320708	0.0027164835
27	0x3b028054	0.0019912915
28	0x3b31f386	0.0027153208
29	0x3b31fdbd	0.0027159296
30	0xbb31aa46	-0.0027109548
31	0xbb2ff5cc	-0.0026849387
32	0xbb306b4d	-0.0026919425
33	0xbb31c959	-0.002712807
34	0xbb31ebaa	-0.0027148523
35	0x3b31df65	0.002714121
36	0xbb30e0e2	-0.002698951
37	0xbb31cd91	-0.0027130584
38	0x3b29afdd	0.0025892176
39	0xbb318b21	-0.0027090984
40	0x3b320464	0.0027163262
41	0x3b322379	0.0027181788
42	0xbb311feb	-0.0027027081
43	0xbb312241	-0.0027028474
44	0xbb322186	-0.0027180626
45	0xbb31d347	-0.0027133988
46	0xbb31acf7	-0.0027111152
47	0x3b31ae64	0.0027112002
48	0x3b3057e9	0.0026907867
49	0xbb321c5f	-0.0027177555
50	0xbb30eceb	-0.0026996683
51	0x3b2e5ed6	0.002660682
52	0x3b318f86	0.0027093603
53	0xbb31950b	-0.0027096893
54	0xbb3196db	-0.0027097974
55	0xbb31d6b8	-0.002713604
56	0xbb31ef8e	-0.0027150842
57	0xbb319d04	-0.0027101645
58	0xbb2ebf42	-0.0026664292
59	0xbb30f813	-0.0027003333
60	0x3b31968a	0.0027097785
61	0x3b321011	0.002717022
62	0xbb31008e	-0.0027008387
63	0x3b31dfaf	0.0027141382

fc4._model.0.weight f4 [1, 64]
0	0x3c7a4604	0.015275482
1	0x3d7dcca8	0.061962754
2	0x3e800d99	0.25010374
3	0xbde5dd2e	-0.11223827
4	0xbe75c1f5	-0.2399977
5	0xbe165bc1	-0.14683439
6	0xbdbcd71b	-0.092207156
7	0x3e391d57	0.18077599
8	0xbe0d0738	-0.13772285
9	0xbe080fcd	-0.13287278
10	0xbe490fdd	-0.19634958
11	0xbe763bfc	-0.2404632
12	0x3e6c4100	0.2307167
13	0x3d4a53b2	0.049396224
14	0xbe17c19a	-0.14819947
15	0x3e6b20c6	0.22961721
16	0xbe0fd6d0	-0.14046788
17	0xbe21bb75	-0.15794165
18	0xbe0923bc	-0.13392538
19	0xbe938591	-0.2881284
20	0xbddd465d	-0.10804436
21	0xbcdf8028	-0.02728279
22	0xbd3c262f	-0.045934852
23	0x3e2dabbd	0.16960044
24	0xbdcdffd1	-0.10058559
25	0xbe55bc65	-0.20872648
26	0xbe7981f9	-0.24365987
27	0xba9378ff	-0.001125127
28	0xbe58b8af	-0.21164201
29	0xbe77268b	-0.24135797
30	0x3e44a011	0.19201685
31	0x3d5755fb	0.05257223
32	0x3da7527e	0.08170031
33	0x3e495c0c	0.1966402
34	0x3e890a82	0.2676583
35	0xbe7f89bc	-0.24954885
36	0x3dd5ec29	0.104454346
37	0x3e67d248	0.2263881
38	0xbc8f603d	-0.017501945
39	0x3e2ffe0a	0.17186752
40	0xbe6f2413	-0.23353605
41	0xbe9c448f	-0.30521056
42	0x3dc92d88	0.098231375
43	0x3df43d10	0.11925709
44	0x3e957499	0.2919052
45	0x3e5071dd	0.20355935
46	0x3e1b0a95	0.15140755
47	0xbe24df37	-0.16100775
48	0xbd9681eb	-0.07348999
49	0x3e89bb17	0.2690055
50	0x3ddce986	0.107867286
51	0xbd075e4a	-0.033048905
52	0xbe331245	-0.17487438
53	0x3e36d812	0.17855862
54	0x3e0ec6a9	0.1394297
55	0x3e755ea9	0.23961891
56	0x3e77537d	0.24152942
57	0x3e3b4017	0.18286167
58	0x3d210157	0.03930792
59	0x3dd75abd	0.10515354
60	0xbe31c852	-0.17361572
61	0xbe7ea644	-0.24868113
62	0x3de8b28c	0.1136218
63	0xbe402fdd	-0.18768258
