example/cloudManufacturing/rl/phase2/ckpts/policy-model-weight-array.global-step-5000.pth (torch_old, 32003 bytes, 7 tensors)

fc1._model.0.weight f4 [24, 141]
000000 29 73 2b be e4 39 20 3e ec 14 af 3d a4 7a d5 bd
       -0.16743149 0.15647084 0.085489124 -0.104237825
000010 d6 1d 10 3e 6f 1c 97 bd 98 a2 a7 bc 34 cf 9a 3d
       0.14073882 -0.0737847 -0.020463273 0.07559052
000020 90 da 16 3e 98 1b 31 3e d4 78 b7 bd 1d c8 2a be
       0.14731812 0.17295682 -0.08958593 -0.166779
000030 50 ee b6 3d 98 0d 8c 3d 05 cc ec bd c4 96 a6 3d
       0.08932173 0.0683853 -0.11562351 0.08134225
000040 7e ae 17 3e ee 55 10 3e ce 9f 04 be a0 94 8b 3d
       0.14812657 0.1409528 -0.12951586 0.06815457
000050 b4 bb f4 3d ee 9d 0f be 0e 16 1b 3e 0d 8a 39 be
       0.11949864 -0.14025089 0.15145132 -0.18119068
000060 2e 84 16 be 10 92 f5 3d 20 d7 22 bd d4 b1 00 bd
       -0.1469886 0.1199075 -0.03975594 -0.03141959
000070 6d 53 1d be ea df 06 3e 88 32 a3 bc d0 c5 8f 3c
       -0.15363856 0.13171354 -0.019921556 0.017550379
000080 30 49 c0 bd 48 06 2e bd 4c 54 62 3d a2 86 3d 3e
       -0.093889594 -0.04248646 0.055256173 0.1850839
000090 0a ae 3a 3e 00 1a 97 bb 16 65 41 3e fc 94 c4 3d
       0.18230453 -0.0046112537 0.18886217 0.09598729
0000a0 75 4a 3a be 7c 3a 26 be 70 b5 c0 bc d8 ad ce 3d
       -0.18192466 -0.16233248 -0.023524016 0.10091752
0000b0 0c c4 9e 3d 77 bc 34 be e4 91 3d be 58 bb 2d 3e
       0.07752237 -0.17650019 -0.18512684 0.16965997
0000c0 14 aa 6a bd fe 71 08 be 1c 7a 08 3e a8 4b be 3c
       -0.057291105 -0.13324735 0.13327831 0.023229435
0000d0 04 ad e2 3d ec fe ff 3d 28 aa 1c bd 86 93 2a be
       0.11068156 0.12499794 -0.03824821 -0.16657838
0000e0 f8 3c da 3d 44 d6 13 be 0c 2c 21 3d 9c 5b dd 3d
       0.1065616 -0.14437205 0.039348647 0.10808489
0000f0 78 66 16 bd 40 f4 32 bb 4c cf 1c bd a4 61 85 bd
       -0.036718816 -0.002730623 -0.03828363 -0.06512764
000100 08 ae a5 3d a0 4a b0 3d b8 c8 93 3c 78 12 85 bd
       0.080898345 0.086079836 0.018040046 -0.06497663
000110 80 61 a3 3d 50 6d 3a bc 18 d0 06 3e 66 3f 0c 3e
       0.07977581 -0.011378601 0.13165319 0.1369606
000120 f0 42 c4 3c d0 f6 e9 bd 22 02 1f 3e 98 1b 41 3e
       0.0239577 -0.11424029 0.15528157 0.18858182
000130 0a a9 31 be 2c 74 3b be 70 60 ff 3d 24 48 ba 3d
       -0.1734964 -0.18306035 0.12469566 0.09095791
000140 aa 6e 0c 3e 66 42 17 be 9c 56 ac 3d a8 d0 88 3d
       0.1371409 -0.14771423 0.08414957 0.06680423
000150 34 df 18 3d 2a c3 c1 bd 06 98 35 3e a4 85 ab 3d
       0.037322238 -0.09461053 0.17733774 0.08375099
000160 7c 0b 04 be 8c 5f 70 3d 08 c5 0e bd 6c 14 07 3d
       -0.12895006 0.05868487 -0.034855872 0.03297846
000170 e8 6a e1 bc ec 60 80 bd 9e ed 32 3e f0 a2 77 bd
       -0.027516797 -0.062684864 0.17473456 -0.060458124
000180 88 33 ca bc 47 f6 eb bd 5d cb b7 bd b6 51 41 3e
       -0.024682775 -0.11521583 -0.08974335 0.18878826
000190 b2 02 ec bd 20 36 bc 3b 54 88 57 bd c2 5f 11 3e
       -0.115239516 0.005743757 -0.052620247 0.14196685
0001a0 e0 c4 30 bc 5a 02 40 3e 00 b0 21 3e 78 ee 16 be
       -0.010789126 0.18750897 0.15789795 -0.14739406
0001b0 18 21 ca 3d 54 c7 a6 bd f4 50 a7 3d 4c 16 76 bd
       0.098695934 -0.081434876 0.081697375 -0.060079858
0001c0 cd a3 41 be 80 50 d1 3d 41 55 bc bd 68 eb f4 3d
       -0.18910141 0.10220432 -0.091959484 0.11958963
0001d0 7c f9 a3 3d 8e 67 2d 3e 21 78 f4 bd 8c b4 49 3d
       0.0800657 0.16934034 -0.11936975 0.04924445
0001e0 9b 9f e6 bd fc b4 24 3e 87 66 8f bd 56 d7 0e 3e
       -0.11260911 0.16084665 -0.070019774 0.13949332
0001f0 f4 21 96 3d 65 5d 07 be 48 9e 4c 3d 94 6f 03 3e
       0.07330695 -0.13219221 0.049955636 0.12835532
000200 84 c8 36 be 00 b1 3b be 60 fc d2 bb d0 8f 2f 3c
       -0.17849928 -0.18329239 -0.006438777 0.01071544
000210 6c 50 e6 3d 9e 09 9d bd 3b 59 ac bd ab d7 34 be
       0.11245808 -0.0766785 -0.08415457 -0.17660396
000220 9c 07 a8 3d fd 71 c6 bd 40 11 34 be 40 83 c8 3d
       0.082045764 -0.0968971 -0.17584705 0.09790659
000230 f6 20 00 3e 70 2f ee 3d 00 6b 74 3c b0 20 a6 3c
       0.12512574 0.11630142 0.014918089 0.020279258
000240 9c 4c 56 bd 38 fc c0 3d 88 27 e0 3d 0c db bd 3d
       -0.052319154 0.09423107 0.1094504 0.092702955
000250 66 0b 29 3e 2c 75 e6 3d 40 f7 b2 bb 3d 5a 01 be
       0.16508254 0.112528175 -0.0054616034 -0.1263208
000260 f0 37 e6 3d 54 b1 8c 3d 10 c6 a1 3d 50 de 2d bc
       0.11241138 0.0686976 0.078991055 -0.010612085
000270 a0 f3 68 3c 34 3c e1 3d 6a d8 a3 bd dc fb fa 3d
       0.014218241 0.10997811 -0.08000262 0.122550696
000280 e0 a9 f2 bd d7 f3 87 bd 2b 05 e8 bd d8 6f c0 3d
       -0.11848807 -0.06638306 -0.11329111 0.093963325
000290 e0 3a 44 bd 54 eb cc 3d d4 a8 14 3e ca 29 33 3e
       -0.04790771 0.10005823 0.14517528 0.1749641
0002a0 b0 56 79 3c 4d ef 27 be f2 45 ca bd f8 28 a5 3c
       0.015218422 -0.1639988 -0.09876622 0.020161137
0002b0 f4 d3 fc 3d 94 74 be 3d 10 ed 39 3d 56 61 06 be
       0.12345114 0.09299579 0.045392096 -0.13123068
0002c0 22 01 06 3e 38 0e 30 3d 04 d0 09 3d 20 aa 0c be
       0.1308637 0.04298231 0.033645645 -0.13736773
0002d0 42 fd 07 3e 58 9a 85 bd 98 a4 00 bd 18 61 40 3e
       0.13280204 -0.06523579 -0.03140697 0.18787038
0002e0 38 7d ab bc 50 3e 45 bd 60 6f 4d 3d 24 73 ee bd
       -0.020933732 -0.04815513 0.050155044 -0.11643055
0002f0 56 22 86 bd 3d e6 39 be 83 9d c6 bd b0 02 0c 3d
       -0.06549518 -0.18154235 -0.09698012 0.03418225
000300 10 09 1d 3d 70 6c 13 bd 38 b0 35 3e 68 67 18 3d
       0.03833872 -0.035992086 0.17743003 0.03720799
000310 de b5 34 3e 7e 23 16 3e 10 01 c2 3d b0 8d 13 3e
       0.17647502 0.14661977 0.09472859 0.14409518
000320 88 33 06 be f0 71 db 3d 86 3d b4 bd 28 4c 8a bc
       -0.13105595 0.10715091 -0.08800797 -0.016882017
000330 ec a3 84 3d a0 ad 1a 3e 72 21 d8 bd 22 6c 83 bd
       0.06476578 0.15105295 -0.10553254 -0.06417109
000340 a5 17 3b be 80 f1 c8 bd c0 ff b6 3b f3 b4 35 be
       -0.18270738 -0.098116875 0.005584687 -0.17744808
000350 6c 84 ef 3d 60 c7 6a 3d cc d6 81 3d 80 e8 03 bd
       0.11695179 0.057319045 0.063397974 -0.03220415
000360 3d 45 ed bd c1 a0 c1 bd 0c f4 ce 3d e8 f2 7d 3d
       -0.11585472 -0.094544895 0.10105142 0.06199923
000370 e6 3a b4 bd 56 27 d6 bd 75 2b 40 be da 1c 25 3e
       -0.088002965 -0.104567215 -0.18766578 0.16124287
000380 50 4a 50 3c ca 84 29 be 40 a5 ef 3b 01 ba 12 be
       0.01271303 -0.16554561 0.0073134005 -0.14328767
000390 10 53 e1 3c 80 dd ef ba 8c 57 24 3e a4 64 88 3d
       0.027505428 -0.0018300265 0.16049021 0.06659821
0003a0 c8 07 7c 3d 88 90 e6 bd 08 d0 52 3d ec 59 0c be
       0.06153086 -0.11258036 0.051467925 -0.13706177
0003b0 20 ab 1a 3e a0 c5 30 bc 94 f8 00 3d 80 7c 34 be
       0.15104342 -0.010789305 0.031487063 -0.17625618
0003c0 8c 00 11 be f2 c8 32 3e 16 44 02 be 28 32 38 3e
       -0.14160365 0.17459467 -0.12721285 0.17987883
0003d0 84 cf 9e 3d 28 4a f8 3d c8 90 09 3e 07 c6 38 be
       0.07754424 0.12123519 0.13434136 -0.18044291
0003e0 68 30 9b bc a0 33 62 3d 06 ea dc bd c0 67 96 3d
       -0.01894398 0.055225015 -0.10786824 0.073440075
0003f0 5c e6 e2 bd 68 b3 26 3e 70 cc 3f bd 33 91 18 be
       -0.11079094 0.16279376 -0.046825826 -0.14899139

fc1._model.0.bias f4 [24]
000000 91 77 a1 b8 b2 b6 bb 38 a8 c1 f8 36 20 00 38 b6
       -7.699349e-05 8.9508845e-05 7.4135205e-06 -2.741821e-06
000010 14 30 3d 37 e7 d4 3e 39 0e 17 6a 37 c8 9a 70 b7
       1.1276472e-05 0.00018199124 1.3952855e-05 -1.4341153e-05
000020 94 b1 68 b7 b1 0c 26 36 09 58 5b b7 ea 03 10 38
       -1.3869623e-05 2.4743315e-06 -1.30739145e-05 3.433592e-05
000030 89 68 0a b6 39 7d 23 36 7a b8 cf b7 cf 06 90 b7
       -2.062445e-06 2.4361782e-06 -2.4762227e-05 -1.7169308e-05
000040 fe 34 e1 b6 6e da 87 b7 53 22 a3 36 2c 6d 8f b8
       -6.7116916e-06 -1.6194968e-05 4.8617744e-06 -6.839106e-05
000050 50 53 c4 b7 32 77 d6 37 fb 1b 38 b7 ec 27 56 36
       -2.3403816e-05 2.5566293e-05 -1.0973769e-05 3.1911723e-06

fc2._model.0.weight f4 [20, 48]
000000 99 56 22 be f1 c0 4c bc ee 8d 97 3e f9 36 08 3e
       -0.15853347 -0.012497173 0.2960047 0.1330222
000010 eb 73 8e be c4 8d 78 be 94 b2 89 3e 8b bf b0 3d
       -0.27822813 -0.2427283 0.26894057 0.08630284
000020 8a 97 98 3d e4 ed 0b be ae 46 7b 3e c4 89 38 be
       0.07450779 -0.13664967 0.24538681 -0.18021303
000030 d6 4c dc 3d 14 79 17 3e 67 1e b0 3d 04 90 1f bc
       0.10756843 0.14792281 0.08599549 -0.009738926
000040 9c c7 1a be a4 64 2a be a1 e5 44 3e 8a 07 8b be
       -0.15115207 -0.16639954 0.19228221 -0.2715419
000050 7b 70 25 3d 32 76 e4 bd e9 30 6e 3d ce e7 3f 3e
       0.040390473 -0.111553565 0.058152113 0.1874077
000060 cc 3c 7f be 06 25 c2 3d f6 dc fb 3d 1a 7d 7a bc
       -0.24925536 0.09479718 0.12298004 -0.015288616
000070 82 9d 5c 3e 46 b4 3c bd 24 d0 67 3e eb 90 6e bd
       0.2154446 -0.04607036 0.22637993 -0.058243673
000080 35 38 65 be c6 2b 4c be 51 d8 1d 3e a5 83 4a be
       -0.22384723 -0.19938573 0.1541455 -0.19776781
000090 57 68 75 3d bc df 82 3e 8a f6 04 be dd fc 43 be
       0.05991396 0.2556132 -0.12984672 -0.19139428
0000a0 96 10 5e be 2f a9 8a 3e 6b fd 32 be 98 62 81 be
       -0.21686015 0.27082202 -0.17479484 -0.25270534
0000b0 28 7f 8b 3e a2 35 e1 3d 15 ef 08 be bd cb 07 be
       0.2724545 0.10996558 -0.13372453 -0.13261314
0000c0 98 8f c3 3c bd 4d ef 3d 23 1e 7b 3e 64 53 87 3e
       0.023872182 0.11684749 0.24523215 0.2643081
0000d0 98 6f 44 be 3a ae 90 3e d3 85 b5 bd b2 8c eb bd
       -0.19183195 0.28257924 -0.088634156 -0.11501445
0000e0 40 8b 1e bc 33 e7 2a be 00 0e 2e 3d 7b 89 8b bd
       -0.0096767545 -0.16689758 0.04249382 -0.06813332
0000f0 6a 6d 06 3e ba 47 ae bc 47 a6 68 3e 08 15 4a 3e
       0.13127676 -0.021274436 0.2271968 0.19734585
000100 21 66 11 be 50 b9 25 be d3 81 37 3e b3 9b 8e be
       -0.14199115 -0.16183972 0.17920618 -0.27853164
000110 9d 8c 85 3e 1c 0c e5 bd c3 39 13 3e c5 23 8d 3e
       0.26083842 -0.1118395 0.14377503 0.27566352
000120 c4 78 8e be 4e 7b cb 3b 95 a5 83 3e 4c e4 2b 3e
       -0.27826512 0.0062097674 0.25712267 0.16786307
000130 3e b7 8d 3e c0 94 3c be fe 70 7c be 38 2e 62 be
       0.27678865 -0.18416119 -0.24652478 -0.22087944
000140 f1 21 65 3e 08 30 8f be 46 9b 5b 3d 2d 42 31 bd
       0.22376229 -0.27966332 0.053614877 -0.043276
000150 8a 74 96 3e 2c 63 94 3e 50 1b 87 be 45 49 8d be
       0.29385787 0.28981912 -0.26388025 -0.27594963
000160 27 33 7e be 31 f5 85 be 74 3c 6f 3e d8 8f 67 3d
       -0.248242 -0.2616363 0.23362905 0.056533664
000170 04 d6 89 3e e4 de 09 3e c5 7d 88 be 49 5b 03 be
       0.26921093 0.13463932 -0.26658455 -0.12827791
000180 f5 dc 8e 3e 7d fe 90 be 13 89 02 3e 73 a3 e5 3d
       0.27902952 -0.2831916 0.12747602 0.11212816
000190 6c 27 c8 3d 62 b8 a9 3c 25 65 88 be b3 7c 68 3e
       0.09773144 0.020717803 -0.26639667 0.22703819
0001a0 5d 34 00 bd a7 0c 79 bd 9f fe 55 3e 76 f6 ba bd
       -0.031299938 -0.06080308 0.20897911 -0.0912904
0001b0 e4 d5 33 be d6 bb 7f be 9f 1f 06 3e 46 1b 35 3e
       -0.17562062 -0.24973997 0.13098 0.17686185
0001c0 4b 7c 09 be 28 08 07 3d 61 dc f3 3d e4 0a 90 3e
       -0.1342632 0.032966763 0.11907268 0.2813331
0001d0 3b 28 8f 3e 33 2d 2a be 33 4e 44 3e b3 75 1b be
       0.2796038 -0.16618805 0.19170456 -0.15181617
0001e0 9b 41 81 bb d1 7a 0a be ac c8 0d 3e 85 37 37 be
       -0.0039445884 -0.13523413 0.13846081 -0.17892273
0001f0 b3 e8 dc bd 12 73 65 3c 5b 21 d0 3c 9c 20 f5 bd
       -0.10786571 0.014004486 0.02540653 -0.1196911
000200 b5 8d 57 bd 15 fe 6c be 5b 1f 95 3d 35 e8 82 3c
       -0.052625377 -0.231438 0.07281371 0.015979866
000210 c9 b1 bc bd 7d 76 8f 3e 07 45 bf 3d 57 b1 2d 3d
       -0.09213597 0.28020087 0.09339338 0.042405453
000220 b0 39 28 3e 24 46 7a be 04 02 f6 3d af f0 73 be
       0.16428256 -0.24440819 0.12012103 -0.23822282
000230 9b 44 8e bc 8b 16 09 3e 36 3a 87 3e 05 fa a3 3c
       -0.017366698 0.13387506 0.264116 0.02001668
000240 f8 f7 e2 3b 4a fe 6a 3e d0 57 54 3e 80 e4 90 3d
       0.006926533 0.22948566 0.20736623 0.07074833
000250 25 76 94 be bd 23 8f 3e ac e8 8a 3e 65 39 a9 bd
       -0.28996387 0.27956954 0.2713064 -0.082629
000260 e5 bf 86 3d 5b ff 17 3e 3e 82 5a be ab cd 79 be
       0.0657957 0.14843504 -0.21338746 -0.24394862
000270 ae e4 0c be 92 0e f9 3c 6d 00 2e be 5b 1c 82 be
       -0.1375911 0.030402455 -0.1699235 -0.25412259
000280 25 50 00 be a2 8c 2c 3e ad c7 31 be c5 1b 22 3e
       -0.12530573 0.16850522 -0.17361327 0.15830906
000290 49 da 01 be f9 35 1e 3e ed 51 ef bd a2 43 60 3b
       -0.12680925 0.15450276 -0.11685548 0.003422
0002a0 71 81 96 be 8e 51 3f be 42 43 46 3e 9a 01 93 be
       -0.2939563 -0.18683454 0.19361594 -0.2871216
0002b0 7e da 87 be 2f 66 9f bd ca 01 48 3e 1c b8 56 be
       -0.26533884 -0.07783162 0.19531932 -0.2096867
0002c0 e4 0b e3 bd 0e 1d 09 be 6c 1c 92 bd 1e 49 8e 3e
       -0.11086252 -0.1338999 -0.07134327 0.2779016
0002d0 11 aa 7c 3c 47 a6 90 be a9 39 c1 3d 32 c1 24 be
       0.015421406 -0.2825186 0.09434826 -0.16089323
0002e0 8f 0f 05 3e cc ef 03 be e5 1e 85 be 0d 09 31 bb
       0.12994216 -0.12884444 -0.26000133 -0.0027013451
0002f0 59 77 37 be b2 36 f7 3d 7c ed e9 bd 26 b9 4f be
       -0.17916621 0.12070979 -0.1142225 -0.20285472
000300 4d 3c 27 be 46 19 f9 3d 5e 07 6e bd 36 c5 59 be
       -0.16331597 0.12163024 -0.058112495 -0.21266636
000310 4c 8b 8f 3e 02 63 87 bd 51 9a 87 be 06 5c 96 3e
       0.28035963 -0.06610681 -0.26484922 0.29367083
000320 ce 59 66 3d eb 54 59 3e 9d a5 65 3e d2 7a 42 3d
       0.05623799 0.212238 0.22426458 0.04748041
000330 99 94 93 be 14 4c 72 3e 54 a0 c7 bd c1 97 7c be
       -0.2882431 0.23661834 -0.09747377 -0.24667265
000340 5c df 33 be 5d c0 66 3e 36 39 c4 3d cb 6e 35 3e
       -0.17565674 0.22534318 0.095812246 0.17718045
000350 3e 4f 01 3e 41 8e 4c 3e 3e fe 7e be 29 c9 cc bd
       0.12627885 0.1997614 -0.24901673 -0.09999306
000360 c0 de 94 3e e9 2e 9b bc cf a3 7d 3e 53 34 5d be
       0.29076195 -0.018943267 0.2476952 -0.21601991
000370 7d b9 be 3d 98 9b 83 be 52 3d b2 ba 62 4b a3 3d
       0.09312723 -0.25704646 -0.0013598597 0.079733625
000380 07 7e f2 3d b1 5d 67 bd 87 6f 0e be 0c b7 8c bd
       0.11840444 -0.056485835 -0.13909732 -0.06870851
000390 dd 88 04 be 49 47 ab 3d 58 2d f8 bd 26 e1 70 3e
       -0.12942834 0.08363206 -0.12118024 0.23523387
0003a0 46 40 70 3e 23 de 9b bc ad b2 36 bd ff 6f 23 3d
       0.23462018 -0.019026821 -0.044603992 0.03990173
0003b0 3e 68 c1 bd 7f 47 81 bd 1b e5 e4 bd 7d 60 5d be
       -0.09443711 -0.06312465 -0.11176511 -0.21618839
0003c0 60 2d 92 3d 8f 9e 15 be 5c b5 65 3e a2 79 37 be
       0.07137561 -0.14611267 0.22432464 -0.17917493
0003d0 fa f9 9b bd 54 5f 3f be 2c 11 e6 3d 9b 79 7f 3e
       -0.076160386 -0.18688709 0.11233744 0.24948733
0003e0 09 ff 6c 3e b4 1c b6 3d 22 69 b0 bc ef cc 69 3e
       0.23144163 0.088921934 -0.021534506 0.22832082
0003f0 68 1f 81 3e f7 94 8e 3e ef 2a 72 be ba 60 64 3e
       0.25219274 0.27848026 -0.2364919 0.22302523

fc2._model.0.bias f4 [20]
000000 e8 8b c7 38 f6 76 a0 39 3a 1d 10 37 0e 5e 60 3a
       9.515119e-05 0.0003060621 8.589874e-06 0.0008558937
000010 23 b8 b2 b9 1b a3 fc 38 cf 94 6c 3a b0 5e c8 39
       -0.00034087998 0.00012046677 0.000902486 0.0003821752
000020 21 14 f3 39 4d 99 ae 39 cd 67 48 ba fc c1 a2 38
       0.0004636357 0.00033302084 -0.0007644862 7.7608944e-05
000030 94 3c f1 b9 e9 22 a4 b9 7f 83 a6 b9 75 53 fc 39
       -0.00046012236 -0.00031306528 -0.0003175996 0.00048127366
000040 18 d7 ae 38 fd 61 13 ba f0 ab 06 ba 4e 19 d6 37
       8.337031e-05 -0.00056222064 -0.0005137315 2.5522571e-05

fc3._model.0.weight f4 [64, 48]
000000 7f 0b 61 3e cf 57 0b be a0 90 1f be 76 33 ab bc
       0.21977042 -0.13607715 -0.15582514 -0.020898562
000010 d0 ff 18 bc c1 b0 ef 3d 4d e7 64 be 6c 12 5f bd
       -0.009338334 0.11703635 -0.22353859 -0.054460928
000020 00 8d bc 3b 22 cd 64 3e b4 d5 ae bb 2e ff c2 3d
       0.005754113 0.22343877 -0.005335534 0.09521328
000030 c9 e2 22 be 14 43 46 3e 96 d1 cb 3d a6 6c 42 3e
       -0.15906824 0.19361526 0.09952085 0.18986759
000040 21 6d a0 3d a6 b4 56 3e bb 03 6c be 6a cd 90 3d
       0.07833315 0.2096735 -0.23048298 0.070704296
000050 95 ad 07 3c af b3 54 3e bb 8b 62 be 48 59 9d bd
       0.008281131 0.20771669 -0.22123615 -0.07683045
000060 e3 5b 6d bc 6c 80 6b 3e b6 8f 0c be f5 17 ce 3c
       -0.0144872395 0.22998208 -0.13726696 0.025157908
000070 93 af 3c be 23 c3 22 bc cf c9 d9 3b 62 9a 02 be
       -0.18426351 -0.0099342195 0.006646372 -0.12754205
000080 a1 94 fe bd f3 ea 8a 3d 13 73 04 be 23 29 b8 3d
       -0.124306925 0.06783094 -0.12934522 0.08992221
000090 cd 10 3b be f9 0d 7f 3c 4d 40 64 3e 89 de 4c 3e
       -0.18268128 0.015567296 0.22290154 0.20006765
0000a0 c8 5d 57 be e3 87 1a be 8f b0 5a 3e a9 65 65 be
       -0.21031868 -0.15090899 0.21356414 -0.22402062
0000b0 81 ec d3 3b 94 36 6b 3e 6d fc f6 bb f9 5e 27 be
       0.0064674024 0.22970039 -0.0075374157 -0.16344823
0000c0 dd 54 9b 3d 35 ef a0 bc 43 ad a3 bd f0 54 19 3e
       0.07584546 -0.019645313 -0.079920314 0.14973807
0000d0 ea cd 97 bc c9 6b f5 3c 27 53 06 3e c3 a2 7f 3d
       -0.018530805 0.029958623 0.13117658 0.06241108
0000e0 6e 94 af 3d 8a c7 3f 3d 34 31 3f 3c 16 0c 69 3d
       0.085732326 0.046821155 0.011669446 0.05689629
0000f0 33 f0 c3 bd c1 0b 01 be 4b 8d 35 be 8f 4d 61 be
       -0.09567299 -0.1260214 -0.1772968 -0.22002243
000100 3d f6 5d be c0 04 fc bd 8d 51 05 be e2 2e 47 be
       -0.21675964 -0.123055935 -0.1301939 -0.19451478
000110 9a 2d b7 3c 1e d8 9c bd 47 20 64 be a8 35 54 bc
       0.022360612 -0.076584086 -0.22277938 -0.012952246
000120 3e f9 3a be 18 b6 47 be 9a 1c c3 3d 66 1a e0 bd
       -0.18259141 -0.19503057 0.0952694 -0.10942535
000130 64 7a 5e bd 0b b8 6f bd 62 b6 24 3e b1 89 e1 3d
       -0.05431594 -0.058525126 0.16085199 0.11012591
000140 29 eb 07 be bd 1e 30 3e 3f c1 a1 3c 55 7c 4d 3e
       -0.132733 0.17199226 0.019745467 0.2006696
000150 34 de 54 be 43 44 50 3d 3c fc 0a 3e d2 38 12 be
       -0.20787889 0.05084635 0.13572782 -0.14279488
000160 44 54 5d 3e f6 19 1c 3e 32 ad dd bd cc 58 49 be
       0.21614176 0.15244278 -0.1082405 -0.1966278
000170 fb fb 40 3e c4 25 4a 3e fa e6 e8 bd d1 38 2b be
       0.18846123 0.19740969 -0.1137218 -0.16720892
000180 d8 a7 2b 3d 63 96 12 3e 1c 5a 97 bd ad 52 1b 3e
       0.041908115 0.1431518 -0.07390234 0.15168257
000190 c9 08 3e be 29 cb 53 3e 05 9d 0a 3d e6 c8 54 3e
       -0.18558039 0.20682968 0.03384115 0.20779762
0001a0 12 9b ba bd fa 39 0f 3e 09 71 43 3e d0 58 5f 3e
       -0.091116086 0.1398696 0.19086088 0.21811223
0001b0 ea b7 57 3e 27 c4 fb 3d 96 09 67 be ca 3d 2c be
       0.21066251 0.122932725 -0.2256225 -0.16820446
0001c0 5b 21 0f be 9a 77 59 be 0c c0 e6 bc 67 77 00 be
       -0.13977568 -0.2123703 -0.028167747 -0.12545548
0001d0 b7 e0 d4 3d aa 44 33 3e b8 a0 bd 3d 59 3f 80 3d
       0.103944235 0.17506662 0.0925917 0.062620826
0001e0 f1 90 6a bd e4 d6 98 3d 43 c6 50 3e a4 68 19 be
       -0.057267133 0.07462862 0.20388131 -0.14981323
0001f0 cf b6 11 be d7 0a 6a 3e 8c 2b ee bc 0b 7b 0e 3e
       -0.14229892 0.22855698 -0.0290735 0.13914125
000200 07 4f 87 3d 27 78 2f 3e 66 a8 84 3c 6e 9e f5 3d
       0.0660687 0.17135678 0.01619358 0.11993109
000210 51 a4 14 be a6 35 24 3e eb ae 3d 3e 45 28 37 3e
       -0.14515807 0.1603609 0.18523757 0.17886455
000220 fe df 95 3d 81 fd 2f 3e d1 fd 60 bd 01 a3 65 be
       0.07318114 0.17186548 -0.05492956 -0.22425462
000230 e5 bf ae 3d eb c5 8c 3d 7f fb e2 3d 02 cd 55 bd
       0.08532695 0.06873687 0.11083125 -0.052197464
000240 79 0d f2 bc 28 fa 5c 3e 91 fb 1a be e8 df 1b be
       -0.02954744 0.21579802 -0.15135027 -0.15222132
000250 43 d7 63 be 23 0f 39 3e 0d ae 0c 3e 93 a6 54 3d
       -0.22250085 0.1807218 0.1373827 0.05191667
000260 e5 aa 33 3e 5f 54 8b bd e2 77 55 be b4 47 cd 3c
       0.1754566 -0.06803202 -0.20846513 0.025058605
000270 13 9b 6d 3d 28 96 f5 bc 74 fc 1a 3b 0f 81 be bd
       0.05800922 -0.029978827 0.002364901 -0.0930196
000280 81 87 4d be b6 eb d0 bd d2 14 0d be f7 9f 0e be
       -0.20071222 -0.10201208 -0.13777474 -0.13928209
000290 c3 6f cb bd 3f e9 68 3e 12 7e 8f 3d ee 7a 01 3d
       -0.09933426 0.22745226 0.07006468 0.031611376
0002a0 6a 1a a0 bd bb e9 0f bd 9d fb 07 3e c7 7d b9 bc
       -0.07817538 -0.035135012 0.13279577 -0.022642983
0002b0 86 28 87 bb b5 4a 10 3e 33 69 fc 3d 94 02 b1 3d
       -0.004124704 0.14090998 0.12324753 0.0864307
0002c0 5e c1 22 be 6f e1 d6 3d 92 cc 1e be 87 0a ce bd
       -0.15894076 0.10492217 -0.15507725 -0.10060602
0002d0 40 25 08 be d9 55 af bd 59 39 60 be 75 9a ee bd
       -0.1329546 -0.08561296 -0.21896876 -0.11650554
0002e0 c9 1b 25 be af ff 26 3d 13 d8 2f 3e b1 3a 3b 3c
       -0.1612388 0.040771183 0.1717227 0.011427567
0002f0 08 d6 4c be d9 71 2f bd ee 4b 38 bd 90 c8 4f be
       -0.20003521 -0.042833183 -0.044994287 -0.20291352
000300 25 7a f2 3d b3 42 1a 3d d1 c1 01 3e a3 ab 51 3e
       0.118397035 0.037661266 0.12671591 0.2047563
000310 ce eb 51 3e d2 ea 19 bc c5 5b 39 3e be 24 31 be
       0.20500109 -0.009394364 0.18101414 -0.17299172
000320 7b 19 42 be f8 b6 9e bd 23 13 27 be 0a f9 68 bc
       -0.18955033 -0.07749742 -0.16315894 -0.014219532
000330 d0 4e ae bc 31 43 0f be 86 16 01 be d6 48 e9 3d
       -0.021277815 -0.13990475 -0.12606248 0.113908455
000340 68 0c 63 3e 7c 70 9a 3d 73 0c 40 3e 8f 00 cc 3d
       0.22172701 0.07540986 0.18754749 0.09961044
000350 17 e7 66 be 2c 84 4f bd fa 6f 3e bc 75 cd 07 3d
       -0.22549091 -0.05066316 -0.011623377 0.033154923
000360 9b 42 52 bd 9d 21 07 3e 91 9d f9 bd 05 60 b0 3d
       -0.05133305 0.13196416 -0.121882565 0.08612064
000370 db 5a 3f bd 4c 45 33 3e 07 c7 3c be 7d ee a3 3c
       -0.046717506 0.17506903 -0.18435298 0.020011181
000380 81 98 77 bd b6 02 e6 bd 99 ae 8a 3c af dd 28 3d
       -0.060448173 -0.11230986 0.016928958 0.04122704
000390 90 87 b3 bd a2 93 b4 3d a3 70 23 3e 33 5d e0 3c
       -0.08766091 0.08817221 0.15960936 0.02738819
0003a0 ad 75 95 bd 12 48 5a 3e f4 1b bd bc 24 53 26 be
       -0.072978355 0.21316555 -0.023084618 -0.16242653
0003b0 7f e6 04 bd 9d 4a 16 3e f4 ca 27 3e 98 02 92 3d
       -0.03244638 0.146769 0.16386014 0.07129401
0003c0 4a 8a d7 3d 09 d0 09 3e 14 61 35 be b0 85 a0 bd
       0.105244234 0.13458265 -0.17712814 -0.07837999
0003d0 ec f2 07 be 8c 18 92 3d 8f f8 5d 3c 09 e6 06 3e
       -0.13276261 0.07133588 0.0135480305 0.13173689
0003e0 14 2d 85 3d ac d5 0a 3e 00 70 b6 bd 94 87 9a 3d
       0.065027386 0.13558072 -0.08908081 0.07545391
0003f0 37 9e 28 be fd 64 3e be 1f c4 9c bd 34 f1 93 3d
       -0.16466604 -0.18593211 -0.07654595 0.0722374

fc3._model.0.bias f4 [64]
000000 2a 34 57 b7 b9 e5 78 37 65 bb 4b b7 a7 4c 71 b7
       -1.2827144e-05 1.4835438e-05 -1.2143374e-05 -1.4382566e-05
000010 1f 21 4b 37 41 59 6c 37 42 ba 4f b7 aa 78 52 b7
       1.21074545e-05 1.4087477e-05 -1.2381528e-05 -1.254507e-05
000020 85 8b 72 b7 16 47 66 b7 1b 73 45 b7 6a f9 45 b7
       -1.44568085e-05 -1.3725619e-05 -1.1768915e-05 -1.1800186e-05
000030 15 d6 4e b7 2e a1 69 37 b9 98 5f b7 dd 99 63 b7
       -1.2328402e-05 1.392541e-05 -1.3327394e-05 -1.3566078e-05
000040 4a 51 5c 37 c6 af 63 b7 a1 ba 53 36 14 2e 53 37
       1.3131948e-05 -1.357118e-05 3.1550082e-06 1.2587308e-05
000050 c8 16 76 37 47 86 4c b7 8b 2c 80 b7 94 50 4c 37
       1.4668047e-05 -1.2190611e-05 -1.5279531e-05 1.2178109e-05
000060 29 86 4e 37 6a b3 5b 37 9a 39 7b 37 fe c0 92 b7
       1.2309793e-05 1.309519e-05 1.4974177e-05 -1.7494425e-05
000070 22 67 61 37 a5 8b 50 37 78 82 66 37 63 3f 5d b7
       1.3435058e-05 1.243028e-05 1.3739445e-05 -1.3187385e-05
000080 58 5f 4c b7 08 8b 5b 37 55 05 61 37 d5 27 81 b7
       -1.21815465e-05 1.3085788e-05 1.34122865e-05 -1.5396547e-05
000090 0a 8c 68 37 f9 30 60 b7 19 22 6b 37 f3 38 69 37
       1.3860883e-05 -1.3362843e-05 1.40150305e-05 1.3901142e-05
0000a0 7b ce 5c b7 22 5c 6c 37 10 5e 85 b7 65 e0 64 b7
       -1.3161097e-05 1.40881475e-05 -1.5898637e-05 -1.3642105e-05
0000b0 2b 15 81 37 b3 2f 6a 37 87 2f 46 b7 5c 4a 63 37
       1.5387855e-05 1.3958593e-05 -1.18127855e-05 1.35475675e-05
0000c0 5c f7 62 37 89 bc 4e 37 43 02 68 37 c1 73 68 37
       1.3528243e-05 1.2322454e-05 1.3828804e-05 1.3855229e-05
0000d0 3c b9 59 b7 0a d4 68 b7 92 27 77 37 9f 5e 4a b7
       -1.2977336e-05 -1.3877647e-05 1.473156e-05 -1.2062169e-05
0000e0 da 01 67 b7 c2 84 66 b7 4c 53 65 b7 6f f5 57 b7
       -1.3769104e-05 -1.3739978e-05 -1.3668858e-05 -1.2872143e-05
0000f0 61 a1 5a 37 ef ba 4f b7 7c af 5b 37 5f 51 6e b7
       1.30313865e-05 -1.2381685e-05 1.3094275e-05 -1.4204851e-05

fc4._model.0.weight f4 [1, 64]
000000 31 48 54 3e 38 0b ce bc 75 b4 92 3e 4a d4 8f 3d
       0.20730664 -0.025151834 0.28653303 0.07022913
000010 0b 0f 83 be fe 2a 16 bd e0 f9 48 3c 2e 46 da 3b
       -0.25597414 -0.036662094 0.012266606 0.006661198
000020 17 ac 77 3d d6 1c f6 3d 1e 4e 93 3e e2 7b 97 3e
       0.060466852 0.12017219 0.28770536 0.29586703
000030 81 e7 7a 3e 74 a3 e3 bd 1f d8 0b 3e 35 48 0a 3e
       0.24502374 -0.111151606 0.13656662 0.13504107
000040 04 18 31 be 2c e4 0f 3e 48 b2 f6 ba f5 e1 7a be
       -0.17294317 0.14051884 -0.0018821442 -0.24500258
000050 3c 5d b5 bd 54 2c 8d 3e de e4 aa 3c f8 89 8b be
       -0.08855674 0.27572882 0.020861086 -0.272537
000060 30 a5 78 be 6e 0d 4c be 28 8b 17 bd b3 58 92 3c
       -0.24281764 -0.19926998 -0.036997944 0.01786456
000070 35 95 16 be 8e 4a 70 be e8 f0 eb bd d7 ea 1b 3e
       -0.14705355 -0.2346594 -0.115205586 0.15226303
000080 ce 3a 84 3e 48 d8 37 be a1 35 2b be 74 6c 07 3c
       0.25826114 -0.17953598 -0.16719677 0.008265603
000090 b3 98 f5 bd bd c7 16 3e 7e d3 4e bd f9 f4 b7 bd
       -0.11992016 0.14724632 -0.050494663 -0.08982272
0000a0 db 6a 2d 3e b5 4a c3 bd a3 4d 05 3d 85 27 0a 3e
       0.16935293 -0.095357336 0.032544743 0.13491638
0000b0 bf 53 eb bc 6e ac 88 bd 3f ed 94 3e df 98 08 be
       -0.028726457 -0.06673513 0.29087254 -0.13339566
0000c0 fa cd 12 be f9 1e 80 be 3a 94 9c bd 27 18 9e bd
       -0.14336386 -0.2502363 -0.076454595 -0.077194504
0000d0 5e 79 41 3e 68 0f 03 3e f6 b4 a7 bd 3e 39 88 3e
       0.18893954 0.12798846 -0.081888124 0.26606172
0000e0 e2 65 11 3e c8 03 09 3e 03 19 27 3e 00 69 4c 3e
       0.14199021 0.13380349 0.16318135 0.1996193
0000f0 d3 0a 3a be c4 45 71 3e 18 be 50 be 49 96 6b 3d
       -0.18168192 0.2356177 -0.20385015 0.05751637
