example/cloudManufacturing/rl/phase2/ckpts/policy-model-weight-array.global-step-3000.pth (torch_old, 32003 bytes, 7 tensors)

fc1._model.0.weight f4 [24, 141]
000000 5d 57 87 bd a7 64 c4 bd 7d 5b d8 bd 2f 66 c5 bd
       -0.0660846 -0.095895104 -0.10564325 -0.096386306
000010 30 62 8a bc 40 9a de bc b8 63 2e 3e 30 a0 f5 bd
       -0.016892523 -0.027173162 0.17030227 -0.11993444
000020 1d d8 01 be 32 9e 42 3e 00 25 90 bc a3 13 a4 bd
       -0.12680097 0.19005659 -0.017595768 -0.08011558
000030 e9 13 33 be 5a eb 24 3e cc 5b f8 3d f4 ae 43 bd
       -0.17488064 0.16105404 0.12126884 -0.04777427
000040 58 3e e0 3d 28 9f 5b 3d ec d9 34 bd ed d3 34 be
       0.10949391 0.05361858 -0.04415314 -0.17658968
000050 a4 a7 93 3d 39 9b 8e bd 18 93 0e be 70 92 8a 3d
       0.07209709 -0.069632 -0.139233 0.06766212
000060 d0 06 90 3d 28 43 8d 3c ed bc bb bd 14 2e af 3d
       0.070325494 0.017243937 -0.09166894 0.085537106
000070 a7 89 e1 bd 29 e9 dd bd 51 50 98 bd d8 f9 dd bc
       -0.11012583 -0.108354874 -0.07437194 -0.027096674
000080 f2 1c e6 bd fc 4a 1d 3e 2e 2b 0b be 9a 7a 2d 3e
       -0.1123599 0.15360636 -0.1359069 0.169413
000090 f8 a8 f4 bd f8 8f c2 bc 2c 13 ed bd 60 70 82 bb
       -0.11946291 -0.02375029 -0.11575922 -0.0039806813
0000a0 70 c8 08 bd 27 0b 32 be e0 d1 ea 3b 38 77 e8 3d
       -0.033394277 -0.17387067 0.0071661323 0.11350864
0000b0 b0 a8 52 3c 2b bb ba bd 4a 53 2e 3e 39 fd 16 be
       0.012857601 -0.09117731 0.1702396 -0.14745034
0000c0 a0 82 2d 3d 37 00 98 bd f6 9f 3b 3e b0 e8 7a 3d
       0.0423609 -0.07421916 0.18322739 0.061257064
0000d0 3c 99 bd 3d f8 de 9a 3c 18 1f 90 3c 70 42 27 be
       0.09257743 0.018905148 0.017592952 -0.16333938
0000e0 00 71 31 be f6 09 34 3e e0 d6 93 bc e5 9c 9e bd
       -0.17328262 0.17581925 -0.018046796 -0.07744769
0000f0 5c 4b 08 bd 60 59 e6 3d c0 2c 01 be 05 30 f6 bd
       -0.033274993 0.11247516 -0.12614727 -0.12020878
000100 7c 67 91 3d 9b c7 e4 bd d8 66 2e 3d c4 78 13 3e
       0.07099816 -0.11170884 0.04257855 0.14401537
000110 73 e7 f3 bd a6 89 08 3e 30 ff bd bd 22 38 3a 3e
       -0.1190938 0.13333759 -0.09277189 0.18185475
000120 40 48 24 3d 22 e8 98 bd 5c 4f d9 bd d4 c1 c4 3d
       0.040107965 -0.07466151 -0.1061084 0.09607282
000130 88 bc 92 3d 2e 68 1b 3e 74 e9 dd 3d e0 81 07 bd
       0.07164866 0.1517646 0.10835543 -0.033082843
000140 c0 3a 40 bb 8e e3 23 be cc 56 c2 bd 36 1a 03 3e
       -0.0029331893 -0.16004774 -0.094892114 0.12802967
000150 f0 4c 1e bc 20 2c d2 3d c0 38 04 3d 30 39 8c 3c
       -0.009661898 0.102623224 0.032280684 0.017117113
000160 e0 56 db bd 95 ba af bd 24 3c f4 3d 20 aa bf bc
       -0.107099295 -0.085805096 0.119255334 -0.023396552
000170 ee 9a 10 be 0e 30 0f 3e df f6 25 be 90 70 ec bc
       -0.14121601 0.13983175 -0.16207455 -0.028862268
000180 61 0b 32 be 78 c3 b8 3c 24 ab 5a bd 78 d0 2a 3d
       -0.17387153 0.022554144 -0.05338587 0.041702718
000190 74 ac ab 3d 8a 92 1e be d4 be 8e 3d b4 05 08 3e
       0.08382502 -0.15485588 0.06969991 0.13283426
0001a0 8c 80 7c bd 54 97 f0 3d 52 e5 32 3e 04 5e 07 be
       -0.06164603 0.117476135 0.17470291 -0.13219458
0001b0 6e 44 31 3e 5f 4e 11 be 07 e8 91 bd f3 5c d7 bd
       0.1731126 -0.14190052 -0.07124334 -0.105157755
0001c0 34 50 6e bd d6 45 2a 3e 30 dd 1d 3e 8c bc 50 bd
       -0.058181956 0.16628203 0.15416408 -0.050961062
0001d0 6e b3 18 3e c8 08 e6 bd df a8 26 be ad ef e9 bd
       0.14912197 -0.11232144 -0.16275357 -0.11422668
0001e0 ac 98 02 3d f4 71 a8 bd 40 21 22 3e 29 91 e8 bd
       0.03188388 -0.0822486 0.15832996 -0.11355812
0001f0 9a 8f 3d 3e 00 be 59 bd b8 3d 28 3e 0c 2c 93 3d
       0.18511811 -0.053159714 0.16429794 0.07186136
000200 a8 58 bf bc 00 d0 dc 3d 48 b6 db bd e1 ee 8c bd
       -0.023357704 0.1078186 -0.10728127 -0.068815
000210 47 f9 42 be 58 75 eb 3c 04 7f 2f 3e 22 02 37 3e
       -0.19040404 0.028742477 0.17138296 0.17871907
000220 21 ea b3 bd e6 fe 25 be 53 62 da bd d7 cd 13 be
       -0.08784891 -0.16210517 -0.10663285 -0.1443399
000230 20 86 42 bc c0 46 93 3b 04 8e db 3d d4 16 f6 3d
       -0.011872798 0.004494518 0.10720447 0.12016073
000240 fc 12 27 be e4 ea 56 3d 28 c5 77 3d e8 2f 0d be
       -0.16315836 0.052470103 0.060490757 -0.13787806
000250 c2 84 f1 bd 08 41 c9 bc 20 31 d4 3d 3e d1 03 3e
       -0.117929 -0.024567142 0.10360932 0.12872788
000260 cb 05 df bd a0 2a 5f bc b9 7d cf bd 40 69 ef 3d
       -0.10889777 -0.013621002 -0.101314016 0.11689997
000270 80 82 35 3c e8 bf 6d bd 6c c9 99 3d fa 64 3f 3e
       0.011078477 -0.058044344 0.07509121 0.18690863
000280 f0 fb a6 3d 44 95 24 3d fa 46 bc bd 56 15 41 be
       0.08153522 0.040181413 -0.09193225 -0.18855795
000290 00 66 2c 3e ac e4 d0 3d dc 55 14 bd 3d b5 a7 bd
       0.16835785 0.10199866 -0.036214694 -0.08188865
0002a0 c1 06 ca bd c5 2d 2d be 2c a1 16 3d 30 48 df bd
       -0.098645695 -0.16911991 0.0367748 -0.109024405
0002b0 e0 15 c1 3c c8 32 b3 3d a8 8b 98 3d ba 43 0a be
       0.023570001 0.0874992 0.07448512 -0.13502398
0002c0 2e 8a 07 3e f9 2b d9 bd e4 d5 79 bd b0 7c a2 3d
       0.13236305 -0.1060409 -0.060994998 0.079339385
0002d0 0c 13 66 bd b0 47 38 be 16 54 2c 3e 78 0c 65 bd
       -0.05617051 -0.17996097 0.16828951 -0.055920094
0002e0 78 30 fa bc f4 2b 87 3d 58 a4 d0 3c a5 b8 ae bd
       -0.03054069 0.0660018 0.02546899 -0.08531312
0002f0 a8 72 42 3e 98 8c f2 bc 68 91 fb bc 12 00 04 3e
       0.1898905 -0.029608056 -0.030708984 0.12890652
000300 f0 38 95 3d a1 99 08 be a8 25 0c 3d 94 22 3a 3e
       0.072862506 -0.13339855 0.0342156 0.18177253
000310 da 04 86 bd c2 d0 35 3e db 31 0d be fc b1 e1 3d
       -0.06543894 0.17755416 -0.1378855 0.11020276
000320 63 cc d0 bd bd fc 42 be 32 e4 42 be 20 a9 83 bd
       -0.10195234 -0.19041725 -0.19032362 -0.064287424
000330 a0 35 49 3d ba 1c 3f 3e a8 67 a5 3c 80 e8 07 3b
       0.049123406 0.18663302 0.020191029 0.0020737946
000340 08 ef 68 bd 8c 98 23 3e 2c 3e 41 bd cc 8a 25 3d
       -0.056868583 0.15976161 -0.047178432 0.04041557
000350 9b 28 0e be e4 8a af 3d 40 44 2e bc 3c 2b 07 3d
       -0.13882677 0.08571413 -0.010636389 0.033000216
000360 6a 05 18 be f8 4b ab 3c 95 35 e9 bd c0 6e a9 bb
       -0.14845815 0.020910248 -0.11387173 -0.005170673
000370 1e 1c c9 bd 50 7d 8f bd de 36 92 bd 68 06 c3 bc
       -0.09819816 -0.07006323 -0.07139371 -0.023806766
000380 00 64 fb bb 5c 7d 2b 3e f5 5f 1f be 24 c4 54 bd
       -0.007671833 0.1674704 -0.15563948 -0.051944867
000390 db 78 ea bd ba c0 38 be ac 6a 08 3e 72 27 05 be
       -0.114488326 -0.1804227 0.13321942 -0.13003328
0003a0 c2 b2 92 bd 88 b3 e8 bd 74 cd 1d 3d c6 53 09 be
       -0.071630016 -0.11362368 0.038526013 -0.13410863
0003b0 8e f0 de bd 7e 3a 27 be 60 ed 3f 3c b4 24 27 3d
       -0.10885726 -0.16330907 0.011714309 0.040806487
0003c0 a0 26 5b bc 9c b9 c3 3d dc 8b 3a bd ad b0 17 be
       -0.013375908 0.095568866 -0.045543537 -0.1481349
0003d0 04 ca df 3d 28 bc c7 bc 30 ee 49 bc 1d f6 b9 bd
       0.10927203 -0.024381712 -0.012324855 -0.090801455
0003e0 dc 34 38 3e 30 1b 40 3d 4c c8 13 bd 3c b6 95 3d
       0.17988914 0.046900928 -0.03607969 0.07310149
0003f0 6a 2a 00 be fa a5 35 be 40 2a 61 bc 1d aa 14 be
       -0.1251618 -0.17739096 -0.013742983 -0.14518018

fc1._model.0.bias f4 [24]
000000 6b 23 4a b8 7a 7c 90 b7 db 36 ca b6 b2 eb 00 b7
       -4.819354e-05 -1.7224102e-05 -6.026455e-06 -7.684272e-06
000010 fd 4c 40 b8 80 da d0 36 09 fc 91 36 f8 0f 29 b7
       -4.5848068e-05 6.22432e-06 4.3506775e-06 -1.0076903e-05
000020 51 f5 7e 37 df 7b 67 37 85 9f 2d 37 b5 29 b8 37
       1.5196697e-05 1.3797514e-05 1.0348745e-05 2.195393e-05
000030 ca f7 d1 b6 46 e5 52 36 02 71 38 b6 94 ca 4b 37
       -6.257532e-06 3.1425893e-06 -2.7483916e-06 1.2146909e-05
000040 29 72 85 37 d3 0e f9 36 70 a7 95 37 e8 e4 80 37
       1.5907995e-05 7.422504e-06 1.7840153e-05 1.5365382e-05
000050 ca 3c 1e b7 57 63 41 b9 cf 9b 78 37 1b 42 0b 37
       -9.431687e-06 -0.00018442921 1.4818229e-05 8.300437e-06

fc2._model.0.weight f4 [20, 48]
000000 4e f2 7f be 39 54 63 be fc 1d 1a be db cc 61 3e
       -0.24994776 -0.22200097 -0.150505 0.22050802
000010 8e 6d 8e be 95 a6 83 3c 70 3a fa bc 5c ee 0a 3e
       -0.2781796 0.016070643 -0.030545443 0.1356749
000020 ca 38 42 3e 65 b7 e1 3b db 58 e4 3d 1d 10 72 3e
       0.18966976 0.0068883174 0.1114976 0.23638959
000030 f0 4a ca bd 94 a3 9f 3d 41 69 70 be 7a a9 5c be
       -0.098775744 0.07794872 -0.23477651 -0.21549025
000040 a9 07 5a 3c 3b a6 92 3e 3c c4 33 be 71 97 8f bd
       0.01330749 0.2864245 -0.17555326 -0.07011307
000050 8d 4d 13 be 01 ec 3c 3e b4 a7 5b bd 2f 4c 81 3e
       -0.14385052 0.18449403 -0.05362673 0.25253436
000060 f4 84 e5 3d a4 a0 5b 3e ae ad 28 3e b9 fb 66 be
       0.112069994 0.21447998 0.16472504 -0.22556962
000070 b2 22 19 be 16 69 90 3e ea 27 90 be 2f a1 ab bd
       -0.14954641 0.28205174 -0.28155452 -0.08380353
000080 59 5c 0d 3c 85 c8 c4 bd 6f 54 1e be 06 e9 05 3e
       0.008627974 -0.096085586 -0.15461896 0.13077173
000090 eb d2 68 be 13 51 16 be 15 84 87 be c3 8d 44 bd
       -0.22736709 -0.14679365 -0.26467958 -0.047986757
0000a0 82 91 b5 3d 7b 93 92 be 73 a3 ed bb 2e a5 54 3d
       0.08865644 -0.28628144 -0.0072521507 0.05191534
0000b0 11 56 37 be 0b 9d 04 3e ef b7 56 3e 82 b2 63 3e
       -0.17903925 0.12950532 0.20968603 0.22236064
0000c0 29 0a 67 be 9f 17 65 bd 16 0b 51 be 6f 62 3e bd
       -0.2256247 -0.05593073 -0.20414385 -0.046480592
0000d0 91 65 27 3e 97 1f df bc a5 11 95 bd 84 d0 80 be
       0.16347338 -0.027236743 -0.07278756 -0.25159085
0000e0 36 1d 58 3e a3 9b 7b be 4e d8 d4 3c 0e a8 5c bd
       0.21104893 -0.2457109 0.025982048 -0.053871207
0000f0 cb 03 34 be 09 e2 2c be f0 70 ec 3c 6e c7 e3 bc
       -0.17579572 -0.168831 0.028862447 -0.027805056
000100 53 79 2a be bb 6a f7 3d 15 ca 08 3e d6 d9 8d be
       -0.16647844 0.12080904 0.13358338 -0.27705258
000110 cc b6 b8 bd 8b d9 82 bd 18 28 1a 3e 56 cd ca 3d
       -0.09019241 -0.06389149 0.15054357 0.09902446
000120 27 04 de 3d 90 32 91 be 41 60 a0 bd 6e f5 bd bd
       0.10840636 -0.2835889 -0.07830859 -0.092753276
000130 7e b3 89 3d 84 c6 ec bd ad 79 61 be e9 28 96 be
       0.067236885 -0.11561301 -0.22019072 -0.29328087
000140 6c 86 88 be 67 b4 3d be 20 d3 a4 bd 7a 62 53 3e
       -0.26665056 -0.1852585 -0.080480814 0.20643035
000150 45 0f 75 3d 17 13 6e 3e f6 f5 3f 3e 65 28 e4 bd
       0.059829015 0.2324947 0.1874617 -0.11140517
000160 d8 e8 5f be be 8e d6 3d 71 c5 19 be 24 42 7b 3e
       -0.21866167 0.10476445 -0.15016724 0.2453695
000170 5d 9e 2f 3e c9 4f 9a bd bb 9c 7a 3d 14 29 84 3e
       0.17150255 -0.07534749 0.061184626 0.2581259
000180 83 3f d8 3d dd ea 4f bc 93 3a 66 be 19 70 2a 3d
       0.10558989 -0.012690273 -0.22483282 0.04161081
000190 1b 06 9f bd c7 11 37 be b1 3d e4 bd 3b 92 d5 bb
       -0.077648364 -0.17877875 -0.11144579 -0.006517676
0001a0 29 3f 85 3e 6d e1 5f 3e e1 49 ca bd b6 b2 54 3e
       0.2602475 0.21863337 -0.098773725 0.20771298
0001b0 35 b2 14 bd e7 96 87 3d 9c 81 42 3e 69 f7 de bd
       -0.036302764 0.06620579 0.18994755 -0.108870335
0001c0 7c ec 02 3e 37 df 5f 3e 88 0b 97 bc be fd a1 bc
       0.12785524 0.21862493 -0.018438116 -0.019774314
0001d0 b3 d8 40 3c 50 65 1b be 53 58 81 3d 3c 4d 0b be
       0.011770415 -0.15175366 0.06315675 -0.13603681
0001e0 53 cb cc bb 36 a1 05 be 31 08 8f be fc 7c af 3d
       -0.006249824 -0.13049778 -0.27935937 0.08568761
0001f0 f9 13 75 be 13 27 cf bd c8 25 08 3e bc a2 3e 3e
       -0.239334 -0.10114875 0.13295662 0.18616766
000200 42 10 5d 3e 1a f9 30 be 53 f9 9c bd 80 95 02 3d
       0.21588233 -0.17282525 -0.07664742 0.031880856
000210 fc a5 b2 3d 38 58 c0 bd 1d c1 c7 bc ec 97 92 bd
       0.08723065 -0.093918264 -0.024384076 -0.07157883
000220 04 f7 36 3e 19 f3 10 be 6b d0 52 3d d6 5f 18 be
       0.17867666 -0.14155234 0.051468294 -0.14880309
000230 df c8 6d be 84 66 95 3e 19 f5 e8 3d bf b5 37 3e
       -0.23221157 0.29179776 0.11374874 0.17940424
000240 67 bf 68 3e ac 10 96 be 0e 8e 56 3e 4b 91 88 3e
       0.22729264 -0.29309595 0.20952627 0.2667335
000250 3d 78 1c 3d b2 ab 3e be 70 cc 82 3e 4d 13 91 be
       0.038200606 -0.18620184 0.25546598 -0.28335038
000260 0e f7 36 be 01 cf 90 3e 1a 20 d4 bd 56 cf 5f 3e
       -0.17867681 0.2828293 -0.103576854 0.21856436
000270 ee 32 b2 3d 29 b9 00 be 71 e4 f4 3c e7 29 32 be
       0.0870112 -0.12570633 0.029894086 -0.17398797
000280 12 1c 3b be 5d af 44 be bd 37 c1 3d c9 bb f9 bd
       -0.18272427 -0.19207521 0.09434459 -0.1219402
000290 cf b5 90 be 02 1b 6f bd 86 fa 95 be 29 51 f1 bd
       -0.2826371 -0.058375366 -0.29292697 -0.11783058
0002a0 69 0c 90 be 24 56 b6 3d 24 c3 96 bd 6b a2 ee bd
       -0.28134468 0.08903149 -0.07361439 -0.116520725
0002b0 05 73 a8 3d 30 8c a3 3d 90 55 fd bd 12 03 23 be
       0.08225063 0.07985723 -0.123698354 -0.1591914
0002c0 3c 78 bd 3d f1 dc 96 bd 45 d2 8e 3e 4a 08 1a 3c
       0.092514485 -0.0736636 0.27894798 0.00940139
0002d0 28 f7 79 3e cb 51 7d 3e 5f 86 c5 bd 6c 85 53 3e
       0.24410689 0.24738233 -0.0964477 0.20656365
0002e0 5e 5b 47 3e 23 8b 6c 3d fb a3 11 3d 5e 2e 48 be
       0.19468448 0.05774988 0.035556775 -0.19548938
0002f0 ed 77 55 be 31 c8 85 be 4e 1a ab bd 74 eb 8c 3e
       -0.2084653 -0.26129296 -0.083546266 0.27523386
000300 3c 94 e9 3d 95 25 e7 bc a6 a2 66 3e 32 d3 a4 bd
       0.114052266 -0.028216163 0.22522983 -0.08048095
000310 b9 87 ce bd 99 9b 71 3e d6 c3 e9 bd f7 12 7b 3e
       -0.10084481 0.23594512 -0.11414306 0.24518953
000320 89 99 d0 3d 29 b8 20 3e 02 cd dd bc 85 6f 85 be
       0.101855345 0.15695252 -0.027075294 -0.26061645
000330 50 d1 0e be 54 a5 83 bd 21 39 30 be 40 80 af 3d
       -0.13947034 -0.06428018 -0.17209293 0.085693836
000340 c5 c8 b4 3d 29 83 e9 3c 6a b9 a9 bd e7 a4 96 3e
       0.08827356 0.028504925 -0.08287318 0.29422686
000350 70 bd 96 be ac 9b 55 be 6a 7a 22 bd 70 1d df bd
       -0.29441404 -0.20860165 -0.039667524 -0.10894287
000360 11 51 08 be 97 7e 29 be b2 16 10 be 72 14 0e be
       -0.13312174 -0.16552196 -0.14071158 -0.13874987
000370 eb a5 f0 3d 60 b3 6c 3e 8f 6b 69 3d 92 06 37 3e
       0.11750396 0.23115301 0.05698734 0.178736
000380 42 b0 95 3c 70 81 ed bc 50 61 72 be 29 a4 70 3e
       0.018272523 -0.028992385 -0.23669934 0.23500122
000390 0a f2 8c 3e f9 ef be bd 7f 71 88 3e ab 4d c1 3d
       0.2752841 -0.09323115 0.2664909 0.09438642
0003a0 d0 74 85 be f7 d9 dc 3c 98 28 41 3e bb 55 48 be
       -0.26065683 0.026959402 0.18863142 -0.19563954
0003b0 10 f8 5b bd d3 ea 11 3e a1 a8 8e 3e 13 47 f6 bd
       -0.053703368 0.14249735 0.2786303 -0.12025275
0003c0 c0 5c 0f be 49 88 83 3e 25 99 7d be a3 1b 95 3e
       -0.14000225 0.25689915 -0.24765451 0.29122648
0003d0 05 61 94 3e 42 3f 5e 3e ff 17 38 3e 75 84 89 3e
       0.2898027 0.21703818 0.17977904 0.2685887
0003e0 5c a9 4b be a4 53 8d bd 2f e6 91 be f3 6a 6b be
       -0.19888824 -0.06900719 -0.2849593 -0.22990017
0003f0 35 69 92 3e 1f 23 17 be 72 cd 90 3e 00 bc 23 3d
       0.28595892 -0.14759491 0.28281742 0.039974213

fc2._model.0.bias f4 [20]
000000 8b c9 84 39 cd 29 e0 39 0a b4 de 39 ee 68 62 39
       0.00025327163 0.00042755753 0.0004247728 0.00021592129
000010 26 df 93 39 01 6d e7 b9 cb 5f ad 39 45 78 07 b9
       0.00028204283 -0.00044140968 0.00033068503 -0.00012919407
000020 74 fb 02 ba 43 6a a3 39 95 1d 6d b8 28 11 64 b9
       -0.0004996576 0.00031168954 -5.6532754e-05 -0.00021750166
000030 05 6c 02 39 33 e3 80 39 04 ae 15 ba 60 c9 73 b9
       0.00012438007 0.0002458334 -0.0005709829 -0.00023249304
000040 ee 41 3e 39 64 d2 b2 b8 c7 5a d4 b9 90 f3 aa b9
       0.00018144373 -8.52689e-05 -0.00040503425 -0.00032606395

fc3._model.0.weight f4 [64, 48]
000000 19 cd cf bc 3b 9b 1e 3d da 2a d8 3d 66 d2 7a 3d
       -0.025366353 0.038722258 0.10555048 0.061235808
000010 35 3f 30 be 20 57 b4 3d 7d 99 5a 3d d3 a4 86 bd
       -0.17211612 0.0880568 0.053369034 -0.065744065
000020 3f 1b 0c 3e fc e8 67 3c 73 c4 0b 3c 4c eb 45 be
       0.13682269 0.014154669 0.008530724 -0.1932804
000030 41 12 55 be 7b ea f3 bc 2b 98 ce bc 08 7b ff bd
       -0.20807745 -0.029774895 -0.025219044 -0.12474638
000040 de bb ad 3c cf 45 43 be d8 78 fe bd 1b 01 3c be
       0.021207746 -0.19069599 -0.12425393 -0.18359797
000050 a8 f5 bc bd 49 be d6 3c ac a1 4c 3b 19 5f b0 3d
       -0.09226543 0.026213782 0.0031224294 0.086118884
000060 87 c8 ac bd 36 b3 0a be 7e 2e 5b 3c c3 13 2b 3e
       -0.08436685 -0.13544926 0.013377784 0.16706757
000070 de fa 13 be e5 0c 26 be f1 91 bd bd 1a 50 c4 3d
       -0.14451167 -0.16215856 -0.09256352 0.09585591
000080 ca 47 e4 bd 99 95 4e 3e 1a f3 c8 3d 83 d6 6b 3e
       -0.11146505 0.20174254 0.09811993 0.23031048
000090 bc 09 24 bd ea b8 68 bc 44 b5 7c 3d be e1 51 be
       -0.040048346 -0.014204243 0.061696306 -0.2049627
0000a0 05 80 42 be 0f 74 6d bd 35 fa 90 bc db d1 4c 3e
       -0.18994148 -0.05797201 -0.017697433 0.20001929
0000b0 78 69 43 bd f5 d8 96 bd 4b b5 1b bd 81 68 3d be
       -0.047708005 -0.073656 -0.03801469 -0.18496896
0000c0 4e 28 b3 3d b6 9a 8e 3d aa e4 55 bc ae 6f 3d 3e
       0.08747922 0.069631025 -0.013055006 0.18499634
0000d0 7f 5e e6 3d 5b e2 b9 3d d1 5f 66 3e e9 71 2d bc
       0.112484924 0.09076377 0.22497489 -0.01058624
0000e0 fd 0a 52 3e a7 b4 e0 3d 55 2a 93 3d 5e cf 08 3d
       0.20512004 0.10971957 0.071858086 0.033400886
0000f0 5c f8 ef 3c 23 55 6a be e0 c8 26 be 05 c7 45 3e
       0.029293232 -0.2288404 -0.16287565 0.19314201
000100 1a 44 57 be 0d d5 61 bd e3 4b ba bd 49 f2 98 3d
       -0.21022072 -0.05513482 -0.090965055 0.07468087
000110 21 56 6c 3e 74 c8 28 3e ff d4 71 bc 47 87 5e 3e
       0.2307973 0.16482717 -0.014760255 0.21731292
000120 95 51 41 be df c9 3e be 21 a8 1e 3d a3 1f 41 3d
       -0.18878777 -0.18631695 0.03873456 0.04714931
000130 b5 20 df 3d 56 db 60 be c3 ae 03 3e 09 34 d8 bc
       0.1089491 -0.2195867 0.12859635 -0.026392
000140 d7 f5 e8 3d 3a 3e 90 bd f0 7a 5f be 89 5c 5c be
       0.11375015 -0.07043119 -0.2182424 -0.21519674
000150 1a 8d 29 3e 98 ad 89 3d ff bc a6 3d 35 c4 c3 bd
       0.16557732 0.067225635 0.08141517 -0.09558908
000160 9b 0f 3a be 05 b0 dc 3d 5a b4 d9 bb b2 01 80 3d
       -0.18170016 0.107757606 -0.006643814 0.06250323
000170 e3 6a 30 bc 51 41 5a 3e 06 91 2d 3e 34 02 62 3e
       -0.010767671 0.21313979 0.16949853 0.22071153
000180 54 65 75 bd 88 77 08 be a6 4e 52 3c 7f 00 85 3c
       -0.059911087 -0.13326848 0.012836134 0.016235588
000190 a8 13 a7 bd f6 5a 8a bd f2 fa a4 3d 0b b1 a4 bd
       -0.08158046 -0.06755631 0.080556765 -0.08041581
0001a0 f3 f1 63 3d 75 62 3e 3d 93 14 04 be 98 f6 44 be
       0.055650663 0.046480615 -0.12898473 -0.19234693
0001b0 1a dd 64 be 83 c8 02 be 35 a7 8e 3d ff 94 bd 3d
       -0.22349969 -0.12771802 0.06965486 0.092569344
0001c0 f6 d5 38 be 26 32 63 be 6a 1f 07 bd dd 0c ee bd
       -0.1805037 -0.22187099 -0.032988943 -0.11623547
0001d0 5d 85 47 be fe 8f bc 3d 16 a6 1c 3d 89 8d 2f 3e
       -0.19484468 0.09207152 0.03824433 0.17143835
0001e0 5f 6e 35 be b5 f7 8e bc a5 d9 34 3e ee 7b 8b 3c
       -0.17717884 -0.0174521 0.1766115 0.017026868
0001f0 e8 0b 55 3e 7a 70 27 3d 64 a9 3b 3e ce 2d 3e be
       0.20805323 0.04087875 0.18326336 -0.1857216
000200 fa ae 64 3e 15 b3 17 3c 8e 5d 24 be bb 1d 08 be
       0.22332373 0.009259005 -0.16051313 -0.13292591
000210 3f ec 65 3e ac 26 ec 3d 43 15 9b bd a9 37 31 bd
       0.22453402 0.115308136 -0.07572415 -0.043265972
000220 07 b0 17 be d9 a1 98 3d 2a fb f8 3d bb 43 67 be
       -0.14813243 0.07452745 0.12157281 -0.22584431
000230 aa f6 17 bc c6 be 2c 3e da 98 b8 3d ec c6 be bd
       -0.009275118 0.1686965 0.09013529 -0.09315285
000240 22 3a 18 bd 93 14 19 bc fa 63 35 3e 43 e4 0b 3e
       -0.037164815 -0.009343284 0.1771392 0.13661294
000250 87 33 39 3e d4 8b 56 3e c6 98 fa bd b0 9e 07 be
       0.18086062 0.20951778 -0.122361705 -0.13244128
000260 1a 7e 68 be 08 61 44 be 7e b0 e0 3c ae cd 3f be
       -0.22704354 -0.1917764 0.027427908 -0.18730804
000270 8d 3c 17 3e 92 bc 07 be 88 72 4b 3e 75 0f ca 3d
       0.14769192 -0.13255528 0.19867909 0.098662294
000280 82 31 46 be 20 dc 21 3e ab e3 69 be 38 8c 40 3e
       -0.19354823 0.15806627 -0.22840755 0.18803489
000290 f4 f6 06 be cf 65 51 3b b7 57 5f 3e bd 70 0c bd
       -0.13180143 0.0031951552 0.21810804 -0.034287203
0002a0 42 20 1a be a0 c2 04 bd 8f 62 51 be c7 a7 d1 bd
       -0.15051368 -0.03241217 -0.20447753 -0.10237079
0002b0 ac 7e 29 be 2f d1 95 3b 7e eb 3f be 24 4e 31 be
       -0.16552228 0.004572056 -0.18742177 -0.17314965
0002c0 83 d9 ab bd c3 47 69 be 18 f6 11 be 85 0f 98 3d
       -0.083910964 -0.22781281 -0.14254034 0.07424835
0002d0 ce 51 1a 3e ab 50 78 bd 7b da f8 bc fe 66 62 3d
       0.15070269 -0.060623806 -0.030377617 0.055274002
0002e0 02 77 1e 3e 18 26 2a 3e aa 20 5d bd 25 fb 23 be
       0.15475085 0.16616094 -0.05398623 -0.16013773
0002f0 db f3 0a 3e a8 04 c6 bd 46 2e 54 3b ad f3 3a bd
       0.13569586 -0.09668857 0.0032376214 -0.045642544
000300 17 90 dc bd f4 4d 6c 3d 63 c7 ef 3d 7b a5 24 3d
       -0.107696705 0.05769153 0.11707952 0.040196877
000310 fc 58 25 be a2 10 0d 3e 8e 46 3b 3e 9c ce e1 3d
       -0.16147226 0.13775876 0.18288633 0.11025736
000320 ae 2b e6 3d c8 9c 32 3e 70 d0 8f bd 57 93 df bd
       0.112388 0.1744262 -0.07022178 -0.10916775
000330 d3 e9 6a be 42 ee 20 3e cb c6 47 3e 60 f1 39 be
       -0.2294076 0.15715888 0.19509427 -0.18158484
000340 a7 d6 bc bd c8 1d 20 be 44 8b 16 be 07 cf 0a bd
       -0.09220629 -0.1563636 -0.14701563 -0.033888843
000350 a6 82 ed bb a6 95 53 3d 1a af dc 3b 98 78 45 be
       -0.0072482405 0.051656388 0.006734741 -0.19284284
000360 c8 50 1e 3e ca 45 1a 3e 63 67 25 3e 43 7c 3c 3e
       0.15460503 0.15065685 0.1615272 0.18406777
000370 66 74 80 bd 22 7f 1e 3e fa 1e e0 3d e6 d0 1f bd
       -0.06272201 0.15478185 0.10943408 -0.03901758
000380 25 f5 51 3e 5b b7 0a be 90 9a 2d 3e 3d 7f 67 bd
       0.20503671 -0.13546507 0.16953492 -0.05651783
000390 89 db 0e be ad 0d 9b 3d f1 1b dc bd b5 24 20 be
       -0.13950934 0.07570968 -0.10747517 -0.15639003
0003a0 bc 7e 04 be ed 9b 50 3e 38 46 fe bd f5 58 68 3e
       -0.1293897 0.20371981 -0.12415737 0.22690184
0003b0 71 42 f8 bd 98 52 bf bd b5 8d 3f be aa 7e 18 be
       -0.12122048 -0.093419254 -0.187064 -0.14892069
0003c0 22 c0 c8 3c 1a b8 26 3e 39 f8 1f bd 6b e8 ae 3c
       0.024505679 0.16281167 -0.039055083 0.02135106
0003d0 d5 32 05 3e a3 24 4e 3e 7d 51 53 be 96 b5 6b be
       0.13007672 0.20131163 -0.20636554 -0.23018488
0003e0 74 8d 60 3e 17 1a 85 bd 33 f2 61 3d e1 92 95 bd
       0.2192896 -0.06499117 0.05516262 -0.073034056
0003f0 c7 69 04 3e cc 21 b7 bd 3c f4 12 3e fb 37 61 be
       0.12930976 -0.08941993 0.1435098 -0.21994011

fc3._model.0.bias f4 [64]
000000 42 88 d0 b7 82 6a b3 37 a4 76 dc 37 d6 f5 de b7
       -2.4858982e-05 2.138806e-05 2.628129e-05 -2.6578939e-05
000010 f7 d0 b8 37 a2 aa cc b7 52 e1 dd b7 b5 04 d8 b7
       2.2031816e-05 -2.4398152e-05 -2.6450176e-05 -2.5751398e-05
000020 b1 5e da b7 21 c2 c1 37 e7 fa c4 b7 30 9f c7 37
       -2.603172e-05 2.3097791e-05 -2.3481856e-05 2.3796776e-05
000030 45 36 c9 b7 d9 ee c1 b7 c5 ce d3 37 1b 0e b4 37
       -2.3986338e-05 -2.3118615e-05 2.5249445e-05 2.146424e-05
000040 32 48 d4 37 9f 49 bf b7 7a 16 de 37 f0 c3 d6 b7
       2.5305988e-05 -2.2803257e-05 2.6474929e-05 -2.5602028e-05
000050 61 54 ca b7 7a 30 d7 b7 20 1e d9 37 07 3e b2 b7
       -2.4119568e-05 -2.5652571e-05 2.5882444e-05 -2.1248137e-05
000060 36 06 e9 37 d0 f2 b5 37 06 eb c2 37 96 13 b1 37
       2.7778657e-05 2.168995e-05 2.3236043e-05 2.1109165e-05
000070 66 37 d3 37 ab 82 bf 37 1f 92 b8 b7 5e 0a bd 37
       2.5178957e-05 2.2829821e-05 -2.2002552e-05 2.2535383e-05
000080 bf 81 b4 b7 a1 e2 db b7 48 75 db b7 4f 83 c8 37
       -2.151809e-05 -2.6212367e-05 -2.6161448e-05 2.3903003e-05
000090 c8 96 e8 37 f6 fc d7 b7 c8 9e ee b7 7c 5c ea b7
       2.7726768e-05 -2.5747791e-05 -2.844575e-05 -2.793804e-05
0000a0 02 4e be b7 df 76 be 37 7f 90 e5 b7 c8 be c8 37
       -2.268609e-05 2.2705119e-05 -2.7366214e-05 2.3930697e-05
0000b0 ca eb c9 b7 7c c6 b2 b7 39 3d b7 b7 09 12 d4 37
       -2.4070865e-05 -2.131168e-05 -2.1843809e-05 2.5280768e-05
0000c0 c9 5a da b7 84 3b ed 37 89 b1 d9 37 c9 c4 c2 b7
       -2.60299e-05 2.8280316e-05 2.5951087e-05 -2.3218237e-05
0000d0 6f c9 c5 b7 f9 b8 ea b7 e7 7c dd 37 ef 1a b1 37
       -2.357803e-05 -2.7981108e-05 2.6403415e-05 2.1112586e-05
0000e0 4b 5c b9 37 7f f4 ba 37 a1 eb bf b7 69 6a e3 37
       2.2096696e-05 2.228678e-05 -2.2878698e-05 2.711006e-05
0000f0 c1 57 bd b7 5e e3 ca b7 d9 70 b4 b7 89 0e b7 37
       -2.257142e-05 -2.4186153e-05 -2.151022e-05 2.1822068e-05

fc4._model.0.weight f4 [1, 64]
000000 59 e0 06 3e 47 e5 92 be 6c 8f 9e bd 2f 6e 85 3d
       0.1317152 -0.2869055 -0.07742199 0.065151565
000010 96 7b 81 be 58 dd 18 3e 86 64 7f 3d 2f 29 bb 3d
       -0.252896 0.14928186 0.062351726 0.091387145
000020 12 3e a8 3d ea 72 5a be ae a8 41 3e 7d e7 3a be
       0.08214964 -0.21332899 0.18912002 -0.18252368
000030 0b 2e 2b 3e 01 cc 51 3e 80 bf ef bd 59 f7 8e be
       0.16716783 0.20487978 -0.117064476 -0.27923086
000040 19 45 e4 bd 1f 75 63 3e f6 90 80 bc 26 bb c5 3d
       -0.11145992 0.22212647 -0.015694123 0.09654836
000050 3e 46 28 3e 14 d7 c1 3d 72 3c b3 bd 51 59 94 3e
       0.16433045 0.09464851 -0.087517634 0.28974393
000060 52 f8 1e bb 45 92 8b be ef 7b 4c be 10 9c 97 be
       -0.0024256897 -0.27260032 -0.19969152 -0.29611254
000070 c3 61 f3 bd 9b ad 5f be da 6c 82 3e 90 34 6c be
       -0.11883881 -0.21843569 0.25473672 -0.23066926
000080 d2 3e 90 3e 22 51 57 3d 7f 8c 83 3d 7f 88 2f be
       0.28172928 0.05256761 0.06423282 -0.17141913
000090 ef 54 65 bc ef dc ae 3d 9b 00 ae 3c eb 95 14 3d
       -0.0139973005 0.085382335 0.021240523 0.036275785
0000a0 82 2e 65 3e 66 50 64 be bf af c4 3c 7c 61 2d be
       0.22381023 -0.22296295 0.024009584 -0.16931719
0000b0 4d 8e 2f 3e 60 1a 92 3e 64 44 87 3e 77 4d e9 bd
       0.17144127 0.28535748 0.26419365 -0.11391728
0000c0 07 ff a4 3d f3 a5 88 bc 67 1a 69 bc ad a2 4c 3e
       0.08056455 -0.016680693 -0.014227486 0.19983931
0000d0 ef 18 40 3e 75 f5 bd 3c aa 72 84 bd 70 3f 97 be
       0.18759511 0.023188332 -0.06467183 -0.29540586
0000e0 4b 3c 80 be dd e0 77 be 0d d1 58 3e ff e9 77 bd
       -0.25046 -0.24206872 0.21173497 -0.06052589
0000f0 1c c0 67 3e 43 ab 21 3e 89 9e 8f 3e cf a9 86 be
       0.22631878 0.15787987 0.2805064 -0.2630143
