example/cloudManufacturing/rl/phase/ckpts/policy-model-weight-array.global-step-1000.pth (torch, 32975 bytes, 7 tensors)

fc1._model.0.weight f4 [24, 141]
0	0x3cba43e2	0.022737447
1	0xbe0ec25a	-0.13941327
2	0xbda71722	-0.08158709
3	0x3d244952	0.040108986
4	0x3d7e0b5e	0.06202256
5	0xbd535adb	-0.05160032
6	0xbdac210d	-0.084047414
7	0xbbe9e9b5	-0.0071384558
8	0xbda4e97f	-0.08052348
9	0xbd5af0fd	-0.05345248
10	0xbe35269e	-0.17690513
11	0x3e02a15c	0.12756866
12	0xbd3ca360	-0.046054244
13	0xbe3b6549	-0.18300356
14	0x3df7ed74	0.121058375
15	0xbe11eff1	-0.14251687
16	0x3df21fc6	0.118224666
17	0xbb1ca3c7	-0.002390133
18	0x3e340b84	0.17582518
19	0x3cd18806	0.025577556
20	0xbb7886b4	-0.0037922086
21	0xbd179fd3	-0.037017655
22	0xbdb36527	-0.08759528
23	0x3e1c9aaa	0.15293375
24	0x3c852edb	0.016257694
25	0x3e2bdad6	0.16782698
26	0x3d0774a4	0.03307022
27	0x3cc48119	0.02398734
28	0xbdae109f	-0.08499264
29	0xbdbf5b4d	-0.09343586
30	0x3e1b7890	0.1518271
31	0x3df519dd	0.11967824
32	0x3df7da36	0.12102167
33	0x3e124c65	0.14286955
34	0xbd110dcc	-0.03541355
35	0x3e01b726	0.12667522
36	0xbe2706db	-0.16311209
37	0x3e24f1ef	0.16107915
38	0x3e0c6fc4	0.1371451
39	0xbe05d703	-0.13070302
40	0x3e413fc6	0.18871984
41	0x3c0b3949	0.008497545
42	0xbde94cf0	-0.11391628
43	0x3d9d9205	0.07693867
44	0xbcc8c0fa	-0.02450608
45	0xbe35e6de	-0.1776385
46	0x3d986e7c	0.07442948
47	0x3e1b16a1	0.15145351
48	0xbd906128	-0.07049781
49	0x3daa9a89	0.083302565
50	0xbcfe1675	-0.031016568
51	0x3e1a7a26	0.15085658
52	0xbe334751	-0.17507674
53	0xbd8f0397	-0.069831066
54	0xbe209842	-0.15683082
55	0xbe2dac98	-0.1696037
56	0xbe1e15c5	-0.15437992
57	0xbe10087d	-0.14065738
58	0xbd18759c	-0.037221536
59	0x3dfb070d	0.12257204
60	0xbdcabacd	-0.09898911
61	0xbe1a8fed	-0.15093966
62	0xbd3600fc	-0.044434533
63	0xbd187e87	-0.03723004
64	0x3d1bc9a4	0.038034096
65	0x3ca55825	0.020183632
66	0xbde988f3	-0.11403074
67	0x3d17cf55	0.03706296
68	0x3e2299bd	0.15878959
69	0xbc120006	-0.008911138
70	0xbd39566e	-0.04524844
71	0xbdf9b318	-0.121923625
72	0x3b2c9850	0.0026335903
73	0xbde60078	-0.11230558
74	0xbdb3a081	-0.08770848
75	0xbd76e54b	-0.060277265
76	0xbd8b14e4	-0.06791094
77	0xbdfe779a	-0.12425156
78	0xbd758dc0	-0.059949636
79	0x3d4fddcf	0.050748643
80	0x3de353c5	0.11099962
81	0xbe16b0c7	-0.14715873
82	0xbe2279d5	-0.15866788
83	0x3bc28750	0.0059365407
84	0x3e1469b0	0.14493442
85	0xbd908fab	-0.070586525
86	0xbe111f07	-0.14171992
87	0xbe31ba04	-0.17356116
88	0x3c9136db	0.017726352
89	0xbc7a2daf	-0.015269681
90	0xbde5b71c	-0.11216566
91	0x3e008763	0.12551646
92	0xbe0d8d91	-0.13823535
93	0x3e318135	0.17334445
94	0xbd9e0f10	-0.07717717
95	0xbcf01442	-0.029306535
96	0xbe111c41	-0.14170934
97	0x3e0b4913	0.13602094
98	0x3d58864f	0.05286246
99	0xbe137fd2	-0.14404228
100	0xbe238255	-0.15967686
101	0xbdde0c32	-0.1084217
102	0xbdd376fe	-0.1032543
103	0x3e34ed74	0.17668706
104	0x3e188eee	0.14898273
105	0xbe32ce0b	-0.17461412
106	0x3dc3ea91	0.09566224
107	0xbe057a28	-0.1303488
108	0xbc33f4f9	-0.010983699
109	0xbd095703	-0.033530246
110	0xbb289cb9	-0.002572818
111	0x3d1af1f9	0.03782842
112	0x3d6aa768	0.057288557
113	0x3d843c67	0.06456833
114	0x3e1cdb22	0.15317968
115	0x3c693038	0.014232688
116	0xbdb45c06	-0.088066146
117	0xbe2f247c	-0.17103761
118	0xbc8d4370	-0.01724407
119	0x3d41dae7	0.047327902
120	0x3dbdd15b	0.09268447
121	0xbdb9b6f0	-0.09068096
122	0xbd2307d0	-0.039802372
123	0x3cab5c4f	0.02091804
124	0x3cf52655	0.029925505
125	0xbe328155	-0.17432149
126	0x3bf47b73	0.0074610054
127	0xbdca9b32	-0.098928824
128	0xbcffcafd	-0.031224722
129	0xbe1e00a3	-0.1542993
130	0x3dcfdfbb	0.10150095
131	0xbdaac9ee	-0.08339296
132	0x3e160ae3	0.1465259
133	0xbe29f626	-0.16597804
134	0x3dee3870	0.11631858
135	0x3d84d3bc	0.064856976
136	0xbe10454c	-0.14088935
137	0x3de0a196	0.1096832
138	0x3dd1d399	0.10245437
139	0x3e20df1f	0.15710114
140	0x3e18fd75	0.14940436
141	0x3e322543	0.17397027
142	0xbde2aa2d	-0.11067615
143	0x3d8155ad	0.063151695
144	0x3d71da56	0.059046112
145	0x3e0996e2	0.13436463
146	0xbd5f45da	-0.054509975
147	0xbd8b256d	-0.06794248
148	0xbe310bdf	-0.17289685
149	0xbe268110	-0.16260171
150	0xbc359b0a	-0.0110843275
151	0xbdef9a24	-0.11699322
152	0x3da89716	0.08231942
153	0xbdd4eaa4	-0.10396317
154	0xbcd6e1be	-0.02623069
155	0xbdc90f12	-0.098173276
156	0x3db691e0	0.08914542
157	0xbe34f9ea	-0.1767346
158	0xbd1a0182	-0.037599094
159	0x3dab71bd	0.08371303
160	0x3e03a90c	0.12857455
161	0xbe058477	-0.13038813
162	0xbe3fd3fd	-0.18733211
163	0xbc84a6df	-0.016192852
164	0x3cd81de6	0.026381444
165	0x3d9d4b03	0.07680323
166	0xbd497e2c	-0.049192593
167	0x3e144813	0.14480619
168	0xbda4145c	-0.08011696
169	0x3d861e8b	0.06548794
170	0x3d891c40	0.066948414
171	0x3e1aad6f	0.15105222
172	0xbcbb1567	-0.022837354
173	0x3c8d1818	0.017223403
174	0xbe1a2463	-0.15052943
175	0xbd783856	-0.0606006
176	0x3d96998d	0.07353506
177	0x3dcab8f8	0.09898561
178	0xbdd6d30a	-0.10489471
179	0x3e0ca8c5	0.13736255
180	0xbcbe79ef	-0.023251502
181	0x3dca0f0b	0.098661505
182	0x3e2677b5	0.16256602
183	0x3d9f6592	0.07783045
184	0x3d1933ce	0.03740292
185	0xbe3237fc	-0.17404169
186	0x3d0e9373	0.034808587
187	0x3d621093	0.055191588
188	0xbc57a650	-0.013162211
189	0x3e1df73f	0.15426348
190	0x3cadab91	0.021199973
191	0x3d49897d	0.049203385
192	0xbdcc2142	-0.09967281
193	0xbe0f2213	-0.13977842
194	0xbdb231a8	-0.087008774
195	0x3e2782ec	0.16358536
196	0x3e18203f	0.14856051
197	0x3d387408	0.04503253
198	0xbdccacf3	-0.09993925
199	0xbd2f70ea	-0.042832293
200	0xbdadf1f2	-0.08493413
201	0x3c24291e	0.010019569
202	0xbd7e2cea	-0.062054552
203	0xbd57eb7c	-0.05271481
204	0x3e11f3b5	0.14253123
205	0x3d80b6a7	0.06284838
206	0xbd4ae293	-0.049532484
207	0x3cd82d0d	0.02638867
208	0xbd22fde1	-0.0397929
209	0xbe1ea25e	-0.15491626
210	0x3e048fd7	0.12945496
211	0x3de61c63	0.11235883
212	0x3d692666	0.056921385
213	0xbe30d88a	-0.17270103
214	0x3e19c482	0.15016368
215	0xbe3b1d36	-0.18272862
216	0xbe3fe623	-0.18740134
217	0x3dcfd39f	0.101477854
218	0x3da0097e	0.078143105
219	0x3dc946aa	0.09827931
220	0xbe2884d5	-0.16456921
221	0x3bd45303	0.0064796223
222	0xbe3c35ae	-0.18379852
223	0x3ca512fc	0.020150654
224	0xbd6a8196	-0.05725249
225	0x3ddacf0f	0.106840245
226	0xbe0dc34e	-0.13844034
227	0xbda171d1	-0.07883037
228	0xbcbdc763	-0.023166364
229	0x3cf5753f	0.029963134
230	0x3e0f8f2d	0.14019461
231	0xbe2d279b	-0.1690964
232	0xbdad77a2	-0.08470084
233	0xbd604330	-0.054751575
234	0x3d21c925	0.039498467
235	0x3c1c627f	0.009544968
236	0xbd080078	-0.033203572
237	0x3bba3bf7	0.005683418
238	0x3e294a04	0.16532141
239	0x3e1b1348	0.15144074
240	0xbd385579	-0.045003388
241	0xbdb44143	-0.0880151
242	0x3c931a8e	0.017956998
243	0xbd85ddaa	-0.0653642
244	0xbe2627ac	-0.16226071
245	0x3c2376ba	0.009977037
246	0xbc2ae1d6	-0.01042982
247	0xbd1c3065	-0.03813209
248	0xbda9f758	-0.0829913
249	0xbe2c6382	-0.16834834
250	0xbd0f204d	-0.034942914
251	0x3e0d5436	0.13801655
252	0xbcf1c1e5	-0.029511401
253	0x3e3d8a6c	0.18509835
254	0xbd3b1f4d	-0.045684148
255	0xbd703ce5	-0.058651824

fc1._model.0.bias f4 [24]
0	0x381bbdf7	3.71318e-05
1	0x37e35454	2.7099777e-05
2	0x389c371a	7.448923e-05
3	0x388d6b1e	6.743356e-05
4	0xb9c06873	-0.00036698914
5	0x39c20749	0.0003700799
6	0x396eb10b	0.00022763402
7	0xb9ec00ef	-0.00045014123
8	0x39cb6533	0.00038794577
9	0x39018efb	0.00012355663
10	0x3906adf5	0.0001284404
11	0xb8460ec5	-4.7220634e-05
12	0x39c6bb30	0.00037904968
13	0xb9c82448	-0.00038174004
14	0x38f95a3d	0.000118900534
15	0xb9ca55f1	-0.00038592474
16	0x39ce1d5a	0.0003931325
17	0xb9577823	-0.00020548752
18	0xb598ea50	-1.1393076e-06
19	0x391c8e74	0.00014930387
20	0xb8f3891d	-0.00011612682
21	0x3975df28	0.00023448153
22	0x39dc3cd2	0.00042006985
23	0x38b51f2e	8.63656e-05

fc2._model.0.weight f4 [20, 48]
0	0xbd5f522e	-0.054521732
1	0x3e822666	0.2541992
2	0xbdfa6263	-0.12225797
3	0xbd061a39	-0.03273985
4	0xbe5ab4e7	-0.21358071
5	0x3d9f62d6	0.07782523
6	0xbd8841a6	-0.066531464
7	0x3e5373ba	0.20649615
8	0x3e86863a	0.26274282
9	0xbe478906	-0.19485864
10	0x3dbe040c	0.09278116
11	0x3e836714	0.2566458
12	0x3da701c5	0.081546344
13	0xbe3f64ea	-0.1869084
14	0xbdb38ff9	-0.08767695
15	0xbe7816a1	-0.24227382
16	0x3de78ead	0.1130651
17	0xbe655b9e	-0.2239823
18	0xbbabf09d	-0.005247189
19	0xbe80b2fb	-0.2513655
20	0xbc812ad2	-0.015767489
21	0x3e85a386	0.2610132
22	0xbe2d26d0	-0.16909337
23	0x3da66494	0.081246525
24	0xbe8ac4be	-0.27103227
25	0xbe4b10fa	-0.19830695
26	0x3e8bd6b3	0.2731224
27	0x3e3b447a	0.1828784
28	0x3e8cb190	0.2747922
29	0xbe7606c8	-0.24026024
30	0x3dab3ee9	0.083616085
31	0x3dec8854	0.1154944
32	0xbd476161	-0.048676852
33	0xbe6c0953	-0.23050432
34	0x3c62a394	0.013832945
35	0xbe6b0979	-0.22952832
36	0xbd2041f0	-0.039125383
37	0xbe36d781	-0.17855646
38	0xbe129474	-0.14314443
39	0xbe918018	-0.2841804
40	0x3e3fe1ce	0.18738481
41	0x3e0bbd71	0.13646485
42	0xbe6b6706	-0.22988519
43	0xbe6deed7	-0.23235641
44	0x3d780fa6	0.0605618
45	0x3e95d395	0.29262987
46	0x3e8e3b45	0.27779594
47	0x3e9149e7	0.28376696
48	0x3e208df8	0.15679157
49	0xbcb3a5a8	-0.021929577
50	0x3e1f2f5b	0.15545408
51	0xbe2a2a5c	-0.16617721
52	0xbe972872	-0.29523045
53	0x3d6daf4b	0.0580285
54	0x3e6577bf	0.22408961
55	0xbe910125	-0.28321186
56	0xbe74ae36	-0.23894581
57	0xbda133b1	-0.078711875
58	0x3e71be96	0.23607859
59	0x3e54912f	0.20758508
60	0x3e22bb56	0.15891775
61	0x3dad5914	0.08464256
62	0x3e30ea2f	0.17276834
63	0x3c044b0f	0.008074536
64	0x3e857c87	0.2607157
65	0x3da87afa	0.08226581
66	0x3d077def	0.033079084
67	0xbc9acf34	-0.01889763
68	0xbde3e719	-0.11128063
69	0x3ab94f29	0.0014137971
70	0xbd1cf81d	-0.038322557
71	0x3e8825b0	0.26591253
72	0x3e33cbe0	0.17558241
73	0x3d5af57b	0.053456765
74	0xbd929b82	-0.07158567
75	0xbe75020d	-0.23926564
76	0xbe940585	-0.2891046
77	0xbe052a39	-0.13004388
78	0x3d21e0e8	0.039521128
79	0x3c7dfbe0	0.015501946
80	0xbdac530c	-0.084142774
81	0x3e31c4eb	0.17360274
82	0xbe3c0624	-0.18361717
83	0x3e69cb25	0.228314
84	0xbe30b952	-0.17258194
85	0xbdbede05	-0.093196906
86	0x3e209685	0.15682419
87	0xbd599c64	-0.05312766
88	0xbd5d4414	-0.054020002
89	0x3d9b9cf1	0.075982936
90	0xbdfc0d34	-0.12307206
91	0xbe3ec7c0	-0.18630886
92	0x3e22429b	0.1584572
93	0x3e20e4ba	0.15712252
94	0xbcf61d3f	-0.030043242
95	0xbddd16e9	-0.107953854
96	0x3d1dab87	0.03849366
97	0x3e76d0fc	0.24103159
98	0xbd3a1511	-0.045430247
99	0x3e8996b9	0.26872805
100	0x3d0a6566	0.033788107
101	0x3d075c7b	0.03304718
102	0xbdba418c	-0.09094533
103	0xbe8c998a	-0.2746089
104	0x3e957f87	0.29198858
105	0xbdc2f977	-0.09520238
106	0xbdb3ecb0	-0.08785379
107	0xbddf7bc0	-0.10912275
108	0x3e79370f	0.2433741
109	0x3da5a0e1	0.08087326
110	0xbd9c37d5	-0.076278366
111	0x3e836e92	0.25670296
112	0xbe83f86b	-0.25775465
113	0x3c868aa8	0.016423538
114	0xbe764229	-0.24048676
115	0xbdfdbab6	-0.12389128
116	0x3e08e16c	0.13367242
117	0xbe87b64b	-0.26506266
118	0x3e13d964	0.14438397
119	0x3e27789b	0.16354601
120	0x3ccf81c4	0.025330432
121	0xbe20d91d	-0.15707822
122	0xbde33883	-0.11094763
123	0xbde7ecd2	-0.11324467
124	0xbe3fdc0a	-0.18736282
125	0x3e76a6e1	0.24087097
126	0xbd7c5d7f	-0.061612602
127	0xbde73791	-0.11289895
128	0x3e185805	0.14877327
129	0xbe3f024a	-0.18653217
130	0x3e621a4c	0.22080344
131	0xbcee7ca0	-0.02911216
132	0xbe8e8976	-0.2783925
133	0x3d222917	0.039589968
134	0xbe34daca	-0.17661586
135	0x3e82a2cf	0.25514838
136	0xbe45b848	-0.19308579
137	0x3e123c07	0.14280711
138	0x3e2e75aa	0.17037073
139	0xbe6d1343	-0.23151879
140	0x3e702b7a	0.23454085
141	0xbd6c5751	-0.05770046
142	0x3e3f3b57	0.1867498
143	0xbd4f2e39	-0.05058119
144	0x3e7147c0	0.23562527
145	0xbe61080b	-0.21975724
146	0x3bd6145f	0.00653319
147	0xbe86dc4b	-0.26339945
148	0xbd856c95	-0.06514851
149	0xbe745623	-0.23860984
150	0x3e4ece93	0.2019599
151	0xbe587878	-0.21139705
152	0x3e935190	0.28773165
153	0x3e83bc6e	0.25729698
154	0x3c28f0c1	0.010311306
155	0xbe7bb9fe	-0.24582669
156	0xba85d056	-0.0010209184
157	0x3abf7dd0	0.0014609639
158	0x3dd0ea44	0.102009326
159	0xbe6ec74b	-0.23318212
160	0x3d2c05f7	0.041997876
161	0xbc534833	-0.012895632
162	0xbe4251de	-0.18976542
163	0xbe3a9b3f	-0.18223284
164	0x3cd8a29d	0.026444728
165	0xbe629c59	-0.22129954
166	0xbb609a44	-0.0034271637
167	0xbe36f1e5	-0.17865713
168	0xbe879e09	-0.2648776
169	0xbe3e60ca	-0.1859161
170	0x3d5eead9	0.054423187
171	0xbdae5301	-0.085119255
172	0xbe59114c	-0.21198004
173	0xbd9a7e93	-0.07543673
174	0x3e49ecf4	0.19719297
175	0xbd03d937	-0.032189574
176	0xbe747ccf	-0.23875736
177	0x3e9162b7	0.28395626
178	0x3daec2f9	0.08533282
179	0xbe3dceba	-0.18535891
180	0x3e5cdeef	0.21569417
181	0xbe6424e7	-0.22279702
182	0xbe979cfb	-0.29611954
183	0x3e607157	0.21918236
184	0x3e58eaed	0.21183367
185	0xbe86ec92	-0.26352364
186	0x3d3f0b43	0.0466416
187	0xbe667194	-0.22504264
188	0xbe05cce2	-0.13066438
189	0x3d8a9cd1	0.067681916
190	0x3e1c5cda	0.15269795
191	0x3e50ff94	0.20409995
192	0xbe1f1866	-0.15536651
193	0xbd7b30a1	-0.061325673
194	0xbe349047	-0.17633162
195	0xbd8620c2	-0.06549217
196	0x3e0d7191	0.13812853
197	0x3d8f9e74	0.070126444
198	0x3ab09b54	0.0013474026
199	0x3e1acf57	0.15118156
200	0xbdc3e309	-0.09564788
201	0xbe774af3	-0.24149685
202	0x3dce6f77	0.10079854
203	0xbe8bfc5b	-0.2734097
204	0xbe8cf674	-0.2753178
205	0x3c7a5c5a	0.015280807
206	0xbe8ba74b	-0.27276072
207	0xbdd005cd	-0.101573564
208	0xbdee5f6c	-0.11639294
209	0x3d873855	0.06602541
210	0xbddb1ff0	-0.10699451
211	0x3e08dcd6	0.13365492
212	0x3e5470b2	0.20746115
213	0xbe35f804	-0.17770392
214	0x3e0bce35	0.1365288
215	0x3e891d8e	0.2678036
216	0x3e851585	0.2599298
217	0x3e3ff245	0.18744762
218	0x3d8b5032	0.068024054
219	0x3e00ef4d	0.12591286
220	0x3cc41f2b	0.023940643
221	0x3e49aca7	0.19694768
222	0xbd9b70b8	-0.07589859
223	0x3e3d29b5	0.18472941
224	0xbe376ee0	-0.17913389
225	0x3e841d62	0.25803667
226	0x3e4013a9	0.187575
227	0xbe7b0a2e	-0.24515602
228	0x3e3ee132	0.18640593
229	0xbd10f701	-0.03539181
230	0xbe4d0dea	-0.20024839
231	0xbd42b8d2	-0.04753954
232	0xbbc525e7	-0.006016481
233	0x3c8aec84	0.016958483
234	0x3d8c9604	0.06864551
235	0x3dcb61a0	0.0993073
236	0xbdb5c50b	-0.088754736
237	0xbe03e581	-0.12880518
238	0xba9ea3e5	-0.0012103288
239	0xbdea139d	-0.11429522
240	0x3e4af298	0.19819105
241	0x3df40549	0.119150706
242	0x3e6d8895	0.23196633
243	0xbdc1dd57	-0.09466045
244	0xbdbbb1e2	-0.09164788
245	0xbc923e46	-0.01785196
246	0xbe0231ab	-0.1271426
247	0x3e09831b	0.13428919
248	0xbe7439df	-0.23850201
249	0xbd331178	-0.04371783
250	0x378052b8	1.5297308e-05
251	0x3e82aa79	0.25520685
252	0xbd7cc9d8	-0.06171593
253	0x3dfe8e13	0.12429442
254	0xbe91db1a	-0.28487474
255	0x3e2562e6	0.16151008

fc2._model.0.bias f4 [20]
0	0x00000000	0.0
1	0x00000000	0.0
2	0x00000000	0.0
3	0x00000000	0.0
4	0x9b8a1acb	-2.28475e-22
5	0x00000000	0.0
6	0x00000000	0.0
7	0x9cc6afac	-1.3147951e-21
8	0x94b09fe9	-1.7834532e-26
9	0x1cc6b05d	1.314813e-21
10	0x00000000	0.0
11	0x00000000	0.0
12	0x1b8a1acb	2.28475e-22
13	0x00000000	0.0
14	0x00000000	0.0
15	0x00000000	0.0
16	0x00000000	0.0
17	0x00000000	0.0
18	0x00000000	0.0
19	0x00000000	0.0

fc3._model.0.weight f4 [64, 48]
0	0xbcd28668	-0.025698856
1	0x3d66edce	0.056379132
2	0x3d9e1db2	0.07720508
3	0x3d38b570	0.045094907
4	0xbd2baba4	-0.041911736
5	0xbe643037	-0.22284018
6	0xbda0c187	-0.078494124
7	0xbe58ace3	-0.21159701
8	0xbd8f1fa7	-0.06988459
9	0x3e157981	0.14597131
10	0xbe1e0a22	-0.15433553
11	0xbcb6b12c	-0.022301279
12	0xbdd9e0df	-0.10638594
13	0xbe4338cf	-0.1906464
14	0xbdaa2c32	-0.08309211
15	0xbcc03a36	-0.023465257
16	0xbdd9f1f9	-0.10641856
17	0x3dc9c8eb	0.09852775
18	0xbd24b688	-0.040213138
19	0xbc4b6d13	-0.012416142
20	0x3de22655	0.110424675
21	0xbe25e6d1	-0.1620133
22	0xbe010b27	-0.1260191
23	0x3dd743f2	0.105110064
24	0x3d3151b1	0.043290798
25	0xbd813a7a	-0.06309982
26	0x3e137dfb	0.14403526
27	0xbda0b4da	-0.07846995
28	0xbb954276	-0.004555042
29	0x3b4fe85f	0.0031724197
30	0x3dfd9900	0.12382698
31	0x3e353c96	0.17698893
32	0xbe5ab140	-0.21356678
33	0xbdfc88ba	-0.12330766
34	0xbdb0a951	-0.086260445
35	0xbe614d65	-0.2200218
36	0x3de7e8e6	0.11323719
37	0x3e3619f5	0.1778334
38	0x3e682265	0.2266937
39	0xbdb58e27	-0.08865004
40	0x3e3ccd65	0.18437727
41	0xbe22b87f	-0.15890692
42	0x3dbc7316	0.092016384
43	0xbdb9068b	-0.09034451
44	0x3de483a9	0.11157925
45	0xbe19ba43	-0.1501246
46	0x3d81aca3	0.06331756
47	0xbdc299d2	-0.09501995
48	0x3d35cd46	0.044385217
49	0xbdff0a09	-0.12453086
50	0xbdca0e1a	-0.09865971
51	0xbe142ecd	-0.14470978
52	0x3e090971	0.13382508
53	0xbdbb6a0b	-0.091510855
54	0xbe64e908	-0.2235452
55	0xbe3e3010	-0.18573022
56	0xbc3f6385	-0.011681442
57	0xbe3662b5	-0.17811091
58	0xbc80307b	-0.015648117
59	0xbd14beff	-0.03631496
60	0xbc4db06d	-0.01255427
61	0xbe19ac3d	-0.1500711
62	0xbd1c7554	-0.03819783
63	0xbd976636	-0.07392542
64	0xbd8b2628	-0.06794387
65	0xbd7a3455	-0.061085064
66	0x3dc5fb1b	0.09667035
67	0x3cebbff3	0.028778052
68	0xbdc5f940	-0.09666681
69	0x3e273b6b	0.1633126
70	0xbe3c3416	-0.18379244
71	0xbe2a9272	-0.16657427
72	0x3e2f5914	0.17123824
73	0xbd8ea469	-0.069649525
74	0xbd9c86da	-0.076429084
75	0x3e16c4cb	0.14723508
76	0x3d9e5fb7	0.077331
77	0x3dd146d2	0.10218586
78	0xbe353948	-0.17697632
79	0x3deabcb2	0.11461772
80	0x3d0f64af	0.03500813
81	0xbe38c1a9	-0.18042625
82	0x3e38fbac	0.18064755
83	0xbad6b6db	-0.00163814
84	0xbd4a1633	-0.049337577
85	0x3c36370e	0.0111215245
86	0x3dd4f43d	0.10398147
87	0xbda35ea5	-0.079770364
88	0xbd913503	-0.07090189
89	0xbe0be33a	-0.13660899
90	0xbe503e79	-0.20336331
91	0x3c16388e	0.009168757
92	0x3e368571	0.17824341
93	0x3dc620ad	0.09674201
94	0x3e104c05	0.14091499
95	0x3d037b98	0.03210029
96	0xbd4c7dae	-0.049924545
97	0xbe589af1	-0.21152855
98	0x3e0100be	0.1259794
99	0x3dc11d09	0.09429366
100	0x3d488794	0.048957422
101	0x3e620e06	0.22075662
102	0xbe3a8d41	-0.18217947
103	0xbc901656	-0.017588776
104	0xbdf56968	-0.11982995
105	0x3cb6a604	0.02229596
106	0xbdc85d99	-0.09783477
107	0x3e3a9e28	0.18224394
108	0xbd0cbb47	-0.03435829
109	0x3e136d53	0.14397173
110	0x3d8c606e	0.0685433
111	0x3da42f8a	0.0801688
112	0xbdfec097	-0.12439077
113	0x3d6c9024	0.05775465
114	0xbe395524	-0.18098885
115	0x3e1eecda	0.15520039
116	0xbd988597	-0.07447355
117	0x3dca6f55	0.09884516
118	0x3e5645d5	0.20925076
119	0x3d8d3af7	0.06896012
120	0x3e49a692	0.19692448
121	0x3dc1e11e	0.09466766
122	0xbda1736e	-0.078833446
123	0xbe5c5912	-0.21518353
124	0xbdf1579c	-0.11784288
125	0x3e0ca07f	0.137331
126	0x3e4986da	0.19680348
127	0xbe25b5ef	-0.16182683
128	0x3da3b293	0.07993045
129	0x3dc256df	0.094892256
130	0x3d531351	0.051532093
131	0x3da78a1a	0.08180638
132	0x3e6d65b6	0.23183331
133	0x3d5d7df9	0.054075215
134	0xbd9a5098	-0.07534903
135	0x3e5f2dab	0.21794765
136	0xbe544ab8	-0.20731628
137	0x3c9adfba	0.01890551
138	0xbdbdd8ad	-0.09269843
139	0xbe3822e5	-0.17982061
140	0x3e376789	0.1791059
141	0xbe045854	-0.1292432
142	0x3cb1a8a0	0.021686852
143	0x3e4385e3	0.19094042
144	0xbdf10145	-0.1176782
145	0xbcf80a49	-0.030278342
146	0xbe439fb7	-0.19103895
147	0x3e4c6570	0.1996057
148	0x3e4a6d95	0.19768365
149	0xbe2f682d	-0.17129584
150	0x3d8e7ca0	0.06957364
151	0xbdbeaad5	-0.093099274
152	0xbe41802e	-0.18896553
153	0x3c667659	0.014066302
154	0x3e2eb679	0.17061795
155	0xbe5b75f0	-0.21431708
156	0x3b00e868	0.0019669775
157	0x3bd2971a	0.006426704
158	0x3d353acc	0.044245526
159	0xbe235542	-0.15950492
160	0x3e4012bf	0.18757151
161	0x3e45dff0	0.19323707
162	0x3e2f9035	0.17144854
163	0x3ce2ecd3	0.027700817
164	0x3e3ca779	0.18423261
165	0xbe6ceda7	-0.23137532
166	0xb94ccb42	-0.00019530675
167	0x3e5a0782	0.21291927
168	0x3d603f39	0.054747794
169	0xbdf82347	-0.121161036
170	0x3e627eff	0.22118758
171	0x3d9c570e	0.07633792
172	0xbd02d677	-0.03194281
173	0x3e41da5b	0.18930952
174	0x3e38c3c1	0.18043424
175	0xbe143076	-0.14471611
176	0xbdec080a	-0.11524971
177	0xbdf765a8	-0.12079936
178	0x3dc7b405	0.09751133
179	0x3e5eaa85	0.21744736
180	0x3e358a24	0.17728478
181	0x3d2c57f8	0.04207608
182	0xbe236814	-0.15957671
183	0x3cb203b8	0.021730289
184	0x3da253f4	0.07926169
185	0x3d265c3c	0.040615305
186	0xbe56a6e1	-0.20962097
187	0x3e1896a9	0.14901222
188	0xbd213f3e	-0.039366953
189	0xbe663d8d	-0.22484417
190	0x3e11e172	0.14246157
191	0xbd2c1d97	-0.042020407
192	0x3ce9f435	0.02855883
193	0x3d43451b	0.047673326
194	0x3e5b32ed	0.21406145
195	0x3d674ce6	0.05646982
196	0xbc41fb27	-0.011839665
197	0x3e538c12	0.20658901
198	0xbe5cf991	-0.21579577
199	0xbd58f0bb	-0.052963953
200	0xbd985d45	-0.07439665
201	0xbd1f9274	-0.038958028
202	0xbda2c6de	-0.07948087
203	0xbe5a7bbc	-0.21336263
204	0x3e60f271	0.21967484
205	0x3d81e21b	0.06341954
206	0xbdc78a8e	-0.09743224
207	0x3d95a0e4	0.07306078
208	0xbdb538c8	-0.08848721
209	0xbda1ac07	-0.0789414
210	0x3db4c1dc	0.08826038
211	0x3e552072	0.20813158
212	0xbd743318	-0.05961904
213	0x3e264791	0.16238238
214	0x3d60a0a6	0.054840706
215	0x3ca1053b	0.019655814
216	0x3e24798b	0.1606199
217	0xbdf03c09	-0.11730201
218	0xbe4bc0bb	-0.1989774
219	0x3dc25263	0.0948837
220	0x3d06cdd3	0.032911133
221	0xbe193de6	-0.14965019
222	0xbe0c3a26	-0.13694057
223	0x3e1671c7	0.1469184
224	0xbe28fc7a	-0.16502562
225	0x3e3ebda9	0.18627037
226	0x3db0e7e2	0.08637978
227	0x3d68d6bb	0.056845408
228	0x3d817a17	0.06322115
229	0x3d8ddbd0	0.069266915
230	0xbda1b7ee	-0.0789641
231	0xbcc19de2	-0.023634855
232	0xbd448ff3	-0.047988843
233	0xbdbf25ac	-0.09333357
234	0xbdeaa785	-0.11457733
235	0x3e50bc64	0.20384365
236	0xbda8ee54	-0.082485825
237	0x3d3e66b7	0.046484675
238	0xbe6a002b	-0.22851627
239	0xbd9ce262	-0.076603666
240	0xbdca7142	-0.098848835
241	0xbdfd7cf9	-0.12377352
242	0x3de743e9	0.1129225
243	0x3da34858	0.07972783
244	0xbe646e1c	-0.22307628
245	0xbc0ed00d	-0.008716595
246	0xba980829	-0.0011599112
247	0xbd5300bd	-0.051514376
248	0xbd5acb6f	-0.053416666
249	0x3d588cc2	0.052868612
250	0x3d3bfd3b	0.045895796
251	0xbdb2b4d3	-0.08725896
252	0x3ca5edb4	0.020254947
253	0xbdbafa1b	-0.09129735
254	0x3e032b8b	0.12809579
255	0xbc23ca4b	-0.009996961

fc3._model.0.bias f4 [64]
0	0xb985f834	-0.00025552663
1	0xb985f2de	-0.00025548687
2	0x3985ed52	0.00025544554
3	0x3985b6ae	0.00025503844
4	0x3985e694	0.0002553953
5	0xb985fdec	-0.00025556923
6	0x3985a9ff	0.00025494394
7	0x3985f4ed	0.0002555022
8	0xb985f0fb	-0.0002554728
9	0x3985fc56	0.00025555742
10	0xb985de60	-0.0002553342
11	0xb985bdc0	-0.00025509112
12	0x3985d5aa	0.0002552693
13	0xb985f2d1	-0.0002554865
14	0x398589c0	0.0002547037
15	0x3985cc14	0.00025519787
16	0x3985f24c	0.00025548262
17	0x3985f930	0.00025553396
18	0xb985feae	-0.00025557488
19	0x3985f075	0.0002554689
20	0x3985f41a	0.00025549607
21	0x3985f939	0.00025553422
22	0x3985f5b9	0.00025550814
23	0x3985ed62	0.000255446
24	0x3985fb89	0.00025555145
25	0xb985f44e	-0.00025549758
26	0xb985f73b	-0.00025551938
27	0xb985f019	-0.00025546624
28	0x3985f563	0.00025550564
29	0xb985f633	-0.0002555117
30	0xb985e8de	-0.00025541236
31	0xb985ff18	-0.00025557796
32	0x3985f244	0.0002554824
33	0xb985f878	-0.0002555286
34	0xb985dc3d	-0.00025531827
35	0xb985fb95	-0.0002555518
36	0x3985aeef	0.00025498073
37	0xb985fef1	-0.00025557683
38	0x3985f76a	0.00025552075
39	0x3985c511	0.00025514563
40	0x3985f2ee	0.00025548734
41	0xb984d91e	-0.00025338767
42	0xb985db0d	-0.00025530942
43	0xb985eefb	-0.0002554579
44	0xb985f38a	-0.00025549188
45	0xb985dc93	-0.00025532077
46	0xb985fc4a	-0.00025555707
47	0x3985ff2e	0.0002555786
48	0x3985ee05	0.00025545075
49	0xb985f1c3	-0.00025547863
50	0x3985ded4	0.00025533757
51	0x3985f444	0.0002554973
52	0xb985f338	-0.0002554895
53	0xb9857bb8	-0.00025459914
54	0xb985ea5b	-0.00025542345
55	0x3985df57	0.00025534138
56	0x3985f3e9	0.00025549464
57	0x3984d5a2	0.0002533617
58	0xb985edfe	-0.00025545055
59	0x3985dc7e	0.00025532016
60	0xb985f611	-0.0002555107
61	0x3985eadf	0.0002554273
62	0xb985fda5	-0.00025556717
63	0xb985ef52	-0.00025546044

fc4._model.0.weight f4 [1, 64]
0	0xbe38f5c8	-0.18062508
1	0xbe521979	-0.2051753
2	0x3e568aba	0.20951357
3	0x3d9891f6	0.07449715
4	0x3e0e97ac	0.13925046
5	0xbe8a57f4	-0.27020228
6	0x3d1926db	0.03739057
7	0x3e9bc7fc	0.30426013
8	0xbe4f9688	-0.20272267
9	0x3e869b74	0.26290476
10	0xbe143b94	-0.14475852
11	0xbda481e5	-0.08032588
12	0x3df67e8e	0.12035857
13	0xbe107fdc	-0.14111274
14	0x3d487646	0.04894092
15	0x3dc8b6bc	0.09800479
16	0x3e66aeea	0.22527662
17	0x3e43262d	0.19057532
18	0xbe994d08	-0.29941583
19	0x3e7dbc5d	0.24778886
20	0x3e1598c2	0.14609054
21	0x3e4be53e	0.19911668
22	0x3e2b4679	0.16726102
23	0x3de270cd	0.11056671
24	0x3e761a56	0.24033484
25	0xbe672aea	-0.22574964
26	0xbe86f002	-0.26354986
27	0xbe7b499f	-0.24539803
28	0x3e87f3a1	0.26553062
29	0xbe2e431c	-0.17017788
30	0xbe40ecb7	-0.188403
31	0xbe99e286	-0.30055636
32	0x3e887e68	0.2665894
33	0xbe3bc671	-0.18337418
34	0xbd8afb54	-0.06786218
35	0xbe660bfb	-0.22465508
36	0x3d68052e	0.056645565
37	0xbe9757e9	-0.29559258
38	0x3e8185c7	0.25297377
39	0x3d4b51c3	0.04963852
40	0x3e8d109a	0.27551728
41	0xbc1ec6eb	-0.00969098
42	0xbdcb4a8b	-0.09926327
43	0xbe711173	-0.23541813
44	0xbe87d9d4	-0.26533377
45	0xbe0cbac1	-0.13743116
46	0xbe731729	-0.23739304
47	0x3e9b4a7f	0.30330274
48	0x3e6841d9	0.22681369
49	0xbe6ec55d	-0.23317476
50	0x3d95dd2e	0.07317577
51	0x3e157f64	0.14599377
52	0xbe875608	-0.26432824
53	0xbd099b8d	-0.03359561
54	0xbe4d69fe	-0.20059964
55	0x3d985a4a	0.07439096
56	0x3e155325	0.14582498
57	0x3c91db47	0.017804755
58	0xbe63ef59	-0.22259273
59	0x3e0dbaee	0.1384084
60	0xbe6faf5a	-0.23406735
61	0x3e4eac1b	0.2018284
62	0xbe87a18c	-0.26490438
63	0xbe40b31b	-0.18818323
