example/cloudManufacturing/rl/phase/ckpts/policy-model-weight-array.global-step-2000.pth (torch_old, 31923 bytes, 7 tensors)

fc1._model.0.weight f4 [24, 141]
00000000: 50f8 603c cacb 2b3e 4b4c 143e 0fb1 52bd
00000010: d65f 93bd 42ad 03be be1e e3bb 031c f83d
00000020: 964a f0bd 245f 1cbd dc1a 183d f07b aebd
00000030: 1ab0 9f3c 7731 2abe 54a8 ffbd 0de6 b4bd
00000040: a5c7 4d3d a89d 39be 1897 eb3d c621 3f3e
00000050: cbd9 debd 2db4 bebd e2fe 923d c89f 01be
00000060: 42dc 083e 02f3 fb3c b84a 60bc 31cb c1bd
00000070: 990a b93d 0016 7cbd 245b 163c c061 0bbe
00000080: 1902 353d f224 953d e012 1fbe 009b 973c
00000090: e8c9 dfbc 1653 993d 1edf 273e 1a94 29be
000000a0: 1b60 24bd 6a66 ebbd c25b 8bbd d774 d5bd
000000b0: fa65 12be d501 6bbd 5ff1 6bbd 1006 083e
000000c0: 729a 2e3e 03d4 a03c 5e2f 90bd 1105 ffbd
000000d0: 8c35 233e bdb6 e6bd cb29 65bc 8003 d13c
000000e0: f23c 5e3d ee13 82bd 83fc 8e3d 9539 e4bd
000000f0: 07f5 5b3d 108a a13d 857c 09bd e4a8 183e
00000100: 547f 1c3e a628 02bc 5d93 ddbd 86a4 263a
00000110: b92a ecbd 28f4 e6bc 1a01 45bd 9e5f 6abd
00000120: 06f6 e6bd 91bb 9d3d c498 ccbc f467 893c
00000130: ceed 7b3c 8df3 3abd 4fb2 c63d 90b0 0e3e
00000140: c1ab f73c a517 033e d275 0abe 4a8a 173e
00000150: f22e 413e d10b d73d 5233 0abd 4e19 d43d
00000160: 3cd5 a13d f04f 273e 7c62 f13d 4593 37be
00000170: 0132 4bbd ce74 54ba cfd8 133e ee68 79bd
00000180: f797 373e 1ad3 1bbe 4741 31be 2747 e63d
00000190: 5609 013d 25f4 d33d 21f5 693d 44d9 01be
000001a0: c355 953d 9588 6a3d 61df 34be 7104 80bd
000001b0: c99b 523d e022 e13d ea0d bf3d df75 3cbd
000001c0: 95bc 1cbe d51d 75bd 00fb 72bd d303 b53d
000001d0: d0c3 ca3c 1669 533c 19a6 9ebc 3e76 1d3e
000001e0: 33a5 6e3c 5488 3bbc 7b06 ab3d 35d8 af3d
000001f0: 4db5 433d 05f5 80bd 7259 383e eef3 bfbd
00000200: 802d 9dbd 492c 1bbe f38d 4c3d 7f82 603b
00000210: 683c 323e 8cd1 a53c ba5a 8c3d b09e dc3d
00000220: 4d1e 1abd 9bce f53d 8e96 2d3e 070b 80bc
00000230: 7eca bbbd dfe9 03be 5d5c ab3d 1505 763d
00000240: 91d4 233e ee16 3bbe cb57 1cbe 9cb5 adbd
00000250: 02d7 81bd 5557 c7bd e2ac 303d adb6 2bbe
00000260: 0f84 413e 9772 07be dd45 a1bb 0310 ba3d
00000270: d427 c8bd 7a4a 98bd edb3 253e 2a8e 7cbd
00000280: 9560 8dbd 0f4b 213e 2520 273e cde5 9cbd
00000290: d526 8f3d 5924 af3d 0f9e 9cbd 08d1 8ebc
000002a0: 83b8 0c3e 51e5 123e 00fc 83bd bb15 ce3d
000002b0: bb26 a33d 7602 cc3d 0066 23be 2429 203e
000002c0: 86cb 0f3e a7db b4bc 6037 54bd bdce 353e
000002d0: 32b4 bcbd 46a6 afbd 9092 40bd 2a15 13be
000002e0: a138 1c3d 9d7b 22be 8a81 83bd a670 bb3c
000002f0: eb64 ccbd 13ef 8fbd 2783 fb3c a238 14bd
00000300: a50f 09be f46d 2dbe 31db 273e 1838 653c
00000310: 87a9 0b3d 1d85 313e b276 03be ef97 f4bd
00000320: 491f dbbc 4669 f6bd 1ec9 8ebd a587 88bd
00000330: 22fe f8bd ed9b 4ebd 4c27 d7bc 76fb cdbd
00000340: 6ee8 ffbd 1880 f2bd ba42 1c3e d1fa f8bd
00000350: 09b3 433d 9aa5 c73d 345e 3c3e c3cd 843d
00000360: 4be4 143e 34fa 8cbc c070 5e3c 8860 78bd
00000370: 436d 843d 66d2 5d3d bdf8 173e 5933 c1bd
00000380: 0d76 44bd 3288 2f3e da47 2b3e 2b7a 063e
00000390: 3bce 2fbe 4c09 1abe e001 86bd 19f9 e33d
000003a0: d9b0 3f3e b25d d63d 0bae 8f3d e350 3dbe
000003b0: 7f65 a1bd 8b28 22be 220f eebc 9b12 293d
000003c0: 2106 153e 1982 2f3e a6aa e53d 3d64 c83d
000003d0: 2017 303e b499 323e e6bf de3d f9e5 ddbc
000003e0: f66d 05bd 9cdf 4a3c 1b89 15be 878d 08bd
000003f0: 6fe4 83bd 9a86 d4bd 0001 23be cf8c 3cbc
0.013731077 0.16776958 0.14482228 -0.051438387 -0.07196014 -0.12859061 -0.006931155 0.12114718
-0.11732976 -0.03817667 0.03713499 -0.08519733 0.019493151 -0.16620432 -0.12483278 -0.08832941
0.050239224 -0.18126547 0.11503428 0.18665227 -0.108813845 -0.093117096 0.07177521 -0.12658608
0.13365272 0.030755524 -0.013689689 -0.09462584 0.090352245 -0.06154442 0.009177003 -0.13611507
0.044191454 0.072824374 -0.15534544 0.018506527 -0.027317956 0.074865505 0.16393706 -0.16560403
-0.040130716 -0.11494143 -0.06804611 -0.10422676 -0.14296713 -0.057374794 -0.057603236 0.13283563
0.17051104 0.019632345 -0.070402846 -0.12452138 0.15938395 -0.11265323 -0.013987015 0.025514364
0.05425734 -0.063514575 0.069817565 -0.111437954 0.053700473 0.078876615 -0.033566017 0.14908177
0.15282947 -0.007944262 -0.10819123 0.00063569134 -0.11531586 -0.028192595 -0.048096754 -0.057220094
-0.11277394 0.07701791 -0.024975188 0.016773202 0.015376521 -0.045642424 0.097019784 0.13934541
0.030233266 0.12801988 -0.13521507 0.14798847 0.18865564 0.10500301 -0.03374035 0.10356389
0.07901999 0.16339087 0.117863625 -0.17927273 -0.049608234 -0.00081045635 0.14438175 -0.060891084
0.17929064 -0.15217248 -0.17310058 0.1124404 0.031503044 0.10349301 0.05711854 -0.12680537
0.072917484 0.05725916 -0.17663337 -0.06250847 0.0514181 0.1099298 0.09328826 -0.046010848
-0.15306313 -0.059842903 -0.059321404 0.0883862 0.024751574 0.012903472 -0.01936631 0.15377137
0.014565754 -0.011446077 0.083508454 0.0858616 0.047780324 -0.06296734 0.1800287 -0.09372698
-0.07674694 -0.15153612 0.04994006 0.003425747 0.17405856 0.020241521 0.06853242 0.10772455
-0.037626553 0.120022975 0.16951963 -0.015630258 -0.09169482 -0.12882183 0.08367226 0.06006344
0.15999056 -0.18270466 -0.15267865 -0.08481905 -0.063398376 -0.09733454 0.043133624 -0.16768904
0.18898033 -0.13227306 -0.0049216584 0.09085085 -0.097732216 -0.0743608 0.16181917 -0.061659016
-0.06903187 0.15751289 0.16320856 -0.076610185 0.069898285 0.08551855 -0.07647335 -0.017433658
0.1374226 0.1434529 -0.064445496 0.100627385 0.079663716 0.09961407 -0.15956879 0.15640694
0.14042482 -0.022077395 -0.051810622 0.17754646 -0.09214057 -0.08576636 -0.047014773 -0.14363542
0.038139943 -0.15867467 -0.06421192 0.022880863 -0.09980186 -0.07028022 0.030702187 -0.03618682
-0.13384874 -0.16936475 0.16392209 0.013990425 0.03409722 0.17335935 -0.12838247 -0.119430415
-0.026748316 -0.12031798 -0.06971954 -0.06666497 -0.12157847 -0.05044167 -0.026263855 -0.10057728
-0.12495504 -0.11840838 0.15259829 -0.121572144 0.047778163 0.09748383 0.1839531 0.064845584
0.14540212 -0.01720915 0.013576686 -0.060638934 0.064661525 0.05415573 0.1484098 -0.09433622
-0.047964144 0.17141798 0.16726628 0.13132541 -0.17168514 -0.15042609 -0.065433264 0.11131496
0.18719806 0.1046709 0.07015618 -0.18487887 -0.07880687 -0.15835778 -0.02905995 0.04127751
0.14553119 0.17139472 0.11214189 0.09784744 0.17196321 0.17441446 0.108764455 -0.027087199
-0.03257557 0.012382414 -0.14603083 -0.033338096 -0.064400546 -0.10377236 -0.1591835 -0.011508181

fc1._model.0.bias f4 [24]
00000000: 6439 81ba 1014 8539 41e8 81ba 57e4 743a
00000010: 0364 813a aee4 7f3a d2cb 693a 0a00 813a
00000020: 6705 feb9 4297 803a 9867 7d3a 600f 7c3a
00000030: 6896 7139 5b34 813a 41c3 55ba 647c 813a
00000040: e943 7d3a 76cf 7f3a 1723 813a 313b 81ba
00000050: d52f 82ba dc58 6cba a0ac 7e3a bf52 7e3a
-0.0009859023 0.00025382685 -0.0009911136 0.00093418866 0.0009871725 0.0009761554 0.0008918616 0.0009841931
-0.0004845068 0.0009810703 0.0009666621 0.0009615328 0.00023039582 0.0009857522 -0.00081544 0.000987899
0.00096613035 0.0009758392 0.0009852377 -0.0009859559 -0.0009932468 -0.00090159266 0.0009715054 0.0009701661

fc2._model.0.weight f4 [20, 48]
00000000: 7651 02be 51f9 87be ec57 58be 7bc5 30be
00000010: 436e 0e3e 2f6b 2dbe 2595 2ebe 80b9 75be
00000020: 7e8c ea3d d3fe 38be 512d fcbc 5c41 e6bd
00000030: 8fe2 1cbb af87 ff3c 803b 92be 616b 8abd
00000040: e343 4a3e 5a46 a83d 043b 98bd 2db0 b33d
00000050: b88e 743e 970e a7bd 9538 d53d f8ee d2bd
00000060: 9210 933e d878 903e 163e 413e 3d65 a9bd
00000070: e568 79be 4000 96be 24e3 643d 923d 67be
00000080: 2752 81be 113d 9dbd ae29 b93c c75e 853e
00000090: 0803 54be f0e6 183e 41fd 373e 46b5 673d
000000a0: f201 e9bc ee61 d6bd b26d 4dbe 48d7 743e
000000b0: 2682 6fbc 4777 efbc c1a4 633e 9d80 b03d
000000c0: 1ccc 1f3e 80ca 843e 1071 c13c 9ea7 483e
000000d0: 7e04 953e 4491 ea3d b08f a6bd 4a29 e2bd
000000e0: 40f3 203c b20e febd 16d3 2f3e d2a2 55be
000000f0: 2856 2a3e 3881 bd3d 8846 d73d 06b2 813e
00000100: 7025 9dbc d0f2 aa3d b45e fc3d 6222 353e
00000110: 0c47 ee3d 101d eabc 7c7f 863e b0c0 b3bd
00000120: 3516 8bbe 409b 90be d473 9a3d 046d 45be
00000130: 4ddc 8dbe 9e06 52be 9d14 87be ecc0 d53d
00000140: d412 ae3d c667 69be 20b7 763e 4ceb 3a3e
00000150: e7f3 1bbe 2a49 2f3e 2a72 3e3e 9462 84be
00000160: 5400 ff3d dc63 5abd 8c76 31be 006a 073c
00000170: 1075 38be 0089 3dbb 2030 083c b8c8 6f3d
00000180: 18d1 5dbe 5895 2dbd 888c 793e 14a5 4b3e
00000190: 02cf 78be d827 b7bd 0455 3cbe 205e 85be
000001a0: 00be 0abe 3690 fdbd 18bb 843d 7771 05be
000001b0: 901d fe3d 28f2 523d 0000 1ebd 20c8 5b3d
000001c0: 1c8b 31be d6c4 8abe 50f1 6e3d 9c1d f43d
000001d0: d890 933e 2602 59be 94cc 863e b2bb 193e
000001e0: 7c3c 7abe 30d4 dbbd da0d ecbd 4081 83bd
000001f0: 333b 02be b2ab 8f3e 74dd 9e3d 50ec b13d
00000200: ef3c 22be d4de 29be 6854 d03d 4852 54bd
00000210: 303e 453d 5069 d9bc 4ce5 7b3e d4d2 643e
00000220: e25d 923e 40da 57bd 4248 8ebd 0ea5 e5bd
00000230: d6c2 963e a0dd 703e 4c0e de3d bcf8 273e
00000240: c516 f2bd e5fc d4bd e97a 7fbd 6ad0 86be
00000250: cdbe 963e b2e4 623e 83d8 7a3e e0ce 103e
00000260: 2fa5 14be b69c a8bd ee5d 01be f671 91be
00000270: 71af 153e 0f21 2d3e 5abd a13d e584 86be
00000280: ae48 e3ba f695 223e 2efa da3d b4c6 fc3b
00000290: d59c 75bd 6053 57be 4c1c cabd c8e5 39be
000002a0: f180 93be 5443 18be 8567 45be 6863 8abd
000002b0: cfa6 56be 6350 843e c0b6 763d da49 07be
000002c0: 4e00 18be e259 3abe 13bf 443e 4094 7cbe
000002d0: 5057 4e3c 7ce1 6cbe ff48 963c 9278 eebc
000002e0: 93d1 8abd 3063 d43d 9f72 09be 87cc 4dbd
000002f0: c4fb 0ebd 5cad bf3d 884a 0abe f79b 1e3d
00000300: 9d7b f5bd d4f3 913e 2cde d13d 2b90 67be
00000310: 96f9 92bd bea4 aa3d 5797 0a3d 9dbb e33c
00000320: a592 543e 9152 44bb b65a db3d db7e 44bc
00000330: 6a21 36be 7b2b 4fbd 0583 8abe 4c2d 43be
00000340: 3105 08be e1b0 593e 6e7c 41be 5684 8ebe
00000350: d09b 4ebd 85ba 623b baf6 333b 36f3 7abd
00000360: e8cc ad3d fb73 8e3e 1487 c83c 335f 04bd
00000370: 66ff e7bd e7dd 1f3e 56cb 743e ed80 1ebb
00000380: 77e6 19bc e31c 2cbd f2c3 8fbe 9a59 c83b
00000390: b5da 1e3e fdb4 423e 9157 72bd dc70 70bb
000003a0: b571 223e 3a33 87be f0cf 8d3e e118 173e
000003b0: 321e 793e 5e9b 733e 17e1 5ebe 33f8 203e
000003c0: b448 d13d 009c 793b 964c 63be 40c6 e13d
000003d0: 28f8 4c3d c0e0 a4bc e0cb 97be b078 aa3c
000003e0: 0242 3b3e ae32 49be b827 e53d a010 35be
000003f0: 48c5 2e3d 141b bfbd 2875 4e3e c722 71be
-0.12726387 -0.265574 -0.2112729 -0.17262833 0.13909249 -0.16935419 -0.17049082 -0.23996544
0.11452578 -0.18065958 -0.030783327 -0.11242935 -0.002393875 0.031192629 -0.2856102 -0.06758762
0.19752459 0.082165435 -0.07433131 0.08773837 0.23882568 -0.0815708 0.10411183 -0.10299486
0.2872358 0.28217196 0.1887134 -0.08271263 -0.2435642 -0.29297066 0.05588068 -0.22582081
-0.2525799 -0.07677663 0.022602882 0.26048872 -0.20704281 0.14931846 0.17967702 0.05656936
-0.02844331 -0.10467897 -0.20061377 0.23910248 -0.014618432 -0.02923168 0.22230817 0.08618281
0.15605205 0.25935745 0.023613483 0.19595191 0.2910499 0.114534885 -0.08132875 -0.110430315
0.00982362 -0.12405147 0.17170367 -0.20862892 0.16634429 0.09253162 0.105115 0.25331134
-0.01918289 0.08347094 0.12322751 0.17688897 0.11634645 -0.028578311 0.26269138 -0.087769866
-0.2716538 -0.28243446 0.07541624 -0.19279867 -0.2770714 -0.20510337 -0.26382914 0.104371876
0.08499685 -0.22793493 0.24093294 0.18253821 -0.1522976 0.17117754 0.18598238 -0.2585646
0.124512345 -0.05331789 -0.17330378 0.008265018 -0.18013406 -0.002892077 0.008312255 0.05854103
-0.21661794 -0.042378753 0.24370015 0.19887191 -0.24297717 -0.089431465 -0.18391806 -0.26048374
-0.13549042 -0.12381022 0.06480998 -0.13031565 0.12407982 0.05150047 -0.03857422 0.05365765
-0.17338222 -0.271033 0.058335602 0.1191971 0.28821445 -0.21192226 0.26327956 0.15013006
-0.24437135 -0.10733831 -0.115260795 -0.06421137 -0.12717895 0.2806068 0.077570826 0.08687651
-0.15843557 -0.16588908 0.10172349 -0.051836282 0.04815501 -0.026539475 0.24599189 0.2234605
0.28587252 -0.052698374 -0.06947376 -0.11213122 0.29445523 0.23522043 0.10842571 0.16403478
-0.11820749 -0.10399798 -0.062373076 -0.26330882 0.29442444 0.22157553 0.24496655 0.14141417
-0.14516138 -0.08233015 -0.12633488 -0.28407258 0.14617707 0.16907142 0.07897444 -0.26273265
-0.0017340386 0.15877518 0.10692249 0.007714117 -0.05996402 -0.21027899 -0.098686785 -0.18154061
-0.28809312 -0.14869434 -0.19277771 -0.067572415 -0.2096207 0.2584258 0.060232878 -0.13211766
-0.14843866 -0.1819835 0.19213514 -0.24665928 0.012594059 -0.2313289 0.018345354 -0.029110227
-0.06778254 0.10370481 -0.1342263 -0.05024388 -0.03490807 0.093592376 -0.13504994 0.03872296
-0.11986468 0.2850634 0.10247454 -0.2261359 -0.07176511 0.08332203 0.033835735 0.027799422
0.20759065 -0.002995644 0.10710661 -0.011993135 -0.17786184 -0.050578576 -0.27053085 -0.19060248
-0.1328323 0.2125888 -0.18895122 -0.2783534 -0.050441563 0.0034596038 0.0027460293 -0.0612671
0.084863484 0.2782286 0.024478473 -0.03231735 -0.1132801 0.15611993 0.23905692 -0.0024185732
-0.009393326 -0.042019736 -0.28079182 0.006114197 0.15513118 0.19014354 -0.05916554 -0.0036688363
0.15863688 -0.2640627 0.27697706 0.14755584 0.24327925 0.23789737 -0.21765552 0.1571968
0.10218945 0.0038087368 -0.22197184 0.11024141 0.050041348 -0.0201267 -0.29647732 0.020809501
0.18286899 -0.19648239 0.111892164 -0.17682123 0.04266861 -0.093313366 0.20161879 -0.23548423

fc2._model.0.bias f4 [20]
00000000: 25f1 ecb8 3c0c 782b 5ed0 3204 0ade dcb5
00000010: 44bf 3db9 a414 c417 0204 98b8 0000 0000
00000020: 2fb7 2815 a12b 1020 0000 0000 346c a206
00000030: 963a f828 9376 1a39 9c00 d8b9 318d 9112
00000040: 8958 b839 d6a1 c30e 4ad2 291e 1a89 2319
-0.000112982736 8.812428e-13 2.1019477e-36 -1.6455899e-06 -0.00018095697 1.2671414e-24 -7.248671e-05 0.0
3.4071836e-26 1.221171e-19 0.0 6.109662e-35 2.7558939e-14 0.00014730757 -0.00041199184 9.185593e-28
0.0003516118 4.8227054e-30 8.990272e-21 8.45459e-24

fc3._model.0.weight f4 [64, 48]
00000000: 78b7 ba3d d2fc 3cbd a636 25be 2fd7 65be
00000010: 2493 58bd 4f1a b6bd 85c3 42be 5d12 c7bc
00000020: 0498 ccbd f164 43be 13cf 413e 9853 b0bc
00000030: d845 a43d d5da 053e 55ec 673d bb49 3fbe
00000040: d5b4 533e 247f 69bb 5000 a0bd df31 d5bd
00000050: e42f 84bc 9b8d 74bd 492f 803d efb7 49be
00000060: 08ba 243e b73c c7bb 6979 b9bd b7bb 9b3d
00000070: 9b4c 57be 175b 31be 4d75 08be 652c 30be
00000080: 6f8d 5fbe d682 283b cb9e 583e de94 df3b
00000090: bc6d 42be e6b1 4f3c d0b5 2d3e 6fba 003d
000000a0: 92e2 6cbe 0bf9 16be 835f 45be 33ca 4fbd
000000b0: 10b6 a43d a8fd 8fbd 15b1 67be 984a f83d
000000c0: 4ee6 0f3e 929a 0d3e 7bfb cebc 2009 843d
000000d0: 7866 663e f0ca 5dbe e0cf 41bc b944 833d
000000e0: 3f0c 8abd c675 63be 97aa cfbd df1e f13d
000000f0: 8a86 40bd 42cd e03c 4b8a 19be d39a f03d
00000100: b9ea 3abe 41de 553e 8dbc edbd e328 5b3e
00000110: 777f af3d d951 4cbb 0b66 0abe 25f3 cb3d
00000120: 3abe cf3d 2bc6 333e 05d3 3b3d de51 393e
00000130: a65d 503e d9ec 573e 27ed 303e de62 79bd
00000140: e1e3 8a3d 83f1 00bd 99eb 20be ac80 86bc
00000150: 8f90 5c3e b4ba 5a3d 9f97 7b3d cac2 16bd
00000160: 0ceb 253d a089 66be 529c 56be e0cc 5ebe
00000170: 7cda 98bd 7bf4 3d3e aac6 e83b dd15 e0bd
00000180: e911 e9bd 729a b2bd 6d9a 753d 9aa7 30be
00000190: d016 04be 392a d6bd a6e5 b4bd e57d 0b3d
000001a0: 3325 1d3e 5aff 413d 279b 60bd 9f8a 01be
000001b0: 3cfd 543e 693a 34be 77a5 303e f517 f1bd
000001c0: 408a 25be 64f2 643d 95d5 173e b89d 30be
000001d0: f589 16bc 586c 023e e5d3 01be 6a7d 5d3e
000001e0: 07df 7dbd 3d5a b33d 0d10 553e 941a 5d3e
000001f0: 3968 393e 0962 ed3d ec16 f13a 95ab efbc
00000200: 00e5 063c 8469 95bd ae16 25be 205e af3d
00000210: 086d 59be e2a1 363e a4d4 d13d 2487 9f3c
00000220: 0f86 81bd 211f 163e a5a1 08be 7070 953d
00000230: 6a4c f23d eb0e 1b3e 46a2 d8bd 86c7 40bd
00000240: 95d0 3cbe 96c1 14be 5797 40bd 08cc 6d3e
00000250: 0d5b 463e d44f 1e3e 4a60 2c3e 4531 25be
00000260: 8b97 0cbd 0fde 523e 84fa 6f3d b774 053e
00000270: bfce 24be 3f0d 25be 59ec ff3d 22d7 3bbe
00000280: 9f21 cf3d d364 66be 5c43 5a3e 30ab 4abe
00000290: 2e5a 60be f563 49be 00a2 11be 0311 173e
000002a0: a8aa 68bc 9b59 903d b979 02be 6370 57be
000002b0: b8b6 fdbd 3da0 583e 254f 983d e88d 143e
000002c0: c9f5 52be 5731 01be 0a82 eb3d 2e89 3b3e
000002d0: c865 f23d c264 5f3d 9c69 41be be76 373e
000002e0: ccbb f8bd 08e5 b53d cbd9 30be 7af8 3cbe
000002f0: 64cd 6e3d 8495 44bd 8eea 143e d353 953d
00000300: 939e 243e 8fc2 30be 538c a0bd 7135 0cbe
00000310: 6c74 f0bd 9707 77bd 547a 533d d429 69be
00000320: a0fb 02bc d7ee 213e d370 883c 1f8d 8abd
00000330: d7b0 5ebe 8d22 cd3d aa02 063d 3951 19be
00000340: b719 27be ae98 363e 23c4 a53d 5c59 bfbc
00000350: 86e6 f4bd 6a52 e23a f2af 163e 1b93 163e
00000360: fe39 cf3d b885 cbbd 5686 2d3e f2c9 0b3e
00000370: f221 033d ed5a b63d 65ab 353e 58d3 b43d
00000380: 8dfb a3bc f355 583d ee49 0b3d 8845 86bc
00000390: 73c9 55bd 2b31 e1bd 8b0f a0bc 6431 10be
000003a0: a2c6 fb3b 40b8 6c3e 8c55 d9bc 9ad7 38be
000003b0: 311d ce3d 68da 0bbe 7290 87bd 7fc0 943a
000003c0: e5d6 a53c 319b 44bd 0512 1c3c 0b22 07be
000003d0: 372e 033e 7e05 2e3e fc8e 9dbd c4db e53c
000003e0: 8a31 2a3e 26a1 bf3d ed91 d23d 850b c13d
000003f0: 12b3 1b3e 6445 5bbe a697 d1bc 61f1 72bd
0.09117025 -0.046139546 -0.16134128 -0.22445367 -0.0528747 -0.08891737 -0.19019897 -0.024300748
-0.09989932 -0.19081475 0.18926649 -0.021524236 0.08021134 0.13071759 0.05662187 -0.1868047
0.2067445 -0.003562876 -0.078125596 -0.10409903 -0.016136117 -0.059705358 0.06259019 -0.19699071
0.1608659 -0.006080236 -0.0905636 0.07604163 -0.21025316 -0.17319904 -0.13325997 -0.17204435
-0.21831296 0.002571275 0.21154325 0.0068231663 -0.18987173 0.012676692 0.16963887 0.031427797
-0.23133305 -0.1474344 -0.19274716 -0.05072994 0.08042538 -0.07030803 -0.22626145 0.12123603
0.14052698 0.13828495 -0.0252664 0.06447053 0.22500026 -0.21659446 -0.011829346 0.06409592
-0.06740617 -0.22212896 -0.10139959 0.11773466 -0.047003306 0.027441625 -0.14994161 0.117482804
-0.18253602 0.20885564 -0.11608229 0.21402316 0.08569234 -0.0031176715 -0.13515489 0.099584855
0.10143705 0.17556064 0.04585554 0.18097636 0.20348224 0.21086444 0.17277966 -0.060885303
0.06781746 -0.031480324 -0.15714873 -0.016418777 0.2153952 0.05340071 0.061423894 -0.03680686
0.04050736 -0.22513437 -0.20958069 -0.21757841 -0.074635476 0.18550293 0.0071037607 -0.1094167
-0.11380369 -0.08720864 0.059961725 -0.17251435 -0.12899327 -0.10457272 -0.088328645 0.03405561
0.15346222 0.047362663 -0.054835465 -0.12650536 0.20799726 -0.17600407 0.1725062 -0.117721476
-0.1616602 0.055895224 0.14827569 -0.17247665 -0.009188165 0.12736642 -0.12678488 0.21629873
-0.061980274 0.08757446 0.20806904 0.2159217 0.18106164 0.11590964 0.0018393672 -0.029256621
0.008233309 -0.07295516 -0.16121933 0.08562875 -0.21232998 0.17835191 0.10245636 0.01947362
-0.06324398 0.14660312 -0.13342912 0.072968364 0.11830981 0.1514241 -0.10577826 -0.04706528
-0.18438943 -0.14526972 -0.04701933 0.23222363 0.1937067 0.1546014 0.16833606 -0.16132076
-0.03432421 0.20592521 0.05858852 0.13032804 -0.16094492 -0.16118334 0.124962516 -0.18343785
0.101138346 -0.22499399 0.21314758 -0.19791865 -0.21909401 -0.19667037 -0.14221954 0.14752583
-0.014200844 0.07048341 -0.12741746 -0.21038966 -0.123883665 0.21154876 0.074369706 0.14507258
-0.20601572 -0.12616478 0.11499412 0.18314049 0.118358195 0.05453945 -0.18887943 0.1791639
-0.121451944 0.08881575 -0.17270581 -0.18454161 0.058301345 -0.04799415 0.145426 0.07291379
0.16076116 -0.17261718 -0.07839265 -0.13692261 -0.11740956 -0.060309973 0.051630333 -0.22769862
-0.007994562 0.15813766 0.016655361 -0.06765198 -0.21747147 0.10016356 0.032717384 -0.1497239
-0.16318403 0.1783168 0.08094051 -0.02335804 -0.11958031 0.0017266993 0.14715555 0.14704554
0.10118483 -0.09937614 0.16945776 0.13651255 0.032014795 0.089040615 0.17741163 0.08829373
-0.02001741 0.052816343 0.03400605 -0.016390577 -0.05219407 -0.10995706 -0.019538661 -0.14081341
0.007683591 0.23117161 -0.02653005 -0.18050995 0.100641616 -0.13657534 -0.06619348 0.0011348872
0.020244071 -0.047999565 0.009525781 -0.1319658 0.12810598 0.16994283 -0.07693288 0.028058894
0.1662046 0.093569085 0.102817394 0.09426025 0.15205029 -0.21413189 -0.025585007 -0.059312228

fc3._model.0.bias f4 [64]
00000000: 93cb 833a d0c9 83ba 5ccc 833a aacb 83ba
00000010: 7acb 83ba eacc 83ba 92ca 833a accb 83ba
00000020: 5876 83ba 57cc 83ba 66ca 833a d9c9 83ba
00000030: 02ce 833a 43c0 83ba 68c9 83ba 44c7 83ba
00000040: 33cd 83ba 4554 833a 03cb 83ba 92c5 833a
00000050: 38cc 83ba a2ca 833a c3c5 833a a1c8 83ba
00000060: a5c7 833a 6fcd 833a 90cd 833a 8dcd 833a
00000070: 6fcd 833a aecc 833a 29c9 833a 81cd 83ba
00000080: c8cd 83ba a8c6 833a 06cd 83ba 9fc7 83ba
00000090: 10cb 833a 3fca 83ba 10c7 83ba 22c8 833a
000000a0: 23c9 83ba 8bc8 833a 67c8 833a 76cc 833a
000000b0: 34ca 833a 12bf 83ba 11ce 83ba 5fca 83ba
000000c0: 57a8 833a c1b7 83ba 09aa 83ba 01c9 83ba
000000d0: e0c5 83ba f2c3 833a 35c7 83ba 6acd 83ba
000000e0: 03ca 833a f0bc 833a 63cd 833a c690 83ba
000000f0: 75bb 83ba 02cd 83ba beca 833a f7ca 83ba
0.0010055177 -0.0010054652 0.0010055411 -0.0010055203 -0.0010055148 -0.0010055576 0.0010054877 -0.0010055206
-0.0010029776 -0.0010055405 0.0010054826 -0.0010054662 0.0010055902 -0.0010051805 -0.001005453 -0.0010053893
-0.0010055661 0.0010019621 -0.0010055009 0.0010053387 -0.0010055369 0.0010054896 0.0010053444 -0.0010054299
0.0010054006 0.0010055731 0.0010055769 0.0010055766 0.0010055731 0.0010055506 0.0010054457 -0.0010055752
-0.0010055834 0.0010053711 -0.0010055609 -0.0010053999 0.0010055024 -0.0010054781 -0.0010053832 0.0010054151
-0.001005445 0.0010054273 0.0010054231 0.0010055441 0.0010054768 -0.001005145 -0.0010055919 -0.0010054818
0.0010044676 -0.001004927 -0.0010045181 -0.0010054411 -0.0010053478 0.0010052903 -0.0010053875 -0.0010055725
0.0010054711 0.0010050815 0.0010055717 -0.0010037653 -0.0010050373 -0.0010055604 0.0010054929 -0.0010054995

fc4._model.0.weight f4 [1, 64]
00000000: 2cb9 c2bd 8173 683e f0ec 8ebe 1770 c73d
00000010: e463 0c3e c716 953e a0db 86be df98 2a3e
00000020: 25cb 5d3c 9e6e f63d 4c44 7fbe 4314 673e
00000030: d9e4 91be bd93 a83d d079 583e fe55 383d
00000040: 6e72 2d3e e8b9 1dbc 32a2 933e 6e6d 02be
00000050: caea ea3d 5d6c 87be 1dcd 20bd 31ab 613d
00000060: 65b1 25be 5dae 5bbe c0fe 50be 91e0 51be
00000070: d983 45be c4eb 0ebe da6a 6ebd 73c9 4e3e
00000080: 3fe8 723e 48fd 12be e1ae 443e 8808 263e
00000090: 7202 97be 74c5 7b3e e607 1a3e 8488 31be
000000a0: d57e 4e3e f7db 3abe 6a9b 35be e4f9 1dbe
000000b0: 1939 79be 181d 9a3d e0a6 963e 47dc 7f3e
000000c0: d60a 82bc 0800 183d 6586 063d f892 4a3e
000000d0: 5fad 063e 60d4 debd 992a 173e d8c8 7a3e
000000e0: d223 6abe 1cbf 86bd bc9c 3ebe 7b3e 9c3c
000000f0: 0958 753d 5e68 1e3e 4c76 8cbe ab5e 933e
-0.09507975 0.22700311 -0.27915144 0.09738176 0.1370998 0.2911894 -0.26339436 0.16659878
0.013537203 0.12032817 -0.24928397 0.22566323 -0.2849491 0.08231304 0.21140218 0.045003884
0.16938183 -0.009626843 0.28834683 -0.12737057 0.11470564 -0.26449862 -0.03925811 0.0550949
-0.16180952 -0.21453233 -0.2040968 -0.20495822 -0.19288577 -0.13957125 -0.05820737 0.20194034
0.23721407 -0.14354432 0.19207336 0.16214192 -0.29494053 0.24587041 0.15042076 -0.17337233
0.2016557 -0.18247972 -0.17735067 -0.15427357 -0.24338187 0.075250804 0.2942419 0.24986373
-0.015874308 0.037109405 0.032843012 0.19782627 0.13152073 -0.10880351 0.14762343 0.24490678
-0.22865227 -0.0657942 -0.18614477 0.019072762 0.05989841 0.154695 -0.27434003 0.28783163
