example/cloudManufacturing/rl/phase/ckpts/policy-model-weight-array.global-step-2000.pth (torch, 32975 bytes, 7 tensors)

fc1._model.0.weight f4 [24, 141]
0	0x3cbb0429	0.022829132
1	0xbe0eaa51	-0.13932158
2	0xbda6ea61	-0.08150173
3	0x3d24ebde	0.040264003
4	0x3d7d3a79	0.061823342
5	0xbd5292a4	-0.05140938
6	0xbdabcbdd	-0.08388493
7	0xbbe1afd9	-0.0068874178
8	0xbda4b96b	-0.08043178
9	0xbd5a924f	-0.053362187
10	0xbe352168	-0.17688525
11	0x3e027eb2	0.12743643
12	0xbd3d073e	-0.046149485
13	0xbe3b00c8	-0.18262017
14	0x3df84b1c	0.12123701
15	0xbe11d856	-0.14242682
16	0x3df255fc	0.118328065
17	0xbb1f0351	-0.0024263451
18	0x3e342539	0.17592324
19	0x3cd08b41	0.025457026
20	0xbb7a1914	-0.003816192
21	0xbd16a37d	-0.03677701
22	0xbdb336a9	-0.0875066
23	0x3e1cb48a	0.15303245
24	0x3c8339b6	0.01601873
25	0x3e2bf336	0.16791996
26	0x3d07f796	0.0331951
27	0x3cc5dffc	0.024154656
28	0xbdae2f67	-0.08505135
29	0xbdbf3219	-0.09335727
30	0x3e1b9b50	0.15195966
31	0x3df4c66a	0.11951907
32	0x3df7dc42	0.12102558
33	0x3e127b14	0.14304763
34	0xbd104671	-0.03522343
35	0x3e01ccaf	0.12675737
36	0xbe26db9d	-0.16294713
37	0x3e2519b2	0.16123083
38	0x3e0c14e2	0.13679841
39	0xbe05a2ac	-0.13050336
40	0x3e4138bb	0.18869297
41	0x3c0b0bb0	0.008486673
42	0xbde96179	-0.113955446
43	0x3d9e290c	0.07722673
44	0xbcc64bad	-0.024206007
45	0xbe35c2cf	-0.17750095
46	0x3d9889da	0.07448168
47	0x3e1b63b4	0.15174752
48	0xbd8f8788	-0.070082724
49	0x3dab64b8	0.0836882
50	0xbcfb4e71	-0.030677052
51	0x3e1ad4af	0.15120195
52	0xbe32de2d	-0.17467566
53	0xbd8e5fd9	-0.06951875
54	0xbe204a0e	-0.1565325
55	0xbe2d77ee	-0.16940281
56	0xbe1daf33	-0.15398864
57	0xbe0fb221	-0.14032795
58	0xbd17341b	-0.036914926
59	0x3dfb5fa9	0.12274105
60	0xbdca10c4	-0.09866479
61	0xbe1ab0c5	-0.15106495
62	0xbd34b512	-0.044117995
63	0xbd16ef77	-0.036849465
64	0x3d1d7a40	0.038446665
65	0x3ca84fbb	0.020545831
66	0xbde8cf28	-0.11367637
67	0x3d18bd3d	0.037289847
68	0x3e227d00	0.15867996
69	0xbc0d2d49	-0.008616754
70	0xbd37e6bc	-0.04489778
71	0xbdf8d934	-0.12150803
72	0x3b4790ab	0.003045122
73	0xbde5a14b	-0.11212405
74	0xbdb32dda	-0.0874898
75	0xbd760f56	-0.06007322
76	0xbd8a8f68	-0.06765634
77	0xbdfda7ff	-0.12385558
78	0xbd73a867	-0.059486773
79	0x3d51a588	0.051183254
80	0x3de3e99c	0.11128542
81	0xbe167061	-0.14691307
82	0xbe2210d7	-0.15826736
83	0x3bc97fca	0.006149267
84	0x3e14cc1e	0.1453099
85	0xbd8f94dc	-0.070108145
86	0xbe10a043	-0.14123635
87	0xbe31731e	-0.1732907
88	0x3c94d7ae	0.01816925
89	0xbc78553c	-0.01515704
90	0xbde55552	-0.11197914
91	0x3e00e65d	0.12587877
92	0xbe0d0c6d	-0.13774271
93	0x3e31ffb7	0.17382704
94	0xbd9d253d	-0.07673118
95	0xbcec5e54	-0.028853573
96	0xbe10dbb2	-0.14146307
97	0x3e0bb204	0.13642126
98	0x3d5a37ab	0.053275745
99	0xbe12ffb2	-0.14355353
100	0xbe23071f	-0.15920685
101	0xbddd0f77	-0.10793965
102	0xbdd28793	-0.10279765
103	0x3e3562ef	0.17713521
104	0x3e18dfa8	0.14929068
105	0xbe3252c2	-0.17414382
106	0x3dc49c9c	0.09600183
107	0xbe051b0f	-0.12998603
108	0xbc2e1109	-0.010624179
109	0xbd084839	-0.033272002
110	0xbb13f0d8	-0.0022573974
111	0x3d1c23f6	0.038120233
112	0x3d6c0885	0.057625312
113	0x3d849c27	0.06475096
114	0x3e1d1389	0.15339483
115	0x3c6c3868	0.014417745
116	0xbdb3eeea	-0.087858036
117	0xbe2f0618	-0.17092168
118	0xbc8b3855	-0.016994635
119	0x3d428d76	0.04749819
120	0x3dbe3cf6	0.09288971
121	0xbdb940b6	-0.09045546
122	0xbd235b33	-0.039881896
123	0x3cacdaf1	0.021100493
124	0x3cf68e4e	0.030097153
125	0xbe325be9	-0.17417873
126	0x3bfbe16d	0.007686785
127	0xbdca341d	-0.09873221
128	0xbcfdfc73	-0.031004166
129	0xbe1dd4fe	-0.15413281
130	0x3dd06278	0.101750314
131	0xbdaaaf27	-0.08334189
132	0x3e162cf4	0.14665586
133	0xbe29c236	-0.16577992
134	0x3dee7944	0.11644223
135	0x3d851a8a	0.064992025
136	0xbe1021e2	-0.14075425
137	0x3de0e864	0.10981825
138	0x3dd1d7b8	0.10246223
139	0x3e20c529	0.1570021
140	0x3e191bfd	0.14952083
141	0x3e322f22	0.17400792
142	0xbde2966e	-0.110638484
143	0x3d816dbe	0.0631976
144	0x3d72746a	0.059193052
145	0x3e095f59	0.13415278
146	0xbd5e8990	-0.05433041
147	0xbd8b3e93	-0.067990445
148	0xbe30c16d	-0.17261286
149	0xbe267732	-0.16256407
150	0xbc3378c3	-0.010954085
151	0xbdef4583	-0.1168318
152	0x3da8bdbb	0.08239313
153	0xbdd53459	-0.10410375
154	0xbcd5c2a5	-0.02609379
155	0xbdc88fc9	-0.0979305
156	0x3db6a791	0.089186795
157	0xbe34ebac	-0.17668027
158	0xbd1a7a93	-0.037714552
159	0x3dab8210	0.08374417
160	0x3e0380d5	0.12842114
161	0xbe058357	-0.13038383
162	0xbe3f9943	-0.18710808
163	0xbc8448fe	-0.016148087
164	0x3cd847fb	0.02640151
165	0x3d9cb535	0.0765175
166	0xbd496b08	-0.04917434
167	0x3e14819e	0.1450257
168	0xbda40627	-0.08008986
169	0x3d85d9b7	0.065356664
170	0x3d892e7e	0.06698321
171	0x3e1ac1a3	0.15112929
172	0xbcbc9cf3	-0.023024058
173	0x3c8e039f	0.017335711
174	0xbe1a462b	-0.1506583
175	0xbd77f38c	-0.060535
176	0x3d96c417	0.0736162
177	0x3dcaf452	0.09909882
178	0xbdd6d412	-0.10489668
179	0x3e0c7f6a	0.1372048
180	0xbcbff054	-0.023430027
181	0x3dca38a9	0.09874088
182	0x3e263b2b	0.16233508
183	0x3d9f219c	0.07770082
184	0x3d19ef3f	0.03758168
185	0xbe32083c	-0.17385954
186	0x3d0f251f	0.03494751
187	0x3d62151d	0.055195916
188	0xbc565094	-0.013080735
189	0x3e1e548e	0.15461943
190	0x3cb00c2c	0.021490179
191	0x3d4a54d7	0.049397316
192	0xbdcbbc34	-0.09948006
193	0xbe0ec026	-0.13940486
194	0xbdb1e470	-0.08686149
195	0x3e27cf25	0.16387613
196	0x3e183e43	0.14867501
197	0x3d39adea	0.045331873
198	0xbdcc5b41	-0.09978343
199	0xbd2ee30b	-0.042696994
200	0xbdadb228	-0.08481246
201	0x3c273040	0.010204375
202	0xbd7f4ab8	-0.062327117
203	0xbd56e869	-0.052467737
204	0x3e122388	0.14271367
205	0x3d810e0d	0.06301508
206	0xbd4ac167	-0.04950085
207	0x3cdabaf0	0.026700467
208	0xbd229454	-0.039692238
209	0xbe1ec577	-0.15505014
210	0x3e04c9ac	0.12967557
211	0x3de68584	0.11255935
212	0x3d69da92	0.05709321
213	0xbe30a2b1	-0.17249562
214	0x3e19dfdf	0.15026806
215	0xbe3b0b24	-0.18265969
216	0xbe3fcaf9	-0.18729772
217	0x3dd01995	0.101611294
218	0x3da0a818	0.07844561
219	0x3dc99c0d	0.098442174
220	0xbe287e41	-0.16454412
221	0x3bd83f97	0.0065993774
222	0xbe3c2fe6	-0.18377647
223	0x3ca6a2d3	0.020341313
224	0xbd6a7f55	-0.05725034
225	0x3ddb261e	0.1070063
226	0xbe0d974c	-0.13827246
227	0xbda11ec3	-0.078671955
228	0xbcbbed68	-0.022940353
229	0x3cf808e3	0.030277675
230	0x3e0f61d8	0.14002168
231	0xbe2d44f3	-0.16920833
232	0xbdad0f96	-0.084502384
233	0xbd5ea281	-0.054354195
234	0x3d235e64	0.03988494
235	0x3c22ff97	0.009948633
236	0xbd073ec8	-0.033018857
237	0x3bba3d24	0.005683558
238	0x3e294274	0.16529256
239	0x3e1b6cf6	0.15178284
240	0xbd36aea4	-0.044600144
241	0xbdb376a6	-0.08762865
242	0x3c970820	0.018436491
243	0xbd851454	-0.06498018
244	0xbe25fd0f	-0.16209815
245	0x3c275081	0.010212065
246	0xbc25fbbe	-0.010130821
247	0xbd1bcd21	-0.038037423
248	0xbda9c1c9	-0.08288915
249	0xbe2c70a5	-0.16839845
250	0xbd0f3aa0	-0.03496802
251	0x3e0d710b	0.13812654
252	0xbcf282ca	-0.02960338
253	0x3e3dacc3	0.18522935
254	0xbd3b0b0b	-0.04566483
255	0xbd705124	-0.05867113

fc1._model.0.bias f4 [24]
0	0x399ce5c8	0.0002992584
1	0x3987ddad	0.00025914368
2	0x39d0ee65	0.0003985047
3	0x39a75e0d	0.00031922795
4	0xba077c89	-0.00051683985
5	0x3a31d14b	0.0006783201
6	0x37c7cf4a	2.3819175e-05
7	0xba4de87a	-0.0007854771
8	0x3a31afe0	0.00067782216
9	0x38900728	6.867788e-05
10	0xb931d724	-0.00016960182
11	0xb6ce9a52	-6.1572437e-06
12	0x3a2f6887	0.0006691296
13	0xba3c500d	-0.00071835594
14	0x39e67757	0.00043957934
15	0xba3be703	-0.00071679073
16	0x3a3d509a	0.00072217884
17	0xb9bbfe3f	-0.00035856848
18	0x3923506c	0.00015574851
19	0x3a020646	0.0004960041
20	0xb9c81623	-0.00038163466
21	0x39cb561a	0.00038783328
22	0x3a34c936	0.0006896438
23	0x383f5c03	4.562364e-05

fc2._model.0.weight f4 [20, 48]
0	0xbd5f522e	-0.054521732
1	0x3e822666	0.2541992
2	0xbdfa6263	-0.12225797
3	0xbd061a39	-0.03273985
4	0xbe5ab4e7	-0.21358071
5	0x3d9f62d6	0.07782523
6	0xbd8841a6	-0.066531464
7	0x3e5373ba	0.20649615
8	0x3e86863a	0.26274282
9	0xbe478906	-0.19485864
10	0x3dbe040c	0.09278116
11	0x3e836714	0.2566458
12	0x3da701c5	0.081546344
13	0xbe3f64ea	-0.1869084
14	0xbdb38ff9	-0.08767695
15	0xbe7816a1	-0.24227382
16	0x3de78ead	0.1130651
17	0xbe655b9e	-0.2239823
18	0xbbabf09d	-0.005247189
19	0xbe80b2fb	-0.2513655
20	0xbc812ad2	-0.015767489
21	0x3e85a386	0.2610132
22	0xbe2d26d0	-0.16909337
23	0x3da66494	0.081246525
24	0xbe8ac4be	-0.27103227
25	0xbe4b10fa	-0.19830695
26	0x3e8bd6b3	0.2731224
27	0x3e3b447a	0.1828784
28	0x3e8cb190	0.2747922
29	0xbe7606c8	-0.24026024
30	0x3dab3ee9	0.083616085
31	0x3dec8854	0.1154944
32	0xbd476161	-0.048676852
33	0xbe6c0953	-0.23050432
34	0x3c62a394	0.013832945
35	0xbe6b0979	-0.22952832
36	0xbd2041f0	-0.039125383
37	0xbe36d781	-0.17855646
38	0xbe129474	-0.14314443
39	0xbe918018	-0.2841804
40	0x3e3fe1ce	0.18738481
41	0x3e0bbd71	0.13646485
42	0xbe6b6706	-0.22988519
43	0xbe6deed7	-0.23235641
44	0x3d780fa6	0.0605618
45	0x3e95d395	0.29262987
46	0x3e8e3b45	0.27779594
47	0x3e9149e7	0.28376696
48	0x3e208df8	0.15679157
49	0xbcb3a5a8	-0.021929577
50	0x3e1f2f5b	0.15545408
51	0xbe2a2a5c	-0.16617721
52	0xbe972872	-0.29523045
53	0x3d6daf4b	0.0580285
54	0x3e6577bf	0.22408961
55	0xbe910125	-0.28321186
56	0xbe74ae36	-0.23894581
57	0xbda133b1	-0.078711875
58	0x3e71be96	0.23607859
59	0x3e54912f	0.20758508
60	0x3e22bb56	0.15891775
61	0x3dad5914	0.08464256
62	0x3e30ea2f	0.17276834
63	0x3c044b0f	0.008074536
64	0x3e857c87	0.2607157
65	0x3da87afa	0.08226581
66	0x3d077def	0.033079084
67	0xbc9acf34	-0.01889763
68	0xbde3e719	-0.11128063
69	0x3ab94f29	0.0014137971
70	0xbd1cf81d	-0.038322557
71	0x3e8825b0	0.26591253
72	0x3e33cbe0	0.17558241
73	0x3d5af57b	0.053456765
74	0xbd929b82	-0.07158567
75	0xbe75020d	-0.23926564
76	0xbe940585	-0.2891046
77	0xbe052a39	-0.13004388
78	0x3d21e0e8	0.039521128
79	0x3c7dfbe0	0.015501946
80	0xbdac530c	-0.084142774
81	0x3e31c4eb	0.17360274
82	0xbe3c0624	-0.18361717
83	0x3e69cb25	0.228314
84	0xbe30b952	-0.17258194
85	0xbdbede05	-0.093196906
86	0x3e209685	0.15682419
87	0xbd599c64	-0.05312766
88	0xbd5d4414	-0.054020002
89	0x3d9b9cf1	0.075982936
90	0xbdfc0d34	-0.12307206
91	0xbe3ec7c0	-0.18630886
92	0x3e22429b	0.1584572
93	0x3e20e4ba	0.15712252
94	0xbcf61d3f	-0.030043242
95	0xbddd16e9	-0.107953854
96	0x3d1dab87	0.03849366
97	0x3e76d0fc	0.24103159
98	0xbd3a1511	-0.045430247
99	0x3e8996b9	0.26872805
100	0x3d0a6566	0.033788107
101	0x3d075c7b	0.03304718
102	0xbdba418c	-0.09094533
103	0xbe8c998a	-0.2746089
104	0x3e957f87	0.29198858
105	0xbdc2f977	-0.09520238
106	0xbdb3ecb0	-0.08785379
107	0xbddf7bc0	-0.10912275
108	0x3e79370f	0.2433741
109	0x3da5a0e1	0.08087326
110	0xbd9c37d5	-0.076278366
111	0x3e836e92	0.25670296
112	0xbe83f86b	-0.25775465
113	0x3c868aa8	0.016423538
114	0xbe764229	-0.24048676
115	0xbdfdbab6	-0.12389128
116	0x3e08e16c	0.13367242
117	0xbe87b64b	-0.26506266
118	0x3e13d964	0.14438397
119	0x3e27789b	0.16354601
120	0x3ccf81c4	0.025330432
121	0xbe20d91d	-0.15707822
122	0xbde33883	-0.11094763
123	0xbde7ecd2	-0.11324467
124	0xbe3fdc0a	-0.18736282
125	0x3e76a6e1	0.24087097
126	0xbd7c5d7f	-0.061612602
127	0xbde73791	-0.11289895
128	0x3e185805	0.14877327
129	0xbe3f024a	-0.18653217
130	0x3e621a4c	0.22080344
131	0xbcee7ca0	-0.02911216
132	0xbe8e8976	-0.2783925
133	0x3d222917	0.039589968
134	0xbe34daca	-0.17661586
135	0x3e82a2cf	0.25514838
136	0xbe45b848	-0.19308579
137	0x3e123c07	0.14280711
138	0x3e2e75aa	0.17037073
139	0xbe6d1343	-0.23151879
140	0x3e702b7a	0.23454085
141	0xbd6c5751	-0.05770046
142	0x3e3f3b57	0.1867498
143	0xbd4f2e39	-0.05058119
144	0x3e7147c0	0.23562527
145	0xbe61080b	-0.21975724
146	0x3bd6145f	0.00653319
147	0xbe86dc4b	-0.26339945
148	0xbd856c95	-0.06514851
149	0xbe745623	-0.23860984
150	0x3e4ece93	0.2019599
151	0xbe587878	-0.21139705
152	0x3e935190	0.28773165
153	0x3e83bc6e	0.25729698
154	0x3c28f0c1	0.010311306
155	0xbe7bb9fe	-0.24582669
156	0xba85d056	-0.0010209184
157	0x3abf7dd0	0.0014609639
158	0x3dd0ea44	0.102009326
159	0xbe6ec74b	-0.23318212
160	0x3d2c05f7	0.041997876
161	0xbc534833	-0.012895632
162	0xbe4251de	-0.18976542
163	0xbe3a9b3f	-0.18223284
164	0x3cd8a29d	0.026444728
165	0xbe629c59	-0.22129954
166	0xbb609a44	-0.0034271637
167	0xbe36f1e5	-0.17865713
168	0xbe879e09	-0.2648776
169	0xbe3e60ca	-0.1859161
170	0x3d5eead9	0.054423187
171	0xbdae5301	-0.085119255
172	0xbe59114c	-0.21198004
173	0xbd9a7e93	-0.07543673
174	0x3e49ecf4	0.19719297
175	0xbd03d937	-0.032189574
176	0xbe747ccf	-0.23875736
177	0x3e9162b7	0.28395626
178	0x3daec2f9	0.08533282
179	0xbe3dceba	-0.18535891
180	0x3e5cdeef	0.21569417
181	0xbe6424e7	-0.22279702
182	0xbe979cfb	-0.29611954
183	0x3e607157	0.21918236
184	0x3e58eaed	0.21183367
185	0xbe86ec92	-0.26352364
186	0x3d3f0b43	0.0466416
187	0xbe667194	-0.22504264
188	0xbe05cce2	-0.13066438
189	0x3d8a9cd1	0.067681916
190	0x3e1c5cda	0.15269795
191	0x3e50ff94	0.20409995
192	0xbe1f1866	-0.15536651
193	0xbd7b30a1	-0.061325673
194	0xbe349047	-0.17633162
195	0xbd8620c2	-0.06549217
196	0x3e0d7191	0.13812853
197	0x3d8f9e74	0.070126444
198	0x3ab09b54	0.0013474026
199	0x3e1acf57	0.15118156
200	0xbdc3e309	-0.09564788
201	0xbe774af3	-0.24149685
202	0x3dce6f77	0.10079854
203	0xbe8bfc5b	-0.2734097
204	0xbe8cf674	-0.2753178
205	0x3c7a5c5a	0.015280807
206	0xbe8ba74b	-0.27276072
207	0xbdd005cd	-0.101573564
208	0xbdee5f6c	-0.11639294
209	0x3d873855	0.06602541
210	0xbddb1ff0	-0.10699451
211	0x3e08dcd6	0.13365492
212	0x3e5470b2	0.20746115
213	0xbe35f804	-0.17770392
214	0x3e0bce35	0.1365288
215	0x3e891d8e	0.2678036
216	0x3e851585	0.2599298
217	0x3e3ff245	0.18744762
218	0x3d8b5032	0.068024054
219	0x3e00ef4d	0.12591286
220	0x3cc41f2b	0.023940643
221	0x3e49aca7	0.19694768
222	0xbd9b70b8	-0.07589859
223	0x3e3d29b5	0.18472941
224	0xbe376ee0	-0.17913389
225	0x3e841d62	0.25803667
226	0x3e4013a9	0.187575
227	0xbe7b0a2e	-0.24515602
228	0x3e3ee132	0.18640593
229	0xbd10f701	-0.03539181
230	0xbe4d0dea	-0.20024839
231	0xbd42b8d2	-0.04753954
232	0xbbc525e7	-0.006016481
233	0x3c8aec84	0.016958483
234	0x3d8c9604	0.06864551
235	0x3dcb61a0	0.0993073
236	0xbdb5c50b	-0.088754736
237	0xbe03e581	-0.12880518
238	0xba9ea3e5	-0.0012103288
239	0xbdea139d	-0.11429522
240	0x3e4b0203	0.19824986
241	0x3df3fd8f	0.11913597
242	0x3e6d9faf	0.23205446
243	0xbdc1c478	-0.094613016
244	0xbdbba218	-0.09161776
245	0xbc92ed6a	-0.017935473
246	0xbe024523	-0.12721686
247	0x3e096bb3	0.1341999
248	0xbe743c72	-0.23851183
249	0xbd32bb92	-0.043635912
250	0xb875de6c	-5.86197e-05
251	0x3e82a6f5	0.25518003
252	0xbd7c943f	-0.061664816
253	0x3dfe5ebb	0.12420412
254	0xbe91e4fd	-0.28495017
255	0x3e256c9b	0.16154711

fc2._model.0.bias f4 [20]
0	0x00000000	0.0
1	0x00000000	0.0
2	0x12ee4417	1.5036697e-27
3	0x92ee4417	-1.5036697e-27
4	0x9be4fcb2	-3.7882736e-22
5	0xb39d89d8	-7.335956e-08
6	0x00000000	0.0
7	0x9d24b700	-2.1799828e-21
8	0x95a5de8d	-6.699409e-26
9	0xa39bcc0c	-1.6891551e-17
10	0x00000000	0.0
11	0x00000000	0.0
12	0x1be4fcb2	3.7882736e-22
13	0x00000000	0.0
14	0x00000000	0.0
15	0x239bd133	1.6893733e-17
16	0x00000000	0.0
17	0x00000000	0.0
18	0x339d8434	7.33493e-08
19	0x00000000	0.0

fc3._model.0.weight f4 [64, 48]
0	0xbcd5eac4	-0.026112922
1	0x3d653424	0.05595793
2	0x3d9d3564	0.07676199
3	0x3d36fb3c	0.04467319
4	0xbd2c6b73	-0.04209466
5	0xbe646084	-0.22302443
6	0xbda01995	-0.078173794
7	0xbe587d4e	-0.2114155
8	0xbd8f603c	-0.07000777
9	0x3e158e8a	0.14605156
10	0xbe1dec38	-0.15422142
11	0xbcb564e8	-0.022142842
12	0xbdda386e	-0.10655294
13	0xbe42fecb	-0.19042508
14	0xbdab16eb	-0.08353981
15	0xbcbce4dc	-0.023058347
16	0xbddaad1a	-0.10677548
17	0x3dc9acea	0.09847434
18	0xbd25a4d8	-0.04044041
19	0xbc5210b8	-0.012821369
20	0x3de1dd8d	0.110285856
21	0xbe25f3d1	-0.1620629
22	0xbe012170	-0.12610412
23	0x3dd72515	0.1050512
24	0x3d2f6180	0.042817593
25	0xbd82236d	-0.06354413
26	0x3e130beb	0.14360015
27	0xbda199e5	-0.07890681
28	0xbb9cb272	-0.0047820145
29	0x3b358821	0.0027699547
30	0x3dfe17e0	0.124068975
31	0x3e3589d6	0.17728361
32	0xbe5aff6b	-0.21386497
33	0xbdfc172e	-0.12309109
34	0xbdaffcb3	-0.085931204
35	0xbe6129b8	-0.2198857
36	0x3de74b98	0.11293715
37	0x3e365499	0.17805709
38	0x3e67b1c6	0.22626409
39	0xbdb4b133	-0.088228606
40	0x3e3c6186	0.18396577
41	0xbe22ebb1	-0.15910222
42	0x3dbc293b	0.091875516
43	0xbdb9a9ee	-0.09065615
44	0x3de4136d	0.11136518
45	0xbe19ba95	-0.15012582
46	0x3d8178e6	0.06321888
47	0xbdc2632e	-0.09491573
48	0x3d341b01	0.043971065
49	0xbdffe6e8	-0.12495214
50	0xbdcaf668	-0.099102795
51	0xbe149d5c	-0.14513153
52	0x3e08d97a	0.1336421
53	0xbdbbcab3	-0.09169521
54	0xbe649509	-0.22322477
55	0xbe3e0069	-0.18554844
56	0xbc41697a	-0.011804933
57	0xbe364db3	-0.17803077
58	0xbc7e81f0	-0.015533909
59	0xbd1418f3	-0.036156606
60	0xbc506cc1	-0.012721241
61	0xbe197225	-0.14984949
62	0xbd1e4ad1	-0.03864557
63	0xbd9690d9	-0.07351846
64	0xbd8be160	-0.06830096
65	0xbd7a6c2d	-0.06113832
66	0x3dc583f4	0.09644309
67	0x3ce86e0d	0.028372789
68	0xbdc641fe	-0.09680556
69	0x3e272e59	0.16326274
70	0xbe3c4a6e	-0.18387768
71	0xbe2aa1d9	-0.16663302
72	0x3e2edd07	0.17076503
73	0xbd8f8d60	-0.07009387
74	0xbd9d6afa	-0.0768642
75	0x3e165244	0.1467982
76	0x3d9de8ba	0.07710405
77	0x3dd073d0	0.101783395
78	0xbe34f9d4	-0.17673427
79	0x3deb574b	0.11491259
80	0x3d0e2bc6	0.034709714
81	0xbe3888e4	-0.1802097
82	0x3e3951fd	0.18097682
83	0xbac4dd62	-0.001501959
84	0xbd4b50d5	-0.049637634
85	0x3c39e24f	0.01134546
86	0x3dd412f6	0.10355179
87	0xbda281ae	-0.07934891
88	0xbd920cd1	-0.07131351
89	0xbe0c1666	-0.1368042
90	0xbe506361	-0.2035041
91	0x3c111cef	0.008856996
92	0x3e364d54	0.17802936
93	0x3dc61fed	0.09674058
94	0x3e10321d	0.14081617
95	0x3d03e907	0.032204654
96	0xbd4acb48	-0.04951027
97	0xbe582c7c	-0.2111072
98	0x3e0174e6	0.1264225
99	0x3dc1fa2e	0.09471546
100	0x3d494796	0.049140535
101	0x3e623e61	0.22094108
102	0xbe3ae14c	-0.18250006
103	0xbc919415	-0.017770806
104	0xbdf52885	-0.11970619
105	0x3cb5fe4a	0.022215981
106	0xbdc89992	-0.09794916
107	0x3e3a74ab	0.18208568
108	0xbd0c0c3c	-0.034191355
109	0x3e13332a	0.14374986
110	0x3d8d4b31	0.06899107
111	0x3da35a22	0.07976176
112	0xbdfe0550	-0.12403357
113	0x3d6cc7d1	0.057807747
114	0xbe391991	-0.18076159
115	0x3e1f571b	0.15560572
116	0xbd983ce3	-0.07433488
117	0x3dca8999	0.09889526
118	0x3e565c38	0.20933616
119	0x3d8d59ae	0.06901871
120	0x3e4a22a1	0.19739772
121	0x3dc2ca1a	0.09511204
122	0xbda08f49	-0.078398295
123	0xbe5be68a	-0.21474662
124	0xbdf0e0a3	-0.11761596
125	0x3e0d0a02	0.13773349
126	0x3e49475e	0.1965613
127	0xbe260347	-0.16212188
128	0x3da44f27	0.080229096
129	0x3dc1e552	0.094675675
130	0x3d51ba09	0.051202808
131	0x3da742ae	0.08167015
132	0x3e6db45e	0.23213336
133	0x3d5c92e7	0.053851034
134	0xbd996f49	-0.07491929
135	0x3e5ebf2e	0.21752617
136	0xbe53decc	-0.20690459
137	0x3c9c78f4	0.019100644
138	0xbdbd8eea	-0.09255774
139	0xbe37d125	-0.17950876
140	0x3e379fa4	0.17931992
141	0xbe0457e6	-0.12924156
142	0x3cb277fe	0.021785732
143	0x3e436a76	0.1908358
144	0xbdf027e3	-0.11726358
145	0xbcf4960b	-0.029856702
146	0xbe432b87	-0.19059573
147	0x3e4cd411	0.20002772
148	0x3e4a9db3	0.1978672
149	0xbe2f37ca	-0.17111126
150	0x3d8dd440	0.06925249
151	0xbdbf0ab9	-0.09328217
152	0xbe415f77	-0.18884073
153	0x3c652959	0.013986909
154	0x3e2e9866	0.17050323
155	0xbe5b9f51	-0.21447493
156	0x3b0bd34b	0.0021335657
157	0x3bcb49eb	0.00620388
158	0x3d37108d	0.04469352
159	0xbe23c008	-0.15991223
160	0x3e407083	0.1879292
161	0x3e45eda9	0.19328941
162	0x3e2fcbc1	0.1716757
163	0x3ce63f56	0.028106373
164	0x3e3ccbb7	0.18437086
165	0xbe6ce048	-0.23132432
166	0xb8e507fc	-0.00010921058
167	0x3e5a16be	0.21297738
168	0x3d622f91	0.055221144
169	0xbdf73a2b	-0.120716415
170	0x3e62f114	0.22162277
171	0x3d9d3c2d	0.07677493
172	0xbd01e8a9	-0.031716023
173	0x3e4243e0	0.18971205
174	0x3e388426	0.1801916
175	0xbe147dfb	-0.14501183
176	0xbdeb6b09	-0.11495025
177	0xbdf7d72c	-0.12101588
178	0x3dc70741	0.097181804
179	0x3e5e86c3	0.21731095
180	0x3e35d8bd	0.1775846
181	0x3d2b6bfa	0.04185102
182	0xbe22f758	-0.15914667
183	0x3cae8f94	0.021308698
184	0x3da32bf7	0.0796737
185	0x3d272852	0.040809937
186	0xbe56822a	-0.20948091
187	0x3e18e885	0.14932449
188	0xbd205f27	-0.039153244
189	0xbe663ce1	-0.22484161
190	0x3e11fb7c	0.1425609
191	0xbd2c8c3d	-0.04212593
192	0x3ced58a2	0.028972927
193	0x3d44fecc	0.048094556
194	0x3e5ba712	0.21450451
195	0x3d690713	0.056891512
196	0xbc3efc3f	-0.01165682
197	0x3e53bc65	0.20677336
198	0xbe5d4d88	-0.21611607
199	0xbd59af3d	-0.053145636
200	0xbd981c99	-0.074273296
201	0xbd1fe693	-0.039038252
202	0xbda302b8	-0.07959503
203	0xbe5aa547	-0.21352111
204	0x3e611e3b	0.21984188
205	0x3d816dfe	0.063198075
206	0xbdc69fd4	-0.096984535
207	0x3d94cb8d	0.07265387
208	0xbdb47d98	-0.088130176
209	0xbda19006	-0.078887984
210	0x3db53908	0.088487685
211	0x3e558aab	0.20853679
212	0xbd73a185	-0.05948021
213	0x3e265498	0.16243207
214	0x3d60f9e9	0.054925833
215	0x3ca180af	0.019714681
216	0x3e24f597	0.1610931
217	0xbdef531b	-0.11685773
218	0xbe4b4eaa	-0.19854227
219	0x3dc3376b	0.095320545
220	0x3d07bbcc	0.03313808
221	0xbe18d464	-0.1492477
222	0xbe0c7994	-0.13718253
223	0x3e162480	0.14662361
224	0xbe28ae48	-0.16472733
225	0x3e3e84e2	0.18605378
226	0x3db03b4b	0.08605059
227	0x3d6847e7	0.056709196
228	0x3d82176f	0.06352126
229	0x3d8d6678	0.0690431
230	0xbda0d6ad	-0.07853446
231	0xbcc511b3	-0.024056291
232	0xbd42e05f	-0.04757726
233	0xbdbebf44	-0.09313825
234	0xbdea5da4	-0.11443642
235	0x3e510e18	0.20415533
236	0xbda87e13	-0.08227172
237	0x3d3e6804	0.046485916
238	0xbe69e648	-0.22841752
239	0xbd9d18ff	-0.07670783
240	0xbdcb4a5e	-0.09926294
241	0xbdfe59d3	-0.12419476
242	0x3de65b9a	0.1124794
243	0x3da26b3c	0.079306096
244	0xbe649e14	-0.22325927
245	0xbc11d4f5	-0.008900871
246	0xba5c1260	-0.0008395072
247	0xbd52424c	-0.051332757
248	0xbd5b4cbe	-0.053539984
249	0x3d58e0d3	0.052948784
250	0x3d3c74f0	0.046009958
251	0xbdb261c7	-0.08710056
252	0x3ca48f92	0.02008799
253	0xbdba85ff	-0.09107589
254	0x3e02b62c	0.12764806
255	0xbc1d1f72	-0.009590017

fc3._model.0.bias f4 [64]
0	0xb900f172	-0.00012296977
1	0xb90093c7	-0.00012262083
2	0x3900463f	0.000122332
3	0x38fe2dfb	0.00012120228
4	0x3900b01a	0.00012272634
5	0xb900cc42	-0.00012283123
6	0x390011f7	0.00012213724
7	0x39001584	0.00012215046
8	0xb90093d0	-0.00012262096
9	0x39009a3d	0.0001226449
10	0xb8ffda2a	-0.00012199984
11	0xb8fe4ba0	-0.0001212575
12	0x38fef47f	0.00012157205
13	0xb9010415	-0.0001230392
14	0x38fd4461	0.00012076717
15	0x39003f38	0.00012230582
16	0x39008e64	0.00012260076
17	0x3900e1b7	0.00012291117
18	0xb900af47	-0.00012272327
19	0x39001bfe	0.00012217459
20	0x390125c2	0.00012316465
21	0x3900f464	0.00012298074
22	0x39007ffd	0.0001225471
23	0x3900b6bf	0.0001227511
24	0x3900b5c6	0.00012274747
25	0xb9007f0c	-0.0001225436
26	0xb9009246	-0.00012261522
27	0xb90029bf	-0.00012222583
28	0x39002ca6	0.00012223664
29	0xb900fdc8	-0.00012301572
30	0xb8ffb11a	-0.00012192335
31	0xb900afae	-0.00012272477
32	0x39000817	0.00012210045
33	0xb90103e1	-0.00012303844
34	0xb901c530	-0.00012375857
35	0xb900bed1	-0.00012278116
36	0x3900d8e8	0.00012287835
37	0xb900cf08	-0.00012284156
38	0x390040a9	0.00012231119
39	0x390136e2	0.00012322844
40	0x390061f8	0.00012243527
41	0xb90a48a2	-0.00013187763
42	0xb900a269	-0.00012267534
43	0xb9001064	-0.00012213137
44	0xb900713d	-0.00012249216
45	0xb8ff4bed	-0.0001217349
46	0xb900e6f4	-0.00012293068
47	0x3900cbf7	0.00012283014
48	0x39002ed8	0.00012224482
49	0xb9007ec8	-0.00012254261
50	0x3900ac3b	0.00012271192
51	0x39012f8b	0.0001232011
52	0xb90045a8	-0.0001223298
53	0xb900d55f	-0.00012286518
54	0xb9000f08	-0.00012212631
55	0x3901c888	0.00012377102
56	0x3900b14e	0.00012273082
57	0x38fe27c7	0.00012119073
58	0xb9001abb	-0.00012216989
59	0x38ff3e3c	0.000121709396
60	0xb9009bba	-0.00012265044
61	0x38ffe021	0.00012201095
62	0xb900dbff	-0.00012288986
63	0xb90088a4	-0.00012257934

fc4._model.0.weight f4 [1, 64]
0	0xbe38a6ce	-0.18032381
1	0xbe51b8af	-0.20480607
2	0x3e56294b	0.2091419
3	0x3d9934fe	0.074808106
4	0x3e0e418c	0.13892192
5	0xbe8a3636	-0.26994485
6	0x3d1af807	0.037834194
7	0x3e9bf1ae	0.30457824
8	0xbe4f3c43	-0.20237832
9	0x3e86b598	0.2631042
10	0xbe14321f	-0.14472245
11	0xbda52017	-0.08062761
12	0x3df7338b	0.12070378
13	0xbe105ec8	-0.14098656
14	0x3d48716b	0.04893629
15	0x3dc80d71	0.09768189
16	0x3e664019	0.22485389
17	0x3e42ff02	0.1904259
18	0xbe994a35	-0.29939428
19	0x3e7deb8d	0.24796887
20	0x3e15413f	0.1457567
21	0x3e4b7035	0.19867022
22	0x3e2baf25	0.16766031
23	0x3de2d524	0.110758096
24	0x3e7627e9	0.24038662
25	0xbe66eb5a	-0.22550717
26	0xbe86b8f1	-0.26312974
27	0xbe7afff9	-0.24511708
28	0x3e88127c	0.26576602
29	0xbe2ddf31	-0.16979672
30	0xbe415ba1	-0.1888261
31	0xbe99e12f	-0.30054614
32	0x3e88baa4	0.26704895
33	0xbe3b5795	-0.18295129
34	0xbd8b0e23	-0.06789806
35	0xbe65ea23	-0.22452597
36	0x3d662fbb	0.056197863
37	0xbe9732fe	-0.2953109
38	0x3e81c035	0.25341955
39	0x3d4aa3fa	0.049472786
40	0x3e8cdfee	0.27514595
41	0xbc18d546	-0.009328192
42	0xbdcadeb5	-0.09905759
43	0xbe712ca6	-0.23552188
44	0xbe87a0cb	-0.26489863
45	0xbe0d2d6c	-0.13786858
46	0xbe72a07f	-0.23694037
47	0x3e9b196f	0.30292842
48	0x3e680354	0.2265752
49	0xbe6e50e7	-0.2327305
50	0x3d96a625	0.07355908
51	0x3e15096c	0.14554375
52	0xbe876254	-0.26442206
53	0xbd083661	-0.033254985
54	0xbe4d409f	-0.20044182
55	0x3d977dbd	0.073970295
56	0x3e15a6d1	0.14614417
57	0x3c9089e4	0.017643876
58	0xbe63c305	-0.22242363
59	0x3e0e2834	0.13882524
60	0xbe6f3b19	-0.23362388
61	0x3e4f00c7	0.2021514
62	0xbe8768ae	-0.26447052
63	0xbe409301	-0.18806078
