example/cloudManufacturing/rl/phase/ckpts/policy-model-weight-array.global-step-4000.pth (torch_old, 32003 bytes, 7 tensors)

fc1._model.0.weight f4 [24, 141]
0	0x3e2a0af1	0.16605736
1	0xbded2234	-0.11578789
2	0xbe1ad8fd	-0.15121837
3	0x3e40aab2	0.18815115
4	0x3e28dcc9	0.16490473
5	0x3dca6049	0.09881646
6	0xbdb397e2	-0.08769204
7	0xbd92076d	-0.071303226
8	0xbdd683b1	-0.10474337
9	0xbe187697	-0.14888988
10	0xbc5b0c6b	-0.01336966
11	0x3dce9b75	0.10088245
12	0x3df566ae	0.11982475
13	0x3cb9ad98	0.022665784
14	0xbe247300	-0.16059494
15	0x3db6d7b0	0.08927858
16	0xbdd1bd23	-0.10241153
17	0xbd7bf4e8	-0.061512858
18	0xbd6af334	-0.057360843
19	0xbe2f39cb	-0.1711189
20	0x3e3f2a9c	0.18668598
21	0xbdcf9cd4	-0.101373345
22	0xbcc83588	-0.024439588
23	0x3d2fbf40	0.042907
24	0xbd581b30	-0.052760303
25	0xbcfe5810	-0.03104785
26	0x3e31dc6c	0.1736924
27	0x3d11e66c	0.035620138
28	0x3e007d8c	0.12547892
29	0x3e2b41c2	0.16724303
30	0x3e0814e8	0.13289225
31	0xbddf355c	-0.10898849
32	0x3d027840	0.03185296
33	0x3e38c924	0.18045479
34	0x3e15d0b2	0.14630392
35	0x3e13cc58	0.1443342
36	0xbda568c6	-0.080766246
37	0xbe212a91	-0.15738894
38	0xbe0172c4	-0.12641436
39	0xbdc3a2a3	-0.09552505
40	0x3df1e76c	0.11811718
41	0xbd263978	-0.04058215
42	0xbd543e00	-0.05181694
43	0xbd0077e0	-0.03136432
44	0xbd94cc9b	-0.07265588
45	0x3dba7c08	0.09105688
46	0x3d98236c	0.07428631
47	0xbdc6b2c6	-0.09702067
48	0xb9257400	-0.0001577884
49	0x3d843350	0.064550996
50	0xbe109e24	-0.14122826
51	0x3e194c58	0.14970529
52	0xbe0f3830	-0.13986278
53	0x3ddf9e48	0.10918862
54	0x3e3e3fdc	0.18579048
55	0xbaab1c80	-0.0013054758
56	0xbda262b8	-0.07928985
57	0xbe258860	-0.16165304
58	0x3d2d6820	0.04233563
59	0xbe11f6ce	-0.14254305
60	0x3e381734	0.17977601
61	0x3e01dac0	0.12681103
62	0x3e34c7fe	0.17654416
63	0x3e2d9196	0.16950068
64	0xbe0a8025	-0.13525446
65	0x3e33944e	0.17537042
66	0xbdabb576	-0.0838422
67	0xbe0a462a	-0.13503328
68	0xbe133ee8	-0.14379466
69	0x3a0eff00	0.0005454868
70	0xbe31a71e	-0.17348906
71	0xbde9981a	-0.11405964
72	0x3d4c9494	0.049946383
73	0x3e1916f4	0.14950162
74	0xbda9b7ab	-0.08286985
75	0x3cc432f0	0.02395007
76	0x3dcedd7c	0.101008385
77	0x3def6734	0.11689606
78	0x3d34f600	0.044179916
79	0xbdf0d029	-0.117584534
80	0xbe26ed39	-0.16301431
81	0xbe35acfa	-0.17741767
82	0x3c913028	0.017723158
83	0xbe0b72de	-0.13618037
84	0x3dc7f288	0.09763056
85	0x3e0280be	0.12744424
86	0x3d43fc34	0.04784794
87	0x3bf614c0	0.007509798
88	0xbdbddaf8	-0.092702806
89	0x3d9b9ae0	0.075978994
90	0x3d5861dc	0.0528277
91	0xbe3d9340	-0.18513203
92	0x3e405e2a	0.1878592
93	0x3e136ce8	0.14397013
94	0x3dcf04bc	0.10108325
95	0x3ccfc818	0.025363967
96	0x3d8a7298	0.06760138
97	0xbe335c60	-0.17515707
98	0x3e1914da	0.1494936
99	0xbdc9ee28	-0.09859878
100	0x3cbaa920	0.022785723
101	0x3e4324f2	0.19057062
102	0xbdac573a	-0.08415075
103	0x3bb1bc60	0.0054240674
104	0x3d502ca0	0.050823808
105	0x3e09799a	0.13425294
106	0x3d963730	0.07334745
107	0x3e14c270	0.14527297
108	0xbd71b4bc	-0.059010252
109	0x3d7379c8	0.05944231
110	0x3d0a4c68	0.033764273
111	0xbdc1f636	-0.09470789
112	0x3da13724	0.07871845
113	0xbd4d8d38	-0.050183505
114	0xbdfc2b57	-0.12312954
115	0xbd1ceaec	-0.038309976
116	0x3dfc4b8c	0.12319097
117	0x3e1fdc4a	0.15611377
118	0xbc01d1b0	-0.007923529
119	0x3dce014c	0.10058841
120	0x3c4f5e50	0.012656763
121	0x3d9a38a0	0.075303316
122	0x3d94b590	0.07261193
123	0x3ceb14a8	0.028696373
124	0x3e016e38	0.12639701
125	0x3ddd95d4	0.10819593
126	0xbdf75e97	-0.120785885
127	0xbe2f5e31	-0.17125775
128	0x3d8909d4	0.06691328
129	0xbd2a96c0	-0.041647673
130	0xbd7caae8	-0.061686426
131	0x3c8e3070	0.017357081
132	0x3e0b7432	0.13618544
133	0xbe0bb4ff	-0.13643263
134	0xbda54fed	-0.08071885
135	0x3e0dd746	0.13851652
136	0x3d984fa4	0.07437065
137	0x3e284c1a	0.1643528
138	0xbd2e591c	-0.04256545
139	0x3e1b9ad2	0.15195778
140	0x3bcbb2c0	0.006216377
141	0x3db33f22	0.08752276
142	0xbdcc9c30	-0.09990728
143	0xbe34e51c	-0.17665523
144	0xbe18f8b8	-0.14938629
145	0x3d235754	0.039878204
146	0x3e42e1d4	0.19031459
147	0xbd43bc50	-0.04778701
148	0xbdb5c49d	-0.08875392
149	0x3d638720	0.055548787
150	0xbd35844a	-0.044315614
151	0xbdbbc3cb	-0.09168204
152	0xbced7634	-0.028987028
153	0xbdf8d918	-0.12150782
154	0xbdd461c6	-0.10370211
155	0x3dd49a78	0.10381025
156	0x3e27810c	0.16357821
157	0xbe41bdf9	-0.18920125
158	0xbe42274a	-0.189603
159	0xbcf69f48	-0.030105248
160	0xbe17f4ad	-0.1483943
161	0x3da7ec58	0.08199376
162	0xbd74f204	-0.059801117
163	0x3e07519a	0.13214722
164	0x3e2c2954	0.1681264
165	0x3c9f54b0	0.019449562
166	0x3d96a208	0.07355124
167	0x3e25c66a	0.1618897
168	0xbe1a5cc0	-0.15074444
169	0xbe069341	-0.1314211
170	0xbd880cbc	-0.06643054
171	0xbd452084	-0.048126712
172	0x3e02a468	0.12758029
173	0x3e21530e	0.15754339
174	0xbd7c9c20	-0.06167233
175	0x3dd52234	0.10406914
176	0xbdde5542	-0.108561054
177	0x3d687f60	0.0567621
178	0x3e2aa1a6	0.16663226
179	0x3e305d78	0.17223155
180	0x3e322c80	0.17399788
181	0xbd8b6794	-0.06806865
182	0x3c9a3250	0.018822819
183	0xbe0c0a24	-0.13675743
184	0xbe2d952a	-0.16951433
185	0xbde7866d	-0.113049366
186	0x3c434540	0.011918366
187	0xbe031010	-0.12799096
188	0xbe16f31e	-0.1474118
189	0xbe1e98c7	-0.15487967
190	0x3dfe843c	0.124275655
191	0x3de037d0	0.109481454
192	0x3e2f2958	0.17105615
193	0x3e2c1eba	0.16808596
194	0xb917d000	-0.00014477968
195	0xbdb40ffb	-0.087921105
196	0xbd8f1675	-0.06986705
197	0xbe16aeca	-0.14715114
198	0xbcdb9ee0	-0.026809156
199	0xbd164ed8	-0.036696285
200	0xbc561600	-0.013066769
201	0xbcf34750	-0.02969709
202	0x3deeb2e8	0.116552174
203	0xbcabf148	-0.020989075
204	0xbe2f691c	-0.1712994
205	0x3c9fa4e0	0.019487798
206	0xbd299fc4	-0.04141213
207	0x3e21b96c	0.15793389
208	0x3d25fea4	0.040526047
209	0xbe3afd18	-0.1826061
210	0x3d89e024	0.067322046
211	0x3e031a84	0.12803084
212	0x3e253a46	0.16135511
213	0xbd9521a4	-0.07281807
214	0x3de48d14	0.11159721
215	0xbdda6776	-0.10664265
216	0xbddc33b9	-0.10752053
217	0x3d94e930	0.072710395
218	0x3d6cfebc	0.05786012
219	0xbdc18ec2	-0.09451057
220	0xbd626fb0	-0.055282295
221	0x3e278cdc	0.16362327
222	0x3e09632a	0.13416734
223	0xbd4e45b0	-0.050359428
224	0x3c080190	0.008301154
225	0xbde2ebf3	-0.1108016
226	0x3e2f597e	0.17123982
227	0xbd16d924	-0.036828175
228	0x3df0a7d0	0.11750758
229	0xbe096a20	-0.1341939
230	0x3d5b55c0	0.053548574
231	0x3e1e184c	0.15438956
232	0x3ce185f0	0.027529687
233	0xbdacb9c8	-0.084338725
234	0xbd9013f9	-0.070350595
235	0xbd86c940	-0.06581354
236	0x3d84cb98	0.06484145
237	0x3e0a55ec	0.13509339
238	0xbe1c439d	-0.15260167
239	0x3e36dc5e	0.17857501
240	0x3a27d500	0.0006402284
241	0xbc9b5a10	-0.018963844
242	0xbcefb820	-0.029262602
243	0xbce94e48	-0.02847971
244	0xbe208f4e	-0.15679666
245	0xbd40b0f0	-0.04704374
246	0xbdbe706d	-0.09298787
247	0x3e1b78f2	0.15182856
248	0xbe18cc20	-0.14921618
249	0x3d1b79d0	0.037957966
250	0x3e1c40a0	0.15259027
251	0x3dbf2388	0.09332949
252	0xb9f77c00	-0.00047203898
253	0xbc933300	-0.017968655
254	0xbd3ca9d8	-0.046060413
255	0xbd1454c4	-0.03621365

fc1._model.0.bias f4 [24]
0	0xbaefd4b2	-0.0018297641
1	0xbad9a55f	-0.001660507
2	0xbae94c8c	-0.0017799302
3	0x3aaffdff	0.0013427137
4	0x39cf7ac6	0.0003957359
5	0xbae94377	-0.0017796595
6	0xbad71769	-0.0016410175
7	0x3afdd561	0.001936596
8	0xbb0047e4	-0.00195741
9	0x3afb948b	0.001919405
10	0x3ae607d7	0.0017549944
11	0x3af8b381	0.0018974395
12	0xbad1987d	-0.001599088
13	0x3aa26f4f	0.0012392792
14	0x3ab3fb5e	0.001373153
15	0xbaf62aac	-0.0018781028
16	0x3af8dc14	0.0018986487
17	0xbafc5a69	-0.0019253019
18	0xbaec64bc	-0.0018035392
19	0x3af38d18	0.0018581478
20	0x3af5fbee	0.0018767097
21	0x3afb23d9	0.0019160464
22	0xbade9fc6	-0.0016984872
23	0xbaf80e89	-0.001892523

fc2._model.0.weight f4 [20, 48]
0	0xbd1de745	-0.038550634
1	0xbdaa5e74	-0.08318797
2	0x3cf36e3e	0.029715654
3	0x3e748702	0.23879626
4	0x3d9ad573	0.075602435
5	0x3e8872b9	0.26650026
6	0x3e81344e	0.25235218
7	0x3d2b3367	0.041797068
8	0x3cd7e968	0.026356414
9	0xbe019fb7	-0.12658583
10	0x3d8b16af	0.06791436
11	0xbe96c7cb	-0.29449305
12	0xbde3b6cd	-0.11118851
13	0x3e7ac822	0.24490407
14	0xbe96e666	-0.29472655
15	0xbe84fb66	-0.25973052
16	0x3e17e4e0	0.14833403
17	0x3d050a17	0.032480326
18	0x3d1a0fff	0.03761291
19	0x3e80b4aa	0.25137836
20	0xbdda017d	-0.10644815
21	0x3e79b284	0.24384505
22	0xbd032cbe	-0.03202509
23	0x3d523735	0.05132218
24	0x3e077122	0.1322675
25	0xbe72d82f	-0.2371528
26	0xbdeb6b07	-0.11495023
27	0xbdc6a883	-0.0970011
28	0x3e916fa2	0.28405482
29	0x3d3b2bb3	0.04569597
30	0xbe8b7039	-0.27234057
31	0xbc7491ab	-0.014927308
32	0xbe7a1c4e	-0.2442486
33	0xbb45fe34	-0.0030211331
34	0x3e16aa7a	0.14713469
35	0xbe524b2f	-0.20536493
36	0x3e8cb350	0.27480555
37	0xbe022684	-0.12710005
38	0x3e2bb94e	0.16769907
39	0x3e8f01fa	0.27931195
40	0x3e5321df	0.2061839
41	0x3e039023	0.12847953
42	0x3d6baa24	0.057535306
43	0x3baf1150	0.00534264
44	0xbe5e31f9	-0.2169875
45	0xbdf60267	-0.12012177
46	0xbdc22dfd	-0.09481428
47	0xbd401074	-0.04689069
48	0xbe3cb90d	-0.18429966
49	0x3e5b552d	0.2141921
50	0xbe575d10	-0.21031594
51	0xbe2ace9f	-0.16680382
52	0x3e27f378	0.1640147
53	0x3dcafaf6	0.09911148
54	0xbd9e3444	-0.077248126
55	0xbe44fbbc	-0.19236654
56	0x3e7c8279	0.24659146
57	0xbe3be5ab	-0.1834933
58	0xbe06166f	-0.13094495
59	0x3e71b83b	0.23605435
60	0x3cf3172c	0.029674135
61	0xbd9e0dfb	-0.0771751
62	0xbc8b3937	-0.016995056
63	0x3e8724ac	0.26395166
64	0x3d2ca637	0.042150702
65	0xbe349ff8	-0.17639148
66	0x3e81f6fb	0.25383744
67	0x3e90375d	0.2816724
68	0xbe2e8fee	-0.17047092
69	0x3e2a05df	0.16603802
70	0xbe95d394	-0.29262984
71	0xbe97a878	-0.2962072
72	0xbd332e33	-0.04374523
73	0xbcb8f9b8	-0.022580013
74	0x3b8158ae	0.003947339
75	0xbc672bd7	-0.014109573
76	0x3c6f7880	0.014616132
77	0xbd73899f	-0.059457418
78	0xbddc6c61	-0.10762859
79	0xbd8d7ba8	-0.06908351
80	0x3e88d9f9	0.267288
81	0xbe42bf71	-0.19018342
82	0xbdd08e40	-0.10183382
83	0x3d9e9db8	0.07744926
84	0x3e84c71f	0.25933167
85	0x3e80dc37	0.2516801
86	0x3e6e719c	0.23285526
87	0x3e415cc4	0.18883044
88	0xbe308998	-0.17239988
89	0xbdbefe04	-0.093257934
90	0x3e32662b	0.17421786
91	0xbe97d123	-0.29651746
92	0xbd269ab9	-0.0406749
93	0x3d075150	0.03303653
94	0xbe0e3db3	-0.13890724
95	0x3e157f4e	0.14599344
96	0xbdf8c780	-0.121474266
97	0x3e8e7c9a	0.27829438
98	0x3e902db7	0.28159878
99	0x3d997300	0.07492638
100	0xbe7eee3d	-0.24895568
101	0x3dc2e989	0.095171995
102	0x3e81ba02	0.25337225
103	0xbe39f2ce	-0.18159029
104	0xbe8cc61e	-0.274949
105	0x3e7e87fe	0.24856564
106	0x3e58c8a2	0.21170285
107	0xbe6fdb29	-0.23423447
108	0xbdd0382a	-0.101669624
109	0xbe14b14b	-0.14520757
110	0xbe2833e9	-0.16426052
111	0xbe116c6f	-0.1420152
112	0x3e2cacaa	0.16862741
113	0xbe5a392b	-0.2131087
114	0x3e97212f	0.29517505
115	0x3e860b80	0.2618065
116	0xbe952133	-0.29126891
117	0x3d92299b	0.07136842
118	0xbe54d884	-0.20785719
119	0xbe124449	-0.14283861
120	0x3dc1a161	0.09454609
121	0x3ce823e2	0.028337423
122	0x3d195b78	0.037440747
123	0x3e34c432	0.17652968
124	0x3dc352f3	0.09537306
125	0x3dc41c5f	0.09575724
126	0xbe95d290	-0.2926221
127	0x3e0092ea	0.12556043
128	0x3e116a5a	0.14200726
129	0xbe64fe0a	-0.22362533
130	0x3d8ebcad	0.06969581
131	0xbdf92726	-0.1216567
132	0x3bc42196	0.005985449
133	0x3da2e91f	0.079546206
134	0xbdd1d518	-0.102457225
135	0xbd99730f	-0.07492649
136	0xbc9ebce6	-0.019377183
137	0xbe2289ec	-0.15872926
138	0x3dc765cf	0.09736215
139	0x3e1a272b	0.15054004
140	0x3e604727	0.21902142
141	0xbd39879f	-0.045295354
142	0x3da81068	0.08206254
143	0x3d143051	0.03617889
144	0xbd937c0b	-0.07201394
145	0x3e85ff46	0.2617132
146	0xbd29d52d	-0.041463066
147	0xbd8f43c9	-0.06995351
148	0xbe10c4df	-0.141376
149	0xbe13d3a9	-0.1443621
150	0x3de04631	0.10950888
151	0x3e650fe3	0.22369342
152	0x3a58ce7a	0.00082705135
153	0x3e6f27cd	0.23355027
154	0xbd29823f	-0.041383978
155	0xbe75d898	-0.24008405
156	0xbe1e2640	-0.15444279
157	0xbcb8c6d0	-0.022555739
158	0xbe709adb	-0.23496573
159	0x3e403b9f	0.18772744
160	0x3d2ef801	0.042716984
161	0x3e3b0eb8	0.18267334
162	0xbd6f438e	-0.058414035
163	0x3df6bea7	0.12048083
164	0x3c24088a	0.0100118015
165	0xbdbaa4c7	-0.0911346
166	0x3e612719	0.21987571
167	0x3d281c54	0.04104264
168	0xbd88a048	-0.06671196
169	0x3dcf4776	0.10121052
170	0x3e904ee3	0.28185186
171	0xbd42ee71	-0.047590677
172	0xbe882661	-0.2659178
173	0xbd8811f9	-0.06644053
174	0x3c8d20de	0.017227586
175	0xbe942d56	-0.2894084
176	0x3d8268e8	0.063676655
177	0x3e2595f8	0.1617049
178	0xbd435c5b	-0.0476955
179	0x3e61675a	0.22012082
180	0x3d72e17b	0.059297066
181	0x3e2b190d	0.16708775
182	0xbe09ac81	-0.13444711
183	0x3e92588b	0.28583178
184	0x3d073b76	0.03301569
185	0x3cd35c4f	0.025800852
186	0x3e26f017	0.16302525
187	0xbe0db6ae	-0.13839218
188	0x3d61baa9	0.055109654
189	0x3e7a3d5a	0.24437466
190	0xbe5fd976	-0.21860299
191	0x3e299ddb	0.16564123
192	0xbe608c90	-0.2192862
193	0x3dd79f5b	0.105284415
194	0x3e563a44	0.20920664
195	0x3cf80c3e	0.030279275
196	0x3d1c1556	0.038106285
197	0x3db54135	0.08850328
198	0xbdb2d807	-0.0873261
199	0x3e3ad5d4	0.18245631
200	0x3d9030ed	0.07040582
201	0xbe95f9bf	-0.29292104
202	0xbe80c521	-0.25150397
203	0x3e14da56	0.14536414
204	0x3e11920d	0.1421587
205	0xbe1b93c9	-0.15193094
206	0x3e9320f9	0.28736094
207	0x3d6e34f0	0.058155954
208	0x3e1abaeb	0.15110366
209	0x3c1b7eaa	0.009490648
210	0xbe85c4b0	-0.26126623
211	0xbe35ee18	-0.17766607
212	0x3e542cf7	0.20720278
213	0x3b2111d2	0.0024577272
214	0x3d550fc3	0.052016985
215	0x3e8168bd	0.2527522
216	0x3de2b410	0.110695004
217	0xbddf4e8f	-0.10903656
218	0xbd0d2be9	-0.034465704
219	0x3e0cf1f0	0.13764167
220	0x3e45ef9c	0.19329685
221	0x3e5fea2b	0.21866672
222	0x3d5b8847	0.05359676
223	0xbe021f44	-0.1270724
224	0x3db4e575	0.08832828
225	0xbcba401f	-0.022735653
226	0xbe09988c	-0.13437098
227	0xbe592ce3	-0.21208529
228	0xbe7a42a7	-0.24439488
229	0xbe1b38d5	-0.15158398
230	0x3daf126b	0.08548435
231	0x3da80fec	0.08206162
232	0x3e0d90c7	0.1382476
233	0x3daf4261	0.08557583
234	0x3d8d962d	0.069134094
235	0xbe522a28	-0.20523894
236	0xbe3af3b3	-0.18257026
237	0xbe931fc2	-0.28735167
238	0x3e70fa45	0.2353297
239	0xbdcd260e	-0.10017024
240	0x3a315f58	0.00067662215
241	0xbe406e92	-0.18792179
242	0x3e064e38	0.13115776
243	0x3d7cefdb	0.06175218
244	0xbe928e4f	-0.28624198
245	0xbda966b5	-0.08271543
246	0x3e40a47b	0.18812744
247	0xbe8d8a9a	-0.27644807
248	0x3d2fbab8	0.04290268
249	0xbe51a457	-0.20472847
250	0xbe85e889	-0.26153973
251	0xbd0da6c9	-0.034582887
252	0xbda72a9c	-0.08162424
253	0x3e6ef33b	0.23334973
254	0x3df77d0e	0.12084399
255	0xbe4b465a	-0.19851056

fc2._model.0.bias f4 [20]
0	0xb8ede028	-0.00011342793
1	0x39aa05b2	0.0003242917
2	0x3a64d8dc	0.00087298243
3	0x39fd2ccf	0.00048289305
4	0x392914d9	0.00016124862
5	0x3a06f625	0.0005148373
6	0x3aa65c8e	0.0012692378
7	0x3a24b9c0	0.00062837824
8	0x39f2f39e	0.00046339346
9	0x3a095e81	0.00052402174
10	0xb797a2bc	-1.8076382e-05
11	0x39ad6b24	0.00033076957
12	0x39421113	0.00018507642
13	0x399b3889	0.00029606026
14	0xbac5ee8a	-0.0015100997
15	0xb9f71d9c	-0.00047133572
16	0x39a53045	0.00031507216
17	0xb8d897c0	-0.00010327948
18	0x38fd1c37	0.000120692355
19	0xba0e371f	-0.0005425084

fc3._model.0.weight f4 [64, 48]
0	0x3dfec18c	0.1243926
1	0x3e4c11fd	0.19928737
2	0xbe26b5be	-0.16280267
3	0x3e49af9e	0.19695899
4	0xbe586a52	-0.21134308
5	0xbe661b59	-0.2247137
6	0xbe5bca10	-0.214638
7	0xbdb69750	-0.08915579
8	0xbdd15d80	-0.10222912
9	0x3dd6d637	0.10490077
10	0x3dac63c7	0.084174685
11	0xbd4c48fb	-0.049874287
12	0x3d6df229	0.05809227
13	0x3e277474	0.16353017
14	0x3e26c9e1	0.16287948
15	0x3dd68605	0.10474781
16	0x3e2ca7c2	0.1686087
17	0x3c008bf2	0.007845866
18	0x3d324387	0.04352143
19	0xbe5bf3ef	-0.21479772
20	0x3dfe05c4	0.124034435
21	0xbe38366e	-0.17989513
22	0xbe1a68b3	-0.15079002
23	0xbe20bda0	-0.15697336
24	0xbe5cac8b	-0.21550195
25	0xbe2a8d93	-0.16655569
26	0x3e2456bb	0.1604871
27	0x3e28dea4	0.1649118
28	0x3c41ec04	0.011836056
29	0x3e024771	0.12722565
30	0xbe4742ca	-0.19459072
31	0xbe238068	-0.15966952
32	0xbd9449ee	-0.072406635
33	0xbdefc72c	-0.11707911
34	0xbb980471	-0.0046392013
35	0x3cd92265	0.026505658
36	0xbe6c99df	-0.23105572
37	0xbdb629d0	-0.08894694
38	0xbe42baaa	-0.19016519
39	0x3d4ab71b	0.04949103
40	0x3dabfd5b	0.08397933
41	0xbe217c4b	-0.1577007
42	0x3aad8c93	0.0013240747
43	0xbc84937a	-0.016183604
44	0x3d43619e	0.047700517
45	0x3e675abe	0.22593209
46	0x3d4eb0b0	0.05046147
47	0xbdac41b2	-0.08410968
48	0xbe24da2b	-0.1609885
49	0x3e49a848	0.196931
50	0x3da65752	0.08122124
51	0xbe1e2b8d	-0.15446301
52	0xbe1b371d	-0.15157743
53	0x3dcebd80	0.10094738
54	0xbe0544c7	-0.13014518
55	0x3d4735e2	0.04863537
56	0xbe353729	-0.17696823
57	0x3d86e4b1	0.06586588
58	0xbde70ad0	-0.11281359
59	0x3e473a9e	0.19455954
60	0xbe696ade	-0.22794673
61	0xbcf5d8d8	-0.030010626
62	0x3cb557a1	0.022136511
63	0xbe3558cb	-0.17709653
64	0x3d755034	0.05989094
65	0x3e1ee47e	0.1551685
66	0xbde15587	-0.11002641
67	0xbd47acb5	-0.04874869
68	0xbe6756e6	-0.22591743
69	0xbdfb94ac	-0.12284216
70	0x3ce623df	0.028093277
71	0x3db7d063	0.089752935
72	0x3e6005ac	0.21877164
73	0x3e47e3ea	0.19520536
74	0xbdbec406	-0.09314732
75	0xbbdfcaae	-0.006829581
76	0xbe627d4a	-0.22118106
77	0x3d805a23	0.06267192
78	0xbd4d22de	-0.05008208
79	0xbe57d331	-0.21076657
80	0x3e52a340	0.20570087
81	0x3dadbaeb	0.084829174
82	0x3cba69ef	0.022755591
83	0xbdc15be9	-0.094413586
84	0x3d9f492e	0.0777763
85	0xbe14e1a4	-0.145392
86	0x3e329412	0.17439297
87	0xbd5e392f	-0.054253753
88	0xbe318b2b	-0.17338245
89	0x3bc08f95	0.0058764913
90	0x3dc438ca	0.09581144
91	0xbe5f0ac1	-0.21781446
92	0xbd51e26f	-0.051241335
93	0xbd49212b	-0.049103897
94	0x3c57971b	0.013158585
95	0xbdc73d2f	-0.09728467
96	0x3e5bece9	0.21477093
97	0x3deb34a6	0.11484651
98	0x3dca5fb1	0.09881533
99	0xbb475cb7	-0.0030420253
100	0xbd680f32	-0.056655116
101	0xbe3dc452	-0.18531922
102	0xbe4dfe9b	-0.20116656
103	0x3d575d3f	0.05257916
104	0xbdbdbea6	-0.09264879
105	0x3db626c7	0.08894115
106	0x3e2fcdf8	0.17168415
107	0x3dcbcbd3	0.09950986
108	0x3d34dddb	0.04415689
109	0x3d35a858	0.04435
110	0x3dc998e8	0.09843618
111	0x3e144392	0.14478901
112	0x3de45251	0.11148513
113	0x3e1fb123	0.15594916
114	0xbe508756	-0.20364127
115	0x3e396869	0.18106236
116	0xbdaf0094	-0.08545032
117	0x3e3a6e16	0.18206057
118	0xbe4585e2	-0.19289353
119	0xbe29816a	-0.16553274
120	0xbe08bf6d	-0.13354273
121	0xbe4de102	-0.20105365
122	0x3e028f18	0.12749898
123	0x3bf595f9	0.007494685
124	0x3e6a1160	0.2285819
125	0xbe287c6b	-0.16453712
126	0xbd34b10d	-0.04411416
127	0xbdf5386a	-0.11973651
128	0xbdf94436	-0.12171213
129	0x3dc6d71d	0.09708998
130	0x3dea4c21	0.11440302
131	0xbc391cbf	-0.0112983575
132	0xbd201fee	-0.03909295
133	0x3d9ed912	0.077562466
134	0xbd6af6ec	-0.05736439
135	0x3dc199eb	0.09453186
136	0xbd629f00	-0.055327415
137	0x3db9a08e	0.090638265
138	0xbdee90a7	-0.11648684
139	0xbd56b204	-0.052415863
140	0xbe0ddceb	-0.13853805
141	0x3d6b20f4	0.057404473
142	0x3dd27262	0.10275723
143	0x3d5752f1	0.052569333
144	0xbd7610c3	-0.06007458
145	0xbe64535b	-0.22297423
146	0xbe2e2152	-0.17004898
147	0x3dc10f1a	0.094267085
148	0x3e06fa52	0.13181427
149	0xbb677679	-0.0035318418
150	0x3e5b5a8e	0.21421263
151	0xbe0d0304	-0.13770682
152	0x3e51e9fa	0.20499411
153	0xbaf6bfe9	-0.0018825504
154	0xbc4ecf8d	-0.012622726
155	0x3e4074ed	0.18794604
156	0x3e47f6ac	0.19527692
157	0x3cfa1dcb	0.030531785
158	0xbe3a305f	-0.18182515
159	0xbe009a0e	-0.12558767
160	0x3e2c4f99	0.16827239
161	0xbe0aeb8d	-0.13566418
162	0xbaec0d25	-0.0018009288
163	0xbdad9280	-0.08475208
164	0xbe0cb7c0	-0.1374197
165	0x3db1d00d	0.08682261
166	0xbdc8d4fd	-0.09806249
167	0x3d8e29a3	0.06941535
168	0xbe1225c2	-0.14272216
169	0xbe4efcac	-0.20213574
170	0x3e240cee	0.16020557
171	0xbd99bb18	-0.075063884
172	0x3e5c3718	0.21505392
173	0x39df3e34	0.0004258022
174	0x3cdf7f1a	0.027282286
175	0x3e20a5ad	0.156882
176	0x3e3293b9	0.17439164
177	0x3e4b2758	0.19839227
178	0x3e599e0d	0.21251698
179	0x3d324e7e	0.043531887
180	0xbdba9bfe	-0.091117844
181	0x3e1f4763	0.15554576
182	0x3e469e12	0.19396237
183	0xbe66cf0e	-0.22539923
184	0xbe26e1ea	-0.16297117
185	0xbe664975	-0.22488959
186	0x3dc10c39	0.094261594
187	0x3e2b0280	0.16700172
188	0xbe292171	-0.16516663
189	0x3e167d90	0.14696336
190	0x3c50ea8c	0.012751233
191	0xbe2976e0	-0.16549253
192	0xbdf055fb	-0.117351495
193	0x3df073a1	0.117408045
194	0xbd99f83d	-0.07518051
195	0xbd876c6e	-0.06612478
196	0x3e018989	0.12650122
197	0x3e342be3	0.17594866
198	0xbe05dd11	-0.13072611
199	0xbe2a3323	-0.1662107
200	0x3df7a520	0.12092042
201	0xbdc32243	-0.09528019
202	0xbdfc9a03	-0.12334063
203	0xbd40e5d7	-0.047094192
204	0xbd25aadb	-0.040446144
205	0xbe5f6b1a	-0.218182
206	0xbe14e4e1	-0.14540435
207	0xbd4b0fbd	-0.049575556
208	0xbd603a2e	-0.054742984
209	0xbe11b829	-0.14230408
210	0xbe530c79	-0.20610227
211	0x3e464b76	0.19364724
212	0xbe4a4c0a	-0.19755569
213	0x3e45fefa	0.19335547
214	0x3e57a20d	0.21057911
215	0x3e0763bb	0.13221638
216	0x3e34ffea	0.17675748
217	0x3c84be4d	0.016204024
218	0x3e692b27	0.22770368
219	0xbdc206b9	-0.094739385
220	0xbe55ca57	-0.20877968
221	0x3e5a2b47	0.21305571
222	0xbe3f5309	-0.18684019
223	0x3d9a9b3c	0.0754914
224	0xbe3b81d9	-0.18311252
225	0x3de6c5f3	0.112682246
226	0xbe416874	-0.18887502
227	0xbdfc7646	-0.12327246
228	0xbe0e9fee	-0.13928196
229	0x3daab70c	0.08335695
230	0xbd93e3d1	-0.07221187
231	0xbe4d7dbe	-0.20067498
232	0x3e154dff	0.14580534
233	0xbe61d795	-0.22054894
234	0xbde72680	-0.1128664
235	0xbd0ca589	-0.034337554
236	0xbe397821	-0.18112232
237	0x3e2eb3f6	0.17060837
238	0x3bc0cc2c	0.005883714
239	0x3d0d0c4b	0.03443555
240	0xbd821a17	-0.063526325
241	0x3cff68f9	0.031177985
242	0x3e310592	0.17287281
243	0xbe23e9f1	-0.1600721
244	0x3c577436	0.013150265
245	0x3d41fc60	0.047359824
246	0xbe0811ce	-0.13288042
247	0x3d329289	0.043596778
248	0x3ddbcef3	0.10732832
249	0xbd84733e	-0.06467293
250	0xbe000728	-0.1250273
251	0x3d67c3e0	0.056583285
252	0x3d1bbf59	0.03802428
253	0xbe2113a4	-0.15730149
254	0xbd8a58e7	-0.06755238
255	0xbd6b0aa3	-0.05738319

fc3._model.0.bias f4 [64]
0	0x3afad590	0.0019137133
1	0x3afa1628	0.0019080089
2	0x3afa6d38	0.0019106036
3	0x3afa6d9f	0.0019106156
4	0x3afa1a70	0.0019081365
5	0xbafa6dcf	-0.0019106212
6	0xbafa8998	-0.0019114492
7	0x3afa1b5f	0.0019081644
8	0x3af9fe0b	0.0019072903
9	0xbafa6b12	-0.0019105396
10	0xbafa67fc	-0.0019104476
11	0xbaf8e3d1	-0.0018988793
12	0xbafa6152	-0.001910249
13	0xbafa6b4c	-0.0019105463
14	0xbafa68c9	-0.0019104715
15	0x3afa6ecc	0.0019106506
16	0x3afa5854	0.001909981
17	0xbafa0421	-0.0019074717
18	0xbafa7d42	-0.0019110816
19	0x3afa932b	0.0019117346
20	0xbafa6310	-0.0019103009
21	0xbafa626e	-0.0019102821
22	0x3afa1be2	0.0019081796
23	0xbafa0c42	-0.001907714
24	0x3af82013	0.0018930457
25	0xbaf9d254	-0.0019059875
26	0xbafa09b2	-0.0019076376
27	0x3afa0bd3	0.001907701
28	0xbafce942	-0.001929559
29	0x3af9eacb	0.0019067166
30	0x3afa7315	0.0019107783
31	0xbaf909c9	-0.0019000109
32	0xbafa5f38	-0.0019101864
33	0xbafa678a	-0.0019104343
34	0x3afa06fc	0.0019075568
35	0xbafa758e	-0.001910852
36	0x3afa0b46	0.0019076846
37	0x3afa6cc7	0.0019105905
38	0xbafa7903	-0.0019109551
39	0x3af9db6e	0.0019062588
40	0xbafa6eb5	-0.001910648
41	0xbafa5b34	-0.0019100667
42	0xbaf927b0	-0.001900902
43	0xbafa7f6b	-0.001911146
44	0xbaf9e6aa	-0.0019065936
45	0xbafbe7a1	-0.0019218811
46	0xbaf94e27	-0.0019020484
47	0x3afa13f9	0.0019079439
48	0xbafa1503	-0.0019079748
49	0xbafa61dc	-0.0019102651
50	0xbafa5eed	-0.0019101776
51	0x3afa0f5c	0.0019078064
52	0xbafa1ac2	-0.0019081461
53	0xbafa6016	-0.0019102122
54	0xbafa6078	-0.0019102236
55	0x3af8c8fa	0.0018980794
56	0x3af924ef	0.00190082
57	0x3afa0cad	0.0019077264
58	0xbaf9e649	-0.0019065823
59	0x3afaa6b1	0.0019123164
60	0xbaf9dbb3	-0.0019062668
61	0xbafa0966	-0.0019076287
62	0xbafa1030	-0.001907831
63	0x3afa95b2	0.0019118099

fc4._model.0.weight f4 [1, 64]
0	0x3d28243e	0.04105019
1	0x3e8733cc	0.26406705
2	0x3e1677d1	0.14694144
3	0x3e13d31c	0.14436
4	0x3e943b02	0.2895127
5	0xbe13125b	-0.14362471
6	0xbdac5e6e	-0.084164485
7	0x3e9065fa	0.28202802
8	0x3e31f0ff	0.17377089
9	0xbe1e1c7e	-0.15440556
10	0xbe2c9eeb	-0.16857497
11	0xbd0c5a09	-0.03426555
12	0xbe571599	-0.21004333
13	0xbe1c8e52	-0.15288666
14	0xbe2635cc	-0.1623146
15	0x3e109005	0.14117439
16	0x3e9c3015	0.30505434
17	0xbe42a09b	-0.19006579
18	0xbdd40838	-0.1035313
19	0x3d9845a4	0.07435158
20	0xbe487f37	-0.19579779
21	0xbe4c1b34	-0.19932252
22	0x3e9982e9	0.2998269
23	0xbe5f5ca3	-0.21812682
24	0x3cb1ac2d	0.021688545
25	0xbddd26b9	-0.107984014
26	0xbe55f552	-0.20894364
27	0x3e5cf990	0.21579576
28	0xbc14c518	-0.009080194
29	0x3e0cd1d4	0.13751918
30	0x3e00732f	0.12543939
31	0xbd1e4bb0	-0.0386464
32	0xbe65f270	-0.22455764
33	0xbe2d3e26	-0.16918239
34	0x3e4ce0ce	0.20007631
35	0xbdf4814b	-0.11938723
36	0x3e5be960	0.21475744
37	0x3e125d26	0.14293346
38	0xbde7c1a1	-0.11316229
39	0x3df11335	0.117712416
40	0xbe0f510d	-0.13995762
41	0xbe884125	-0.266122
42	0xbd2fbda1	-0.042905454
43	0xbdcdf43e	-0.10056351
44	0xbe064b58	-0.13114679
45	0xbc69c8a9	-0.0142690325
46	0xbd4b895e	-0.04969155
47	0x3e7ad6fd	0.24496074
48	0xbe839015	-0.25695863
49	0xbe4f60a1	-0.20251705
50	0xbe689959	-0.22714747
51	0x3e6c32fe	0.23066327
52	0xbe9514af	-0.29117343
53	0xbe5f4996	-0.21805415
54	0xbe5a6c88	-0.21330464
55	0x3d025045	0.031814832
56	0x3d2bd868	0.041954428
57	0x3e61714e	0.22015879
58	0xbe060b6c	-0.13090295
59	0x3d72bc6d	0.059261728
60	0xbdf0d7cf	-0.11759912
61	0xbe55e748	-0.20889008
62	0xbe6f6ade	-0.2338061
63	0x3d933dd7	0.071895294
