example/cloudManufacturing/rl/phase/ckpts/policy-model-weight-array.global-step-4000.pth (torch, 32975 bytes, 7 tensors)

fc1._model.0.weight f4 [24, 141]
0.023339693 -0.13881098 -0.08105139 0.04087906 0.06214265 -0.050890032 -0.083730355 -0.0062995767
-0.079921216 -0.052798282 -0.17662567 0.12787122 -0.046047416 -0.18221864 0.12178598 -0.14191718
0.118819386 -0.001967524 0.17646071 0.025703449 -0.0038293228 -0.03629411 -0.086997695 0.15348528
0.01585333 0.16834286 0.033732973 0.024095431 -0.08454435 -0.09285376 0.1525241 0.119622655
0.121432275 0.14354701 -0.034916773 0.12713821 -0.16240191 0.161785 0.13664296 -0.1299525
0.18884362 0.008773179 -0.113683164 0.07781383 -0.023575718 -0.17714587 0.07496072 0.15211691
-0.069528125 0.08424872 -0.030058544 0.15180436 -0.17406379 -0.06889821 -0.15579616 -0.16912031
-0.15320148 -0.13972391 -0.036424063 0.12315028 -0.09804129 -0.15078947 -0.04347908 -0.036123697
0.03901031 0.021004766 -0.11308502 0.037794434 0.15881969 -0.0080986535 -0.04430636 -0.12139524
0.0032400414 -0.112050205 -0.08752399 -0.059888173 -0.06769307 -0.12352174 -0.059331365 0.0513016
0.11145225 -0.14693205 -0.15812169 0.006311405 0.14566004 -0.06992989 -0.14087436 -0.17297764
0.018225826 -0.015122361 -0.112220466 0.12628545 -0.13710278 0.17444727 -0.07623554 -0.028260069
-0.14111109 0.13681324 0.053786654 -0.14291343 -0.15858564 -0.10734116 -0.102214664 0.17769824
0.14958812 -0.17350796 0.09652861 -0.12943006 -0.010119532 -0.032805964 -0.0017810003 0.0383887
0.058150098 0.06495959 0.1536523 0.014589557 -0.087647185 -0.17080668 -0.016763961 0.0477011
0.093088545 -0.090236165 -0.03996028 0.02127859 0.030257352 -0.17404217 0.007907921 -0.09854353
-0.030788062 -0.15397573 0.10198808 -0.08328514 0.14678717 -0.16559 0.11655208 0.06511585
-0.14063036 0.10994207 0.10246756 0.15691963 0.14962232 0.17433158 -0.110314794 0.06338648
0.059765786 0.13411933 -0.054150373 -0.06802535 -0.17209323 -0.16224043 -0.010397623 -0.11667165
0.08280124 -0.104602866 -0.025939334 -0.09741742 0.08951479 -0.17631437 -0.03758856 0.084106684
0.12797236 -0.13038146 -0.18686156 -0.015816497 0.026542028 0.07616173 -0.049237467 0.14552246
-0.08031019 0.0653836 0.06730418 0.15161994 -0.023066541 0.017707234 -0.15051927 -0.060544647
0.07378262 0.09949968 -0.10444844 0.13706224 -0.023355821 0.09860787 0.16246669 0.077531956
0.038042974 -0.17325838 0.03509708 0.05555417 -0.013269226 0.15512872 0.021552218 0.049814172
-0.09910929 -0.13894258 -0.08652195 0.1643905 0.14893426 0.04607075 -0.09933364 -0.04243201
-0.08454387 0.010591472 -0.06211915 -0.05179514 0.1432577 0.06325803 -0.049535833 0.027106375
-0.03943738 -0.15513647 0.13023376 0.11270834 0.057034682 -0.17244664 0.15029481 -0.1828046
-0.18715227 0.10152252 0.078676686 0.09846368 -0.1646314 0.006673349 -0.1839009 0.020476213
-0.05715803 0.10735402 -0.13826735 -0.07849705 -0.022632867 0.030136459 0.13984533 -0.16955945
-0.08414328 -0.05378533 0.04043805 0.010421366 -0.032648407 0.005728604 0.16538438 0.1522908
-0.044019364 -0.08704224 0.01903023 -0.064434245 -0.16171987 0.010420141 -0.00958902 -0.037656438
-0.08248014 -0.16819786 -0.034827717 0.13840477 -0.029713685 0.18563567 -0.045632623 -0.058670834
00000000: e232 bf3c 7724 0ebe 45fe a5bd cd70 273d
00000010: 4b89 7e3d 1172 50bd d27a abbd ae6c cebb
00000020: bcad a3bd 0343 58bd 5cdd 34be acf0 023e
00000030: 379c 3cbd 8697 3abe ee6a f93d bd52 11be
00000040: 9457 f33d 93f1 00bb 1eb2 343e 0a90 d23c
00000050: 60f5 7abb 22a9 14bd d92b b2bd 3f2b 1d3e
00000060: d8de 813c 1262 2c3e 962b 0a3d c863 c53c
00000070: 9725 adbd 1d2a bebd 472f 1c3e b9fc f43d
00000080: 7cb1 f83d fdfd 123e e404 0fbd 8530 023e
00000090: b04c 26be f8aa 253e 22ec 0b3e 4512 05be
000000a0: 3960 413e 61bd 0f3c b8d2 e8bd db5c 9f3d
000000b0: dd21 c1bc ba65 35be 0285 993d 89c4 1b3e
000000c0: c364 8ebd 988a ac3d 563d f6bc 9a72 1b3e
000000d0: c73d 32be 811a 8dbd 0789 1fbe e02d 2dbe
000000e0: d9e0 1cbe c913 0fbe 6631 15bd 3736 fc3d
000000f0: dfc9 c8bd 8e68 1abe 1f17 32bd 71f6 13bd
00000100: 46c9 1f3d 3012 ac3c 1e99 e7bd 56ce 1a3d
00000110: a1a1 223e 37b0 04bc 967a 35bd 119e f8bd
00000120: e056 543b 947a e5bd c73f b3bd 4d4d 75bd
00000130: aaa2 8abd f7f8 fcbd 7205 73bd a021 523d
00000140: 1441 e43d 5b75 16be a7ea 21be e7cf ce3b
00000150: e827 153e 6737 8fbd 5e41 10be 0d21 31be
00000160: 544e 953c c7c3 77bc d8d3 e5bd f950 013e
00000170: ac64 0cbe 4ea2 323e 6121 9cbd a981 e7bc
00000180: 6d7f 10be c518 0c3e 654f 5c3d e657 12be
00000190: 4664 22be afd5 dbbd ec55 d1bd 87f6 353e
000001a0: a12d 193e 12ac 31be cbb0 c53d 5089 04be
000001b0: 65cc 25bc 8c5f 06bd 7470 e9ba 783d 1d3d
000001c0: cc2e 6e3d 8909 853d 0757 1d3e 0a09 6f3c
000001d0: 5e80 b3bd f2e7 2ebe 9354 89bc 3b62 433d
000001e0: 35a5 be3d bdcd b8bd 64ad 23bd 7050 ae3c
000001f0: 44de f73c 1c38 32be 3a90 013c 31d1 c9bd
00000200: 3f37 fcbc d0ab 1dbe 20df d03d 6691 aabd
00000210: 604f 163e 6d90 29be dbb2 ee3d 755b 853d
00000220: 6801 10be 4f29 e13d 83da d13d 8aaf 203e
00000230: 9836 193e fa83 323e b9ec e1bd c5d0 813d
00000240: f8cc 743d 9456 093e c8cc 5dbd e050 8bbd
00000250: 3539 30be 5b22 26be cb5a 2abc 8cf1 eebd
00000260: b293 a93d 073a d6bd ba7e d4bc c982 c7bd
00000270: 8853 b73d c18b 34be 76f6 19bd 2040 ac3d
00000280: 300b 033e b882 05be a358 3fbe 9991 81bc
00000290: ab6e d93c aefa 9b3d 3aad 49bd d703 153e
000002a0: ab79 a4bd d6e7 853d c6d6 893d 4242 1b3e
000002b0: 0bf6 bcbc c30e 913c b921 1abe aafd 77bd
000002c0: 581b 973d 7dc6 cb3d 10e9 d5bd 0b5a 0c3e
000002d0: b554 bfbc ecf2 c93d ab5d 263e 13c9 9e3d
000002e0: f3d2 1b3d a56a 31be f5c1 0f3d c58c 633d
000002f0: 2b67 59bc 10da 1e3e 478e b03c f209 4c3d
00000300: d0f9 cabd f746 0ebe 6c32 b1bd fc55 283e
00000310: 3982 183e afb4 3c3d 6f6f cbbd 30cd 2dbd
00000320: 5625 adbd da87 2d3c a670 7ebd 2427 54bd
00000330: 26b2 123e 6d8d 813d 16e6 4abd 300e de3c
00000340: 1789 21bd 18dc 1ebe 005c 053e a1d3 e63d
00000350: 339d 693d da95 30be e2e6 193e 2131 3bbe
00000360: d8a4 3fbe 0aeb cf3d 3e21 a13d 53a7 c93d
00000370: 2295 28be 1cac da3b 8450 3cbe bbbd a73c
00000380: 8a1e 6abd 6ddc db3d f595 0dbe 10c3 a0bd
00000390: 9068 b9bc bce0 f63c 9d33 0f3e fea0 2dbe
000003a0: 5053 acbd 024e 5cbd 5ea2 253d 61be 2a3c
000003b0: 56ba 05bd 03b7 bb3b 865a 293e 1ff2 1b3e
000003c0: a64d 34bd 3443 b2bd 49e5 9b3c 1af6 83bd
000003d0: e599 25be 3db9 2a3c 441b 1dbc a33d 1abd
000003e0: 59eb a8bd 0f3c 2cbe 82a7 0ebd fbb9 0d3e
000003f0: 1d6a f3bc 4717 3e3e 46e9 3abd d450 70bd

fc1._model.0.bias f4 [24]
0.0005547242 0.00047468787 0.000716323 0.0005546293 -0.00066520035 0.00096766325 -0.00018572032 -0.0010991868
0.00095467374 2.1200714e-05 -0.00046314215 9.538942e-05 0.0008884366 -0.0010486097 0.0007512979 -0.0010374192
0.0010353077 -0.00053028174 0.00030283455 0.0008344317 -0.00065104803 0.00056587835 0.0009608089 -1.2809853e-05
00000000: e96a 113a 87df f839 9fc7 3b3a 8b64 113a
00000010: d760 2eba c8aa 7d3a ebbd 42b9 9712 90ba
00000020: 1243 7a3a 30d8 b137 e3d1 f2b9 ce0b c838
00000030: f9e5 683a 8171 89ba c0f2 443a 03fa 87ba
00000040: 29b3 873a 9b02 0bba c4c5 9e39 c3bd 5a3a
00000050: 18ab 2aba 7457 143a cbde 7b3a e6e9 56b7

fc2._model.0.weight f4 [20, 48]
-0.054521732 0.2541992 -0.12225797 -0.03273985 -0.21358071 0.07782523 -0.066531464 0.20649615
0.26274282 -0.19485864 0.09278116 0.2566458 0.081546344 -0.1869084 -0.08767695 -0.24227382
0.1130651 -0.2239823 -0.005247189 -0.2513655 -0.015767489 0.2610132 -0.16909337 0.081246525
-0.27103227 -0.19830695 0.2731224 0.1828784 0.2747922 -0.24026024 0.083616085 0.1154944
-0.048676852 -0.23050432 0.013832945 -0.22952832 -0.039125383 -0.17855646 -0.14314443 -0.2841804
0.18738481 0.13646485 -0.22988519 -0.23235641 0.0605618 0.29262987 0.27779594 0.28376696
0.15679157 -0.021929577 0.15545408 -0.16617721 -0.29523045 0.0580285 0.22408961 -0.28321186
-0.23894581 -0.078711875 0.23607859 0.20758508 0.15891775 0.08464256 0.17276834 0.008074536
0.2607157 0.08226581 0.033079084 -0.01889763 -0.11128063 0.0014137971 -0.038322557 0.26591253
0.17558241 0.053456765 -0.07158567 -0.23926564 -0.2891046 -0.13004388 0.039521128 0.015501946
-0.084142774 0.17360274 -0.18361717 0.228314 -0.17258194 -0.093196906 0.15682419 -0.05312766
-0.054020002 0.075982936 -0.12307206 -0.18630886 0.1584572 0.15712252 -0.030043242 -0.107953854
0.03849366 0.24103159 -0.045430247 0.26872805 0.033788107 0.03304718 -0.09094533 -0.2746089
0.29198858 -0.09520238 -0.08785379 -0.10912275 0.2433741 0.08087326 -0.076278366 0.25670296
-0.25775465 0.016423538 -0.24048676 -0.12389128 0.13367242 -0.26506266 0.14438397 0.16354601
0.025330432 -0.15707822 -0.11094763 -0.11324467 -0.18736282 0.24087097 -0.061612602 -0.11289895
0.14877327 -0.18653217 0.22080344 -0.02911216 -0.2783925 0.039589968 -0.17661586 0.25514838
-0.19308579 0.14280711 0.17037073 -0.23151879 0.23454085 -0.05770046 0.1867498 -0.05058119
0.23562527 -0.21975724 0.00653319 -0.26339945 -0.06514851 -0.23860984 0.2019599 -0.21139705
0.28773165 0.25729698 0.010311306 -0.24582669 -0.0010209184 0.0014609639 0.102009326 -0.23318212
0.041997876 -0.012895632 -0.18976542 -0.18223284 0.026444728 -0.22129954 -0.0034271637 -0.17865713
-0.2648776 -0.1859161 0.054423187 -0.085119255 -0.21198004 -0.07543673 0.19719297 -0.032189574
-0.23875736 0.28395626 0.08533282 -0.18535891 0.21569417 -0.22279702 -0.29611954 0.21918236
0.21183367 -0.26352364 0.0466416 -0.22504264 -0.13066438 0.067681916 0.15269795 0.20409995
-0.15536651 -0.061325673 -0.17633162 -0.06549217 0.13812853 0.070126444 0.0013474026 0.15118156
-0.09564788 -0.24149685 0.10079854 -0.2734097 -0.2753178 0.015280807 -0.27276072 -0.101573564
-0.11639294 0.06602541 -0.10699451 0.13365492 0.20746115 -0.17770392 0.1365288 0.2678036
0.2599298 0.18744762 0.068024054 0.12591286 0.023940643 0.19694768 -0.07589859 0.18472941
-0.17913389 0.25803667 0.187575 -0.24515602 0.18640593 -0.03539181 -0.20024839 -0.04753954
-0.006016481 0.016958483 0.06864551 0.0993073 -0.088754736 -0.12880518 -0.0012103288 -0.11429522
0.19831333 0.11913544 0.23216733 -0.094561666 -0.091613576 -0.018048324 -0.12731984 0.13408262
-0.23851316 -0.043523565 -0.0001228524 0.25514272 -0.061620425 0.12408034 -0.285008 0.16157013
00000000: 2e52 5fbd 6626 823e 6362 fabd 391a 06bd
00000010: e7b4 5abe d662 9f3d a641 88bd ba73 533e
00000020: 3a86 863e 0689 47be 0c04 be3d 1467 833e
00000030: c501 a73d ea64 3fbe f98f b3bd a116 78be
00000040: ad8e e73d 9e5b 65be 9df0 abbb fbb2 80be
00000050: d22a 81bc 86a3 853e d026 2dbe 9464 a63d
00000060: bec4 8abe fa10 4bbe b3d6 8b3e 7a44 3b3e
00000070: 90b1 8c3e c806 76be e93e ab3d 5488 ec3d
00000080: 6161 47bd 5309 6cbe 94a3 623c 7909 6bbe
00000090: f041 20bd 81d7 36be 7494 12be 1880 91be
000000a0: cee1 3f3e 71bd 0b3e 0667 6bbe d7ee 6dbe
000000b0: a60f 783d 95d3 953e 453b 8e3e e749 913e
000000c0: f88d 203e a8a5 b3bc 5b2f 1f3e 5c2a 2abe
000000d0: 7228 97be 4baf 6d3d bf77 653e 2501 91be
000000e0: 36ae 74be b133 a1bd 96be 713e 2f91 543e
000000f0: 56bb 223e 1459 ad3d 2fea 303e 0f4b 043c
00000100: 877c 853e fa7a a83d ef7d 073d 34cf 9abc
00000110: 19e7 e3bd 294f b93a 1df8 1cbd b025 883e
00000120: e0cb 333e 7bf5 5a3d 829b 92bd 0d02 75be
00000130: 8505 94be 392a 05be e8e0 213d e0fb 7d3c
00000140: 0c53 acbd ebc4 313e 2406 3cbe 25cb 693e
00000150: 52b9 30be 05de bebd 8596 203e 649c 59bd
00000160: 1444 5dbd f19c 9b3d 340d fcbd c0c7 3ebe
00000170: 9b42 223e bae4 203e 3f1d f6bc e916 ddbd
00000180: 87ab 1d3d fcd0 763e 1115 3abd b996 893e
00000190: 6665 0a3d 7b5c 073d 8c41 babd 8a99 8cbe
000001a0: 877f 953e 77f9 c2bd b0ec b3bd c07b dfbd
000001b0: 0f37 793e e1a0 a53d d537 9cbd 926e 833e
000001c0: 6bf8 83be a88a 863c 2942 76be b6ba fdbd
000001d0: 6ce1 083e 4bb6 87be 64d9 133e 9b78 273e
000001e0: c481 cf3c 1dd9 20be 8338 e3bd d2ec e7bd
000001f0: 0adc 3fbe e1a6 763e 7f5d 7cbd 9137 e7bd
00000200: 0558 183e 4a02 3fbe 4c1a 623e a07c eebc
00000210: 7689 8ebe 1729 223d cada 34be cfa2 823e
00000220: 48b8 45be 073c 123e aa75 2e3e 4313 6dbe
00000230: 7a2b 703e 5157 6cbd 573b 3f3e 392e 4fbd
00000240: c047 713e 0b08 61be 5f14 d63b 4bdc 86be
00000250: 956c 85bd 2356 74be 93ce 4e3e 7878 58be
00000260: 9051 933e 6ebc 833e c1f0 283c feb9 7bbe
00000270: 56d0 85ba d07d bf3a 44ea d03d 4bc7 6ebe
00000280: f705 2c3d 3348 53bc de51 42be 3f9b 3abe
00000290: 9da2 d83c 599c 62be 449a 60bb e5f1 36be
000002a0: 099e 87be ca60 3ebe d9ea 5e3d 0153 aebd
000002b0: 4c11 59be 937e 9abd f4ec 493e 37d9 03bd
000002c0: cf7c 74be b762 913e f9c2 ae3d bace 3dbe
000002d0: efde 5c3e e724 64be fb9c 97be 5771 603e
000002e0: edea 583e 92ec 86be 430b 3f3d 9471 66be
000002f0: e2cc 05be d19c 8a3d da5c 1c3e 94ff 503e
00000300: 6618 1fbe a130 7bbd 4790 34be c220 86bd
00000310: 9171 0d3e 749e 8f3d 549b b03a 57cf 1a3e
00000320: 09e3 c3bd f34a 77be 776f ce3d 5bfc 8bbe
00000330: 74f6 8cbe 5a5c 7a3c 4ba7 8bbe cd05 d0bd
00000340: 6c5f eebd 5538 873d f01f dbbd d6dc 083e
00000350: b270 543e 04f8 35be 35ce 0b3e 8e1d 893e
00000360: 8515 853e 45f2 3f3e 3250 8b3d 4def 003e
00000370: 2b1f c43c a7ac 493e b870 9bbd b529 3d3e
00000380: e06e 37be 621d 843e a913 403e 2e0a 7bbe
00000390: 32e1 3e3e 01f7 10bd ea0d 4dbe d2b8 42bd
000003a0: e725 c5bb 84ec 8a3c 0496 8c3d a061 cb3d
000003b0: 0bc5 b5bd 81e5 03be e5a3 9eba 9d13 eabd
000003c0: a612 4b3e 48fd f33d 46bd 6d3e 8ca9 c1bd
000003d0: e69f bbbd 14da 93bc 2260 02be f44c 093e
000003e0: cb3c 74be c445 32bd f1d1 00b9 11a2 823e
000003f0: b365 7cbd d51d fe3d 92ec 91be a472 253e

fc2._model.0.bias f4 [20]
0.0 0.0 2.9046463e-27 -2.9046463e-27 -4.789367e-22 -2.3530141e-07 0.0 -2.7560458e-21
6.202915e-05 -5.886233e-05 0.0 0.0 4.789367e-22 -2.4449669e-17 0.0 2.8142114e-17
0.0 0.0 -1.8512901e-05 0.0
00000000: 0000 0000 0000 0000 3a21 6613 3a21 6693
00000010: efbf 109c 29a7 7cb4 0000 0000 ae3d 509d
00000020: a515 8238 f2e2 76b8 0000 0000 0000 0000
00000030: efbf 101c 2682 e1a3 0000 0000 58c8 0124
00000040: 0000 0000 0000 0000 274c 9bb7 0000 0000

fc3._model.0.weight f4 [64, 48]
-0.026520161 0.055431195 0.07609037 0.04417183 -0.041900024 -0.22269954 -0.07754702 -0.21091479
-0.07047484 0.14574172 -0.1546583 -0.021695651 -0.106229655 -0.18985449 -0.08427183 -0.022447169
-0.10734994 0.09890377 -0.040533457 -0.013454971 0.11047099 -0.16249642 -0.1265982 0.10459215
0.042363748 -0.064101465 0.1430377 -0.079527505 -0.004911744 0.002375078 0.12456088 0.17771779
-0.21458995 -0.1229485 -0.085663244 -0.21944532 0.11295286 0.17845444 0.22549996 -0.08766027
0.18342753 -0.15888648 0.091905005 -0.09106088 0.111485325 -0.1502586 0.062749565 -0.09493377
0.043563746 -0.12547892 -0.0997744 -0.14563292 0.13383664 -0.091370426 -0.22259796 -0.18504754
-0.012272353 -0.1783408 -0.015970683 -0.0357096 -0.012397909 -0.14927872 -0.039377585 -0.07290732
-0.06887548 -0.060708713 0.09635007 0.027739199 -0.096620426 0.16282903 -0.18437192 -0.16709197
0.17031111 -0.07065123 -0.07742661 0.14617749 0.07697435 0.10138832 -0.17624235 0.115346804
0.033984583 -0.18006709 0.18124473 -0.0010615645 -0.049622014 0.011742941 0.10278769 -0.07878056
-0.07185184 -0.1365883 -0.20347431 0.008452184 0.17814952 0.09660772 0.14034672 0.032186914
-0.04910282 -0.21058021 0.12709416 0.09521699 0.04894591 0.22061624 -0.18312703 -0.018271945
-0.11923828 0.02252641 -0.097512305 0.18163861 -0.034514878 0.14317892 0.06972314 0.079150364
-0.12345888 0.05737782 -0.18066876 0.15623945 -0.07452024 0.09932924 0.20983064 0.069477685
0.1978516 0.09566951 -0.077835836 -0.21412577 -0.1174863 0.13812844 0.19606923 -0.16255628
0.08095455 0.094533205 0.05093485 0.081229724 0.23211755 0.05345337 -0.074155055 0.21695778
-0.2063662 0.018884417 -0.09258767 -0.17910393 0.1791995 -0.12910844 0.022255413 0.1908535
-0.11685569 -0.02932811 -0.18992357 0.20053017 0.19767074 -0.17143728 0.068624996 -0.09378451
-0.18837002 0.014299869 0.17094162 -0.21492353 0.0018087872 0.005632263 0.045425676 -0.16052541
0.18850513 0.19285753 0.17176713 0.028741091 0.1841838 -0.23088893 0.00038660702 0.21343713
0.05567466 -0.12015793 0.2221852 0.077397354 -0.031586904 0.19010538 0.17969869 -0.1454468
-0.11422245 -0.121157385 0.09691415 0.21687017 0.1775672 0.04145283 -0.15838113 0.020739574
0.08021251 0.04059082 -0.20951164 0.14972903 -0.03927602 -0.22470747 0.14303245 -0.042107075
0.029380165 0.048621103 0.21517603 0.057392772 -0.011851211 0.20644869 -0.21674278 -0.05364636
-0.07380621 -0.03872858 -0.07915846 -0.21396802 0.21951872 0.062627435 -0.09625257 0.072042935
-0.087555826 -0.07931731 0.08858092 0.20917022 -0.059665065 0.1628656 0.05541991 0.020173568
0.16154705 -0.11630057 -0.19797985 0.09594108 0.033267934 -0.14885247 -0.1376743 0.14618948
-0.1640025 0.18591109 0.085782625 0.05626886 0.06350583 0.06864572 -0.077770546 -0.024624582
-0.047038965 -0.093353674 -0.11446598 0.20456009 -0.08239149 0.046618573 -0.2279483 -0.076690085
-0.09967023 -0.124721676 0.11180774 0.07880464 -0.22306441 -0.008575821 -0.00021267524 -0.050831895
-0.054007407 0.05263865 0.045572903 -0.086653166 0.020411437 -0.09050519 0.12691602 -0.008978619
00000000: cf40 d9bc d20b 633d 45d5 9b3d 85ed 343d
00000010: 5c9f 2bbd 590b 64be f9d0 9ebd 0cfa 57be
00000020: 1d55 90bd 513d 153e bf5e 1ebe 14bb b1bc
00000030: ef8e d9bd 3769 42be b696 acbd 20e3 b7bc
00000040: 49da dbbd 0f8e ca3d 6906 26bd 3d72 5cbc
00000050: 9d3e e23d 7665 26be f5a2 01be 6934 d63d
00000060: 9c85 2d3d a147 83bd 7a78 123e 51df a2bd
00000070: b2f2 a0bb 32a7 1b3b c619 ff3d a7fb 353e
00000080: 78bd 5bbe 6ccc fbbd 3670 afbd 46b6 60be
00000090: d453 e73d c3bc 363e 76e9 663e 3a87 b3bd
000000a0: 6dd4 3b3e 23b3 22be b138 bc3d 207e babd
000000b0: 6b52 e43d 64dd 19be d882 803d a36c c2bd
000000c0: e66f 323d 8c7d 00be 8556 ccbd cc20 15be
000000d0: 790c 093e 6b20 bbbd b8f0 63be 1a7d 3dbe
000000e0: fb11 49bc f89e 36be f3d4 82bc 3b44 12bd
000000f0: 9920 4bbc 85dc 18be 644a 21bd 6f50 95bd
00000100: 960e 8dbd b3a9 78bd 2f53 c53d 513d e33c
00000110: eee0 c5bd a7bc 263e fecb 3cbe 281a 2bbe
00000120: 0966 2e3e 98b1 90bd d891 9ebd 8daf 153e
00000130: baa4 9d3d aea4 cf3d e078 34be f23a ec3d
00000140: 6b33 0b3d 8263 38be 3898 393e 3224 8bba
00000150: 7440 4bbd 7765 403c 5a82 d23d b457 a1bd
00000160: 0f27 93bd cedd 0bbe 925b 50be 077b 0a3c
00000170: d46c 363e 45da c53d 0db7 0f3e 6dd6 033d
00000180: 0a20 49bd 57a2 57be f924 023e 2001 c33d
00000190: 827b 483d 39e9 613e a785 3bbe 0caf 95bc
000001a0: 3333 f4bd 4e89 b83c 88b4 c7bd 79ff 393e
000001b0: 795f 0dbd 7f9d 123e 01cb 8e3d 9619 a23d
000001c0: 02d8 fcbd 0105 6b3d 3b01 39be 3cfd 1f3e
000001d0: 119e 98bd 216d cb3d d8dd 563e 514a 8e3d
000001e0: 9c99 4a3e 60ee c33d 6568 9fbd c943 5bbe
000001f0: a89c f0bd 8b71 0d3e 5fc6 483e 2775 26be
00000200: 80cb a53d a09a c13d 10a1 503d c55b a63d
00000210: 39b0 6d3e ecf1 5a3d 9bde 97bd 2e2a 5e3e
00000220: a951 53be 7eb3 9a3c 9b9e bdbd 0567 37be
00000230: 1380 373e 0135 04be fc50 b63c 1a6f 433e
00000240: 0952 efbd 8141 f0bc 537b 42be c857 4d3e
00000250: 336a 4a3e 418d 2fbe 438b 8c3d 1812 c0bd
00000260: 12e4 40be ff49 6a3c 520b 2f3e ea14 5cbe
00000270: d414 ed3a d98e b83b 4610 3a3d c660 24be
00000280: 7d07 413e 727c 453e b9e3 2f3e 7072 eb3c
00000290: ae9a 3c3e 266e 6cbe 84b1 ca39 438f 5a3e
000002a0: 1d0b 643d 5c15 f6bd 8484 633e 8182 9e3d
000002b0: 4561 01bd fcaa 423e ef02 383e 02f0 14be
000002c0: 76ed e9bd 5d21 f8bd ed7a c63d 3713 5e3e
000002d0: 2dd4 353e 71ca 293d aa2e 22be 0ae6 a93c
000002e0: 7546 a43d 8f42 263d 388a 56be 9152 193e
000002f0: e4df 20bd b719 66be 1977 123e 7878 2cbd
00000300: acae f03c ec26 473d 1b57 5c3e af14 6b3d
00000310: 952b 42bc 4967 533e d2f1 5dbe 49bc 5bbd
00000320: b627 97bd dca1 1ebd d51d a2bd 6f1a 5bbe
00000330: 84c9 603e d042 803d 1120 c5bd 3f8b 933d
00000340: 7850 b3bd 1d71 a2bd ea69 b53d b830 563e
00000350: 5b63 74bd 3dc6 263e fdff 623d 0a43 a53c
00000360: 976c 253e fe2e eebd 3bbb 4abe c27c c43d
00000370: f543 083d c86c 18be 7efa 0cbe b2b2 153e
00000380: 45f0 27be 7a5f 3e3e cdae af3d 2d7a 663d
00000390: 580f 823d 2196 8c3d 2a46 9fbd 7eb9 c9bc
000003a0: eeab 40bd 3630 bfbd 246d eabd 3378 513e
000003b0: dfbc a8bd 1ef3 3e3d 476b 69be b10f 9dbd
000003c0: e81f ccbd 146e ffbd 75fb e43d 5464 a13d
000003d0: ff6a 64be 9a81 0cbc 9301 5fb9 1b35 50bd
000003e0: df36 5dbd a09b 573d a7aa 3a3d 3777 b1bd
000003f0: e335 a73c c95a b9bd 46f6 013e 0f1b 13bc

fc3._model.0.bias f4 [64]
0.00041122996 0.00041175477 -0.00041221108 -0.00041342134 -0.0004114214 0.00041155436 -0.00041159499 -0.00041262747
0.0004117666 -0.00041185707 0.00041257037 0.00041337183 -0.00041321685 0.00041105138 -0.00041353976 -0.0004119338
-0.00041183038 -0.0004113662 0.00041175724 -0.0004125225 -0.0004108488 -0.000411227 -0.00041188963 -0.0004114493
-0.00041162927 0.00041192892 0.00041185124 0.00041241886 -0.00041248172 0.0004111479 0.00041286755 0.00041175217
-0.00041268562 0.00041113084 0.00040956604 0.0004115965 -0.0004105154 0.00041154315 -0.00041237636 -0.00041001823
-0.0004121235 0.00039121017 0.0004113802 0.00041257706 0.00041201818 0.0004130166 0.00041135304 -0.00041157485
-0.00041239482 0.00041190474 -0.0004112568 -0.00041078904 0.0004122897 0.00040970257 0.0004125252 -0.00040954235
-0.00041159568 -0.00041079818 0.00041248402 -0.0004130839 0.00041177613 -0.00041271345 0.0004114395 0.00041182176
00000000: 5a9a d739 cae0 d739 091e d8b9 79c0 d8b9
00000010: 0cb4 d7b9 e4c5 d739 58cb d7b9 ec55 d8b9
00000020: 61e2 d739 85ee d7b9 424e d839 d4b9 d839
00000030: 07a5 d8b9 6282 d739 5ed0 d8b9 d2f8 d7b9
00000040: f0ea d7b9 a3ac d7b9 1fe1 d739 d547 d8b9
00000050: 3167 d7b9 f499 d7b9 e4f2 d7b9 cab7 d7b9
00000060: f2cf d7b9 2af8 d739 bded d739 ec39 d839
00000070: 5c42 d8b9 568f d739 2576 d839 71e0 d739
00000080: ba5d d8b9 0c8d d739 06bb d639 8ccb d739
00000090: 723a d7b9 63c4 d739 3834 d8b9 b7f7 d6b9
000000a0: 4812 d8b9 571b cd39 84ae d739 284f d839
000000b0: 2504 d839 268a d839 dfaa d739 a4c8 d7b9
000000c0: b236 d8b9 ebf4 d739 f49d d7b9 2c5f d7b9
000000d0: 9628 d839 59cd d639 3248 d839 d8b7 d6b9
000000e0: 70cb d7b9 6660 d7b9 ab42 d839 2f93 d8b9
000000f0: a8e3 d739 7661 d8b9 7ab6 d739 c8e9 d739

fc4._model.0.weight f4 [1, 64]
-0.18010436 -0.20411333 0.20855846 0.07491259 0.13821623 -0.26986456 0.038481597 0.3051669
-0.20201555 0.2635408 -0.14430845 -0.080519386 0.121052295 -0.14107338 0.04865465 0.09742858
0.22433549 0.19062589 -0.29969692 0.24796697 0.145539 0.19822627 0.16803552 0.111073144
0.24006587 -0.2250176 -0.26254064 -0.24474998 0.26624578 -0.16969952 -0.18943611 -0.30075508
0.26772496 -0.18257365 -0.06818282 -0.22436762 0.05565377 -0.2948278 0.25411883 0.049474258
0.27470234 -0.00913466 -0.09874885 -0.23540108 -0.26425073 -0.13829435 -0.23629858 0.30260098
0.2264286 -0.23206341 0.073981605 0.14510119 -0.26434097 -0.032696288 -0.20004883 0.073771946
0.14649975 0.017376717 -0.22216891 0.13928501 -0.23312484 0.2022635 -0.2638712 -0.18776596
00000000: 476d 38be 1603 51be 5990 553e c66b 993d
00000010: 8e88 0d3e b02b 8abe e19e 1d3d d63e 9c3e
00000020: 2add 4ebe d2ee 863e 98c5 13be 59e7 a4bd
00000030: 44ea f73d 8a75 10be 194a 473d a388 c73d
00000040: 34b8 653e 6f33 433e e071 99be 0eeb 7d3e
00000050: 2d08 153e d4fb 4a3e 8111 2c3e 517a e33d
00000060: d4d3 753e 046b 66be ba6b 86be bd9f 7abe
00000070: 5e51 883e b6c5 2dbe 8afb 41be 92fc 99be
00000080: 3f13 893e 96f4 3abe 6fa3 8bbd a0c0 65be
00000090: 35f5 633d abf3 96be dd1b 823e 85a5 4a3d
000000a0: c9a5 8c3e 8aa9 15bc d63c cabd fb0c 71be
000000b0: df4b 87be 099d 0dbe 41f8 71be 84ee 9a3e
000000c0: e6dc 673e 08a2 6dbe ab83 973d 6895 143e
000000d0: b357 87be 8bec 05bd 9ad9 4cbe bf15 973d
000000e0: 0804 163e 9e59 8e3c 3f80 63be bba0 0e3e
000000f0: 47b8 6ebe 2a1e 4f3e 201a 87be b845 40be
