example/cloudManufacturing/rl/phase1/ckpts/policy-model-weight-array.global-step-3000.pth (torch_old, 32003 bytes, 7 tensors)

fc1._model.0.weight f4 [24, 141]
00000000: cd4e bbbd 7ca9 433d 6e68 f63d 1eb1 80bd
00000010: da20 e13d ac94 1a3d 15f3 19bc d5ce 3cbe
00000020: eecf dd3d 30a0 0b3e 38df c03d 1df6 d0bd
00000030: 1915 223e 3f7c 21be 763d dbbd a677 15be
00000040: 5c94 21be ad03 d03d ca6a b8bd b678 e6bc
00000050: 3a44 263e 3c25 f73c 1ed7 8c3d 7585 cfbc
00000060: 72e3 38be 384d f93a 1240 cc3d db1d b83d
00000070: 9b0d 4abc a9bd 81bd 5837 dbbd 65c4 293e
00000080: e4e1 a0bd 3c61 913d 6568 66bd 965b 6dbd
00000090: d55e b03d 3590 94bd 3866 413e d1e3 683b
000000a0: 9956 fe3d 46aa b93d c991 37bd d51b a53c
000000b0: 68fc 85bd 6277 373e d852 523c ce04 d3bd
000000c0: 6c11 0abe 72ee 32be f3cf 453b d809 fabd
000000d0: a8cc 15bd 70c6 d53d d0e9 7fbd c96a de3d
000000e0: 832a f9bc 2cd8 c5bd e954 b1bd 1f7c 1abe
000000f0: 49c4 e2bd 41cd 073e 982a 8a3d 2c02 143e
00000100: c1ab 7c3d a2bd 12be e414 ccbd 2743 053e
00000110: 1559 d3bd 4ff9 d4bd 651a 983d 019b 933d
00000120: 4d6c 4ebd 1f83 29be 9ab8 c23d c66d c2bc
00000130: 5639 d5bd fecd e43d 9c39 283e 95aa 35be
00000140: 4c3b c63d fbaa dabd a90e 2bbe 327c 093e
00000150: e16b 4abd abfd d63d 2701 2dbc 6333 a23d
00000160: 3e80 e7bd 6718 12be 22ef 12bd bb4f 1c3e
00000170: 2063 233e f4f9 0cbe 9336 37bd 77c6 3f3e
00000180: 3b8d e23d 90ec dc3b 1690 29bc f3b9 c13d
00000190: ed61 353e ac29 42be cc73 2d3d 34c2 563d
000001a0: 6c03 2e3e 4174 d53d 6926 b03d 1489 1b3e
000001b0: fc2a bc3c f002 fe3c 0893 713d 1e13 1bbe
000001c0: ef58 d53d 3d08 9cbc 9acf 7bbd 362e 95bd
000001d0: dbd5 1f3b 52a7 36be 4af9 023e 200f 9fbd
000001e0: dede 20be de04 3abb eee6 1dbe 5cc8 1e3e
000001f0: 6e7f d63c ba3d 1dbe 65d6 253e b381 363b
00000200: 6f15 35be 06f6 083e a2df 3d38 9c58 29be
00000210: dc38 7ebb 6489 babc fa35 e0bd 6494 05be
00000220: f47d 90bc f62a 253d 31b2 b93c 3d41 1bbe
00000230: ff7d 07be b69c 03be 3048 203e 5c95 d5bd
00000240: 365c 3cbe f1bf b53d eaa5 423d 0754 b73d
00000250: f6fd 363e 8185 97bd 744a f6bd 2d57 c6bd
00000260: 3b42 953d f9b3 533d 518b 41be 31d3 de3c
00000270: c986 8a3b b6f4 38bd ae93 0b3e f009 063e
00000280: 10ec b3bd 6e00 f2bd 6293 59bd 7e82 b4bd
00000290: 30c8 e23d 05e8 043e 40a3 16bd 7582 b93d
000002a0: 20ca 3cbe 069b 08bc 3980 223e b567 383e
000002b0: 9f7a 07be fb37 dd3d 2c3f 403c 095f 23be
000002c0: a37a 543d 5d75 a1bd 19b6 103e ecdb 21bd
000002d0: 9145 adbd ea67 8fbd c6ed ae3d ec16 3e3e
000002e0: e5d1 6f3d c63f 1c3e 9dac c13d 29d6 40be
000002f0: deb5 fd3d c494 2fbe ef7a d73d 29df 413e
00000300: ee7b 2ebe 953e a4bc e706 9cbd f34b 58bd
00000310: df68 523d e632 1f3d 7f6e 9fbd 9e84 0c3e
00000320: 45d4 8d3d 4585 353e d060 b5bd b4d3 013c
00000330: fa0a 793d a13e 18be aa8a 3d3e 3dba 263e
00000340: 508c d0bd 16b7 29bc 4086 2d3e e45e 4b3d
00000350: 51f2 99bd 3937 55bd 27d0 02bb 56a4 e73d
00000360: b045 bdbd 08a4 103e 3700 debd 4523 efbd
00000370: bf32 a33d c92f 433c fc29 ab3d 4bf9 ebbd
00000380: d730 f63c 7808 6a3d 8ee4 95bb 13d5 303e
00000390: ffe5 32be 1949 153e d3d0 2d3e 429f e9bc
000003a0: 680a babd 5673 273c 512d 66bd 3321 91bd
000003b0: 6b03 8a3c 06b7 9d3b c31d e6bd cd38 a93c
000003c0: cc30 203e 2856 25be b985 2ebe 37b6 3b3d
000003d0: 1c92 a83d b8c8 3ebc 5514 c2bc 4743 c03d
000003e0: 16df e13d 604d 3d3e 1011 5a3d cfb5 0d3e
000003f0: 1530 a1bd ae09 13be cc89 e8bd 026d 90bd
-0.091458894 0.047769055 0.12031637 -0.062837824 0.10992594 0.03773944 -0.009396334 -0.18438275
0.10830675 0.13635325 0.094175756 -0.102031924 0.1582836 -0.15770052 -0.10705082 -0.14596424
-0.15779251 0.10156951 -0.090047434 -0.028133731 0.16236964 0.030169122 0.06876968 -0.025332192
-0.18055514 0.0019020205 0.09973158 0.089900695 -0.012332345 -0.06335003 -0.10703915 0.16578825
-0.07855585 0.07098624 -0.056251902 -0.05794867 0.08611838 -0.07254068 0.1888665 0.003553618
0.12418861 0.0906568 -0.044816766 0.020154873 -0.06542283 0.17916635 0.012837134 -0.10303651
-0.13483208 -0.17473772 0.0030183762 -0.12208909 -0.03657213 0.104382396 -0.06247884 0.108602114
-0.030415779 -0.09660372 -0.086587735 -0.15086411 -0.11072595 0.13261892 0.06746405 0.14453954
0.061687235 -0.14330152 -0.09964922 0.13013898 -0.103197254 -0.10399114 0.07426909 0.07207299
-0.050396252 -0.16553925 0.09507866 -0.023733985 -0.104113266 0.111721024 0.16428226 -0.17740853
0.09679279 -0.10677143 -0.16704811 0.13426283 -0.049419288 0.10497602 -0.010559357 0.079199575
-0.11303757 -0.14267121 -0.035872586 0.1526479 0.15955782 -0.13767225 -0.04472978 0.18728052
0.11062094 0.0067420676 -0.010349294 0.09459295 0.17713137 -0.18961209 0.04234676 0.0524313
0.16993493 0.10422564 0.08601076 0.1518901 0.022969715 0.03100726 0.05897811 -0.15144011
0.10417353 -0.019046897 -0.06147728 -0.07284205 0.0024388942 -0.17837265 0.12790409 -0.07766557
-0.15710017 -0.0028384249 -0.15420124 0.15506119 0.02618381 -0.15355578 0.16195066 0.0027848303
-0.17683958 0.133751 4.5269386e-05 -0.16537708 -0.0038791215 -0.022770591 -0.10947795 -0.13044888
-0.017638184 0.040324174 0.022667976 -0.15161605 -0.13231657 -0.12852749 0.15652537 -0.10428879
-0.1839455 0.088745005 0.04752151 0.08951574 0.17870316 -0.07398511 -0.120259196 -0.09684596
0.07288023 0.051685307 -0.18900801 0.027200313 0.0042274934 -0.04515525 0.13630554 0.13089728
-0.0878526 -0.11816488 -0.05311907 -0.08813952 0.11073339 0.12979133 -0.03677678 0.09058086
-0.1843648 -0.008337742 0.15869226 0.18008311 -0.1323037 0.10801693 0.011733811 -0.15954222
0.051874768 -0.078837134 0.14131965 -0.039516374 -0.08460534 -0.07002242 0.085414454 0.18563432
0.05854978 0.15258703 0.094567515 -0.18831696 0.12388204 -0.17146593 0.105214946 0.18932785
-0.17039463 -0.020049373 -0.07618504 -0.052806806 0.051369544 0.0388669 -0.07784747 0.13722464
0.06925253 0.1772662 -0.08856356 0.007924009 0.060801484 -0.14867641 0.18509927 0.16281982
-0.101830125 -0.0103585925 0.16945744 0.04965104 -0.07516921 -0.052054618 -0.0019960494 0.113106415
-0.092418075 0.14125073 -0.10839885 -0.11676649 0.079686634 0.011913248 0.08357617 -0.11522158
0.030052586 0.057136983 -0.004574365 0.17268781 -0.17470549 0.14578666 0.16974191 -0.028518323
-0.09084016 0.010220369 -0.05619556 -0.070864104 0.016847333 0.004813078 -0.11236145 0.020656968
0.15643615 -0.16146147 -0.17043199 0.04582807 0.08230993 -0.011644535 -0.023691336 0.09387832
0.110288784 0.18486547 0.05323893 0.13838886 -0.07870499 -0.14359161 -0.11354408 -0.070520416

fc1._model.0.bias f4 [24]
00000000: cf98 c4ba 0f7e c33a 7942 c63a 4f41 c53a
00000010: 0cc6 c4ba 02aa 1fba b5b7 c5ba 17f9 c33a
00000020: ad94 c23a 3fad bb3a 87b5 c43a b908 c13a
00000030: 3911 c5ba f5d1 c33a 1e77 88ba bdb9 b2ba
00000040: 96ec c0ba 24fd b93a f2bd c4ba 19da c5ba
00000050: 3353 c5ba a1bf c5ba 60eb b43a e42d c5ba
-0.0014999154 0.0014914888 0.0015126012 0.0015049371 -0.0015012636 -0.0006090702 -0.0015084656 0.0014951554
0.0014845334 0.0014318599 0.0015007713 0.0014727331 -0.001503504 0.0014939891 -0.0010411476 -0.0013635677
-0.0014718946 0.0014189822 -0.0015010221 -0.0015094905 -0.0015054703 -0.0015087017 0.0013803057 -0.0015043584

fc2._model.0.weight f4 [20, 48]
00000000: 2850 18bd f006 ee3d f250 4dbe 293f 81be
00000010: c0d7 993d ce75 1a3e 9805 023d 5acb 1e3e
00000020: 0050 5f39 b858 283e 280a fd3d bcc7 ac3d
00000030: 4787 84be 880e 69be 8f3c 65be bdc4 57be
00000040: 7a9e c7bd d0d0 983d f467 913e aea1 80be
00000050: 5451 903d 5034 893e 3fa5 56be 784a 243d
00000060: f896 cfbd 8046 e03b 6802 3f3e 3d74 38be
00000070: e473 053e 0693 5bbe 8a0c 8c3e d875 903e
00000080: 7c63 823d 8081 a23d 5cc0 a7bd 0034 afb9
00000090: 30ed 973e 1017 febc 0691 13be 1c91 ef3d
000000a0: 508b 02bd 6e87 80bd fca9 833d a0cc 24be
000000b0: c455 27be c099 c5bb 184a 413d 26a6 dfbd
000000c0: 70ad 5b3e d5fa 2cbe 4f60 82be 18cd 9ebd
000000d0: 2829 753d 8066 aa3d de3b 1dbe f833 27bd
000000e0: e6bb 473e f8ee 85bd 1481 6c3e ffee 86be
000000f0: fd34 0dbe b88a 61bd 4441 843e d369 35be
00000100: bb66 29be 7869 a53d 68b0 4dbe a8a7 4e3d
00000110: d0e7 513e b460 123e 40be 7a3e 957a 6ebe
00000120: ec1b 943e 4008 ca3d 50b0 5bbe 0849 703e
00000130: 50da cf3c eda6 39be c17c 76be 182d 323d
00000140: 6c9a 013e 0820 24be 6e83 853e 3008 09be
00000150: 40b3 ad3b 7060 323e 0466 3bbe 6000 f6bc
00000160: 71eb 0abe 0221 1f3e 487a 5d3d 5079 9cbd
00000170: a64a e4bd 289f cb3d 00b4 963b 304f 04be
00000180: 246f 763e 2512 82be 2000 46be f03b 98bc
00000190: 1a95 8fbe 14aa f13d cd6e 92be b89d 1ebe
000001a0: 0040 ff38 aeca 00be 80c3 193d 00ff 1c3c
000001b0: 90af 4abe 1090 93be 8015 543e 104b 0f3d
000001c0: b051 a1bc a2f0 96bd d8b6 283d 1cb2 723e
000001d0: 5065 32be 3bf7 0abe 00d2 d43d d676 ecbd
000001e0: c066 d73b e45d 61be 90fa 0cbe 8cbb 53be
000001f0: 72b8 8c3e 71ed 81be 2d46 81be 0a04 01be
00000200: 90b0 a1bd 30d5 c83d f272 3cbe 207c be3d
00000210: 80d9 abbd 7c3f 7bbd 24f4 cbbd c187 5ebe
00000220: f4ad 243e b659 54be c885 5f3d 22ce 77be
00000230: a0c0 383e 2cc6 a83d 16b7 64be cc45 23be
00000240: bcab e63d 1029 103d 065e 95be 9c25 333e
00000250: c0db d0bc 085c 35be fae3 96be e929 09be
00000260: 5cec cd3d a663 16be 0c16 9d3d e4d8 683e
00000270: 2039 7c3e 3052 6f3e 5e06 a3bd f0ed 253d
00000280: 7956 1fbe 300d 503d 5225 f6bd c606 cfbd
00000290: 0095 febb 78e8 7ebe 10ec 97be f155 93be
000002a0: 905b 0e3e b69e 56be 9041 943e b0bc 2e3d
000002b0: b04c 793e ccb7 803d 7a2b eebd e02c 1e3c
000002c0: 90b0 63be 0893 ed3d 743b 773e 8aca 903e
000002d0: 9aaf e5bd e86b 6e3e 7888 febd c87d 25bd
000002e0: a046 453d 286a 243e a03a 153c c87a d73d
000002f0: 76c6 c4bd c8ff a13d 881a e83d e452 fd3d
00000300: 58f8 713d c474 783e 804b 1c3b 0458 853e
00000310: e0de b03d 4813 3abe c634 333e e248 923e
00000320: 0944 4fbe 4814 31be 6632 51be cdb0 64be
00000330: 9099 95be 8377 17be 8c44 c53d e82f f93d
00000340: 91f9 32be 5857 0d3e c0e5 353e 98d5 5b3e
00000350: ec1f eabd ac5b 7ebe 4ce2 78bd 80a4 723d
00000360: 5cce 6f3e f4ed e03d d588 86be 4edb 74be
00000370: 6050 c6bd 18b1 55be d8d3 91be 2052 44bc
00000380: a4a3 a83d d25c e4bd a6fd 1a3e 3458 53be
00000390: e0bc 2f3d e605 8b3e f010 88bd d42c b4bd
000003a0: 9c93 443e d2bc 4abe 24f0 903e 2886 873d
000003b0: 76d2 8f3e e884 82be 51c0 91be cc6f de3d
000003c0: 5f57 1dbe cce6 853e 6470 8d3d 52f2 7bbe
000003d0: c4f3 c1bd ec3f 963d 00db 4f3e 9c7f c6bd
000003e0: 6ac4 93be c498 803e b0ca 92bc 9c1d 8a3d
000003f0: d220 69be c43b 8abe 94b7 ecbd cab0 57be
-0.037185818 0.11622417 -0.2005041 -0.252435 0.07511854 0.15084001 0.031743616 0.1550726
0.0002129674 0.16440094 0.12355453 0.08436534 -0.25884458 -0.2275945 -0.22386383 -0.21071143
-0.09747024 0.07461703 0.28399622 -0.25123352 0.07046762 0.26797724 -0.20961474 0.04011008
-0.10136217 0.0068443418 0.18653262 -0.18013091 0.1303249 -0.21442804 0.27353317 0.28214908
0.063666314 0.079348564 -0.081909865 -0.00033417344 0.29673147 -0.031016856 -0.14410791 0.11697599
-0.03187114 -0.06275831 0.06428906 -0.16093683 -0.1634131 -0.0060302913 0.047189802 -0.10920362
0.2145288 -0.1689256 -0.25464103 -0.07753962 0.059853703 0.083203316 -0.15354869 -0.040821046
0.19505271 -0.0653972 0.23096114 -0.26354215 -0.13789745 -0.055063933 0.25831044 -0.1771615
-0.16543095 0.08076757 -0.20086825 0.05045286 0.20498586 0.14294702 0.24486637 -0.23288949
0.28927553 0.09864855 -0.21453977 0.23465359 0.025372654 -0.18130083 -0.24071027 0.043500036
0.12656564 -0.16027844 0.26076835 -0.1338203 0.0053009093 0.174196 -0.18300635 -0.030029476
-0.13566376 0.15539935 0.054071695 -0.07640326 -0.111470506 0.09942466 0.0045990944 -0.12920833
0.24065834 -0.25404468 -0.19335985 -0.018583268 -0.28043443 0.11800018 -0.2860016 -0.15489852
0.000121712685 -0.12577316 0.03753996 0.009582281 -0.19793534 -0.28820848 0.20711327 0.034983695
-0.019692272 -0.07370116 0.04119 0.23700756 -0.1742146 -0.13570873 0.10391617 -0.11546104
0.006573528 -0.22008473 -0.13767457 -0.20677012 0.2748447 -0.25376466 -0.25248852 -0.12599197
-0.07895005 0.09806287 -0.18403223 0.09301019 -0.08391094 -0.06133984 -0.099586755 -0.21731474
0.16081983 -0.20737347 0.054570943 -0.24199727 0.1804223 0.08240923 -0.22335467 -0.15944594
0.112632245 0.03519541 -0.29173297 0.17494816 -0.02549541 -0.17710888 -0.29470807 -0.13394894
0.100548476 -0.1468645 0.07670221 0.22738987 0.24631166 0.23371196 -0.07960199 0.040510118
-0.1556033 0.050793827 -0.12018837 -0.10108714 -0.007769227 -0.24893367 -0.2967229 -0.28776506
0.13902116 -0.20958981 0.2895627 0.042660415 0.2434566 0.062850565 -0.11629386 0.009654254
-0.22235322 0.116003096 0.24143773 0.28279525 -0.11215134 0.2328335 -0.12428373 -0.040403157
0.048163056 0.1605612 0.009108216 0.105214655 -0.09608166 0.079101145 0.113331854 0.12369326
0.05907473 0.24263293 0.0023848712 0.26043713 0.0863626 -0.18171418 0.175006 0.2857123
-0.20240797 -0.17292893 -0.20429382 -0.22333069 -0.2921872 -0.14791684 0.09632215 0.121673405
-0.17478015 0.1380285 0.17763424 0.21468198 -0.1143187 -0.24839658 -0.06076269 0.05923891
0.23418564 0.10982886 -0.2627627 -0.23911783 -0.09683299 -0.20868337 -0.28481936 -0.011982471
0.08234337 -0.111505166 0.15135822 -0.20639116 0.042904735 0.27152938 -0.066438556 -0.08797613
0.19196934 -0.19798592 0.28308213 0.06617385 0.28090256 -0.25492024 -0.28467038 0.10861167
-0.1536536 0.26152647 0.069062024 -0.24604157 -0.09470323 0.07336411 0.20298386 -0.09692308
-0.2886079 0.2511655 -0.017918915 0.06743929 -0.22766426 -0.26998723 -0.11558452 -0.21063533

fc2._model.0.bias f4 [20]
00000000: 0000 0000 0000 0000 ee77 0100 0000 0000
00000010: 5cb7 0080 0000 0000 0000 0000 0000 0000
00000020: 0000 0000 0000 0000 0000 0000 0000 0000
00000030: 0000 0000 0000 0000 0000 0000 0000 0000
00000040: 0000 0000 0000 0000 0000 0000 0000 0000
0.0 0.0 1.34858e-40 0.0 -6.5777e-41 0.0 0.0 0.0
0.0 0.0 0.0 0.0 0.0 0.0 0.0 0.0
0.0 0.0 0.0 0.0

fc3._model.0.weight f4 [64, 48]
00000000: 05af 33bc bf4b 833d d5b2 3bbe d293 243d
00000010: 9256 4fbd e841 293e 6e7f 1f3e 1d25 f23d
00000020: ea79 233d 0a98 283e 71f3 c1bc 07e7 343e
00000030: 6da9 7a3d d3e6 503e 9228 dcbd bec0 f13c
00000040: 82c8 3abe 23b7 f1bc d3fd 503e 4801 a3bd
00000050: 6906 ac3d 9a82 4d3e db6b 69be 9295 483d
00000060: f72f 40bd 522e 1cbe 8126 c83d b395 d63c
00000070: ba4b 043e 8770 49be 84e2 9d3d 80a1 02be
00000080: 347a 9fbd c7e9 e53d 9a75 943d b570 683e
00000090: 6f74 31be 5f24 2bbe af25 36be ed91 6bbe
000000a0: e033 22bd f324 ff3d 0b0b 50be 6f37 d93d
000000b0: 25b3 663e ec16 473d 7f12 29bd 9b1e 2ebe
000000c0: 3e08 f03d 558c 023e 0f13 f23d 4260 25be
000000d0: 4142 5abe 1661 61be 345f 513e f5b5 233e
000000e0: aefb 473e f068 8f39 ba08 d53d f246 50be
000000f0: 8de0 183e f3c0 41be 3772 103c 30c7 69bd
00000100: 28a8 d63c 6c42 0e3b fbbb 2dbd 1e05 6b3e
00000110: 4b18 37bc 4807 453e e75e 47be 8a73 7e3b
00000120: 91a9 10be 7dac f03d f8b8 4fbe beb5 00be
00000130: 1a35 1e3d 504f 663e a584 84bd 8da3 54bd
00000140: 40fa 2ebe 9aec 38be 8f36 18bc 0e22 3abc
00000150: 2035 20be 6a9a 0cbe dc61 49be 3098 223c
00000160: a170 14bd 2a16 d3bd c598 88bb c126 6cbe
00000170: a6ff 213e d142 513e 4077 1abe caeb 34be
00000180: 682e 503e 79ae febd cb82 5ebe 9a1b 013d
00000190: 7fba 9c3b 2c8a 2bbe 5637 fb3d c2f6 f93b
000001a0: 51eb f33d 086b 1ebe 5e63 32be 79f0 f63d
000001b0: ea19 79bd 64fa 6abd 7732 29be 2a38 9c3d
000001c0: e5c8 573e b720 f63d b710 0c3e b9cd 663d
000001d0: d316 603d 42ed 163d cb16 39be 1466 403e
000001e0: a942 ce3d f05d bcbd 3bb9 1cbe e6ca 68be
000001f0: 5fac 333e 18c6 3dbe f0ae 99bc 8d5b 2b3b
00000200: 9d79 2a3e 82a0 383e 231c aa3d eb0a 2c3b
00000210: 5fb3 23be db85 61be fffc bf3c 4d24 c5bc
00000220: 4935 033e a0d2 02bc 09c9 0fbe a6cc 3c3e
00000230: 9feb febd e750 493e 804c 523e 202f 0f3e
00000240: d1be 27be 609e bfbc 4e82 86bd 5fd0 433d
00000250: 1be8 6a3d a403 693e 4ce0 b73d 6242 43be
00000260: 0070 233e f5a4 b3bd 416a e2bd 0235 9d3b
00000270: f588 593e 5c1b c3bd 8481 08bd 99f7 323e
00000280: 5ad7 bcbd 4eb8 a3bb 0cc1 493d a73a 153d
00000290: 919a df3d cd76 593e c48f d6bd b966 c13d
000002a0: 051a 683e 1098 413d d264 4dbe 0066 ec3d
000002b0: 4931 dc3d ddc2 423e 08cf f23d ba82 343e
000002c0: ff3c d4bc c76b 023e c260 903c f5d9 7abc
000002d0: 9b99 46be cc3e 143e 8445 a5bd 8107 a73d
000002e0: 3914 633e 1b58 063e aff0 b2bd 87f3 d4bd
000002f0: 919d 7dbd 2ed4 013e 39b7 073e 1789 1dbe
00000300: c66a 0c3e 6cb5 b23d 9a3a dd3d 6919 01be
00000310: 41a3 f5bc 767a a8bd fe60 d5bd 5fd1 143e
00000320: 2dcb dd3d 9715 50be a3f1 cabc 8054 66be
00000330: 7a2a 54be ecef 153e a5bf 5ebe 3323 3abe
00000340: bff6 14be 2923 833d 4dc6 55be 7b01 e83d
00000350: af17 7ebd b397 cabd fcbb 573e b2e5 77bb
00000360: 0366 353e 9e11 03be e181 34be 8a7f b5bd
00000370: 278c bbbd a068 87bb 0197 563d 4ef9 853d
00000380: 74a8 3dbe 2dd7 313e 2268 2fbe 4dbd 25be
00000390: 15f6 fdbd 3c7c 23bd 7071 ecbd 0079 1a3e
000003a0: 33b5 bcbc e835 0c3e 2242 29be aff5 cbbd
000003b0: 48ec 4d3d dc40 cebd 3c23 53be 87b5 193e
000003c0: 1de1 abbd 3e50 163e 1fd3 30be 01d6 89bd
000003d0: b057 793c 8e83 5a3e d052 3d3d 7d80 823d
000003e0: 9c11 71bd fe39 2dbd 64ec fc3c fc4c fabd
000003f0: c853 34be 8b17 093e 002c 5ebe c621 af3d
-0.010967021 0.06410932 -0.18329938 0.040180035 -0.05061967 0.16529047 0.15575954 0.11823485
0.03991119 0.16464248 -0.023675652 0.17666255 0.061196733 0.20400552 -0.10749926 0.029510852
-0.1824055 -0.029506272 0.20409326 -0.07959229 0.0839966 0.20069352 -0.2279505 0.048970766
-0.046920743 -0.15252045 0.09772969 0.026194429 0.12919512 -0.19671832 0.0770922 -0.1275692
-0.0778698 0.1122623 0.07248993 0.22699244 -0.17329572 -0.16713093 -0.17787813 -0.23004885
-0.039600253 0.124582194 -0.20316713 0.10606276 0.22529276 0.048605844 -0.041277405 -0.17003863
0.11720322 0.12748845 0.118200414 -0.1615 -0.21314336 -0.22009692 0.20446473 0.1598738
0.19529602 0.0002735327 0.10402055 -0.20339563 0.1492941 -0.1892126 0.008816293 -0.057074726
0.02620323 0.002170707 -0.0424156 0.22951171 -0.0111752255 0.19241059 -0.19469796 0.003882619
-0.14127184 0.117516495 -0.20285404 -0.12569329 0.03862486 0.22491193 -0.064706124 -0.051913787
-0.1708765 -0.18059006 -0.0092903515 -0.011360658 -0.15645266 -0.1373078 -0.19666237 0.00992398
-0.036240224 -0.10306962 -0.004168602 -0.23061658 0.15820178 0.20435645 -0.15084553 -0.17668071
0.20330203 -0.12435622 -0.21729581 0.031520464 0.0047829743 -0.16751927 0.12266414 0.007628293
0.119101174 -0.15470517 -0.17420718 0.12057585 -0.06081573 -0.057367697 -0.16523157 0.076279
0.21072729 0.120179586 0.13678251 0.056348536 0.054709267 0.03684736 -0.18075101 0.1878894
0.10071308 -0.09197605 -0.15305035 -0.2273365 0.17546223 -0.18532598 -0.018760175 0.0026147098
0.16647954 0.18029979 0.08306148 0.0026251625 -0.15986393 -0.22023718 0.023436068 -0.024065161
0.12813295 -0.007984787 -0.14041533 0.18437442 -0.12447285 0.19659768 0.20536995 0.1398282
-0.16381384 -0.023390949 -0.065678224 0.04780614 0.05735026 0.22755295 0.08978328 -0.19068292
0.15960693 -0.087716974 -0.110554226 0.004797579 0.21243651 -0.09526703 -0.03332664 0.17477264
-0.092207626 -0.004996336 0.04925637 0.03643289 0.10918153 0.21236725 -0.1047664 0.09443421
0.22666176 0.04726416 -0.20057991 0.115428925 0.10751588 0.19019647 0.11855894 0.17627993
-0.025907991 0.12736426 0.017624263 -0.015310754 -0.19394533 0.1447708 -0.080699 0.08155728
0.22175683 0.13119547 -0.08737313 -0.10398012 -0.061917845 0.12678596 0.13253488 -0.15384327
0.13712606 0.0872601 0.10802193 -0.1260735 -0.029985072 -0.082264826 -0.104188904 0.14532994
0.10829768 -0.20320736 -0.024773424 -0.22493172 -0.20719329 0.14642304 -0.21752794 -0.1817749
-0.14547251 0.06403191 -0.20876427 0.113284074 -0.062034305 -0.098922156 0.21067804 -0.0037826118
0.17714696 -0.12799689 -0.1762767 -0.08862217 -0.09157591 -0.0041323453 0.052390102 0.06541692
-0.18521291 0.1736724 -0.17129567 -0.16185494 -0.12400452 -0.0399134 -0.11545074 0.1508522
-0.023035621 0.13692439 -0.16529134 -0.0995897 0.050274163 -0.10070965 -0.2061891 0.15010653
-0.08392546 0.14679047 -0.17268036 -0.06730271 0.01521866 0.21339247 0.046221554 0.063721634
-0.058854684 -0.042291634 0.030874439 -0.12221715 -0.17610085 0.13387887 -0.21696472 0.08551364

fc3._model.0.bias f4 [64]
00000000: b579 c5ba 3b84 c5ba 0e2e c43a 15d0 c43a
00000010: ab9e c53a 2d8a c5ba 1f90 c5ba 7571 c5ba
00000020: 919e c53a 1c1e c5ba c33f b93a 81a4 c5ba
00000030: c89d c5ba 5c80 c53a 44a0 c53a 58a2 c5ba
00000040: a22d c5ba eeb4 c5ba b0b0 c53a ce88 c5ba
00000050: ef8c c5ba b48a c5ba 889e c5ba 739f c5ba
00000060: 5c87 c53a 7a6d c5ba 209f c5ba 4e88 c53a
00000070: ba8a c5ba d28a c5ba 97a5 c4ba 8946 c5ba
00000080: f6a5 c53a 2a84 c5ba 368d c5ba a5ac c5ba
00000090: bd8e c53a 9ca0 c53a 13a4 c5ba 7ba1 c5ba
000000a0: ca87 c53a b868 c5ba 10a2 c5ba df78 c53a
000000b0: 83a1 c53a 00a1 c5ba a1ab c53a 4379 c53a
000000c0: 1378 c5ba 1a85 c53a d7a1 c53a b08a c5ba
000000d0: 407e c5ba ad9a c53a b382 c53a d2a0 c5ba
000000e0: c187 c5ba a19d c53a 5289 c5ba e167 c5ba
000000f0: 09af c53a bb91 c5ba f86d c5ba 0270 c5ba
-0.0015066179 -0.0015069315 0.0014967339 0.0015015627 0.0015077194 -0.0015071087 -0.0015072859 -0.001506372
0.0015077164 -0.001503888 0.0014133382 -0.0015078933 -0.001507693 0.0015068161 0.001507767 -0.001507829
-0.0015043507 -0.0015083828 0.0015082564 -0.0015070678 -0.0015071909 -0.0015071244 -0.0015077153 -0.0015077427
0.0015070247 -0.0015062534 -0.001507733 0.0015070529 -0.0015071251 -0.0015071279 -0.0015002963 -0.0015050928
0.0015079367 -0.0015069295 -0.0015071991 -0.0015081359 0.0015072447 0.0015077773 -0.0015078805 -0.0015078032
0.0015070376 -0.0015061116 -0.0015078206 0.001506593 0.0015078041 -0.0015077889 0.0015081057 0.0015066046
-0.0015065692 0.0015069575 0.0015078139 -0.0015071239 -0.0015067533 0.0015076004 0.0015068859 -0.0015077835
-0.0015070365 0.0015076884 -0.0015070832 -0.0015060866 0.0015082072 -0.0015073338 -0.001506268 -0.0015063288

fc4._model.0.weight f4 [1, 64]
00000000: 2064 093e 5911 273e 94a4 36bc c6a1 bdbc
00000010: a4c5 2bbe e10c 7b3e dbe5 863d a450 e03d
00000020: 2cd0 99be 6de0 1a3d b030 e6ba f9b4 8e3d
00000030: ad56 8f3e 133f 2abe 21bb 6dbe d151 9d3d
00000040: 9eb3 113d 1ee6 c13b c3d9 e3bc 4bbe 673e
00000050: 7818 953e 99de 553e edc8 973e b579 863e
00000060: 153d 5ebe 955c 823d dd2f 993e 58e3 5fbe
00000070: 627a 833e 9a63 403d 7fe4 ec3b a922 643d
00000080: be18 8bbd 4346 443e db63 963e 8ea4 db3c
00000090: 0232 92be bbcb 5cbe 6331 c53d c9f9 133e
000000a0: 7677 57be 1d63 a93d 1a94 8e3d ae79 05be
000000b0: d104 2cbe bfa8 3b3e 77f3 10bd e0b2 bfbd
000000c0: e474 cd3d b69e 4abe 56e6 19be 7a08 833e
000000d0: 7efb 0e3e 77da 43be 2382 37be c50d 353e
000000e0: a5ed 5e3e 50dc 6ebe ea3d 743e c5cf a03d
000000f0: c7fc ffbb 1e93 8a3e d010 cf3d 88a8 cb3d
0.13417101 0.16315211 -0.011147637 -0.023148429 -0.16774613 0.24516632 0.0658681 0.10952881
-0.30041635 0.037811685 -0.0017562117 0.069681115 0.27995816 -0.16625623 -0.23215915 0.07681621
0.035571687 0.0059173247 -0.027813798 0.22631185 0.2912023 0.20885696 0.29645482 0.2626473
-0.21702988 0.06365315 0.2991933 -0.21864069 0.25679308 0.046969987 0.0072293873 0.055697117
-0.067918286 0.19167428 0.2937306 0.026811864 -0.28553778 -0.21562092 0.096285604 0.14450754
-0.21041664 0.082708575 0.06961842 -0.13034698 -0.16798712 0.1832609 -0.035388436 -0.093602896
0.10032061 -0.19787106 -0.15029272 0.25592405 0.13963124 -0.19126306 -0.17920737 0.17681034
0.21770342 -0.2332623 0.23851743 0.07852129 -0.007812116 0.27065367 0.101106286 0.09944254
