example/cloudManufacturing/rl/phase1/ckpts/policy-model-weight-array.global-step-3000.pth (torch_old, 32003 bytes, 7 tensors)

fc1._model.0.weight f4 [24, 141]
00000000: dfb6 a7bd c5f4 3f3e bbb6 02be 2522 5bbd
00000010: f23d 39be 21e9 7a3d b360 84bd 2a7a 3bbe
00000020: ff00 2dbe ddb8 07be d969 c5bd 94b7 11be
00000030: 33a4 173e 42e8 263e 3ffc 1abe defe bebd
00000040: dcca 193d 2ab2 5a3c 5c24 16be 48fd 9a3d
00000050: 8f4e e93d f7a8 a93d d4b9 a4bc 67c9 463e
00000060: 4a21 5cbc cb82 323d 6b88 f1bd ece2 8bbb
00000070: 5f3c ad3d d7cd 4d3d b50e 5a3d 943d 9abd
00000080: d137 1abe aeef 6cbd 136a 8e3d aa9c f03d
00000090: 5d9a 223d 08c2 273d 1a5d babd b9a2 f8bd
000000a0: aeac f6bc 8e8a 3c3e 489e 2e3d 5961 833c
000000b0: d604 01be c909 f03b 1b45 7e3d 74aa 103e
000000c0: 5a75 1e3c 8a4c a23d ccf8 163e b877 373e
000000d0: cadd aabc 3ccb 823d 670e 063e 63c9 89bd
000000e0: 2664 ec3d 47fc 1abe 7df9 be3d 1d24 bdbd
000000f0: a556 1cbe 1336 5abd 4ca8 693c 440a 79bc
00000100: 71de db3d df72 ba3b fcc4 45bd 59e3 98bd
00000110: 5039 5dbc 6027 b6bc e9ef f73d 6de5 d9bd
00000120: c02b 0bbe 4625 5cbd ed10 443e 80d8 d73c
00000130: fd1c 273e ea74 bcbd 73d3 4f3d 1e1a b03d
00000140: 8d97 bdbb 7dd4 4e3d cfbd 1c3e f338 bc3d
00000150: 88fa 14bc fa6b 33be bb9a a43d d728 c5bd
00000160: 9b1e 123e eda7 0dbe 5e01 84bd 2f06 dd3c
00000170: 888f 83bd 6c23 10be be67 5ebc 7ad9 40be
00000180: e921 3a3e 5859 16be c7e4 18be 8755 13be
00000190: d42b 20be cc52 21be 7030 13be dfc1 bd3d
000001a0: 8269 933d 444d b8bd e135 b63d a75a 973d
000001b0: 221f 013d 690e 113e 1219 263e d279 813d
000001c0: e98e 04be 07c9 0a3e 9398 c6bd 0d8a 7ebd
000001d0: de6f d83c f3c4 333e 43c9 fb3c 2dcb fcbd
000001e0: ab20 57bd ca1a 0d3e 951f 1a3e 1894 1bbe
000001f0: 529b 22be 1030 333e 4058 333e 1907 e7bc
00000200: 0cf4 e43d 5ed2 08be f5db 61bd e40f 093e
00000210: b256 833d ecf2 04be c7c5 25be 1d32 32be
00000220: 9958 2dbe 7b94 30be f893 05be 9006 b0bd
00000230: 7eed f1bd 63cb 03be 2e33 16be 8af0 2d3e
00000240: 54cb 003e cffe aebd 79cb b3bd 7339 d6bb
00000250: 8c54 743d 0757 3ebd 59be 08be 274f 2abe
00000260: 257e 193d 6ad2 b1bb 15fa bebd e25f 6fbd
00000270: 88b1 0ebe 9be2 f2bd 06ff f93d d09e 0f3e
00000280: d6c0 0bbe 131d f43d b165 1bbe 707e b7bd
00000290: c1da 06bd d7d2 213c 1985 423d 7de3 16bd
000002a0: 4ee5 a73a 0f7a 9a3d d896 db3d 07b6 ba3d
000002b0: 2fd4 ffbd 2860 933d c4cd 77bd c343 963b
000002c0: 9c25 f2bd 95b2 dc3d 32f8 87bb 6a84 23bd
000002d0: 852d f53c 646b 543c 3325 8abd a255 023e
000002e0: f0fa a6bc 2479 db3d 3238 24be 23fa 873c
000002f0: 9669 4b39 d8c4 43bd ada5 42be 1829 30bc
00000300: 9eac 033e 0c02 12be d161 c4ba 404c 253e
00000310: 2fda d9bc 8e61 4d3c cd98 d23d 27c3 dbbd
00000320: 7944 22be 5e4d 303e 1385 90bc 2722 183e
00000330: 238b 243b 2054 f13c c9ef 32be be79 b7bd
00000340: af28 be3d 2982 8dbd 636f 39be 9efa db3d
00000350: 00d7 883d 4743 c43c e123 be3c 05fd 013e
00000360: 49d0 f73d eb55 1d3d e480 edbd 3046 27be
00000370: 1d65 bfbd 986b 2f3d 365f cdbd 2fa3 b6bd
00000380: 6a86 b7bd 7fd2 39be 885d 3bbd 4f23 d93d
00000390: 46ef 493d 42b9 43bd e3e9 3c3e 8d96 34be
000003a0: 79d5 1cbe 75dd 78bd b825 08be 2b99 f8bd
000003b0: 021d 4f3b 002f be3d bca3 843c 2022 cdbd
000003c0: 5648 0bbe 0db1 90bb 18fa 823d 5212 c9bc
000003d0: fe45 fa3b e81f 213e 937b 16be 277f 343e
000003e0: de86 c7bc 1bf5 353e 1e12 f53d 960b 323c
000003f0: c59e df3d da6c 94bb 0bc8 1c3e b3bd f03c
-0.08189177 0.18745716 -0.12765019 -0.05349936 -0.18090037 0.061257485 -0.064637564 -0.1830832
-0.16894911 -0.13254113 -0.096393295 -0.14230186 0.14808731 0.16299537 -0.15135287 -0.09325956
0.037546977 0.013348142 -0.14662308 0.07567841 0.11391937 0.082841806 -0.020108141 0.19412766
-0.013435671 0.043581765 -0.11793598 -0.0042689946 0.084587805 0.050245132 0.053236682 -0.07531276
-0.15060355 -0.057845764 0.06953826 0.11748631 0.039697994 0.040956527 -0.09099789 -0.12140412
-0.030111637 0.1841223 0.042631418 0.01603763 -0.12599501 0.007325385 0.062077623 0.14127523
0.0096715335 0.07924755 0.14743346 0.17916763 -0.02085771 0.0638642 0.13091432 -0.067278646
0.11542539 -0.15135299 0.0932493 -0.09235404 -0.15267427 -0.053274225 0.0142613165 -0.015200201
0.10735787 0.005689963 -0.048283562 -0.07465238 -0.013502434 -0.022235572 0.12106306 -0.106394626
-0.13590908 -0.053746484 0.19147082 0.026348352 0.16319652 -0.09201987 0.050738763 0.085987315
-0.0057858885 0.050495613 0.15306781 0.0919055 -0.009092934 -0.17521659 0.08037325 -0.0962693
0.14269488 -0.1383359 -0.06445573 0.026980488 -0.06423861 -0.14076012 -0.013574539 -0.1883296
0.18176998 -0.1468252 -0.14931022 -0.14388095 -0.15641719 -0.15754241 -0.14373946 0.092654936
0.071978584 -0.08999112 0.08896995 0.073903374 0.03152383 0.14165653 0.16220501 0.063220635
-0.12945141 0.13553248 -0.0969707 -0.062143374 0.02642053 0.17555599 0.030735618 -0.1234344
-0.05252139 0.1377975 0.1505111 -0.15193212 -0.15879562 0.17498803 0.17514133 -0.028201627
0.11179361 -0.13361499 -0.055141408 0.13384968 0.0641302 -0.12983292 -0.16188727 -0.17401929
-0.16928329 -0.17244141 -0.13044727 -0.08595002 -0.11812876 -0.12870555 -0.14667961 0.1698629
0.12577564 -0.08544695 -0.08779044 -0.00653761 0.059650943 -0.046469714 -0.13353862 -0.16631757
0.037473816 -0.0054266946 -0.09325043 -0.05844105 -0.1393491 -0.11859628 0.12206845 0.14025426
-0.1364778 0.11919608 -0.15175511 -0.08959663 -0.032923464 0.009876928 0.047490213 -0.036838043
0.0012809427 0.07542812 0.107221305 0.0911675 -0.12491643 0.07196075 -0.060498968 0.0045857145
-0.1182358 0.10776249 -0.0041494602 -0.0399212 0.029928932 0.012965057 -0.067453764 0.12727979
-0.020383328 0.10716465 -0.16037062 0.016598767 0.00019398922 -0.047795147 -0.19008513 -0.010751985
0.12858817 -0.14258593 -0.0014982765 0.16142368 -0.026593296 0.012535466 0.10283051 -0.10730582
-0.15846433 0.17217013 -0.01764158 0.14856778 0.0025107346 0.02945906 -0.17474283 -0.08958767
0.092851035 -0.06909592 -0.18108897 0.10741161 0.06681633 0.023957862 0.023210468 0.12694176
0.12100274 0.038412016 -0.115968496 -0.16335368 -0.09345458 0.04282722 -0.10027926 -0.089178436
-0.08961184 -0.18146704 -0.045743495 0.10602438 0.049300455 -0.047784097 0.18448596 -0.17635556
-0.15315808 -0.060758073 -0.13295639 -0.121385895 0.0031602983 0.09286308 0.016191356 -0.100162745
-0.13601813 -0.0044156373 0.06395358 -0.024544869 0.0076377383 0.15734828 -0.14695577 0.1762663
-0.024356302 0.17769282 0.11966346 0.01086702 0.10918955 -0.0045295777 0.15310685 0.02938733

fc1._model.0.bias f4 [24]
00000000: edb6 263b 7aa3 8539 88ae e43a 0120 1eba
00000010: c896 b0b9 d6bb 5f3a 459e d439 dad9 f639
00000020: 8a35 f8ba 7ff5 a7b8 f711 5cb9 609a 13ba
00000030: 6e17 cf3a 3aa0 563a effb 9eba f4fa 5eb9
00000040: 43a8 cd38 6aa9 f93a 23ed 9839 1d28 e1b9
00000050: 029c 66b9 739f 30ba 9846 4a3a 0bb2 9e39
0.0025438622 0.00025489536 0.0017447034 -0.00060319906 -0.00033681677 0.00085347646 0.0004055371 0.00047083088
-0.0018936854 -8.008908e-05 -0.00020987527 -0.00056306086 0.0015799829 0.0008187328 -0.0012129525 -0.00021265057
9.806503e-05 0.0019047682 0.0002916838 -0.0004294523 -0.00021992627 -0.0006737627 0.0007716208 0.0003026876

fc2._model.0.weight f4 [20, 48]
00000000: 3086 573e dc96 0a3e 2885 083d bcb0 903d
00000010: 9ce9 af3d 926f a4bd 6ef2 173e 6012 b6bc
00000020: a63c 84bd 3f32 8cbe 4ffb 2bbe 7cc0 89bd
00000030: f8da b03d 90fa 843e e184 68be dcc1 89be
00000040: cadd 973e e417 833e a0ee 4dbc e1c4 47be
00000050: 44fe da3d 22ce 323e b0b6 56be 2893 843e
00000060: 407e d83b 8882 12bd 3005 8f3d 109d 803d
00000070: b834 bf3d d0de b33c 73b9 5abe 3390 5fbe
00000080: 1895 843e f610 38be edbb 7dbe 1eb4 393e
00000090: 0495 bfbd 94e1 2bbe b40a d13d ea04 4d3e
000000a0: 7898 8abd 160f f4bd ba15 873e d4b4 fcbd
000000b0: 80e1 e23d 407b 78bc 18bf 6cbe e059 3f3c
000000c0: 3241 88be b68b 30be ffec 4abe 8e25 0cbe
000000d0: e9bb 25be d9f4 09be 0270 863e 9cde e13d
000000e0: 30a0 3dbd 9428 573e 00b1 36bc 56c9 c5bd
000000f0: 9c0f af3d c806 ccbd ace5 663e 80be 753c
00000100: adce 0fbe f8aa 2f3d d2ad 95bd 901e c1bc
00000110: 04b6 573e c6b5 903e c206 72be e09f 803c
00000120: 8055 90be f079 803e 3a86 083e 90e8 afbd
00000130: 5681 2bbe 61a5 40be 1001 ce3d 4c96 7b3e
00000140: 10af 5e3e acb4 3d3e 46b8 8e3e 7a5f 73be
00000150: 47b0 93be cc3f 6d3e 2098 143e e221 813e
00000160: 6df4 0fbe 8027 c83d 549b cfbd be8f 86be
00000170: 5007 96bc d066 01bd c632 943e 2056 6e3e
00000180: d8f0 9ebd 8551 3e3e fcc0 b43d ba63 013e
00000190: 579c c8bd 5eea 1dbe 5f89 87be 50f5 71bc
000001a0: 3e85 e53d 8b19 afbd 4265 84be 032f 823e
000001b0: 28f9 763e b029 2dbe 21e6 eabc 42b5 74be
000001c0: d840 a83d dd89 a3ba 64a9 983d 1c0b 383d
000001d0: 8fe0 c8bd d5dc 47bd 75ac 97bd 6142 0c3e
000001e0: 6d0c 953e e479 8f3e fbe3 0b3e 143e 55be
000001f0: c425 583d d465 33be 39d7 1b3e a83b bf3d
00000200: e123 39be bba3 5fbe 483a d2bd 056a f2bd
00000210: 6db9 013e 4518 17be c0c5 033e f430 993d
00000220: 9653 853e 9dd0 4d3e 70d7 28be b910 76be
00000230: 2a2e fdbc 578f 2cbe 58b5 c13d db77 943c
00000240: 5aaf 113e ce56 013e 8c7c 66bd 2c6a 1e3e
00000250: 402b 293c c064 96bb b4d4 a73d 0ce2 4fbe
00000260: 305e 34be 13f7 0ebe 3b1f 0dbe aa10 82be
00000270: 8a9c 253e b8c7 543d ae15 6bbe 4d61 38be
00000280: 6e02 aabd 888c a5bd da62 4f3e 002c 26bc
00000290: 68ac 313e 085f 743e 5424 543e d284 293e
000002a0: 72d2 973e 3f3d 90be 1402 273e a960 5dbe
000002b0: 00be 81bb f805 a43d 80fc 7f3b 3aef 84bd
000002c0: 502d 90bc 0e2e 94bd 0e0b 77be d020 86be
000002d0: 4889 92be 627b fcbd 888e 343e a0da b9bd
000002e0: 62c6 bebd 6a9f 49be 6064 633e 78d8 72be
000002f0: 36eb 2d3e b0ae f73d 0282 76be df07 82be
00000300: af4f 183d fbe1 243e 2669 123e ae7f a7bd
00000310: 9227 20be 539a 1a3e 0418 833d deea eabc
00000320: b7f7 26be ed4c 013d 8eb2 65be 5506 b7bd
00000330: 7648 d5bd 0f58 613d a1af 3dbb e777 25be
00000340: 7258 2dbe 014a 6bbe 0724 5d3e eb2e 90bd
00000350: 2f09 423e 946f e73d 7be3 aebc ae12 adbd
00000360: 75f6 0ebe ae0f 01be a305 d0bd 42e3 7dbe
00000370: b29d 44be 5b40 1b3d e16c 73be 9749 903e
00000380: e9e9 683e aebd b1bc 43b0 cdbb fb8b 003e
00000390: 2c2c 333e 4247 95be fff4 2abe 308e 6e3e
000003a0: efe9 463e e47e 95be 7ea8 cf3d 6eb9 773d
000003b0: b24d 0fbe 7f46 96be 486a 73be 5eeb 26be
000003c0: 8f9a c43d a2a7 7dbe 5aa3 20be e286 e4bd
000003d0: f0b3 3fbd a133 f0bd f943 2bbe b8e9 c73d
000003e0: 086d db3d 3ce9 5d3e a262 843e fb0b 4c3c
000003f0: 6c61 e93b 18bb 1e3e c756 a23d 9329 b3bd
0.21047282 0.13534111 0.033330113 0.070649594 0.08589479 -0.08029093 0.14838573 -0.022225559
-0.0645688 -0.27382085 -0.16795085 -0.067261666 0.08635515 0.25972414 -0.2270694 -0.26905715
0.296614 0.25604165 -0.0125691 -0.19508697 0.106930286 0.17461446 -0.20968127 0.2589352
0.006606847 -0.035769016 0.06983411 0.06279957 0.09336227 0.021956831 -0.21359806 -0.21832351
0.25895 -0.1797522 -0.24778719 0.18135116 -0.09354594 -0.1678527 0.102071196 0.20021406
-0.06767362 -0.1191694 0.26383764 -0.12339178 0.11078167 -0.015166104 -0.23119771 0.011679143
-0.2661224 -0.17240795 -0.1981697 -0.13686201 -0.16184963 -0.13472308 0.2625733 0.110287875
-0.046295345 0.21011573 -0.0111505985 -0.096575424 0.08547899 -0.09962231 0.2254855 0.014999032
-0.14043684 0.042887658 -0.07308544 -0.023574144 0.21065527 0.28263682 -0.2363539 0.015701234
-0.2819023 0.2509303 0.13332453 -0.0858928 -0.16748556 -0.18813087 0.100587964 0.24569052
0.21746469 0.18525952 0.27874964 -0.2376689 -0.28845426 0.23168868 0.14511156 0.25221163
-0.14058085 0.09773159 -0.10137048 -0.26281542 -0.018314034 -0.03159219 0.28944987 0.23275042
-0.07760781 0.18585785 0.08825871 0.12635699 -0.097954445 -0.15421435 -0.26471993 -0.01476796
0.112070546 -0.08549794 -0.25858504 0.25426492 0.24118483 -0.16910434 -0.028674187 -0.2389727
0.08215493 -0.0012477 0.07454184 0.04493247 -0.09808456 -0.048794586 -0.074059404 0.13697197
0.29111043 0.28022683 0.13661186 -0.20824462 0.05277039 -0.17519313 0.1521882 0.093375504
-0.18080093 -0.21839802 -0.102650225 -0.11836628 0.1266839 -0.14755352 0.12868404 0.0748004
0.26040334 0.20099111 -0.16488433 -0.24029817 -0.030905802 -0.16851555 0.09458417 0.018123558
0.14227048 0.1263077 -0.05627112 0.15470189 0.010325253 -0.004589647 0.08194867 -0.20301074
-0.17614055 -0.13961439 -0.13781445 -0.2540334 0.16172996 0.05194828 -0.22957489 -0.18005867
-0.08301245 -0.08083445 0.20252553 -0.010142326 0.17350924 0.23864377 0.20716983 0.16554573
0.29652745 -0.28171727 0.16309386 -0.21618904 -0.0039594173 0.08008951 0.0039060414 -0.06490941
-0.017599732 -0.07235347 -0.24125311 -0.2619691 -0.28620362 -0.12328221 0.17632496 -0.090749025
-0.09315182 -0.19689718 0.22206259 -0.23715389 0.16984257 0.12093866 -0.24073032 -0.2539663
0.037185367 0.1610183 0.14297923 -0.0817865 -0.15640095 0.15097933 0.06401065 -0.028676447
-0.16305433 0.031567503 -0.22431394 -0.089367546 -0.104142115 0.05501562 -0.0028943794 -0.1615902
-0.1692827 -0.22977449 0.21595775 -0.07040199 0.18948816 0.11300579 -0.021348706 -0.084508285
-0.13961203 -0.12603638 -0.10157325 -0.24793723 -0.19200781 0.03790317 -0.23772003 0.28181145
0.2274548 -0.021696892 -0.0062771155 0.12553398 0.17497319 -0.29155928 -0.16695021 0.23296428
0.19425176 -0.29198372 0.10139559 0.060479574 -0.13994482 -0.2935066 -0.23771012 -0.16300723
0.09599792 -0.24770978 -0.15687314 -0.11158539 -0.04680246 -0.117285974 -0.16725148 0.09761375
0.107141554 0.21671003 0.258565 0.012454028 0.0071222093 0.15501058 0.07926708 -0.08748164

fc2._model.0.bias f4 [20]
00000000: 0000 0000 6b8d 022d 6dc1 0b38 0000 0000
00000010: 3bc1 0bb8 0939 97b5 0000 0000 51d2 de39
00000020: 0000 0000 f171 1d12 d3f8 b338 60f8 b3b8
00000030: 0000 0000 768b afaf 0000 0000 0000 0000
00000040: 0000 0000 40a5 deb9 a7fd 262e c537 1f9e
0.0 7.4210455e-12 3.3320324e-05 0.0 -3.3320142e-05 -1.1266976e-06 0.0 0.00042499838
0.0 4.968091e-28 8.581732e-05 -8.5816486e-05 0.0 -3.1931408e-10 0.0 0.0
0.0 -0.0004246626 3.796932e-11 -8.428923e-21

fc3._model.0.weight f4 [64, 48]
00000000: 04fe babd 9eb3 ea3d 13dd 2f3e 8145 04be
00000010: c2d7 473e 15cb 58be 5cb2 473d c02d 4b3e
00000020: 7c58 61bc a7fc 383e e1f1 d93d cd59 2dbe
00000030: 1339 14be 355f 1ebe 6400 16be 82fb 80bd
00000040: 7d9c 0bbe 90a6 8aba f8ca 543e ef5c 35be
00000050: 8cff 3cbe 29dd ccbd 2532 c3bd d40d 073c
00000060: 9714 64be 4abf 19be d255 39be eab5 573e
00000070: f12d bdbd c0f0 67be fd11 85bc 2064 51be
00000080: 2c61 693e 7f3e 283e 86e1 41be 9e6b 633d
00000090: b4ca 103e 0056 633d ecd4 0f3d 042c 703d
000000a0: 495f 593c 4254 fd3d ad02 8dbd 22dc 6c3e
000000b0: ede8 29be 1441 d43c 2a48 ca3d 62da 323e
000000c0: 540c c2bd f351 88bd dcfc 2a3e 37f3 33be
000000d0: 6390 03be 5e61 62be cea3 cdbd 678d a1bd
000000e0: 2f90 44ba 6432 34be d182 e93d 2708 1e3c
000000f0: cada 62be 661c e6bb 9577 613c 6767 49bb
00000100: a8e6 73bc d7bd 18bd 5372 35be 3520 343e
00000110: ad92 afbd 9d31 3b3d c465 56be ad3e 09be
00000120: a2c0 05bc 7460 513e a4f3 593e 0bfe b23c
00000130: e7ef 07be 72d2 13b8 4880 643e 5194 673e
00000140: ee4c ca3a 3593 bb3c 18a4 8fbd 3f29 e4bc
00000150: 0807 a5bc 4954 0e3e 1fa3 1a3e fc2d 23be
00000160: e6c5 283e 7f85 4abe afb6 643c 2c7a 073d
00000170: a0af 503c a0c9 3c3e 0a01 063c bfbf 4dbe
00000180: d387 acbd 0d6d 333e 0eba 49be a1eb 85bd
00000190: 390b 783e 4c60 d8bd 13a3 35be c690 e53d
000001a0: bdd7 063d 0d93 313c 9e0e 973c 007a 33be
000001b0: 151a 1aba 43a2 283c e37c 88bd c683 6a3e
000001c0: cfcd 5c3e eed8 4e3b 7ecf 0bbe 6eac 313e
000001d0: 121d 1a3e aaae 0dbd 8a12 41bd 7259 873d
000001e0: ca27 0bbd b805 503e 73cc ab3d e075 1abc
000001f0: f69d adbd 8772 2c3e 89c4 5dbe 7d7f 2ebe
00000200: 3939 de3d 145e df3d 47e3 ea3d a939 5b3e
00000210: 4108 99bd b17b 8f3d f42e a73d 0bfc 953d
00000220: 9633 1fbe dafb 1abd 7f31 233e dc99 d8bd
00000230: 2a6a 60be 4d60 353e 0feb 2c3c d6bb 37be
00000240: 5a48 543e ac58 443e efae b3bd c8a2 b63d
00000250: 98af 2a3d a6cb a73d 4941 56bd d751 08be
00000260: 9d17 2c3d 283c 113e 43c3 73bc 07e2 f6bd
00000270: fbe1 c23d e885 d03d 9817 03be 0af0 f43c
00000280: 8dcf 543e a4f3 533e fda2 963c cdc2 5b3d
00000290: dd30 e7bd 6eab 123d 1633 36bc 89a9 fabd
000002a0: 3d9b 24be 22de 213d aebb 40be daeb 5d3d
000002b0: e62f 843d bc37 4dbe aeed 71bd b19e 24be
000002c0: db5c 653e 52c3 263d a9d4 1abe 9eff 013e
000002d0: 51c8 403e cedc 29be 3dfb babd 93d3 cbbc
000002e0: 0e2f 443e bd7d 00be 8685 03be e0e5 92bd
000002f0: e222 4abe 6d53 8ebd 869c 833d 2843 a93d
00000300: 91a2 543e b573 c03d b667 41be 9378 66be
00000310: c6f4 13be 5a8f 5ebc cb28 3fbe 8eb9 37be
00000320: daf7 f6bd fec7 4ebc bd68 43be 5c5d 44be
00000330: 09cf 09be 21a0 45be a732 273c 25a2 a7bd
00000340: 80d9 4abd bb94 b5bc 8d53 fdbd b756 273d
00000350: a01c 0a3c f08b 653e fac6 d1bc 6ad9 dfbd
00000360: e416 c1bd d13e fcbd 13e6 333e 4ee9 fabd
00000370: a770 ea3d 29bc 12bd e984 313d 975d dc3c
00000380: ec4a 16be e6f0 05ba f028 243e e8fc 173e
00000390: f23d 66be 9f8d 69be 20b0 063c bb2c 403e
000003a0: 4f8c 333e df36 30be 3d75 d1bd b4fd f6bc
000003b0: b060 0b3e 4620 533e 1e4e c5bd ec5b 063e
000003c0: ff3b e3bd abca c0bc 2d7d f7bd dafc 8cbd
000003d0: e4a7 e83d 0cde ee3d 89e3 d63d 167d aebd
000003e0: 5cfd e03d 30cb 393e 87e7 01be 3871 50bd
000003f0: dc03 1f3d 7041 e93d 1732 5bbd ef31 283d
-0.09130481 0.114600405 0.17174177 -0.12917139 0.19515899 -0.2117122 0.04875408 0.19841671
-0.0137540065 0.18065129 0.10641838 -0.16928788 -0.14474897 -0.15466006 -0.14648587 -0.06297971
-0.13633914 -0.0010578204 0.20780551 -0.17711233 -0.18456858 -0.100031205 -0.09531049 0.008243043
-0.2227348 -0.15014377 -0.18099144 0.21065488 -0.09237278 -0.22650433 -0.016243929 -0.20448351
0.22790974 0.1643009 -0.18933687 0.055522554 0.14139825 0.055501938 0.035115167 0.058635727
0.013267347 0.123695865 -0.06885276 0.23130849 -0.1659276 0.025909938 0.098770455 0.17466119
-0.09475008 -0.066562556 0.1669802 -0.17573248 -0.12848048 -0.22107455 -0.10041009 -0.078882985
-0.00074982917 -0.17597347 0.114019044 0.009645498 -0.22153774 -0.0070224283 0.013761421 -0.0030731799
-0.014886536 -0.03729042 -0.17719392 0.17590411 -0.08572898 0.04570161 -0.20937258 -0.13402815
-0.008163603 0.2044695 0.21284348 0.021849653 -0.13275109 -3.5243524e-05 0.2231456 0.22615172
0.0015434304 0.022897342 -0.0701372 -0.027851699 -0.020144954 0.1389934 0.15101288 -0.1593551
0.16481742 -0.19777487 0.013959571 0.033075497 0.012737185 0.18436289 0.008178959 -0.20092677
-0.08424344 0.17522068 -0.1969988 -0.06539083 0.24223031 -0.10565242 -0.17737989 0.11209254
0.032920588 0.010838282 0.018439587 -0.17527008 -0.00058785203 0.010292592 -0.06664445 0.2290183
0.21562885 0.0031562406 -0.1365337 0.17350933 0.15050152 -0.0345904 -0.04713682 0.06608857
-0.033973493 0.20314682 0.08388605 -0.009427518 -0.08477394 0.16840564 -0.21657003 -0.1704082
0.10850758 0.10906616 0.11469131 0.21408714 -0.074722774 0.07006014 0.081632525 0.07323464
-0.15547022 -0.03783784 0.1593685 -0.10576221 -0.21915498 0.17712517 0.010554089 -0.17942747
0.20730725 0.1917445 -0.087736 0.08917767 0.041671365 0.0819314 -0.052308355 -0.1331247
0.042014707 0.14183104 -0.014878097 -0.1205483 0.095157586 0.101817906 -0.12801969 0.029899616
0.207823 0.2069841 0.018388266 0.053652573 -0.11288617 0.03580802 -0.011120578 -0.122393675
-0.16074844 0.039518483 -0.18821594 0.054180004 0.064544484 -0.20040792 -0.05906456 -0.16076161
0.22398703 0.040713616 -0.15120186 0.12695166 0.18826415 -0.16588137 -0.09129951 -0.02488116
0.19158575 -0.12547965 -0.12843904 -0.071727514 -0.19739869 -0.06949506 0.06426339 0.08264762
0.20765139 0.09397069 -0.18887219 -0.22506933 -0.14448842 -0.013583982 -0.18667905 -0.17941877
-0.12058993 -0.012620924 -0.19082923 -0.19176239 -0.13457884 -0.19299366 0.010204948 -0.081852235
-0.04952383 -0.022165647 -0.12369452 0.040854182 0.008429676 0.22416663 -0.025607575 -0.1093014
-0.09428194 -0.12316669 0.17568235 -0.122515306 0.11447268 -0.035823975 0.043339644 0.026900096
-0.14677018 -0.0005109444 0.16031241 0.1484257 -0.22484568 -0.2280793 0.008220702 0.18767063
0.17533992 -0.17208432 -0.102274396 -0.030150272 0.13611102 0.2061778 -0.0963404 0.13121003
-0.11095428 -0.02353414 -0.12084422 -0.06884165 0.113601476 0.11663446 0.10492618 -0.08519952
0.109858245 0.18143916 -0.12685977 -0.050889224 0.03882204 0.11389434 -0.053514566 0.041063245

fc3._model.0.bias f4 [64]
00000000: 8486 e83b 60a0 e93b 033f e93b 76fb e7bb
00000010: 8845 ea3b 6f61 e93b 3491 dd3b 125b ea3b
00000020: ff82 e9bb 580c ea3b 4fbe e9bb 3739 eb3b
00000030: 0499 e93b 24f1 eabb 89ea e9bb 60ae eabb
00000040: b99e e8bb 5395 eabb 6874 e9bb 4696 eabb
00000050: 1b2e ea3b 1f44 e93b 6f72 e93b 3310 eabb
00000060: 7e01 e83b d7a5 e6bb b3aa e93b 3d60 e9bb
00000070: 5ec3 e8bb 9f86 e9bb eba9 e93b 61ca e83b
00000080: edd0 e83b b378 e93b cb0c ebbb ac7a e93b
00000090: e614 e93b a000 ea3b f865 e93b 7196 e93b
000000a0: 92cf e9bb 9383 eabb fff8 e93b 7b80 9f3b
000000b0: 1290 e93b d45f e8bb edfc e9bb c32e e83b
000000c0: f3d6 e83b 79fc e9bb 744a ea3b a28f e83b
000000d0: 133c eabb 524d e9bb f9b4 dcbb 28b1 e83b
000000e0: 551d e8bb 49ce e93b 8a47 e9bb a375 e93b
000000f0: b009 e93b 7521 ecbb 26ca e7bb 9665 e93b
0.0070961136 0.007129714 0.0071181073 -0.007079537 0.007149402 0.0071222107 0.0067616943 0.0071519697
-0.0071262117 0.007142585 -0.0071332823 0.0071784514 0.0071288366 -0.0071698595 -0.0071385545 -0.0071619004
-0.0070989993 -0.007158914 -0.0071244724 -0.0071590273 0.0071466095 0.0071187164 0.0071242373 -0.0071430444
0.007080256 -0.0070388126 0.0071309446 -0.007122068 -0.0071033677 -0.007126644 0.0071308515 0.0071042036
0.007104984 0.007124984 -0.007173156 0.0071252193 0.007113087 0.007141188 0.0071227513 0.0071285297
-0.00713534 -0.007156798 0.0071402784 0.004867611 0.00712777 -0.0070915017 -0.007140747 0.0070856526
0.007105702 -0.007140693 0.007149989 0.0070972005 -0.0071482747 -0.007119813 -0.006735441 0.007101197
-0.007083575 0.007135187 -0.007119124 0.007124619 0.0071117505 -0.007206137 -0.0070736585 0.0071227057

fc4._model.0.weight f4 [1, 64]
00000000: 84d8 0d3c edc0 683e c17f 833e 9e48 e3bd
00000010: 6867 7f3d 8bdf 943e f332 833c 77c0 213e
00000020: 8cf3 1ebe 2bf4 e93d 26cc 55be fee0 b43c
00000030: f1a2 8b3e 3bbd 83bc 4305 8dbe bddd 87bd
00000040: c4dd edbd 0246 33bd 0130 85be 139f 98bd
00000050: a0ba 8d3e 50f9 6d3e 9c5f 853e 50e6 97be
00000060: 33d9 d63d 8fbe 6ebd 5a13 9f3c dc1c 52bc
00000070: bbdc abbd fb4d 82be 5ce6 8e3e 81eb cb3d
00000080: 091b b03d 2173 923e 5c4c 14bc 3812 343e
00000090: f95f 993d 8589 443e a2ef 283e 7239 963e
000000a0: 93ed 57be 0ade 05bd d72a 593e efc2 213b
000000b0: ce83 183e fa25 84bd 8d36 74be fc56 c03d
000000c0: 0dc6 3a3e b459 5fbe 87b0 333e 95a8 a53d
000000d0: 4733 88be b10f 6dbe e136 f5bb 63ce 003e
000000e0: 3e56 59bd f3ca 6b3e c223 88be 1355 a43d
000000f0: 90d4 a03d c09d 4dbc ad5e afbd 373f 823e
0.008657578 0.22729845 0.25683406 -0.11097835 0.062354475 0.290768 0.016015505 0.15796076
-0.15522593 0.114235245 -0.20878658 0.02207994 0.27272752 -0.016081443 -0.27543077 -0.0663409
-0.11614564 -0.043767937 -0.26013187 -0.07452216 0.27681446 0.23239636 0.26049507 -0.29667902
0.10490646 -0.0582872 0.019418407 -0.012824263 -0.0839171 -0.2545012 0.27910125 0.09957028
0.085989065 0.2860346 -0.009051409 0.17585075 0.074890085 0.19193085 0.16497663 0.29340702
-0.21086721 -0.032682456 0.21207748 0.002468284 0.1489403 -0.06452556 -0.23848934 0.09391591
0.18239613 -0.21811563 0.17547809 0.08088795 -0.26601622 -0.23150517 -0.0074833487 0.1257873
-0.053060763 0.23026638 -0.2658978 0.08024039 0.07853043 -0.012549818 -0.0856298 0.25438854
