example/cloudManufacturing_network/rl/phase/ckpts/policy-model-weight-array.global-step-7800.pth (torch, 33901 bytes, 7 tensors)

fc1._model.0.weight f4 [24, 141]
0	0x3e19ce0d	0.15020008
1	0xbe0cae25	-0.13738306
2	0x3e1b967b	0.15194122
3	0xbdbce306	-0.09222989
4	0x3d2bc7a0	0.041938424
5	0x3e3dd040	0.18536472
6	0x3e370c8f	0.17875884
7	0xbc7af128	-0.015316285
8	0x3d47df95	0.04879721
9	0x3d40a7fb	0.0470352
10	0xbe366db0	-0.1781528
11	0x3c78dc0c	0.015189182
12	0xbe2091ae	-0.15680572
13	0x3e3e22b9	0.18567933
14	0xbde678c4	-0.11253503
15	0x3e134a15	0.14383729
16	0xbdc6e818	-0.09712237
17	0x3d763c48	0.060116082
18	0x3d28c044	0.041198984
19	0x3df62685	0.12019066
20	0xbd52a97f	-0.051431175
21	0xbdf36492	-0.11884417
22	0x3e152b8a	0.1456739
23	0xbc50ee97	-0.012752197
24	0x3e4315d9	0.19051303
25	0xbd907de4	-0.07055262
26	0x3e3b1b9b	0.1827225
27	0xbb513e2e	-0.003192793
28	0x3e390730	0.18069148
29	0x3e0075ea	0.1254498
30	0x3dd4fa04	0.10399249
31	0xbd778905	-0.060433406
32	0x3df24ec5	0.1183143
33	0x3e174640	0.14772892
34	0x3e31a036	0.17346272
35	0x3dc89439	0.09793896
36	0xbdff88e3	-0.12477281
37	0x3e228ae2	0.15873292
38	0x3e36e0fb	0.1785926
39	0xbe31a6ec	-0.17348832
40	0xbd5dfe13	-0.054197382
41	0xbe0edf9e	-0.1395249
42	0x3d11f510	0.0356341
43	0xbe3a746f	-0.18208478
44	0x3e096227	0.13416348
45	0x3bd39817	0.0064573395
46	0xbda5594a	-0.08073671
47	0x3dc7daa8	0.09758502
48	0xbbfe2c93	-0.0077567785
49	0x3d1952db	0.037432533
50	0xbca0748b	-0.019586822
51	0xbd1ae2c5	-0.03781392
52	0x3e2951c4	0.16535097
53	0x3e0986f0	0.13430381
54	0x3dc2ab03	0.09505274
55	0xbdda8eda	-0.10671778
56	0xbe11123d	-0.14167114
57	0xbe15ec78	-0.14640987
58	0x3e06ac70	0.13151717
59	0xbe0bea85	-0.13663681
60	0x3cbdcfe4	0.023170419
61	0x3c3f0626	0.011659181
62	0x3e01a11c	0.12659115
63	0x3e0558d5	0.13022168
64	0x3e208aa7	0.15677892
65	0x3e02d6e9	0.12777294
66	0x3e409011	0.18804957
67	0xbe08c235	-0.13355334
68	0x3a5a5679	0.00083289255
69	0xbd982e1a	-0.07430668
70	0x3d682d84	0.056684032
71	0x3c032d3c	0.00800639
72	0x3d07d24e	0.033159547
73	0x3dddc643	0.10828831
74	0x3d7f17a6	0.062278412
75	0xbcd05b99	-0.025434302
76	0xbd461bba	-0.048366286
77	0x3e2ace40	0.1668024
78	0x3b40eeb4	0.0029439153
79	0x3d23e64e	0.040014558
80	0x3e0eba57	0.1393827
81	0x3e2f0db5	0.17095073
82	0x3e034e6b	0.12822883
83	0xbe1cba22	-0.15305379
84	0x3e169af6	0.1470755
85	0xbda26ff8	-0.079315126
86	0x3d28eb5f	0.041240092
87	0xbd86133f	-0.0654664
88	0x39efdef1	0.00045751737
89	0xbd07774f	-0.033072766
90	0x3dcc5df5	0.099788584
91	0xbdbf2377	-0.09332936
92	0xbe407858	-0.18795907
93	0xbe3dde65	-0.18541868
94	0x3e37ba55	0.17942174
95	0xbdc677d1	-0.09690822
96	0x3d50fba3	0.05102123
97	0xbe416dff	-0.18889616
98	0x3e11042b	0.14161746
99	0xbda0f8c5	-0.07859949
100	0xbd639403	-0.055561077
101	0xbe2cf79a	-0.16891328
102	0xbe1244d2	-0.14284065
103	0x3d81c74c	0.06336841
104	0x3dd6c04b	0.10485896
105	0x3e3c7364	0.18403393
106	0x3e03ff13	0.12890272
107	0x3e038911	0.12845255
108	0xbcb80332	-0.022462461
109	0xbda9d006	-0.082916304
110	0xbe35c521	-0.1775098
111	0xbd8dcc2b	-0.069237076
112	0x3dccae59	0.09994192
113	0xbd78557a	-0.06062839
114	0x3e21d78f	0.15804885
115	0x3ceb3780	0.028712988
116	0xbe163911	-0.14670207
117	0x3d39d905	0.04537298
118	0x3e3570c0	0.17718792
119	0x3dfac7d4	0.122451454
120	0x3df531cd	0.11972389
121	0xbe143dc7	-0.14476691
122	0x3e1f8d27	0.15581189
123	0x3daae5e4	0.083446294
124	0xbd470ddb	-0.048597198
125	0xbc47cd43	-0.012194934
126	0x3a1415ac	0.00056489813
127	0x3d81316c	0.063082546
128	0x3dd9d91c	0.106371135
129	0xbda35304	-0.07974818
130	0x3e0affb9	0.13574113
131	0x3e33a4d2	0.17543343
132	0x3d606f9b	0.054793935
133	0xbd6b09bc	-0.05738233
134	0x3d578d87	0.052625205
135	0xbda7f0e1	-0.08200241
136	0xbd3c4e6d	-0.04597323
137	0xbc8404b8	-0.016115531
138	0xbda97a1c	-0.08275244
139	0xbdc1bb55	-0.09459559
140	0xbdd0acaf	-0.10189187
141	0xbdd6b38e	-0.10483466
142	0x3d381151	0.04493839
143	0xbd8344bb	-0.06409594
144	0x3e16eb0d	0.14738102
145	0x3dd45b1f	0.103689425
146	0xbe247b3b	-0.16062634
147	0xbe32fd4a	-0.17479435
148	0x3dbe6677	0.09296887
149	0xbd1c0f10	-0.038100302
150	0xbcd10718	-0.025516078
151	0x3d1095bd	0.03529905
152	0xbe1034d5	-0.14082654
153	0x3dffe7df	0.12495398
154	0xbe3799b2	-0.17929724
155	0xbdeb2df3	-0.114833735
156	0xbe19c859	-0.15017833
157	0xbe35a019	-0.17736854
158	0x3c5a4906	0.013323074
159	0x3d974ffe	0.07388304
160	0xbe210cf6	-0.157276
161	0xbd714f2c	-0.058913395
162	0xbe05bf7f	-0.13061331
163	0x3c043f36	0.008071711
164	0x3e323e2d	0.1740653
165	0x3d6414e0	0.05568397
166	0x3e10ed9b	0.1415314
167	0x3e37419c	0.17896122
168	0x3d40c95b	0.047067028
169	0x3d862712	0.06550421
170	0xbd83ba30	-0.06431997
171	0xbd649ce1	-0.055813674
172	0xbe2882f7	-0.16456209
173	0x3c0d2921	0.008615763
174	0x3d43c7d8	0.047798008
175	0xbcdc657f	-0.026903866
176	0xbd4ae962	-0.049538977
177	0x3c8b02a0	0.016969025
178	0xbdedb75d	-0.116072394
179	0x3e1b9463	0.15193324
180	0x3e2231b0	0.15839267
181	0x3d4f98e5	0.05068292
182	0x3e043f84	0.12914854
183	0xbe438bd1	-0.19096304
184	0xbcba32f4	-0.022729374
185	0x3d825f38	0.06365818
186	0xbe02a9a5	-0.12760027
187	0x3aea2a08	0.001786531
188	0xbe177706	-0.14791498
189	0xbddb30ab	-0.10702642
190	0xbd385fc5	-0.045013208
191	0xbd1965b8	-0.037450522
192	0xbdff09d0	-0.124530435
193	0x3b9772eb	0.0046218536
194	0x3c7a10ad	0.015262765
195	0xbc9b6db1	-0.018973203
196	0xbda8668f	-0.082226865
197	0x3e1ea55c	0.15492767
198	0x3e149e92	0.14513615
199	0x3e086a83	0.13321881
200	0xbdd3edfe	-0.10348128
201	0x3cd798d0	0.026317984
202	0x3dc542da	0.096318915
203	0xbdee9149	-0.11648805
204	0xbd521771	-0.051291887
205	0xbbb5fb96	-0.005553673
206	0x3e2314d0	0.15925908
207	0x3de006c6	0.10938792
208	0x3e0ed393	0.13947897
209	0xbe13f6ce	-0.14449617
210	0xbe1875aa	-0.14888635
211	0xbd7c8f49	-0.061660085
212	0x3e36366f	0.17794202
213	0x3c3ef9ad	0.011656207
214	0xbe0a9ba8	-0.1353594
215	0x3dfa9848	0.122360766
216	0xbd9a9f5e	-0.07549928
217	0xbdbef26b	-0.09323581
218	0xbccf0da0	-0.025275052
219	0x3e2b6cdd	0.16740747
220	0xbe2e7015	-0.17034943
221	0xbdde6050	-0.10858214
222	0xbe2b748d	-0.1674368
223	0xbde85895	-0.11345021
224	0xbc15bc62	-0.009139152
225	0xbd744c9e	-0.05964338
226	0xbdd22dac	-0.102626175
227	0xbd0b0f2f	-0.033950027
228	0x3db12cc1	0.08651114
229	0x3d7a8bdd	0.06116854
230	0x3cbeabf0	0.023275346
231	0xbdc2c550	-0.095102906
232	0x3cb2771c	0.021785311
233	0x3de0f3ed	0.10984025
234	0xbc479dbd	-0.012183604
235	0x3e1b0a31	0.15140606
236	0x3e374d4b	0.17900579
237	0x3ce9d585	0.028544197
238	0xbda4f182	-0.080538765
239	0xbe4328c4	-0.1905852
240	0x3d3e68a7	0.046486523
241	0xbde53918	-0.111925304
242	0x3e2b9715	0.16756852
243	0x3e2fa625	0.17153223
244	0x3c81eaca	0.015859026
245	0x3c70fd8f	0.014708891
246	0x3e3e00a1	0.18554927
247	0xbda8c4f0	-0.08240688
248	0xbdb24e33	-0.087063216
249	0x3da1f3ed	0.07907853
250	0xbdd20587	-0.102549605
251	0xbdc794af	-0.09745156
252	0x3e09a542	0.13441947
253	0xbdced1eb	-0.100986324
254	0xbe32c736	-0.17458805
255	0x3e068a5f	0.13138722

fc1._model.0.bias f4 [24]
0	0xbb15963d	-0.0022825145
1	0xbb1599ba	-0.0022827224
2	0x39cdd7e5	0.000392615
3	0xbb0fd659	-0.002194783
4	0xbb209f32	-0.002450895
5	0xbb0386e6	-0.002006942
6	0xbb28619f	-0.0025692952
7	0x39565580	0.00020440482
8	0xbb1b3443	-0.0023682273
9	0xbb144d62	-0.0022629132
10	0xbb06c313	-0.002056305
11	0xbb0c1e42	-0.002138034
12	0x3b0a4d51	0.0021103213
13	0x3b0c00a6	0.0021362691
14	0xba12bc21	-0.00055974914
15	0xbb2a2570	-0.0025962256
16	0x3afb66f9	0.0019180469
17	0xbaf524d5	-0.0018702993
18	0x3aaa8fc9	0.0013012822
19	0xbb13b5a0	-0.0022538677
20	0xbb21f056	-0.0024709902
21	0x3ac6c4e2	0.0015164877
22	0xbb29cf08	-0.0025910754
23	0x3aa0533f	0.001223184

fc2._model.0.weight f4 [20, 48]
0	0xbe82ad32	-0.25522763
1	0xbdf68d0f	-0.120386235
2	0xbcca5ee6	-0.024703454
3	0xbe9688fe	-0.29401392
4	0x3d229718	0.039694875
5	0xbe3ad780	-0.18246269
6	0xbdbfd653	-0.09367051
7	0x3df5556a	0.11979182
8	0x3e25b0fe	0.16180798
9	0x3e551cb4	0.2081173
10	0x3df61490	0.12015641
11	0xbe634602	-0.22194675
12	0x3d2f28a8	0.042763382
13	0x3e3b3e13	0.18285398
14	0x3e0b4d70	0.13603759
15	0xbc87bea6	-0.0165704
16	0x3d3c4ac3	0.045969736
17	0xbd4f4ba0	-0.05060923
18	0x3e5af17a	0.21381178
19	0x3ccf8bc6	0.025335204
20	0xbe6e93ef	-0.2329862
21	0xbe813b24	-0.25240433
22	0xbe722650	-0.23647428
23	0x3cd18191	0.025574477
24	0xbe34e101	-0.17663957
25	0x3d6ef6f2	0.058340974
26	0xbe577b3f	-0.21043108
27	0x3e164277	0.14673792
28	0x3e95d6a7	0.2926533
29	0xbe79376d	-0.2433755
30	0x3a90dd5d	0.00110523
31	0x3e831d10	0.2560811
32	0x3d698bc2	0.05701805
33	0xbe78ad2a	-0.24284807
34	0x3d93799d	0.0720093
35	0x3e4ec387	0.20191775
36	0x3e63d450	0.2224896
37	0x3e48ab24	0.19596535
38	0x3e4d807e	0.20068547
39	0x3e6ee8fc	0.23331064
40	0xbe6ed242	-0.23322394
41	0xbe52d813	-0.20590238
42	0x3e0d8c27	0.13822995
43	0xbe4fd5c0	-0.20296383
44	0xbe73e507	-0.23817836
45	0x3dfb1dfc	0.122615784
46	0x3db74bdd	0.08950017
47	0xbe903bf1	-0.28170732
48	0x3e26c2fb	0.16285317
49	0xbdff19c3	-0.124560855
50	0xbe8df27c	-0.27724063
51	0xbd8b4270	-0.06799781
52	0xbbd076fa	-0.0063618394
53	0xbe6e432d	-0.23267813
54	0x3dde42af	0.10852563
55	0x3b994c01	0.00467825
56	0x3d38589d	0.045006383
57	0xbe1d59dc	-0.1536631
58	0x3daf6fdf	0.085662596
59	0xbe48b50a	-0.19600311
60	0x3e27c45a	0.16383496
61	0x3d9aae95	0.0755283
62	0xbceb63d0	-0.028734118
63	0xbca9bd45	-0.020720134
64	0xbe7a7ed4	-0.24462444
65	0xbdfc8967	-0.12330895
66	0xbc8ef4d2	-0.017450724
67	0xbdaa0850	-0.08302367
68	0x3e812fdf	0.25231835
69	0x3d892f78	0.06698507
70	0x3e282b55	0.1642278
71	0xbd174e63	-0.03693999
72	0xbe2dc662	-0.16970208
73	0xbe70b7f4	-0.23507673
74	0xb92300c8	-0.00015545182
75	0xbdddfaee	-0.10838877
76	0xbcbb9408	-0.022897735
77	0x3e2c7854	0.16842777
78	0xbe3b6f8f	-0.18304275
79	0x3e758b02	0.23978809
80	0xbe610a9b	-0.21976702
81	0x3e8a6759	0.27031973
82	0x3e93c6a9	0.28862503
83	0xbe25de5c	-0.16198105
84	0xbe914b03	-0.28377542
85	0xbdfac75d	-0.12245057
86	0x3e1ca217	0.15296207
87	0x3c38d68f	0.0112816235
88	0xbdfa13be	-0.12210797
89	0xbd88edef	-0.06686007
90	0xbe38805c	-0.18017715
91	0xbe33b8c3	-0.1755095
92	0x3e475c75	0.19468863
93	0x3e7a19d3	0.24423914
94	0x3e778f6d	0.24175806
95	0x3e177494	0.14790565
96	0x3e235872	0.15951708
97	0x3e58d7bf	0.2117605
98	0xbe911c05	-0.2834169
99	0x3c2a1d5d	0.010382977
100	0xbe8e8f1a	-0.27843553
101	0xbe85cbff	-0.261322
102	0xbe28c3d6	-0.16480955
103	0x3e533866	0.20626983
104	0x3e828051	0.25488523
105	0xbe63b509	-0.22237028
106	0x3e8e320b	0.27772555
107	0xbe1e6f56	-0.15472159
108	0x3e05cd4f	0.130666
109	0x3d1cf5e3	0.038320433
110	0xbe2cda8e	-0.16880247
111	0xbdb3d095	-0.08780018
112	0xbc894e5d	-0.016761
113	0xbcd1dc2c	-0.025617681
114	0x3d3957ec	0.045249864
115	0x3e086e77	0.13323389
116	0x3c9ad2b1	0.018899294
117	0xbe567864	-0.20944363
118	0x3e71afb0	0.23602176
119	0xbe834068	-0.25635076
120	0x3b3f6bfd	0.0029208653
121	0x3e6013fc	0.21882623
122	0xbe817904	-0.2528764
123	0xbe5afb7c	-0.21384996
124	0xbcffffc4	-0.031249888
125	0xbe351449	-0.1768352
126	0x3e531912	0.20615032
127	0x3d9e0625	0.07716016
128	0xbdceccd4	-0.100976616
129	0xbe0b31ef	-0.13593267
130	0xbc8ffabd	-0.017575616
131	0xbdb2cfb6	-0.08731024
132	0xbde3f238	-0.11130184
133	0x3e6bee9b	0.2304024
134	0xbe3e2d28	-0.18571913
135	0xbdb32245	-0.08746771
136	0x3e7c987f	0.24667548
137	0xbe787602	-0.24263766
138	0xbd87aca5	-0.06624726
139	0x3e74884f	0.23880123
140	0xbd6398f0	-0.055565774
141	0x3e116db8	0.1420201
142	0x3deb1c35	0.114799894
143	0xbe19dc68	-0.15025485
144	0xbe723b4f	-0.23655437
145	0xbdd6029a	-0.10449715
146	0xbe046fd4	-0.12933284
147	0x3e90449f	0.28177354
148	0x3dc2ad24	0.0950568
149	0xbe133bc2	-0.14378265
150	0x3e5377c5	0.20651157
151	0xbd39cc91	-0.045361105
152	0xbe7d5671	-0.24740006
153	0xbd461a19	-0.048364732
154	0x3b619041	0.0034418257
155	0xbdfc7bc7	-0.12328296
156	0xbe82c97c	-0.25544345
157	0xbe903985	-0.28168884
158	0x3e8518a1	0.25995353
159	0xbdf073bf	-0.11740827
160	0xbe036458	-0.12831247
161	0x3a905dfa	0.0011014335
162	0x3d3a7648	0.045522958
163	0x3e5406ed	0.20705767
164	0x3d1c1632	0.038107105
165	0x3e8f4d4a	0.27988654
166	0x3e5f0a66	0.2178131
167	0xbdd9b977	-0.10631078
168	0x3e918f31	0.2842956
169	0xbd8ee42d	-0.06977115
170	0xbe66e926	-0.22549877
171	0x3dec1090	0.115265965
172	0xbde2b8b5	-0.11070386
173	0xbe6401d7	-0.22266327
174	0x3e7e1a78	0.24814785
175	0x3bf2f183	0.0074140443
176	0x3e34b7e6	0.17648277
177	0x3e4337b6	0.19064221
178	0xbe833e59	-0.25633505
179	0xbe79931e	-0.24372527
180	0x3e887f43	0.26659593
181	0x3e039637	0.12850271
182	0x3df4997d	0.11943338
183	0xbe9708fe	-0.29499048
184	0xbe124e00	-0.14287567
185	0xbd2c47f5	-0.04206081
186	0x3e391520	0.18074465
187	0x3e2153b4	0.15754586
188	0x3cbb413d	0.022858256
189	0xbe74b24a	-0.23896137
190	0xbce7fb64	-0.028318115
191	0x3d8c19a6	0.068408296
192	0xbe7b06ff	-0.24514388
193	0xbd1919e1	-0.037378196
194	0x3e54bf73	0.20776157
195	0x3e972db9	0.2952707
196	0x3e90aeaf	0.28258273
197	0x3d998e9e	0.07497905
198	0xbd0bc159	-0.034119938
199	0xbde83292	-0.113377705
200	0x3e83c28e	0.2573437
201	0xbe31a6d1	-0.17348792
202	0xbe2bfa9d	-0.1679482
203	0xbcd94304	-0.026521213
204	0x3e6ba81d	0.23013349
205	0xbddf73bf	-0.10910749
206	0x3e867a92	0.2626539
207	0xbe16865e	-0.14699695
208	0xbdf33cf7	-0.118768625
209	0x3e8268b8	0.2547052
210	0xbe00a1dd	-0.12561746
211	0x3e813182	0.25233084
212	0xbd1b44de	-0.037907474
213	0xbe1bdd8d	-0.15221234
214	0xbe84492c	-0.25837076
215	0x3e226f90	0.1586287
216	0x3e8994c8	0.26871324
217	0x3e1e0df8	0.15435016
218	0x3dce0842	0.10060169
219	0x3e784f05	0.24248894
220	0x3cdc175c	0.026866607
221	0x3e04ead9	0.12980212
222	0xbe12b339	-0.1432618
223	0xbe61b854	-0.22042972
224	0x3dae71c4	0.08517793
225	0xbe70ae1a	-0.23503914
226	0xbdf7d312	-0.12100805
227	0xbe227a25	-0.15866907
228	0x3e214c59	0.1575178
229	0x3e8b730e	0.27236217
230	0xbe269ad8	-0.16270006
231	0xbd0a89dd	-0.033822883
232	0x3e13cb0d	0.14432926
233	0x3e55c2df	0.20875119
234	0xbe145a30	-0.14487529
235	0x3b10571f	0.0022024584
236	0xbe0225e8	-0.12709773
237	0x3c8c7ab4	0.017148353
238	0xbe7bfe4e	-0.24608728
239	0x3e387fde	0.18017527
240	0xbe4ec49f	-0.20192192
241	0xbe83e991	-0.25764135
242	0xbe8eb1e9	-0.2787011
243	0x3dea4123	0.11438205
244	0xbe619fd8	-0.22033632
245	0xbe477f2d	-0.19482107
246	0xbe602ad7	-0.21891342
247	0x3e7aca18	0.24491155
248	0x3e636bd5	0.22209103
249	0x3e4fb4cd	0.20283814
250	0x3deb44e2	0.11487748
251	0x3def68ec	0.11689934
252	0xbe35fc19	-0.17771949
253	0xbdcf7bc0	-0.10131025
254	0x3e1f0c34	0.15531999
255	0x3dbed96f	0.09318816

fc2._model.0.bias f4 [20]
0	0xba003f3d	-0.0004892236
1	0x9b841ace	-2.185489e-22
2	0x00000000	0.0
3	0xb8cbb0b4	-9.712708e-05
4	0x00000000	0.0
5	0x00000000	0.0
6	0x39d1b795	0.00040000366
7	0x39877252	0.00025834382
8	0x365fd255	3.3352019e-06
9	0x00000000	0.0
10	0xba888db2	-0.0010418205
11	0xb691c5bb	-4.3443556e-06
12	0xb7e8eba5	-2.7766286e-05
13	0x3a196914	0.00058521447
14	0x00000000	0.0
15	0x1e5b9aef	1.1625803e-20
16	0xb81a039c	-3.6719823e-05
17	0x00000000	0.0
18	0x3a568326	0.0008182995
19	0x00000000	0.0

fc3._model.0.weight f4 [64, 48]
0	0x3cb86013	0.02250675
1	0x3d083718	0.033255666
2	0x3de5ab27	0.11214285
3	0x3d8bb288	0.068211615
4	0x3e5e6ea8	0.217219
5	0x3e33f5f4	0.17574292
6	0xbe242fda	-0.16033879
7	0xbd10744f	-0.03526717
8	0xbe0392cd	-0.12848969
9	0xbdc37d51	-0.095453866
10	0x3d66c241	0.0563376
11	0x3ca32913	0.019917047
12	0xbdc59a5e	-0.09648584
13	0xbdad842d	-0.08472476
14	0x3d2e2291	0.042513434
15	0xbe15c550	-0.1462605
16	0x3de0ffb5	0.10986272
17	0xbbb1480d	-0.0054102005
18	0x3d5828a2	0.052773125
19	0xbe40d914	-0.18832809
20	0x3da0533d	0.078283764
21	0x3e257ae7	0.16160165
22	0xbd9631c4	-0.07333711
23	0x3e351928	0.17685378
24	0xbb273d57	-0.002551874
25	0xbe2077b5	-0.15670665
26	0x3e289944	0.16464716
27	0xbdb1d2f3	-0.086828135
28	0x3d4b5ba4	0.049647942
29	0xbe069fd4	-0.13146907
30	0xbdebd622	-0.11515452
31	0x3e288c04	0.16459662
32	0x3e155736	0.1458405
33	0x3e3ed932	0.18637541
34	0x3d9d2404	0.07672885
35	0x3cd4cabb	0.025975576
36	0xbda5c4bc	-0.08094165
37	0x3e040884	0.12893873
38	0xbe011b60	-0.12608099
39	0x3d90deaa	0.0707372
40	0xbe4511a3	-0.19245009
41	0x3e47eb34	0.19523317
42	0xbdedc578	-0.1160993
43	0x3e3de426	0.18544063
44	0x3e61c9fc	0.22049707
45	0x3dc8ae6f	0.097988956
46	0xbe605b10	-0.21909738
47	0xbe677df2	-0.22606638
48	0xbdf8b5bd	-0.12144039
49	0xbe0482f9	-0.12940587
50	0xbe28fcd2	-0.16502693
51	0x3e45a1ef	0.19300054
52	0x3e1329a7	0.14371358
53	0x3d5d9741	0.054099325
54	0x3e2c13f1	0.16804482
55	0xbd840cc8	-0.0644775
56	0x3d5deafc	0.054179177
57	0xbe451fb4	-0.19250375
58	0x3dca9169	0.09891016
59	0xbdebdf16	-0.1151716
60	0xbe598128	-0.21240675
61	0xbe6e0583	-0.2324429
62	0xbe35af16	-0.17742571
63	0x3e1cc3a9	0.15309013
64	0x3c740e36	0.014895966
65	0x3d51ce59	0.05122218
66	0xbd0930c9	-0.03349379
67	0xbe22f4a4	-0.15913635
68	0xbdcbfae4	-0.09959963
69	0x3d0548ae	0.032540016
70	0x3de56b1b	0.11202069
71	0xbdc0c0df	-0.09411787
72	0x3e528ee7	0.20562325
73	0xbdab3fc4	-0.08361772
74	0x3e4017b7	0.18759046
75	0x3e6def63	0.2323585
76	0x3dbcf6b5	0.09226743
77	0xbe1c73fa	-0.15278617
78	0x3e167aa6	0.14695224
79	0xbb0a618a	-0.0021115267
80	0x3e3d3366	0.18476638
81	0xbd54bfae	-0.051940612
82	0xbde4162e	-0.11137043
83	0x3da265cf	0.07929575
84	0xbe29121d	-0.16510816
85	0x3e436ed7	0.19085251
86	0xbe380504	-0.17970663
87	0xbe09003c	-0.13378996
88	0xbe2ccbbc	-0.16874593
89	0xbe55b9fc	-0.20871729
90	0xbdf66d79	-0.12032599
91	0xbd04548d	-0.032307196
92	0x3dc7bc18	0.09752673
93	0xbde6822a	-0.112552956
94	0xbe5d558f	-0.2161467
95	0xbba8a280	-0.0051463246
96	0x3c92ec92	0.017935071
97	0x3e557840	0.20846653
98	0x3ddc6725	0.10761861
99	0x3da634bb	0.08115526
100	0xbdba728e	-0.09103881
101	0x3e1b8d89	0.1519071
102	0xbe5e7add	-0.21726556
103	0xbdc29b6b	-0.095023
104	0x3e35de72	0.17760637
105	0xbe1d3d0a	-0.15355316
106	0xbe136993	-0.14395742
107	0xbdbd84e2	-0.09253861
108	0xbd42c63a	-0.047552325
109	0x3d7ddec1	0.061980013
110	0x3d245799	0.040122602
111	0x3da1526f	0.07877051
112	0x3defd5dd	0.11710713
113	0x3e400193	0.187506
114	0xbbe00844	-0.006836923
115	0xbe2e21d1	-0.17005087
116	0x3d1bec11	0.038066927
117	0xbd987972	-0.07445039
118	0xbd9f4c08	-0.07778174
119	0xbdc715eb	-0.097209774
120	0xbb5a120f	-0.0033274924
121	0x3e64ba59	0.22336711
122	0x3ce38ae5	0.027776191
123	0x3e112887	0.14175616
124	0xbe3d8063	-0.18506007
125	0x3e69936b	0.22810142
126	0x3d8f9ee3	0.07012727
127	0x3e289b48	0.16465485
128	0xbc50955a	-0.012730921
129	0xbe61f438	-0.22065818
130	0xbe4744c4	-0.19459826
131	0x3e2a72ea	0.16645399
132	0xbe2889cc	-0.16458815
133	0x3d68238e	0.056674533
134	0xbd6c7846	-0.05773189
135	0x3e155e37	0.14586721
136	0x3e4044f1	0.18776299
137	0xbe0dd1fd	-0.13849635
138	0xbe5b26b0	-0.21401477
139	0xbdb9476d	-0.090468265
140	0xbe3fb7ae	-0.18722412
141	0xbd85aed4	-0.065274864
142	0x3e050b3f	0.12992571
143	0xbcca74d6	-0.024713915
144	0xbdf3e948	-0.11909729
145	0xbe0719df	-0.13193463
146	0xbe2c8400	-0.16847229
147	0x3cd5ed6b	0.026114186
148	0xbd885ea4	-0.06658676
149	0x3e4ff503	0.20308308
150	0xbd669055	-0.05628999
151	0x3e0c88de	0.13724086
152	0x3e22c1ef	0.15894292
153	0xbe59311c	-0.2121014
154	0x3de1592c	0.11003336
155	0x3d59cd4c	0.053174302
156	0xbca49aa3	-0.020093268
157	0xbd57a145	-0.052644033
158	0xbe65dbc9	-0.22447123
159	0x3ddceb9a	0.10787125
160	0x3e1aa9df	0.15103863
161	0xbdd941ef	-0.10608279
162	0xbc10c0c8	-0.008835025
163	0xbe32ec1c	-0.17472881
164	0xbe0166c8	-0.12636864
165	0xbe3ce489	-0.18446554
166	0x3e2b0919	0.16702689
167	0x3dcf846b	0.101326786
168	0x3d3e26fa	0.04642389
169	0xbdb3128b	-0.08743771
170	0xbe5f6488	-0.21815693
171	0x3c128759	0.008943402
172	0x3cb14941	0.021641375
173	0xbe63444c	-0.22194022
174	0x3e3860d8	0.18005693
175	0xbe462779	-0.19350995
176	0x3c2b2444	0.010445658
177	0x3db6de09	0.089290686
178	0x3d70c887	0.058784988
179	0xbe303297	-0.17206798
180	0x3de62e59	0.11239309
181	0x3e05462e	0.13015053
182	0xbd54598b	-0.051843207
183	0xbe46f595	-0.1942962
184	0x3dfbd46a	0.12296374
185	0x3d936d20	0.07198548
186	0xbe2037c1	-0.15646268
187	0x3c7604a5	0.015015756
188	0x3d7cd8c5	0.061730165
189	0x3cf7215a	0.03016727
190	0x3e3c16b2	0.18368033
191	0xbd704c9d	-0.058666814
192	0xbd80f12c	-0.06296
193	0x3e3fbacc	0.18723601
194	0xbe0645c6	-0.13112554
195	0x3e1895a4	0.14900833
196	0xbdf6d7ed	-0.12052903
197	0x3da81881	0.08207799
198	0xbe5655d7	-0.20931183
199	0x3b3e8a8d	0.0029074282
200	0x3d07b489	0.033131156
201	0x3e611230	0.21979594
202	0x3d975bb4	0.07390538
203	0xbe4dce2b	-0.20098178
204	0x3d18f69e	0.037344567
205	0xbd060905	-0.032723445
206	0xbe3b901c	-0.18316692
207	0xbded019b	-0.11572572
208	0x3dc02238	0.09381527
209	0x3db51eac	0.08843741
210	0xbe1effb1	-0.15527226
211	0x3e33e0a5	0.17566164
212	0xbdffb93f	-0.12486505
213	0xbe52d8f8	-0.2059058
214	0xbe18e9fb	-0.14933006
215	0x3cbb04a8	0.022829369
216	0x3da88f7e	0.08230494
217	0xbe6fd846	-0.23422346
218	0x3daa941f	0.08329033
219	0x3e34e13c	0.17664045
220	0x3e4f0ac1	0.20218946
221	0x3d860d27	0.06545477
222	0xbd5c142b	-0.05373017
223	0xbde7a556	-0.11310832
224	0xbe32d7ff	-0.17465208
225	0x3d7749b2	0.060373016
226	0x3d0d9160	0.03456247
227	0x3c26e0fb	0.010185475
228	0x3d98f1a2	0.07467963
229	0xbc49d590	-0.012318984
230	0x3e2895bc	0.16463369
231	0x3de8b037	0.11361735
232	0xbe6d3f5f	-0.23168705
233	0x3b0ada58	0.0021187272
234	0xbce5e321	-0.028062405
235	0x3e0b80f4	0.1362341
236	0xbe10005e	-0.1406264
237	0x3d29c854	0.041450813
238	0xbde8edcb	-0.113734804
239	0x3e0ec1a5	0.13941057
240	0xbd3fbeb4	-0.046812728
241	0x3de84647	0.11341529
242	0x3e425f16	0.18981585
243	0x3e2d7c3b	0.16941921
244	0xbdd195b2	-0.1023363
245	0x3e695de5	0.22789724
246	0x3d99d300	0.07510948
247	0x3e1bc4a8	0.15211737
248	0xbe36691d	-0.17813535
249	0xbe1044be	-0.14088723
250	0x3e6bea66	0.23038635
251	0x3e3c662c	0.1839835
252	0xbdba0374	-0.0908269
253	0x3e10e83c	0.1415109
254	0x3e5da7f5	0.21646102
255	0xbdbbe953	-0.091753624

fc3._model.0.bias f4 [64]
0	0xbb5095d3	-0.0031827583
1	0x3b557019	0.0032568036
2	0xbb55af7e	-0.0032605822
3	0x3b5519b6	0.0032516546
4	0xbb54f8da	-0.003249696
5	0x3b54f689	0.003249558
6	0xbb558e5f	-0.003258608
7	0xbb5213ff	-0.0032055376
8	0x3b55b21f	0.003260739
9	0x3b55986f	0.0032592078
10	0x3b55c3e6	0.0032617985
11	0x3b563a05	0.003268839
12	0x3b54dc9e	0.003248013
13	0xbb5508bd	-0.003250643
14	0x3b5569aa	0.0032564201
15	0xbb554e54	-0.0032547908
16	0xbb553e6e	-0.0032538432
17	0xbb55dec3	-0.0032633997
18	0x3b57c1b7	0.003292186
19	0x3b555c21	0.0032556134
20	0x3b5538d9	0.0032535105
21	0xbb55994a	-0.0032592588
22	0x3b57a2b5	0.0032903377
23	0x3b5495c8	0.003243791
24	0xbb55e7ac	-0.0032639308
25	0xbb552643	-0.0032524026
26	0x3b55c5f3	0.0032619208
27	0xbb566536	-0.0032714135
28	0x3b5559b8	0.0032554697
29	0x3b548ace	0.0032431367
30	0x3b55b04f	0.0032606309
31	0x3b556acd	0.003256488
32	0x3b5684b2	0.00327329
33	0xbb555218	-0.0032550152
34	0x3b552bc7	0.0032527314
35	0xbb5517df	-0.003251545
36	0x3b55457b	0.0032542634
37	0xbb554763	-0.003254377
38	0x3b554b5b	0.0032546136
39	0x3b555a40	0.0032555014
40	0x3b55f3ca	0.003264653
41	0x3b55b3bb	0.0032608348
42	0xbb555b86	-0.0032555773
43	0x3b555707	0.0032553093
44	0xbb567832	-0.003272545
45	0x3b55ad6f	0.0032604595
46	0x3b551327	0.0032512636
47	0x3b5576a6	0.003257194
48	0xbb555077	-0.0032549181
49	0x3b5544c4	0.0032542208
50	0x3b5554a7	0.0032551677
51	0x3b55d056	0.0032625399
52	0xbb55b422	-0.0032608588
53	0x3b55b476	0.0032608784
54	0x3b552cf0	0.0032528006
55	0x3b53a3d6	0.0032293699
56	0xbb55cd2f	-0.003262352
57	0xbb555927	-0.003255436
58	0xbb556cbc	-0.0032566031
59	0xbb55f81e	-0.003264911
60	0xbb554d1e	-0.0032547186
61	0x3b54dd57	0.0032480562
62	0x3b5558e5	0.0032554206
63	0xbb555ae8	-0.0032555405

fc4._model.0.weight f4 [1, 64]
0	0xbc5c5281	-0.013447405
1	0x3e99c7d8	0.3003528
2	0xbe8081d4	-0.2509905
3	0x3e241b11	0.1602595
4	0xbe024c63	-0.12724452
5	0x3de0d309	0.10977752
6	0xbe0b36bc	-0.13595098
7	0xbc8772a0	-0.01653415
8	0x3dffe353	0.124945305
9	0x3e364bec	0.178024
10	0x3e81d29c	0.25355995
11	0x3d870f0d	0.065946676
12	0x3df138de	0.11778425
13	0xbe21af62	-0.1578956
14	0x3e55c4dd	0.20875879
15	0xbe4af149	-0.19818605
16	0xbe7ba178	-0.24573314
17	0xbe4104f2	-0.18849543
18	0x3ba9da2b	0.0051834784
19	0x3e88488d	0.26617852
20	0x3e2407b8	0.1601857
21	0xbe4533b5	-0.19258006
22	0x3cea840c	0.028627418
23	0x3d8a622b	0.06757005
24	0xbe2ae206	-0.16687784
25	0xbe1b3e7b	-0.15160553
26	0x3e65a6db	0.22426932
27	0xbd3f4c32	-0.046703525
28	0x3e66f082	0.22552684
29	0x3d9286b6	0.071546
30	0x3e99649d	0.29959574
31	0x3e12f447	0.14350997
32	0x3d81c6ab	0.06336721
33	0xbe832109	-0.2561114
34	0x3e4a366d	0.19747324
35	0xbe1fab8a	-0.1559278
36	0x3e8a2a72	0.26985508
37	0xbe5c9ecb	-0.2154495
38	0x3e822481	0.25418475
39	0x3e53f386	0.20698366
40	0x3d161722	0.036643155
41	0x3e19321f	0.14960526
42	0xbe256f17	-0.16155659
43	0x3e4ed6ce	0.20199129
44	0xbd08675d	-0.0333017
45	0x3e28df77	0.16491495
46	0x3e1cd77b	0.15316574
47	0x3e6abb6b	0.22923057
48	0xbe97cafb	-0.2964705
49	0x3e20a861	0.15689231
50	0x3e9627ca	0.29327232
51	0x3e7958ee	0.2435033
52	0xbe875514	-0.26432097
53	0x3e706907	0.23477565
54	0x3e4955e7	0.19661675
55	0x3d223f99	0.039611433
56	0xbe72653d	-0.23671432
57	0xbe34a355	-0.17640431
58	0xbe99a523	-0.30008802
59	0xbe0225d3	-0.12709741
60	0xbe2b97db	-0.16757147
61	0x3db50287	0.08838373
62	0x3e7e394e	0.24826548
63	0xbe8e5e02	-0.27806097
