example/cloudManufacturing_network/rl/phase/ckpts/policy-model-weight-array.global-step-11400.pth (torch, 33911 bytes, 7 tensors)

fc1._model.0.weight f4 [24, 141]
00000000: 2d64 193e e22c 0dbe 152b 1b3e 9751 bebd
00000010: 10aa 293d 15a5 3d3e 72b9 363e 0843 7dbc
00000020: 33e5 453d 43f3 3e3d 2110 36be afcb 763c
00000030: 9710 21be 98bd 3d3e f10c e7bd 75d3 123e
00000040: 2c75 c7bd 2ea4 7c3d def6 273d 9a5c f53d
00000050: d942 54bd e313 f4bd 82c5 143e 9716 58bc
00000060: 93f6 433e 7ff0 90bd 8cd2 3a3e 9948 65bb
00000070: 719b 383e c538 003e 4376 d43d bb32 79bd
00000080: 5a0f f23d a31b 173e f5d4 313e 5512 c83d
00000090: a529 00be 180b 223e f047 383e 4cfc 31be
000000a0: 65be 5ebd 880d 0fbe 1551 113d 7b2c 3bbe
000000b0: bbb2 083e 44de a83b 4cd0 a6bd c226 c73d
000000c0: 71a3 04bc 983e 173d 559d aabc 6a41 20bd
000000d0: 87f4 273e 84b7 083e a489 c03d 23c4 dcbd
000000e0: c40d 12be f620 17be 4098 053e 829c 0cbe
000000f0: 7cca b43c e81b 313c 604e 013e 4893 043e
00000100: d8a5 1f3e 03d6 013e 34dc 3f3e 1fa0 09be
00000110: 4285 013a 4d3d 99bd 6325 653d 18bc e83b
00000120: 6618 043d 3852 dc3d 3dd8 7c3d f25c d4bc
00000130: 0e16 46bd 0bf8 293e 1a09 133b 891e 213d
00000140: 15e4 0d3e 3393 2e3e 8565 023e f330 1dbe
00000150: 191e 163e 47a9 a2bd db79 283d 3c58 86bd
00000160: 380f 063a 0919 08bd f55d cc3d 5f5d bfbd
00000170: ca92 40be d7f8 3dbe e39f 373e e0ac c6bd
00000180: ee91 503d ff6d 41be 2b04 113e a52d a1bd
00000190: d2fd 63bd 0c12 2dbe 5a5f 12be 2192 813d
000001a0: f58b d63d f258 3c3e a1e4 033e 9f6e 033e
000001b0: d2d6 b8bc 0305 aabd c2df 35be 2bcc 8dbd
000001c0: 59ae cc3d 7a55 78bd 8fd7 213e 8037 eb3c
000001d0: 1139 16be 05d9 393d c070 353e d4c7 fa3d
000001e0: cd31 f53d c73d 14be 278d 1f3e e4e5 aa3d
000001f0: db0d 47bd 43cd 47bc ac15 143a 6c31 813d
00000200: 1cd9 d93d 0453 a3bd b9ff 0a3e d2a4 333e
00000210: 9b6f 603d bc09 6bbd 878d 573d e1f0 a7bd
00000220: 6d4e 3cbd b804 84bc 1c7a a9bd 55bb c1bd
00000230: afac d0bd e7c3 d6bd 3704 383d 2b33 83bd
00000240: 2bb6 173e fc60 d43d 5e7c 24be 1884 32be
00000250: b51c be3d 351c 1cbd a35a d1bc 6ab0 0d3d
00000260: 4ab5 10be 0d92 ff3d c77d 37be 5aae ebbd
00000270: c2d8 19be d8ec 35be dd63 423c 53b4 963d
00000280: a832 21be c53e 72bd b3f4 05be 3582 023c
00000290: 872f 323e 681b 603d f59f 103e c134 373e
000002a0: b50b 413d 8e74 863d 9ec2 83bd b68b 64bd
000002b0: 496a 28be b58e 0a3c 3dfd 423d 5143 e0bc
000002c0: c541 4abd 4095 8c3c 6d03 edbd 156a 1a3e
000002d0: 8228 223e af6e 513d 8388 043e 688d 43be
000002e0: 7414 b3bc de05 843d 3c76 01be c8cc 283b
000002f0: 44f1 16be 31f1 d9bd 0b2f 35bd 22c6 14bd
00000300: d6a7 fcbd d751 bd3b b6de 843c bae3 90bc
00000310: 51d8 a6bd fcb6 1f3e 3772 153e 3324 093e
00000320: 5f29 d3bd 0fbd dc3c f9cb c53d 202b eebd
00000330: 9988 51bd 5f5c 99bb 1802 243e 0aa3 e13d
00000340: 9d9e 0f3e b409 13be f2bd 17be 0506 7abd
00000350: 9e16 373e db9a 4c3c 65f2 09be 54de fb3d
00000360: 3823 99bd 5147 bdbd 02b0 c7bc 990a 2c3e
00000370: 85d8 2dbe 96ee dcbd d21f 2bbe 4c8c e6bd
00000380: 13a1 0ebc 97d9 72bd 41f3 d1bd 899a 0abd
00000390: b072 b13d df56 7a3d 58f5 bf3c 50c5 c2bd
000003a0: dc94 b33c c928 e13d abf6 45bc a324 1b3e
000003b0: ca67 373e cda8 ea3c 82f1 a4bd c428 43be
000003c0: 64d2 3e3d 3304 e5bd 87b1 2b3e a2c0 2f3e
000003d0: 73bf 823c 00a1 723c 111b 3e3e 1490 a8bd
000003e0: 4e19 b2bd d228 a23d 98d0 d1bd 7a5f c7bd
000003f0: 42a5 093e ebd1 cebd 36c7 32be 5f8a 063e
0.1497962 -0.13786653 0.15153153 -0.09292906 0.04142195 0.18520005 0.1784418 -0.015457876
0.048314285 0.04661871 -0.1777959 0.01506321 -0.15728985 0.18529356 -0.11281765 0.14338477
-0.09739146 0.06168001 0.041006915 0.11980553 -0.051821563 -0.119178556 0.14528468 -0.01318898
0.1913703 -0.07077121 0.1824438 -0.0034985899 0.18028046 0.12521656 0.10374119 -0.060839396
0.11819334 0.14756636 0.17366393 0.097691216 -0.12515886 0.15824544 0.17996192 -0.173814
-0.054380793 -0.13970006 0.035477716 -0.18278687 0.1334943 0.0051534493 -0.08145198 0.09724189
-0.008095608 0.03692493 -0.020826975 -0.039124884 0.16401874 0.13351256 0.09401253 -0.107795976
-0.14263064 -0.14758667 0.1304636 -0.13731578 0.022069208 0.010809876 0.12627554 0.12946808
0.15590608 0.12679295 0.18736345 -0.13439988 0.00049408164 -0.07482395 0.055943858 0.0071025006
0.03224983 0.107578695 0.06172966 -0.025923226 -0.048360877 0.16598527 0.0022435845 0.03933576
0.13856538 0.1704834 0.12734039 -0.15350704 0.14659919 -0.07942443 0.041131835 -0.06559798
0.0005113962 -0.033227 0.099788584 -0.09343981 -0.18805996 -0.18551956 0.17932086 -0.09700942
0.05092042 -0.18889616 0.14161746 -0.07870034 -0.055661984 -0.16901416 -0.14294186 0.063267
0.104759134 0.18393305 0.12880184 0.12835167 -0.022563372 -0.08301737 -0.17761138 -0.069237076
0.09994192 -0.06062839 0.15804885 0.028712988 -0.14670207 0.04537298 0.17718792 0.122451454
0.11972389 -0.14476691 0.15581189 0.083446294 -0.048597198 -0.012194934 0.00056489813 0.063082546
0.106371135 -0.07974818 0.13574113 0.17543343 0.054793935 -0.05738233 0.052625205 -0.08200241
-0.04597323 -0.016115531 -0.08275244 -0.09459559 -0.10189187 -0.10486584 0.044925895 -0.06406244
0.14815585 0.10370061 -0.16063067 -0.17433202 0.09282819 -0.038112838 -0.025555914 0.03459207
-0.14131656 0.12479029 -0.17919074 -0.11507864 -0.15024093 -0.1776613 0.01186463 0.07358613
-0.1574198 -0.059141893 -0.13081627 0.007965614 0.17400943 0.054713637 0.14123519 0.17891218
0.047130305 0.065652 -0.06433605 -0.0557973 -0.16446795 0.008456876 0.047604788 -0.027375849
-0.04937913 0.017161012 -0.11572919 0.1507953 0.15835765 0.051130947 0.129427 -0.19096911
-0.021860339 0.064464316 -0.12642759 0.0025756825 -0.14740473 -0.10641707 -0.044234317 -0.036321767
-0.123367 0.0057775783 0.016219478 -0.017686713 -0.08146728 0.15597147 0.14594351 0.13392715
-0.10310625 0.026945619 0.09658045 -0.11629319 -0.05115566 -0.004680201 0.16016424 0.11017425
0.1402535 -0.1435917 -0.14818552 -0.061040897 0.17879722 0.012488092 -0.13471372 0.12298265
-0.074774206 -0.09242118 -0.02437592 0.16800918 -0.16977127 -0.10787694 -0.16711357 -0.11257228
-0.008705395 -0.05928954 -0.10251475 -0.033838782 0.08664453 0.061118003 0.023432419 -0.095102906
0.021921568 0.10994107 -0.012082736 0.15150695 0.17910686 0.028644944 -0.080538765 -0.1905852
0.046587363 -0.111824416 0.1676694 0.17163327 0.01596043 0.014808893 0.18565013 -0.08230606
-0.08696233 0.07917942 -0.10244864 -0.097350076 0.13441947 -0.100986324 -0.17458805 0.13138722

fc1._model.0.bias f4 [24]
00000000: 99e9 4cbb 5d47 c8ba 6081 993a 547a 92ba
00000010: cb9c 0abb bbb3 86ba 820c f6ba 9a3e 8eba
00000020: 76b9 9cba 287e 0bbb a1ae 88ba 9d29 86ba
00000030: a803 cb3a ff6f a03a 2823 68ba af6e 02bb
00000040: 8872 413a 5c7d 9fba 2501 4b39 9d04 adba
00000050: 9e0b e8ba 1fc6 203b 079e 18bb 73ba 983a
-0.0031267165 -0.0015280057 0.001171153 -0.0011175373 -0.0021150585 -0.0010276953 -0.0018772038 -0.0010852397
-0.0011957127 -0.0021284912 -0.001042802 -0.001023579 0.001548876 0.0012240409 -0.00088553363 -0.0019902398
0.0007379432 -0.0012168097 0.00019360015 -0.0013200227 -0.0017703658 0.0024532152 -0.002328755 0.0011652246

fc2._model.0.weight f4 [20, 48]
00000000: 01d7 82be cae4 f5bd e1eb ccbc 885f 96be
00000010: c98b 233d d915 3bbe 3221 c1bd 49e5 f43d
00000020: 1ddb 253e a628 553e 001a f63d bcc0 63be
00000030: 7fbb 2e3d 99b2 3a3e 3b6c 0b3e 0637 86bc
00000040: 735c 3b3d c603 50bd b523 5b3e 9067 cd3c
00000050: 0089 6ebe 2563 81be 55b6 72be 62d0 d23c
00000060: 964c 35be b2fc 703d 5ef4 57be 5fa5 163e
00000070: a5f7 953e 6480 79be 422b 333a 1059 833e
00000080: d9ea 673d ed93 78be 5009 943d dcd4 4e3e
00000090: 38cd 633e 8a2c 483e ddeb 4d3e f612 6f3e
000000a0: ff07 6fbe e611 53be 2b7d 0d3e 4f39 50be
000000b0: 99db 73be 7d62 fa3d b62d b63d b36a 90be
000000c0: fbc2 263e c319 ffbd 7cf2 8dbe 7042 8bbd
000000d0: fa76 d0bb 2d43 6ebe af42 de3d 014c 993b
000000e0: 9d58 383d dc59 1dbe df6f af3d 0ab5 48be
000000f0: 5ac4 273e 95ae 9a3d d063 ebbc 45bd a9bc
00000100: d47e 7abe 6789 fcbd d2f4 8ebc 5008 aabd
00000110: df2f 813e 782f 893d 552b 283e 634e 17bd
00000120: 62c6 2dbe f4b7 70be c800 23b9 eefa ddbd
00000130: 0894 bbbc 5478 2c3e 8f6f 3bbe 028b 753e
00000140: 9b0a 61be 5967 8a3e a9c6 933e 5cde 25be
00000150: 034b 91be 5dc7 fabd 17a2 1c3e 8fd6 383c
00000160: be13 fabd efed 88bd 5c80 38be c3b8 33be
00000170: 755c 473e d319 7a3e 6d8f 773e 9474 173e
00000180: 7258 233e bfd7 583e 051c 91be 5d1d 2a3c
00000190: 1a8f 8ebe ffcb 85be d6c3 28be 6638 533e
000001a0: 5180 823e 09b5 63be 0b32 8e3e 566f 1ebe
000001b0: 4fcd 053e e3f5 1c3d 8eda 2cbe 95d0 b3bd
000001c0: 5d4e 89bc 2cdc d1bc ec57 393d 776e 083e
000001d0: b1d2 9a3c 6478 56be b0af 713e 6840 83be
000001e0: fd6b 3f3b fc13 603e 0479 81be 7cfb 5abe
000001f0: c4ff ffbc 4914 35be 1219 533e 2506 9e3d
00000200: d4cc cebd ef31 0bbe bdfa 8fbc b6cf b2bd
00000210: 38f2 e3bd 9bee 6b3e 282d 3ebe 4522 b3bd
00000220: 7f98 7c3e 0276 78be a5ac 87bd 4f88 743e
00000230: f098 63bd b86d 113e 351c eb3d 68dc 19be
00000240: b75b 72be 3492 d6bd 683f 04be 4316 903e
00000250: cc81 c23d 3052 13be 638b 533e 5429 3abd
00000260: d2c0 7dbe c4fa 46bd 9f2a 5f3b 99d8 fcbd
00000270: 8cd4 82be 3129 90be cf34 853e 4375 f0bd
00000280: f65c 03be 4d59 8b3a ab29 3a3d 00dd 533e
00000290: 7d39 1d3d 4d51 8f3e e688 5e3e 4e67 d9bd
000002a0: c1ae 913e 2773 8ebd d119 67be 27bb eb3d
000002b0: 1954 e2bd 0cc6 63be 1a6b 7d3e 4f30 f73b
000002c0: 3402 353e b657 433e 7c1f 83be fded 79be
000002d0: bca7 883e 284b 033e b1fb f33d 4639 97be
000002e0: 3e07 12be 814a 2bbd 0366 393e 2f7e 213e
000002f0: 77e8 b83c 0af7 74be e46d eebc 4155 8d3d
00000300: ff06 7bbe e119 19bd 73bf 543e b92d 973e
00000310: afae 903e 9e8e 993d 59c1 0bbd 9232 e8bd
00000320: 8ec2 833e d1a6 31be 9dfa 2bbe 0443 d9bc
00000330: 1da8 6b3e bf73 dfbd 927a 863e 5e86 16be
00000340: f73c f3bd b868 823e dda1 00be 8231 813e
00000350: de44 1bbd 8ddd 1bbe 2c49 84be 906f 223e
00000360: c894 893e f80d 1e3e 4208 ce3d 054f 783e
00000370: 5c17 dc3c d9ea 043e 39b3 12be 54b8 61be
00000380: c471 ae3d 1aae 70be 12d3 f7bd 257a 22be
00000390: 594c 213e 0e73 8b3e d89a 26be dd89 0abd
000003a0: 0dcb 133e dfc2 553e 305a 14be 1f57 103b
000003b0: e825 02be b47a 8c3c 4efe 7bbe de7f 383e
000003c0: 9fc4 4ebe 91e9 83be e9b1 8ebe 2341 ea3d
000003d0: d89f 61be 2d7f 47be d72a 60be 18ca 7a3e
000003e0: d56b 633e cdb4 4f3e e244 eb3d ec68 ef3d
000003f0: 19fc 35be c07b cfbd 340c 1f3e 6fd9 be3d
-0.2555466 -0.12006529 -0.02501482 -0.2936976 0.03992823 -0.18270053 -0.0943016 0.11957795
0.16196866 0.20816287 0.12016678 -0.22241491 0.04265928 0.18232192 0.13615505 -0.01638366
0.045742463 -0.05078485 0.2140034 0.025073797 -0.23294449 -0.25270954 -0.23702367 0.02573413
-0.17704996 0.05883474 -0.21089312 0.14711522 0.292905 -0.24365383 0.0006834754 0.25653887
0.056620453 -0.24275179 0.07228339 0.20198387 0.22246253 0.1954824 0.20109506 0.23347077
-0.23342894 -0.20612296 0.13817279 -0.20334361 -0.23814239 0.122258164 0.088954374 -0.28206405
0.16285317 -0.124560855 -0.27724063 -0.06799781 -0.0063618394 -0.23267813 0.10852563 0.00467825
0.045006383 -0.1536631 0.085662596 -0.19600311 0.16383496 0.0755283 -0.028734118 -0.020720134
-0.24462444 -0.12330895 -0.017450724 -0.08302367 0.25231835 0.06698507 0.1642278 -0.03693999
-0.16970208 -0.23507673 -0.00015545182 -0.10838877 -0.022897735 0.16842777 -0.18304275 0.23978809
-0.21976702 0.27031973 0.28862503 -0.16198105 -0.28377542 -0.12245057 0.15296207 0.0112816235
-0.12210797 -0.06686007 -0.18017715 -0.1755095 0.19468863 0.24423914 0.24175806 0.14790565
0.15951708 0.2117605 -0.2834169 0.010382977 -0.27843553 -0.261322 -0.16480955 0.20626983
0.25488523 -0.22237028 0.27772555 -0.15472159 0.130666 0.038320433 -0.16880247 -0.08780018
-0.016761 -0.025617681 0.045249864 0.13323389 0.018899294 -0.20944363 0.23602176 -0.25635076
0.0029208653 0.21882623 -0.2528764 -0.21384996 -0.031249888 -0.1768352 0.20615032 0.07716016
-0.100976616 -0.13593267 -0.017575616 -0.08731024 -0.11130184 0.2304024 -0.18571913 -0.08746771
0.24667548 -0.24263766 -0.06624726 0.23880123 -0.055565774 0.1420201 0.114799894 -0.15025485
-0.23667799 -0.10477105 -0.12914813 0.28141984 0.09497413 -0.14386821 0.2065864 -0.04544957
-0.24780586 -0.048578992 0.0034052504 -0.12346 -0.25552785 -0.28156427 0.26016852 -0.11741116
-0.1282843 0.0010631472 0.045449894 0.20689774 0.038384903 0.27991715 0.2173191 -0.10615407
0.2845364 -0.06955557 -0.22568442 0.11510306 -0.110511966 -0.22243518 0.24747887 0.0075436006
0.17676622 0.19076428 -0.25609958 -0.24407192 0.2669047 0.12821639 0.11913241 -0.29535884
-0.14260575 -0.0418191 0.1810532 0.15770791 0.022571785 -0.23922363 -0.029105134 0.069010265
-0.24514388 -0.037378196 0.20776157 0.2952707 0.28258273 0.07497905 -0.034119938 -0.113377705
0.2573437 -0.17348792 -0.1679482 -0.026521213 0.23013349 -0.10910749 0.2626539 -0.14699695
-0.118768625 0.2547052 -0.12561746 0.25233084 -0.037907474 -0.15221234 -0.25837076 0.1586287
0.26871324 0.15435016 0.10060169 0.24248894 0.026866607 0.12980212 -0.1432618 -0.22042972
0.08517793 -0.23503914 -0.12100805 -0.15866907 0.1575178 0.27236217 -0.16270006 -0.033822883
0.14432926 0.20875119 -0.14487529 0.0022024584 -0.12709773 0.017148353 -0.24608728 0.18017527
-0.20192192 -0.25764135 -0.2787011 0.11438205 -0.22033632 -0.19482107 -0.21891342 0.24491155
0.22209103 0.20283814 0.11487748 0.11689934 -0.17771949 -0.10131025 0.15531999 0.09318816

fc2._model.0.bias f4 [20]
00000000: 1d10 82b9 ded0 8b9b 0000 0000 354d d638
00000010: 0000 0000 0000 0000 f59b e839 b563 8e39
00000020: d748 6b36 0000 0000 ac74 aaba e4bd a0b6
00000030: 41c2 3eb8 a598 193a 0000 0000 59b1 9e1e
00000040: 5049 97b8 0000 0000 efc5 453a 0000 0000
-0.00024807538 -2.3130598e-22 0.0 0.00010218696 0.0 0.0 0.00044366685 0.00027158638
3.5060127e-06 0.0 -0.0013004742 -4.7904778e-06 -4.5480443e-05 0.00058592326 0.0 1.680225e-20
-7.2138966e-05 0.0 0.0007544448 0.0

fc3._model.0.weight f4 [64, 48]
00000000: 6d24 b03c 6e58 043d 2ee2 e33d 7ae1 893d
00000010: 5065 5d3e b62e 343e 4011 26be a852 0fbd
00000020: 97e8 04be ce2d c6bd 7f0d 643d 2a51 973c
00000030: a149 c2bd f723 adbd 5d67 2e3d 7655 17be
00000040: fa8d e33d c722 a8bb 3462 573d edd9 41be
00000050: 2559 9d3d b2fc 253e 53c1 99bd b4a2 353e
00000060: 8a60 6fbb 8576 21be 94cf 273e 213c b3bd
00000070: 6af3 463d ca3a 07be add7 efbd bc15 283e
00000080: 7d34 143e 3b64 3d3e e70f 9c3d 84f4 cd3c
00000090: 3e8e a3bd 9d7f 043e c54f 01be 4992 8d3d
000000a0: 76dc 44be 591a 483e c32d efbd 20d1 3c3e
000000b0: bb42 603e 2f25 c93d 0d62 61be 0422 67be
000000c0: e37d f6bd 2d72 03be 20fe 27be f29b 463e
000000d0: 7b4c 143e e6b9 5c3d f613 2e3e 89c4 84bd
000000e0: 00bc 633d 06a5 43be 0d0d cc3d 3ea0 e8bd
000000f0: 0a44 5bbe b031 6ebe b3cd 35be c675 1e3e
00000100: 05ba 5d3c 648a 503d bc6b 08bd 49dc 21be
00000110: bfc7 c8bd dc1b 033d 4f28 e93d 3cec c1bd
00000120: 1fca 533e e40c a9bd f4ff 403e 7bad 6e3e
00000130: 7a5f bf3d cfca 1bbe b29c 183e 6d15 d7ba
00000140: 6571 3e3e ce55 4ebd 01ec e2bd 4459 a43d
00000150: 954a 2abe b1f2 423e 2cd5 37be e538 07be
00000160: fe0a 2dbe 26f0 55be d4da f4bd ab49 ffbc
00000170: bf04 cb3d a7f7 e6bd 4b38 5cbe 70ad b4bb
00000180: 9309 8a3c b066 543e 3e68 da3d c03f a43d
00000190: d0b9 bcbd d8c4 1b3e 7c7b 60be 00e3 c1bd
000001a0: ac69 343e a7b8 1ebe eb27 14be 8ac5 c0bd
000001b0: 13b9 3bbd c58f 7e3d cfd2 243d a9ec 9d3d
000001c0: 8ba1 f23d bc52 403e 3436 e6bb d63a 2fbe
000001d0: 3683 153d 5562 97bd ec09 a3bd dae9 c5bd
000001e0: e886 94bb 0ca0 633e fd42 dc3c 006a 103e
000001f0: a4b5 3ebe 09ea 683e 6559 8b3d 851f 283e
00000200: f37b 64bc be8f 63be 55da 47be 5a78 293e
00000210: be50 27be ba15 6a3d 0d38 6dbd 2896 133e
00000220: 5e84 403e b09b 0dbe a9f0 5bbe dba0 bbbd
00000230: aa5c 41be 1539 85bd 9aed 033e b26f c7bc
00000240: 4bb4 f1bd ea0a 06be 2b87 2bbe 01b3 dd3c
00000250: c31c 86bd 92bd 4f3e 7398 5ebd 572e 0c3e
00000260: 1234 243e e1b8 57be 6bd2 e23d 0641 603d
00000270: 75a3 b2bc e652 58bd 77f9 65be 054b e03d
00000280: b646 193e d6e2 d9bd 0aad 0dbc 75d5 31be
00000290: 789e ffbd 066f 3dbe 3be6 2c3e d35a ce3d
000002a0: 470c 433d 94e3 b0bd 757e 5ebe cc5c 1e3c
000002b0: d2dc ba3c 119c 62be ad80 3a3e 8fac 45be
000002c0: 34e6 3e3c b00d ba3d 7f19 733d 263b 2fbe
000002d0: 8fc1 e33d 7aca 043e 2d99 53bd 8f30 45be
000002e0: 4e57 fb3d bf01 933d f66f 1fbe 4653 843c
000002f0: eab0 813d 714b f53c 7432 3d3e 8ecc 71bd
00000300: 6525 83bd 55ac 3e3e 0942 07be 419d 173e
00000310: c918 f9bd 8487 a83d 4953 58be db18 553b
00000320: dded 013d 989a 5f3e 1ce3 953d 756a 4fbe
00000330: 67f9 1f3d 5557 05bd a772 3bbe d55f f0bd
00000340: 9fe7 c23d 5dbf b53d da30 1fbe 71ca 323e
00000350: aa73 01be a94e 52be c6c6 1abe 7aa9 bf3c
00000360: da1d a63d 2fef 70be 2bc9 a83d 1f24 343e
00000370: d9d8 4d3e 21bd 843d 4091 64bd c29a e8bd
00000380: b813 34be 49ed 703d 7941 0b3d 3873 173c
00000390: 805d 9b3d 121d 42bc a765 283e 5227 e53d
000003a0: f300 6dbe 4f3f 183b fd1d ecbc 5357 0a3e
000003b0: 1ea2 11be 31b3 2a3d be24 ebbd 7d21 0f3e
000003c0: 6f56 3bbd 1363 ea3d 5d5b 433e 9674 2e3e
000003d0: e454 cfbd 7126 693e 8acd 9d3d a06a 1b3e
000003e0: a3f7 34be 49cd 0ebe a9a6 6c3e 4f02 3e3e
000003f0: 8084 bdbd a6bb 103e a38a 5d3e 688b b8bd
0.021501744 0.032310896 0.11127125 0.06732459 0.21620679 0.17595944 -0.16217518 -0.034990937
-0.12979351 -0.09676705 0.055676933 0.01847132 -0.094867 -0.084541254 0.042579044 -0.14778695
0.11111064 -0.005131099 0.05258389 -0.18930788 0.076830186 0.16209677 -0.07507577 0.17737848
-0.0036526048 -0.15767868 0.16387779 -0.08751703 0.04857198 -0.1320602 -0.11711059 0.16414541
0.14473148 0.18495266 0.07620221 0.025141008 -0.07986115 0.12939306 -0.12628086 0.06912667
-0.19224724 0.19541301 -0.1167865 0.1843915 0.21900456 0.09821545 -0.2201006 -0.2257157
-0.1203573 -0.12836523 -0.16405535 0.19395426 0.144823 0.053888224 0.16999802 -0.064827986
0.055599213 -0.1910592 0.09963427 -0.11358689 -0.21412674 -0.23261142 -0.1775425 0.15474615
0.01353312 0.05091323 -0.03330587 -0.15806688 -0.098037235 0.03200899 0.113846414 -0.09468886
0.20682572 -0.08254412 0.18847638 0.23308365 0.093443826 -0.15214084 0.14903525 -0.0016409584
0.18597944 -0.0503748 -0.110801704 0.080248386 -0.16630013 0.19037892 -0.17952412 -0.13205297
-0.16898724 -0.2089239 -0.11955801 -0.031163057 0.099130146 -0.11277705 -0.21505849 -0.0055138394
0.016850268 0.20742297 0.10664414 0.08019972 -0.092151284 0.15211809 -0.21922106 -0.09467125
0.17618436 -0.15500127 -0.14468352 -0.094126776 -0.045830797 0.062148828 0.040240105 0.07711155
0.11847218 0.1878156 -0.0070255045 -0.17112288 0.036502086 -0.07391802 -0.07960877 -0.09663744
-0.0045326836 0.22229022 0.026887411 0.14102936 -0.18623978 0.22745527 0.0680416 0.16418274
-0.013945567 -0.22222802 -0.19516881 0.16549817 -0.16339394 0.057149626 -0.057914782 0.14412749
0.18800494 -0.13828921 -0.21478523 -0.0916154 -0.18883005 -0.06505028 0.12883607 -0.024345253
-0.11801966 -0.13090101 -0.16750781 0.027062895 -0.065484546 0.20287159 -0.054344606 0.13689552
0.16035488 -0.2106662 0.1107529 0.05474951 -0.021806458 -0.052813433 -0.22458445 0.10951809
0.1496838 -0.10638969 -0.008647213 -0.17366584 -0.124813974 -0.18499383 0.16884701 0.10075917
0.04761913 -0.08637157 -0.21727927 0.009665679 0.022810373 -0.22129847 0.18213148 -0.19304107
0.011651564 0.09084642 0.059350487 -0.17112407 0.11120903 0.12967864 -0.05165975 -0.19256805
0.122725114 0.071780674 -0.15570053 0.01615299 0.06332572 0.0299432 0.18476278 -0.05903297
-0.06403617 0.18620427 -0.13208784 0.14806081 -0.121629305 0.082289726 -0.21125521 0.0032516036
0.031720985 0.21836317 0.07318708 -0.20255454 0.039056208 -0.03255399 -0.18305455 -0.117370285
0.095168345 0.0887439 -0.15545979 0.17460038 -0.12641779 -0.20537819 -0.15114889 0.023396242
0.081111625 -0.23528741 0.08241495 0.17591904 0.20102252 0.06481386 -0.055802584 -0.11357643
-0.17585647 0.058820043 0.033997986 0.009243779 0.07586193 -0.011847751 0.16445027 0.111891404
-0.23144893 0.0023231094 -0.028822893 0.13509874 -0.14221999 0.041674796 -0.114816174 0.13977619
-0.045736726 0.11444678 0.19077821 0.17036662 -0.101236135 0.2276857 0.07705219 0.15177393
-0.17672591 -0.13945498 0.23110451 0.18555568 -0.09253788 0.14134082 0.21634917 -0.09010965

fc3._model.0.bias f4 [64]
00000000: 0f0d 7bbb 2a8b 813b 31bc 81bb 6b40 813b
00000010: 5926 81bb 9b27 813b 9a9b 81bb 2bc7 7dbb
00000020: 15c2 813b 58af 813b fdcd 813b b33e 823b
00000030: 7a0c 813b df31 81bb 5487 813b ef6e 81bb
00000040: 445e 81bb c6e5 81bb 9289 843b 7675 813b
00000050: 6e5b 813b 41ad 81bb a675 833b 54d2 803b
00000060: 7cee 81bb 004b 81bb f8d3 813b f06f 82bb
00000070: 9c75 813b 5ccc 803b 98c0 813b 168a 813b
00000080: 1676 823b 1b6d 81bb e04f 813b ad3f 81bb
00000090: 7d64 813b 5e68 81bb d367 813b c679 813b
000000a0: f123 823b 05c0 813b 0774 81bb 9a75 813b
000000b0: c963 82bb 1ab7 813b 6638 813b 418f 813b
000000c0: 896d 81bb f96c 813b 9e71 813b acd9 813b
000000d0: 41c0 81bb cbc0 813b d250 813b bd0f 803b
000000e0: 25d7 81bb 6676 81bb 4f83 81bb 14fb 81bb
000000f0: e667 81bb 4c15 813b 7975 813b 2374 81bb
-0.0038307344 0.003953357 -0.0039592017 0.003944447 -0.003941339 0.003941489 -0.0039553167 -0.003872345
0.003959904 0.00395767 0.0039613233 0.0039747595 0.003938255 -0.0039427127 0.0039529 -0.003949992
-0.003948005 -0.0039641587 0.00404472 0.00395077 0.003947667 -0.003957421 0.0040118275 0.003931323
-0.003965197 -0.0039457083 0.003962036 -0.003980629 0.0039507877 0.0039306115 0.0039597265 0.0039532287
0.003981362 -0.003949774 0.0039462894 -0.0039443583 0.0039487467 -0.003949209 0.0039491444 0.003951284
0.0039715697 0.003959658 -0.003950599 0.003950787 -0.0039791805 0.003958595 0.003943491 0.003953845
-0.003949825 0.003949758 0.003950312 0.003962716 -0.003959686 0.0039597503 0.003946402 0.003908126
-0.003962415 -0.003950882 -0.003952421 -0.0039666984 -0.0039491532 0.0039393064 0.0039507714 -0.003950612

fc4._model.0.weight f4 [1, 64]
00000000: c124 43bc e44b 9a3e 1495 80be f593 233e
00000010: a11f 02be a907 df3d f965 0bbe 40f5 85bc
00000020: bff5 003e e72c 383e 04c2 813e a183 873d
00000030: c74d ed3d e6d6 1fbe 505e 553e 9554 4bbe
00000040: c7d6 79be 1808 42be dd28 ce3b 1a75 873e
00000050: afcd 233e baa1 45be 2500 f53c 760a 873d
00000060: 6a3c 2cbe 6ba2 1abe 7349 673e 7335 46bd
00000070: fe3d 663e f43f 8e3d de5e 9a3e 4585 133e
00000080: eb96 833d e8a9 82be 4eeb 483e 4f37 1fbe
00000090: 6055 893e fdf4 5cbe 0712 813e 9d48 523e
000000a0: c04e 1d3d 9e3f 183e 67a3 23be 4d8e 4f3e
000000b0: fc32 0abd 1b41 283e f648 1b3e 9dd7 6b3e
000000c0: 6758 97be 7b6c 213e dafb 953e aee2 7a3e
000000d0: dd52 87be cc60 703e 525b 493e e9c0 1a3d
000000e0: e34d 73be bf3b 33be 591f 99be 4e83 03be
000000f0: 3e99 29be bf9b b33d 28e5 7c3e aade 8dbe
-0.011910618 0.30136025 -0.25113738 0.1597441 -0.12707378 0.10890133 -0.13613118 -0.016352296
0.12593745 0.17985879 0.25343335 0.06616903 0.115871005 -0.15609321 0.20836759 -0.19856484
-0.24398337 -0.189484 0.0062914924 0.2645653 0.15996431 -0.19299975 0.029907295 0.06593792
-0.16819921 -0.1510102 0.22586612 -0.048390817 0.22484586 0.06945792 0.30150503 0.14406307
0.0642527 -0.25520253 0.19621012 -0.15548442 0.26822948 -0.2157783 0.25209066 0.20535512
0.03840518 0.14868018 -0.15980302 0.20269127 -0.03374003 0.16431086 0.15164551 0.23031469
-0.29559633 0.15764038 0.2929371 0.24500534 -0.26430407 0.23474425 0.19663742 0.03778163
-0.2376018 -0.1750326 -0.2990673 -0.12843058 -0.16562364 0.087699406 0.24696791 -0.27708942
