example/cloudManufacturing_network/rl/phase/ckpts/policy-model-weight-array.global-step-22200.pth (torch, 33911 bytes, 7 tensors)

fc1._model.0.weight f4 [24, 141]
0	0x3e189664	0.1490112
1	0xbe0dc6a4	-0.13845307
2	0x3e1a96c6	0.15096578
3	0xbdc1a8a3	-0.09455993
4	0x3d2ad923	0.041710984
5	0x3e3cf723	0.1845365
6	0x3e35e259	0.17762126
7	0xbc83cacb	-0.01608791
8	0x3d437e13	0.047727656
9	0x3d3c8790	0.04602772
10	0xbe34fb6b	-0.17674033
11	0x3c724992	0.014788048
12	0xbe2129ff	-0.15738676
13	0x3e3d8dd7	0.18511139
14	0xbde87d78	-0.11352056
15	0x3e124020	0.14282274
16	0xbdc81fcd	-0.097716905
17	0x3d81a9dd	0.06331227
18	0x3d277359	0.04088149
19	0x3df51851	0.119675286
20	0xbd515d94	-0.051114634
21	0xbdf52155	-0.11969248
22	0x3e141b8e	0.14463636
23	0xbc60340f	-0.013684287
24	0x3e462b1f	0.19352387
25	0xbd91a221	-0.07111002
26	0x3e3ac9d9	0.18241061
27	0xbba1045e	-0.0049138507
28	0x3e37fbc1	0.1796713
29	0x3dfe252d	0.124094345
30	0x3dd222c5	0.10260538
31	0xbd7ea603	-0.06217004
32	0x3defbd0c	0.1170598
33	0x3e16b901	0.14719011
34	0x3e319479	0.17341794
35	0x3dc5bea8	0.096555054
36	0xbe01fa23	-0.12693076
37	0x3e1ffad5	0.15623029
38	0x3e3a482e	0.18191597
39	0xbe343082	-0.1759663
40	0xbd61d844	-0.055137888
41	0xbe0fc0f2	-0.14038447
42	0x3d09c7cb	0.033637803
43	0xbe3dbdef	-0.18529485
44	0x3e062a6d	0.13102122
45	0x3ad158e2	0.0015971924
46	0xbdab9523	-0.08378055
47	0x3dc57985	0.09642319
48	0xbc0eb071	-0.008709059
49	0x3d0e1762	0.03469027
50	0xbcd49ee9	-0.02595468
51	0xbd34d3a9	-0.044147167
52	0x3e22f49e	0.15913627
53	0x3e044335	0.12916262
54	0x3dba20a7	0.09088259
55	0xbde36ce6	-0.11104755
56	0xbe16e842	-0.14737037
57	0xbe1b04a6	-0.15138492
58	0x3e01fb58	0.12693536
59	0xbe105e2d	-0.14098425
60	0x3c96587c	0.01835274
61	0x3c0a75af	0.0084509095
62	0x3dffaa0a	0.12483604
63	0x3e00f1e4	0.12592274
64	0x3e1e0cd7	0.15434586
65	0x3e00211c	0.1251263
66	0x3e40b8d9	0.18820514
67	0xbe0b1dcf	-0.1358559
68	0xb97573a1	-0.00023408096
69	0xbd9b062a	-0.07569535
70	0x3d5f1807	0.054466274
71	0x3ba42a7e	0.0050099483
72	0x3cf5da46	0.030011307
73	0x3dd8e6cc	0.10590896
74	0x3d745de5	0.059659857
75	0xbcddaa55	-0.02705876
76	0xbd4cba04	-0.049982086
77	0x3e2826e3	0.16421084
78	0x39d6a1b3	0.00040937736
79	0x3d19d528	0.037556797
80	0x3e0bff98	0.1367172
81	0x3e2cef9d	0.1688828
82	0x3e004b3a	0.12528697
83	0xbe1e36b3	-0.15450554
84	0x3e148e9b	0.14507525
85	0xbda2bf0f	-0.07946598
86	0x3d288fb4	0.04115267
87	0xbd86d09f	-0.0658276
88	0x3a09445d	0.0005236322
89	0xbd06e9e1	-0.032937888
90	0x3dccd72a	0.10001977
91	0xbdc0dd95	-0.094172634
92	0xbe409807	-0.18807994
93	0xbe3dfdfb	-0.18553917
94	0x3e379a69	0.17929997
95	0xbdc6b77a	-0.09702964
96	0x3d507bb8	0.050899237
97	0xbe411e30	-0.18859172
98	0x3e115d99	0.14195861
99	0xbda138d9	-0.07872171
100	0xbd64143d	-0.055683363
101	0xbe2d17a9	-0.16903557
102	0xbe1264fb	-0.14296333
103	0x3d8186df	0.06324553
104	0x3dd680df	0.10473799
105	0x3e3c5355	0.18391164
106	0x3e03df04	0.12878042
107	0x3e036902	0.12833026
108	0xbcb903ab	-0.022584757
109	0xbdaa103d	-0.083038785
110	0xbe35e565	-0.17763288
111	0xbd8dcc2b	-0.069237076
112	0x3dccae59	0.09994192
113	0xbd78557a	-0.06062839
114	0x3e21d78f	0.15804885
115	0x3ceb3780	0.028712988
116	0xbe163911	-0.14670207
117	0x3d39d905	0.04537298
118	0x3e3570c0	0.17718792
119	0x3dfac7d4	0.122451454
120	0x3df531cd	0.11972389
121	0xbe143dc7	-0.14476691
122	0x3e1f8d27	0.15581189
123	0x3daae5e4	0.083446294
124	0xbd470ddb	-0.048597198
125	0xbc47cd43	-0.012194934
126	0x3a1415ac	0.00056489813
127	0x3d81316c	0.063082546
128	0x3dd9d91c	0.106371135
129	0xbda35304	-0.07974818
130	0x3e0affb9	0.13574113
131	0x3e33a4d2	0.17543343
132	0x3d606f9b	0.054793935
133	0xbd6b09bc	-0.05738233
134	0x3d578d87	0.052625205
135	0xbda7f0e1	-0.08200241
136	0xbd3c4e6d	-0.04597323
137	0xbc8404b8	-0.016115531
138	0xbda97a1c	-0.08275244
139	0xbdc1bb55	-0.09459559
140	0xbdd0acaf	-0.10189187
141	0xbdd66f4d	-0.10470448
142	0x3d3a0412	0.045414038
143	0xbd82515f	-0.063631766
144	0x3e19646e	0.14979717
145	0x3dd4322a	0.103611305
146	0xbe242a9c	-0.16031879
147	0xbe3198de	-0.1734347
148	0x3dbfa638	0.093578756
149	0xbd1a1c5c	-0.0376247
150	0xbccef7ef	-0.025264708
151	0x3d07afe7	0.033126738
152	0xbe1080dc	-0.14111656
153	0x3dfeff74	0.124510676
154	0xbe37e6c1	-0.1795912
155	0xbdeb896d	-0.11500821
156	0xbe196158	-0.1497854
157	0xbe35cf3e	-0.17754838
158	0x3c2c47fe	0.010515211
159	0x3d9749fe	0.0738716
160	0xbe20aa8e	-0.15690061
161	0xbd76ca56	-0.060251556
162	0xbe052e53	-0.13005953
163	0x3c0bae82	0.008525493
164	0x3e32b91f	0.1745343
165	0x3d58200b	0.052764934
166	0x3e10bbdd	0.14134164
167	0x3e36f2a6	0.17866
168	0x3d412da1	0.047162656
169	0x3d880bfa	0.06642909
170	0xbd807ee9	-0.06274206
171	0xbd5d9463	-0.05409659
172	0xbe26f39d	-0.16303869
173	0x3c1e040d	0.0096445205
174	0x3d45263f	0.048132177
175	0xbce020d4	-0.027359404
176	0xbd42f625	-0.047598023
177	0x3c9fe5a4	0.01951868
178	0xbde7b91a	-0.11314602
179	0x3e18b1f8	0.1491164
180	0x3e2412cd	0.16022797
181	0x3d55c7bf	0.052192446
182	0x3e053e34	0.1301201
183	0xbe41135e	-0.18855044
184	0xbc96b347	-0.018396033
185	0x3d8aa136	0.0676903
186	0xbdfbdd9f	-0.1229813
187	0x3bb9c454	0.005669156
188	0xbe14a230	-0.14514995
189	0xbdd68333	-0.10474243
190	0xbd26c1d6	-0.0407122
191	0xbd0134f7	-0.03154465
192	0xbdf2948a	-0.11844738
193	0x3c2d8a88	0.01059211
194	0x3cab971e	0.020946082
195	0xbc661943	-0.014044109
196	0xbda1c85b	-0.07899543
197	0x3e249876	0.16073784
198	0x3e1990a1	0.14996578
199	0x3e0cd4cd	0.13753052
200	0xbdccfaae	-0.10008751
201	0x3cfc0060	0.030761898
202	0x3dcb1a24	0.09917095
203	0xbdeacc06	-0.11464696
204	0xbd4185bf	-0.04724669
205	0xbb39b6f3	-0.0028337806
206	0x3e25dbc6	0.16197118
207	0x3ddffd89	0.1093703
208	0x3e1175ff	0.14205168
209	0xbe11c3a9	-0.14234795
210	0xbe168de8	-0.1470257
211	0xbd731ada	-0.05935178
212	0x3e395398	0.18098295
213	0x3c6ff15e	0.014644949
214	0xbe083a36	-0.13303456
215	0x3e00028a	0.12500969
216	0xbd963605	-0.07334522
217	0xbdbb1664	-0.0913513
218	0xbcb3f4f8	-0.021967396
219	0x3e2deedf	0.16985653
220	0xbe2c0306	-0.16798028
221	0xbdd95e81	-0.10613728
222	0xbe29363e	-0.16524598
223	0xbde29639	-0.11063809
224	0xbbff9053	-0.007799187
225	0xbd6be7dd	-0.05759417
226	0xbdd1ddd0	-0.102473855
227	0xbd0a9fe2	-0.033843882
228	0x3db1d5f4	0.086833864
229	0x3d7a5390	0.061114848
230	0x3cbe1200	0.023201942
231	0xbdc339be	-0.09532498
232	0x3cb921f8	0.022599205
233	0x3de133cc	0.109962076
234	0xbc459ee5	-0.012061809
235	0x3e1b2a36	0.15152821
236	0x3e376d55	0.179128
237	0x3cead577	0.028666241
238	0xbda55bf0	-0.08074176
239	0xbe436bff	-0.19084166
240	0x3d3ee8cb	0.046608727
241	0xbde4f8ff	-0.11180305
242	0x3e2bb724	0.16769081
243	0x3e2fc642	0.17165473
244	0x3c82ec77	0.015981896
245	0x3c72f9db	0.014830078
246	0x3e3e20ae	0.18567154
247	0xbda884e0	-0.08228469
248	0xbdb20e1a	-0.08694096
249	0x3da23406	0.07920079
250	0xbdd1c562	-0.10242726
251	0xbdc75432	-0.09732856
252	0x3e09a542	0.13441947
253	0xbdced1eb	-0.100986324
254	0xbe32c736	-0.17458805
255	0x3e068a5f	0.13138722

fc1._model.0.bias f4 [24]
0	0xbb649c46	-0.0034883185
1	0xbabf5043	-0.0014596063
2	0x3a12aa8b	0.0005594871
3	0xbaac3cec	-0.0013140715
4	0xbb165722	-0.0022940119
5	0xbab8c287	-0.001409606
6	0xbb12bbb0	-0.0022389702
7	0xba8194e2	-0.000988629
8	0xbab1e16a	-0.0013571207
9	0xbb16d9df	-0.0023018045
10	0xba92fa30	-0.0011213478
11	0xba90a6cb	-0.0011036036
12	0x3af32631	0.0018550811
13	0x3ac929f2	0.0015347584
14	0x3727ad66	9.994348e-06
15	0xbb02fade	-0.0019985954
16	0x3a35d36e	0.00069361075
17	0xbab3bce6	-0.0013712912
18	0x3958a985	0.00020662516
19	0xbae68c14	-0.0017589354
20	0xbb070191	-0.00206003
21	0x3af8732f	0.0018955226
22	0xbb3232e5	-0.002719098
23	0x3a682994	0.0008856293

fc2._model.0.weight f4 [20, 48]
0	0xbe8312e9	-0.25600365
1	0xbdf48a4c	-0.119404405
2	0xbcd18494	-0.025575913
3	0xbe962418	-0.29324412
4	0x3d2459b8	0.040124625
5	0xbe3b07f7	-0.18264757
6	0xbdc3c7ed	-0.09559617
7	0x3df559a2	0.11979987
8	0x3e257df9	0.16161336
9	0x3e54fd3c	0.20799726
10	0x3df8b6e1	0.121442564
11	0xbe63da04	-0.22251135
12	0x3d349efa	0.044096924
13	0x3e39507c	0.18097109
14	0x3e0bb37e	0.1364269
15	0xbc8b1644	-0.01697839
16	0x3d3eae7e	0.046553127
17	0xbd4c46fa	-0.049872376
18	0x3e59d912	0.21274212
19	0x3cd70579	0.026247727
20	0xbe6fab4f	-0.23405193
21	0xbe818ed6	-0.25304288
22	0xbe73c2af	-0.23804735
23	0x3cd0936a	0.025460918
24	0xbe355532	-0.1770828
25	0x3d729c33	0.059230994
26	0xbe581be8	-0.21104395
27	0x3e16b518	0.1471752
28	0x3e95e1ba	0.29273778
29	0xbe794e58	-0.24346292
30	0xb859cc29	-5.192697e-05
31	0x3e83b174	0.25721323
32	0x3d66d9e1	0.05636013
33	0xbe78f5a6	-0.24312457
34	0x3d969b3a	0.07353826
35	0x3e4ef5f1	0.20211007
36	0x3e64b283	0.22333722
37	0x3e4748d5	0.19461377
38	0x3e4e2c68	0.20134127
39	0x3e6ea926	0.23306713
40	0xbe6e886b	-0.23294227
41	0xbe52a18e	-0.2056944
42	0x3e0c51ad	0.13703032
43	0xbe5004e7	-0.2031437
44	0xbe7490d7	-0.23883377
45	0x3dfa7a7b	0.122303925
46	0x3db4b74c	0.088240236
47	0xbe908c98	-0.28232265
48	0x3e27ac3f	0.163743
49	0xbdfd472e	-0.12367092
50	0xbe8d7dd7	-0.2763507
51	0xbd896fdb	-0.06710788
52	0xbbeda073	-0.007251793
53	0xbe6f2c74	-0.23356801
54	0x3ddc7018	0.10763568
55	0x3b784513	0.0037882968
56	0x3d3bfdcb	0.045896333
57	0xbe1e431e	-0.1545529
58	0x3dad9dde	0.084773764
59	0xbe47cbbf	-0.19511317
60	0x3e28ad9e	0.1647248
61	0x3d98dc06	0.07463841
62	0xbcf2ae33	-0.02962408
63	0xbca2731c	-0.019830279
64	0xbe7b681e	-0.24551436
65	0xbdfe5bfc	-0.124198884
66	0xbc87aa9e	-0.016560849
67	0xbdabdae2	-0.08391358
68	0x3e80bb39	0.2514284
69	0x3d8b020d	0.067875005
70	0x3e27420d	0.1633379
71	0xbd1af374	-0.03782983
72	0xbe2cdd16	-0.16881213
73	0xbe6fcea7	-0.23418675
74	0x3a408ccf	0.0007345201
75	0xbddc2854	-0.107498795
76	0xbcc2de72	-0.02378771
77	0x3e2b8f08	0.16753781
78	0xbe3c58dc	-0.18393272
79	0x3e74a1b5	0.23889811
80	0xbe60214e	-0.21887705
81	0x3e89f2b3	0.26942977
82	0x3e935204	0.2877351
83	0xbe24f50f	-0.16109107
84	0xbe90d65d	-0.28288546
85	0xbdfc99f6	-0.12334053
86	0x3e1bb8c9	0.15207209
87	0x3c476b57	0.012171588
88	0xbdfbe658	-0.12299794
89	0xbd8ac089	-0.067750044
90	0xbe379710	-0.1792872
91	0xbe34a20f	-0.17639945
92	0x3e467327	0.19379865
93	0x3e7b0320	0.24512911
94	0x3e76a621	0.2408681
95	0x3e168b48	0.14701569
96	0x3e235872	0.15951708
97	0x3e58d7bf	0.2117605
98	0xbe911c05	-0.2834169
99	0x3c2a1d5d	0.010382977
100	0xbe8e8f1a	-0.27843553
101	0xbe85cbff	-0.261322
102	0xbe28c3d6	-0.16480955
103	0x3e533866	0.20626983
104	0x3e828051	0.25488523
105	0xbe63b509	-0.22237028
106	0x3e8e320b	0.27772555
107	0xbe1e6f56	-0.15472159
108	0x3e05cd4f	0.130666
109	0x3d1cf5e3	0.038320433
110	0xbe2cda8e	-0.16880247
111	0xbdb3d095	-0.08780018
112	0xbc894e5d	-0.016761
113	0xbcd1dc2c	-0.025617681
114	0x3d3957ec	0.045249864
115	0x3e086e77	0.13323389
116	0x3c9ad2b1	0.018899294
117	0xbe567864	-0.20944363
118	0x3e71afb0	0.23602176
119	0xbe834068	-0.25635076
120	0x3b3f6bfd	0.0029208653
121	0x3e6013fc	0.21882623
122	0xbe817904	-0.2528764
123	0xbe5afb7c	-0.21384996
124	0xbcffffc4	-0.031249888
125	0xbe351449	-0.1768352
126	0x3e531912	0.20615032
127	0x3d9e0625	0.07716016
128	0xbdceccd4	-0.100976616
129	0xbe0b31ef	-0.13593267
130	0xbc8ffabd	-0.017575616
131	0xbdb2cfb6	-0.08731024
132	0xbde3f238	-0.11130184
133	0x3e6bee9b	0.2304024
134	0xbe3e2d28	-0.18571913
135	0xbdb32245	-0.08746771
136	0x3e7c987f	0.24667548
137	0xbe787602	-0.24263766
138	0xbd87aca5	-0.06624726
139	0x3e74884f	0.23880123
140	0xbd6398f0	-0.055565774
141	0x3e116db8	0.1420201
142	0x3deb1c35	0.114799894
143	0xbe19dc68	-0.15025485
144	0xbe73424a	-0.23755756
145	0xbdd81bf8	-0.105522096
146	0xbe039317	-0.12849079
147	0x3e908ece	0.2823395
148	0x3dc0d291	0.09415162
149	0xbe141423	-0.14460807
150	0x3e53a316	0.20667681
151	0xbd3eb732	-0.046561427
152	0xbe7dc222	-0.24781087
153	0xbd49de5e	-0.04928433
154	0x3b385c02	0.0028131013
155	0xbdfadeb7	-0.12249511
156	0xbe833aa0	-0.25630665
157	0xbe8fc473	-0.28079566
158	0x3e85607a	0.26050168
159	0xbdef2c42	-0.116783634
160	0xbe04466a	-0.12917486
161	0x399afa13	0.0002955949
162	0x3d35d13d	0.044389
163	0x3e531193	0.20612173
164	0x3d1eedeb	0.038801115
165	0x3e8fa376	0.28054398
166	0x3e5f17db	0.21786444
167	0xbddaf4e8	-0.106912434
168	0x3e914d83	0.2837945
169	0xbd8ff860	-0.07029796
170	0xbe664aa6	-0.22489414
171	0x3dee4718	0.11634654
172	0xbde41f3e	-0.111387715
173	0xbe6493b1	-0.22321965
174	0x3e7d62f7	0.24744783
175	0x3bd8b8e4	0.0066138376
176	0x3e34d8f8	0.17660892
177	0x3e42e9b3	0.19034462
178	0xbe8357f7	-0.2565305
179	0xbe78c368	-0.24293292
180	0x3e8835ee	0.26603645
181	0x3e03d7e6	0.12875327
182	0x3df4528e	0.119298086
183	0xbe96ef5e	-0.29479498
184	0xbe12eb7f	-0.14347647
185	0xbd2ee32c	-0.042697117
186	0x3e3872e8	0.18012583
187	0x3e21023b	0.15723507
188	0x3cba2500	0.022722721
189	0xbe73f24d	-0.23822899
190	0xbce7ce40	-0.02829659
191	0x3d8afeaa	0.067868546
192	0xbe7a30c6	-0.24432668
193	0xbd15c504	-0.036564842
194	0x3e53e938	0.20694435
195	0x3e96c565	0.29447475
196	0x3e9119c8	0.28339982
197	0x3d9b3a82	0.07579519
198	0xbd0f10b4	-0.03492804
199	0xbde68bc5	-0.11257128
200	0x3e842cbd	0.25815383
201	0xbe30d0b6	-0.17267117
202	0xbe2b2561	-0.16713478
203	0xbcdfea27	-0.027333332
204	0x3e6c7dfe	0.23094937
205	0xbde12084	-0.1099253
206	0x3e860fd8	0.26183963
207	0xbe175b55	-0.14780934
208	0xbdf19232	-0.11795463
209	0x3e82d3cc	0.25552213
210	0xbdff9a35	-0.124805845
211	0x3e819cad	0.25314847
212	0xbd1e9c39	-0.038723204
213	0xbe1cb36f	-0.15302823
214	0xbe84ab67	-0.2591202
215	0x3e234459	0.15944041
216	0x3e8a0042	0.26953322
217	0x3e1ee4da	0.15516987
218	0x3dcc5a83	0.09978201
219	0x3e777852	0.24166992
220	0x3ce2ceb8	0.027686462
221	0x3e05c1c8	0.13062203
222	0xbe13731a	-0.14399377
223	0xbe60e180	-0.21961021
224	0x3db01f53	0.085997246
225	0xbe6fd736	-0.2342194
226	0xbdf62552	-0.12018837
227	0xbe235105	-0.15948875
228	0x3e222346	0.15833768
229	0x3e8b0794	0.2715422
230	0xbe2771b4	-0.16351968
231	0xbd0de517	-0.034642305
232	0x3e14a1fa	0.14514914
233	0x3e5699ce	0.2095711
234	0xbe138357	-0.14405571
235	0x3b4612e3	0.003022366
236	0xbe02fcc4	-0.12791735
237	0x3c85c3e8	0.016328767
238	0xbe7cd4ec	-0.24690598
239	0x3e3956ba	0.1809949
240	0xbe4ec49f	-0.20192192
241	0xbe83e991	-0.25764135
242	0xbe8eb1e9	-0.2787011
243	0x3dea4123	0.11438205
244	0xbe619fd8	-0.22033632
245	0xbe477f2d	-0.19482107
246	0xbe602ad7	-0.21891342
247	0x3e7aca18	0.24491155
248	0x3e636bd5	0.22209103
249	0x3e4fb4cd	0.20283814
250	0x3deb44e2	0.11487748
251	0x3def68ec	0.11689934
252	0xbe35fc19	-0.17771949
253	0xbdcf7bc0	-0.10131025
254	0x3e1f0c34	0.15531999
255	0x3dbed96f	0.09318816

fc2._model.0.bias f4 [20]
0	0xb9aabbea	-0.00032564934
1	0xba64f7c7	-0.00087344315
2	0x00000000	0.0
3	0xba20dc19	-0.0006136313
4	0x39b22aba	0.0003398264
5	0x00000000	0.0
6	0x3aadf8a6	0.0013272956
7	0x38421928	4.6276633e-05
8	0xba4467a5	-0.0007492251
9	0x00000000	0.0
10	0xba503613	-0.0007942628
11	0x3a5d9615	0.0008452845
12	0xb84be5d5	-4.861302e-05
13	0x3aa1078a	0.0012285572
14	0x00000000	0.0
15	0x1ea73b02	1.7706218e-20
16	0xb8a486a2	-7.845207e-05
17	0x00000000	0.0
18	0x39d28721	0.00040155
19	0xaf590268	-1.973689e-10

fc3._model.0.weight f4 [64, 48]
0	0x3cbdb05a	0.02315538
1	0x3cf6ed94	0.030142583
2	0x3de17b61	0.11009861
3	0x3d81f8c4	0.063462764
4	0x3e5d7cee	0.21629688
5	0x3e34c520	0.17653322
6	0xbe2653fd	-0.16242976
7	0xbd013881	-0.031548027
8	0xbe095315	-0.134106
9	0xbdc8093c	-0.09767386
10	0x3d60bd6d	0.05486815
11	0x3c7caa1f	0.015421419
12	0xbdbbbc16	-0.09166734
13	0xbdaad59a	-0.083415225
14	0x3d386e9a	0.045027353
15	0xbe19d5aa	-0.15022913
16	0x3ded359c	0.11582491
17	0xbad1e17c	-0.0016012634
18	0x3d59914f	0.053117093
19	0xbe41707c	-0.18890566
20	0x3d9c7cb1	0.076409705
21	0x3e2622a8	0.16224158
22	0xbd97bde8	-0.074092686
23	0x3e359f59	0.17736568
24	0xbb9d0fe3	-0.0047931536
25	0xbe237ba5	-0.15965135
26	0x3e2600ea	0.16211286
27	0xbdb86f01	-0.09005547
28	0x3d422960	0.04740274
29	0xbe09fd47	-0.13475524
30	0xbdf4b8a5	-0.11949281
31	0x3e290782	0.1650677
32	0x3e105bc9	0.14097513
33	0x3e3b85dd	0.18312784
34	0x3d990906	0.07472424
35	0x3cba7342	0.022760037
36	0xbd9f82ff	-0.077886574
37	0x3e062c7d	0.13102908
38	0xbdffc4e0	-0.12488723
39	0x3d893600	0.06699753
40	0xbe430d14	-0.19047958
41	0x3e48c294	0.19605476
42	0xbdeea3a9	-0.116523094
43	0x3e3ad58a	0.18245521
44	0x3e5e80f6	0.21728882
45	0x3dc77659	0.0973937
46	0xbe61bd7a	-0.22044936
47	0xbe676cc1	-0.2260008
48	0xbdfa6ddf	-0.122279875
49	0xbe00bd42	-0.12572196
50	0xbe26a1ca	-0.16272655
51	0x3e4b6561	0.19862892
52	0x3e140a8a	0.14457145
53	0x3d5a2f2b	0.05326764
54	0x3e2e278d	0.17007275
55	0xbd8d0664	-0.068859845
56	0x3d776d9f	0.060407277
57	0xbe42af25	-0.19012125
58	0x3dcdda0e	0.10051356
59	0xbde1c03e	-0.110229954
60	0xbe5f1d1d	-0.2178845
61	0xbe6f9ccb	-0.23399656
62	0xbe38d435	-0.180497
63	0x3e217d69	0.15770496
64	0x3c067608	0.008206852
65	0x3d402a88	0.04691556
66	0xbd0abccb	-0.033871453
67	0xbe227be7	-0.15867577
68	0xbdc8129a	-0.09769173
69	0x3d029afc	0.031886086
70	0x3de695cb	0.112590395
71	0xbdc1c0c8	-0.09460598
72	0x3e552433	0.2081459
73	0xbda3ff3d	-0.08007667
74	0x3e43250f	0.19057105
75	0x3e71e3f6	0.23622116
76	0x3dc22e63	0.09481504
77	0xbe187fe6	-0.1489254
78	0x3e1b709e	0.15179679
79	0xbb3895d7	-0.0028165483
80	0x3e42cc1d	0.19023176
81	0xbd45873f	-0.048224684
82	0xbddf360b	-0.1089898
83	0x3da9e662	0.08295895
84	0xbe2cb696	-0.16866526
85	0x3e40d4be	0.18831155
86	0xbe39a181	-0.18128015
87	0xbe049c81	-0.12950327
88	0xbe2f44a1	-0.17116024
89	0xbe56c89f	-0.20974968
90	0xbdf58882	-0.119889274
91	0xbcec8cd1	-0.02887574
92	0x3dcf3381	0.101172455
93	0xbde4c664	-0.111706525
94	0xbe5bf436	-0.21479878
95	0xbba7ec90	-0.005124636
96	0x3c99b605	0.018763551
97	0x3e51b1fe	0.20478055
98	0x3dd7b132	0.10531844
99	0x3d9ab2b2	0.07553615
100	0xbdbc3a19	-0.09190769
101	0x3e1c66a4	0.1527353
102	0xbe60919b	-0.21930544
103	0xbdb9a47a	-0.090645745
104	0x3e2f7f29	0.17138352
105	0xbe1fb013	-0.1559451
106	0xbe150f86	-0.14556703
107	0xbdc7a3fe	-0.09748076
108	0xbd2c6136	-0.042084895
109	0x3d821c7f	0.063530914
110	0x3d30e71a	0.043189146
111	0x3d97dfa5	0.07415704
112	0x3dfd84c4	0.12378839
113	0x3e44681b	0.19180338
114	0xbbd3a247	-0.006458554
115	0xbe2e9d7e	-0.17052266
116	0x3d141302	0.03615094
117	0xbd9720c3	-0.07379296
118	0xbda07ce8	-0.07836324
119	0xbdc614b7	-0.0967192
120	0xbbbfd512	-0.0058542574
121	0x3e6119df	0.21982525
122	0x3ccb23b2	0.024797294
123	0x3e0d35a2	0.1378999
124	0xbe401d8a	-0.18761268
125	0x3e65a167	0.22424851
126	0x3d85b435	0.065285124
127	0x3e295383	0.16535763
128	0xbc950571	-0.018191071
129	0xbe65c33b	-0.22437756
130	0xbe49b495	-0.19697793
131	0x3e26b25d	0.16278978
132	0xbe24e62c	-0.16103429
133	0x3d7288f4	0.05921264
134	0xbd660a2e	-0.05616205
135	0x3e10fa9d	0.14158101
136	0x3e42bd48	0.19017518
137	0xbe0cc4ac	-0.137469
138	0xbe5b9a92	-0.21445683
139	0xbdc04efd	-0.09390066
140	0xbe437331	-0.19086911
141	0xbd8767d2	-0.06611599
142	0x3e03a853	0.1285718
143	0xbccaa26d	-0.024735654
144	0xbdf5991a	-0.119920924
145	0xbe035c33	-0.1282814
146	0xbe2a2dde	-0.1661906
147	0x3d01cc27	0.031688835
148	0xbd869866	-0.065720364
149	0x3e4f1cee	0.2022588
150	0xbd5e3873	-0.054253053
151	0x3e08168c	0.13289851
152	0x3e2919e8	0.16513789
153	0xbe56c223	-0.20972495
154	0x3de49f72	0.11163224
155	0x3d6deeb6	0.05808898
156	0xbcd1212e	-0.025528517
157	0xbd5df349	-0.054187093
158	0xbe68f85f	-0.22750996
159	0x3de64b78	0.11244863
160	0x3e13dbfd	0.14439388
161	0xbde2023c	-0.110355824
162	0xbc16e182	-0.009209039
163	0xbe3270b2	-0.17425802
164	0xbdfee4cb	-0.124459825
165	0xbe3d8ff6	-0.18511948
166	0x3e2ba1c9	0.16760935
167	0x3dce86ee	0.100843295
168	0x3d486e85	0.048933525
169	0xbdabe47a	-0.08393188
170	0xbe5c5f22	-0.21520665
171	0x3c513031	0.012767837
172	0x3cc60724	0.024173327
173	0xbe5f58dc	-0.21811241
174	0x3e3d4ed1	0.18487097
175	0xbe46dd34	-0.1942032
176	0x3c821681	0.015879871
177	0x3dbe6ad5	0.0929772
178	0x3d7a7043	0.061142217
179	0xbe2c7a42	-0.16843513
180	0x3ddef6f9	0.1088695
181	0x3e02b2a8	0.12763464
182	0xbd5ab5ab	-0.05339591
183	0xbe429a0d	-0.19004078
184	0x3df6f050	0.12057555
185	0x3d915975	0.07097141
186	0xbe1fc4a6	-0.15602359
187	0x3c96e388	0.018419042
188	0x3d85d605	0.065349616
189	0x3cfdeb9a	0.030996133
190	0x3e3d77ca	0.18502727
191	0xbd7033ef	-0.058643278
192	0xbd7e8176	-0.062135182
193	0x3e3bff4e	0.1835911
194	0xbe089ae0	-0.1334033
195	0x3e12e29c	0.14344257
196	0xbdf89e01	-0.12139512
197	0x3da9c99c	0.08290407
198	0xbe586bf3	-0.2113493
199	0x3bed575b	0.0072430796
200	0x3cdcb74f	0.026942877
201	0x3e5ea3bc	0.21742147
202	0x3d9415ec	0.07230744
203	0xbe52d56f	-0.20589231
204	0x3d2f34c8	0.042774945
205	0xbcff7486	-0.031183492
206	0xbe387544	-0.18013483
207	0xbdf65d54	-0.1202952
208	0x3dcdbadf	0.100454085
209	0x3dbddd2c	0.09270701
210	0xbe1e9cd7	-0.15489517
211	0x3e3364ad	0.17518874
212	0xbe01d0ce	-0.12677309
213	0xbe522d92	-0.20525196
214	0xbe198326	-0.14991435
215	0x3cbf02f4	0.023316838
216	0x3da36ded	0.07979951
217	0xbe736d0a	-0.23772064
218	0x3da48c7e	0.08034609
219	0x3e30f868	0.1728226
220	0x3e4c741c	0.19966167
221	0x3d7c7150	0.0616315
222	0xbd6fc7a0	-0.058539987
223	0xbde63b58	-0.11241788
224	0xbe3866c8	-0.18007958
225	0x3d683536	0.05669137
226	0x3d03ed69	0.032208834
227	0x3bd6d801	0.0065565114
228	0x3da026a6	0.078198716
229	0xbc20b454	-0.009808619
230	0x3e2a2b90	0.1661818
231	0x3ddffcbb	0.109368764
232	0xbe6ace80	-0.22930336
233	0x3b4d2bd1	0.0031306634
234	0xbce9738a	-0.028497476
235	0x3e080594	0.13283378
236	0xbe13b3e8	-0.14424098
237	0x3d2665f9	0.040624592
238	0xbdebb11d	-0.11508391
239	0x3e0ebc92	0.13939121
240	0xbd43123b	-0.047624808
241	0x3defb55b	0.11704513
242	0x3e44b365	0.19209059
243	0x3e3327c0	0.17495632
244	0xbdcfcbaa	-0.10146268
245	0x3e6886ad	0.22707625
246	0x3d9e04ce	0.0771576
247	0x3e175931	0.14780118
248	0xbe301793	-0.17196493
249	0xbe0dd5c8	-0.13851082
250	0x3e6d8d17	0.23198353
251	0x3e416abd	0.18888374
252	0xbdc51687	-0.096234374
253	0x3e0f56f4	0.13998014
254	0x3e5a9108	0.21344388
255	0xbdb2976d	-0.087202884

fc3._model.0.bias f4 [64]
0	0xbb83e987	-0.0040256414
1	0x3b87d907	0.0041457447
2	0xbb8813dd	-0.0041527585
3	0x3b879a19	0.004138243
4	0xbb87834f	-0.0041355263
5	0x3b877c4f	0.004134692
6	0xbb87f539	-0.004149106
7	0xbb85033a	-0.0040592225
8	0x3b881c6f	0.00415378
9	0x3b88160e	0.0041530197
10	0x3b881d36	0.004153873
11	0x3b887f96	0.0041656
12	0x3b8754d1	0.004129984
13	0xbb878243	-0.0041354015
14	0x3b87dd1b	0.004146231
15	0xbb87b78f	-0.004141755
16	0xbb87aaa9	-0.0041402173
17	0xbb883dbf	-0.0041577513
18	0x3b8bf03b	0.004270581
19	0x3b87bd5b	0.004142446
20	0x3b87c271	0.0041430523
21	0xbb87f1f8	-0.004148718
22	0x3b89b2d3	0.0042022257
23	0x3b86f7b4	0.004118884
24	0xbb88476e	-0.0041589057
25	0xbb878eb6	-0.0041368855
26	0x3b882c5f	0.00415568
27	0xbb88ebc8	-0.004178498
28	0x3b87bbbf	0.004142254
29	0x3b86ec67	0.004117537
30	0x3b881b0c	0.004153615
31	0x3b87cd8b	0.0041443757
32	0x3b88e4a1	0.0041776453
33	0xbb87b9ee	-0.0041420376
34	0x3b87a02f	0.0041389684
35	0xbb8796cc	-0.0041378494
36	0x3b87af4f	0.0041407715
37	0xbb87c561	-0.0041434024
38	0x3b87b24f	0.004141129
39	0x3b87bc03	0.004142286
40	0x3b889b05	0.0041688704
41	0x3b8814f5	0.004152889
42	0xbb87c24b	-0.0041430346
43	0x3b87cfa7	0.004144627
44	0xbb88b468	-0.0041718967
45	0x3b8811ed	0.0041525275
46	0x3b877abb	0.0041345037
47	0x3b87e693	0.0041473596
48	0xbb87bddf	-0.0041425074
49	0x3b87b8c1	0.0041418974
50	0x3b87c583	0.0041434183
51	0x3b883354	0.0041565094
52	0xbb88190d	-0.004153377
53	0x3b8813ab	0.004152735
54	0x3b879d4d	0.0041386248
55	0x3b862671	0.004093938
56	0xbb88316e	-0.004156283
57	0xbb87c96b	-0.004143884
58	0xbb87d5e2	-0.00414537
59	0xbb885621	-0.004160658
60	0xbb87abe1	-0.0041403626
61	0x3b875216	0.0041296585
62	0x3b87c705	0.004143598
63	0xbb87be43	-0.004142554

fc4._model.0.weight f4 [1, 64]
0	0xbc13c3f7	-0.00901889
1	0x3e9bd62e	0.30436844
2	0xbe800316	-0.25002354
3	0x3e20ed32	0.15715483
4	0xbe0034b0	-0.12520099
5	0x3dd953e7	0.10611706
6	0xbe0b1a97	-0.13584362
7	0xbc868f9a	-0.016425896
8	0x3e03b1d2	0.12860802
9	0x3e3966a2	0.18105558
10	0x3e825806	0.25457782
11	0x3d89b9a4	0.06724861
12	0x3de5ed10	0.11226857
13	0xbe1b9638	-0.15194023
14	0x3e52b665	0.2057739
15	0xbe4daa69	-0.20084538
16	0xbe7659d6	-0.24057707
17	0xbe43ca51	-0.19120146
18	0x3c10c325	0.008835589
19	0x3e86c443	0.2632161
20	0x3e1fa8db	0.15591757
21	0xbe48fbe8	-0.19627345
22	0x3d0b1e6b	0.033964556
23	0x3d83a7b0	0.06428468
24	0xbe2eefd6	-0.17083678
25	0xbe1b8d8d	-0.15190716
26	0x3e6973e1	0.2279811
27	0xbd4f86c7	-0.050665643
28	0x3e677fef	0.22607397
29	0x3d89725e	0.06711267
30	0x3e9c25a8	0.3049748
31	0x3e160c08	0.14653027
32	0x3d82f099	0.063935466
33	0xbe826b23	-0.25472364
34	0x3e45c017	0.19311558
35	0xbe1e2726	-0.15444621
36	0x3e88648b	0.26639208
37	0xbe5a956e	-0.21346065
38	0x3e7df8fd	0.24802013
39	0x3e50ff95	0.20409997
40	0x3d285ff9	0.04110715
41	0x3e158f09	0.14605345
42	0xbe1f442e	-0.15553352
43	0x3e4fc32a	0.20289293
44	0xbd0ef1b6	-0.034898482
45	0x3e25a908	0.16177762
46	0x3e19bb11	0.15012766
47	0x3e6d7505	0.2318917
48	0xbe966d64	-0.29380333
49	0x3e231c7d	0.15928836
50	0x3e952e00	0.29136658
51	0x3e7c9c78	0.24669063
52	0xbe86a6a7	-0.2629902
53	0x3e6fe3c4	0.2342673
54	0x3e4adec4	0.19811541
55	0x3d1044bb	0.035221796
56	0xbe73a129	-0.23791946
57	0xbe2f0fb3	-0.17095833
58	0xbe983765	-0.29729763
59	0xbe06ce21	-0.1316457
60	0xbe264741	-0.16238119
61	0x3db3c6ab	0.08778127
62	0x3e79f5e1	0.24410202
63	0xbe8e01ca	-0.2773574
