example/cloudManufacturing_network/rl/phase/ckpts/policy-model-weight-array.global-step-25000.pth (torch, 33911 bytes, 7 tensors)

fc1._model.0.weight f4 [24, 141]
0	0x3e18a0af	0.14905046
1	0xbe0dbf21	-0.13842441
2	0x3e1a9f5b	0.15099852
3	0xbdc13350	-0.09433615
4	0x3d2bec3f	0.04197335
5	0x3e3d4717	0.1848415
6	0x3e361fbc	0.17785543
7	0xbc832a98	-0.016011521
8	0x3d439bb2	0.047755904
9	0x3d3c2a3b	0.04593871
10	0xbe353c9c	-0.17698902
11	0x3c74ab6f	0.014933451
12	0xbe211759	-0.15731563
13	0x3e3dcb2a	0.18534532
14	0xbde8d012	-0.11367811
15	0x3e12484b	0.1428539
16	0xbdc83a2c	-0.097767204
17	0x3d825f5a	0.06365843
18	0x3d28001d	0.041015733
19	0x3df591f4	0.11990729
20	0xbd4fc57b	-0.05072544
21	0xbdf4e974	-0.1195859
22	0x3e142597	0.14467464
23	0xbc5e12d9	-0.013554298
24	0x3e46804a	0.19384876
25	0xbd91a152	-0.071108475
26	0x3e3adab3	0.1824749
27	0xbb9fc85b	-0.004876179
28	0x3e37e133	0.17957
29	0x3dfdf4b4	0.12400189
30	0x3dd1f5c9	0.10251958
31	0xbd7ce9d6	-0.06174644
32	0x3defb646	0.11704688
33	0x3e16a0f8	0.14709842
34	0x3e31c466	0.17360076
35	0x3dc59e4c	0.09649333
36	0xbe02579f	-0.12728737
37	0x3e1fb796	0.15597376
38	0x3e39b781	0.18136407
39	0xbe34a67e	-0.17641637
40	0xbd62da51	-0.055383984
41	0xbe0f92bb	-0.14020817
42	0x3d07d724	0.03316416
43	0xbe3e3eca	-0.1857864
44	0x3e05a3c8	0.13050759
45	0x3ae8c86b	0.0017759925
46	0xbdacb936	-0.08433764
47	0x3dc54696	0.09632604
48	0xbc0e8146	-0.008697813
49	0x3d0c4b38	0.03425142
50	0xbcdc7328	-0.02691038
51	0xbd389b0d	-0.045069743
52	0x3e219e76	0.15783104
53	0x3e03c040	0.12866306
54	0x3db9690b	0.090532385
55	0xbde4ca74	-0.11171427
56	0xbe17b283	-0.1481419
57	0xbe1c78d5	-0.15280469
58	0x3e007eaf	0.12548326
59	0xbe1206d5	-0.14260419
60	0x3c8c848e	0.01715305
61	0x3bf63d46	0.0075146286
62	0x3dfe3dba	0.12414117
63	0x3dff0a7e	0.12453173
64	0x3e1d4ea7	0.15362035
65	0x3dfec8a4	0.12440613
66	0x3e40c228	0.18824065
67	0xbe0be3a9	-0.13661064
68	0xb9c7e1e8	-0.0003812455
69	0xbd9b7a39	-0.075916715
70	0x3d5c9b69	0.05385915
71	0x3b8bdac3	0.004268022
72	0x3cef619e	0.029221352
73	0x3dd6f55c	0.10496017
74	0x3d714473	0.05890317
75	0xbce463e0	-0.027879655
76	0xbd4de8e7	-0.05027094
77	0x3e277251	0.16352202
78	0xba103e01	-0.00055024034
79	0x3d160125	0.036622185
80	0x3e0bad6d	0.13640375
81	0x3e2beecf	0.16790317
82	0x3dfeed8d	0.12447653
83	0xbe1eed26	-0.15520152
84	0x3e13c8ff	0.14432143
85	0xbda2bdb7	-0.079463415
86	0x3d2893c2	0.041156538
87	0xbd86d083	-0.06582739
88	0x3a0bc058	0.00053310907
89	0xbd06dc48	-0.03292492
90	0x3dcce1d2	0.10004009
91	0xbdc0dc41	-0.0941701
92	0xbe40979e	-0.18807837
93	0xbe3dfd76	-0.18553719
94	0x3e379a8b	0.17930047
95	0xbdc6b6cc	-0.097028345
96	0x3d507bda	0.050899364
97	0xbe40c2fa	-0.18824378
98	0x3e11c426	0.14234981
99	0xbda138e3	-0.078721784
100	0xbd641452	-0.05568344
101	0xbe2d17ac	-0.16903561
102	0xbe1264fe	-0.14296338
103	0x3d8186d5	0.06324545
104	0x3dd680d5	0.104737915
105	0x3e3c5352	0.18391159
106	0x3e03df01	0.12878038
107	0x3e0368ff	0.12833022
108	0xbcb903d4	-0.022584833
109	0xbdaa1047	-0.08303886
110	0xbe35e568	-0.17763293
111	0xbd8dcc2b	-0.069237076
112	0x3dccae59	0.09994192
113	0xbd78557a	-0.06062839
114	0x3e21d78f	0.15804885
115	0x3ceb3780	0.028712988
116	0xbe163911	-0.14670207
117	0x3d39d905	0.04537298
118	0x3e3570c0	0.17718792
119	0x3dfac7d4	0.122451454
120	0x3df531cd	0.11972389
121	0xbe143dc7	-0.14476691
122	0x3e1f8d27	0.15581189
123	0x3daae5e4	0.083446294
124	0xbd470ddb	-0.048597198
125	0xbc47cd43	-0.012194934
126	0x3a1415ac	0.00056489813
127	0x3d81316c	0.063082546
128	0x3dd9d91c	0.106371135
129	0xbda35304	-0.07974818
130	0x3e0affb9	0.13574113
131	0x3e33a4d2	0.17543343
132	0x3d606f9b	0.054793935
133	0xbd6b09bc	-0.05738233
134	0x3d578d87	0.052625205
135	0xbda7f0e1	-0.08200241
136	0xbd3c4e6d	-0.04597323
137	0xbc8404b8	-0.016115531
138	0xbda97a1c	-0.08275244
139	0xbdc1bb55	-0.09459559
140	0xbdd0acaf	-0.10189187
141	0xbdd60597	-0.10450285
142	0x3d3adb78	0.045619458
143	0xbd81f797	-0.06346052
144	0x3e193455	0.1496137
145	0x3dd46f98	0.10372847
146	0xbe240b8c	-0.1602003
147	0xbe3150c4	-0.17315966
148	0x3dbfe025	0.09368924
149	0xbd194448	-0.037418634
150	0xbcccd740	-0.025004983
151	0x3d08cae6	0.033396624
152	0xbe104dc9	-0.14092173
153	0x3dff3453	0.12461152
154	0xbe3808ab	-0.17972057
155	0xbdeb682f	-0.11494481
156	0xbe192b99	-0.14958037
157	0xbe35a624	-0.17739159
158	0x3c29475a	0.010331953
159	0x3d97e671	0.07417
160	0xbe20a547	-0.15688048
161	0xbd76f98b	-0.060296576
162	0xbe050b6a	-0.12992635
163	0x3c0ede51	0.008719997
164	0x3e32dfdd	0.1746821
165	0x3d574dd0	0.052564442
166	0x3e10be29	0.1413504
167	0x3e3707a2	0.17874005
168	0x3d411fc2	0.047149427
169	0x3d886aab	0.0666097
170	0xbd7fa28c	-0.062410876
171	0xbd5c48ca	-0.053780355
172	0xbe27224d	-0.16321678
173	0x3c238e60	0.009982675
174	0x3d45bf22	0.04827798
175	0xbce25ec9	-0.027633088
176	0xbd41ca11	-0.047311846
177	0x3ca4a96c	0.020100318
178	0xbde69cdc	-0.11260387
179	0x3e192c60	0.14958334
180	0x3e248984	0.16068083
181	0x3d57ac16	0.05265435
182	0x3e057197	0.13031612
183	0xbe407d4e	-0.187978
184	0xbc91c3d2	-0.01779357
185	0x3d8bcf4c	0.06826648
186	0xbdfc280b	-0.12312325
187	0x3bcbe437	0.0062222737
188	0xbe1420fd	-0.14465709
189	0xbdd5e754	-0.10444513
190	0xbd24da4e	-0.040247254
191	0xbcfb058d	-0.030642295
192	0xbdf0b67c	-0.11753556
193	0x3c3d0cd5	0.011538704
194	0x3cb3bf1d	0.021941716
195	0xbc5c1d1f	-0.013434677
196	0xbda09114	-0.078401715
197	0x3e254a41	0.16141607
198	0x3e1adbee	0.15122959
199	0x3e0e2452	0.13881043
200	0xbdca28a1	-0.098710306
201	0x3d0285a9	0.03186575
202	0x3dcd2ec6	0.10018687
203	0xbde9677c	-0.11396691
204	0xbd3c50fc	-0.04597567
205	0xbb18fcde	-0.002334408
206	0x3e264255	0.16236241
207	0x3ddfbdd2	0.10924877
208	0x3e121283	0.14264874
209	0xbe117f99	-0.14208831
210	0xbe1646f5	-0.14675505
211	0xbd71a1ae	-0.05899208
212	0x3e39d0b8	0.18146026
213	0x3c793abb	0.015211756
214	0xbe076e98	-0.13225782
215	0x3e006dc3	0.12541871
216	0xbd961201	-0.07327653
217	0xbdbac1ba	-0.09118982
218	0xbcb0b807	-0.021572126
219	0x3e2e4ee5	0.17022283
220	0xbe2baf31	-0.16766049
221	0xbdd902b4	-0.10596219
222	0xbe28b35d	-0.16474672
223	0xbde2ba00	-0.11070633
224	0xbc0ad89c	-0.008474495
225	0xbd6bd52c	-0.057576343
226	0xbdd1de5d	-0.102474906
227	0xbd0aa238	-0.03384611
228	0x3db1d641	0.08683444
229	0x3d7a4f57	0.06111082
230	0x3cbdfdb8	0.023192272
231	0xbdc34388	-0.09534365
232	0x3cb92af8	0.022603497
233	0x3de1339e	0.10996173
234	0xbc45a0c5	-0.012062256
235	0x3e1b2a33	0.15152816
236	0x3e376d42	0.17912772
237	0x3cead584	0.028666265
238	0xbda5d476	-0.08097164
239	0xbe43b87f	-0.19113348
240	0x3d3ee8e0	0.046608806
241	0xbde4f8f5	-0.11180297
242	0x3e2bb727	0.16769086
243	0x3e2fc645	0.17165478
244	0x3c82eca0	0.015981972
245	0x3c72fa2b	0.0148301525
246	0x3e3e20b1	0.18567158
247	0xbda884d6	-0.082284614
248	0xbdb20e10	-0.086940885
249	0x3da23410	0.079200864
250	0xbdd1c558	-0.102427185
251	0xbdc75428	-0.097328484
252	0x3e09a542	0.13441947
253	0xbdced1eb	-0.100986324
254	0xbe32c736	-0.17458805
255	0x3e068a5f	0.13138722

fc1._model.0.bias f4 [24]
0	0xbb6bb5f3	-0.0035966604
1	0xbab1e66b	-0.0013572698
2	0x37b23691	2.1244663e-05
3	0xbac2416b	-0.0014820521
4	0xbb0ff671	-0.002196696
5	0xbae3114a	-0.0017323878
6	0xbb1ca2b0	-0.002390068
7	0xba930479	-0.0011216543
8	0xbaaad30b	-0.0013032866
9	0xbb1bb0c1	-0.0023756477
10	0xbaa7201c	-0.0012750658
11	0xba9d2f06	-0.0011992163
12	0x3afaf540	0.0019146577
13	0x3af4ef86	0.0018687106
14	0x39b3a09c	0.00034261204
15	0xbae53267	-0.0017486335
16	0x3a04ea15	0.00050702813
17	0xbab1c874	-0.0013563768
18	0x39b253ed	0.00034013335
19	0xbb0ae51e	-0.0021193693
20	0xbb0c3e87	-0.0021399574
21	0x3aa0eeb0	0.0012278166
22	0xbb2fe061	-0.002683662
23	0x3a946f89	0.0011324744

fc2._model.0.weight f4 [20, 48]
0	0xbe8341af	-0.2563605
1	0xbdf44a9a	-0.119282916
2	0xbcd367eb	-0.025806388
3	0xbe96030f	-0.2929921
4	0x3d23cecc	0.03999214
5	0xbe3b02e5	-0.18262823
6	0xbdc4ec2d	-0.096153595
7	0x3df51bec	0.11968216
8	0x3e259615	0.16170533
9	0x3e54b078	0.20770442
10	0x3df91ca2	0.121636644
11	0xbe63fa61	-0.2226348
12	0x3d361539	0.044453833
13	0x3e38e76d	0.18057032
14	0x3e0bbc2c	0.13646
15	0xbc8cbf08	-0.017180935
16	0x3d3ebe2d	0.046568085
17	0xbd4c0e2f	-0.049818214
18	0x3e59a4ad	0.21254225
19	0x3cd4cb26	0.025975775
20	0xbe702461	-0.23451377
21	0xbe8195a4	-0.2530948
22	0xbe7432fb	-0.23847573
23	0x3cd10372	0.025514338
24	0xbe35bd08	-0.17747891
25	0x3d73ab25	0.059489388
26	0xbe586cc2	-0.21135238
27	0x3e170ae1	0.14750244
28	0x3e95e62c	0.2927717
29	0xbe797ea1	-0.24364711
30	0xba2250d9	-0.0006191857
31	0x3e83a376	0.25710648
32	0x3d66ee91	0.05637986
33	0xbe792abc	-0.24332708
34	0x3d96ec0f	0.07369243
35	0x3e4ee869	0.20205845
36	0x3e64d337	0.22346197
37	0x3e46dbf8	0.19419849
38	0x3e4e4dbe	0.20146844
39	0x3e6eba21	0.2331319
40	0xbe6ed576	-0.23323616
41	0xbe52de2d	-0.20592566
42	0x3e0c3cb7	0.13695036
43	0xbe50e0b0	-0.20398211
44	0xbe74f129	-0.2392012
45	0x3dfa0161	0.12207294
46	0x3db3bc25	0.0877612
47	0xbe9092b3	-0.28236923
48	0x3e27b568	0.16377795
49	0xbdfd34dd	-0.123635985
50	0xbe8d7944	-0.2763158
51	0xbd895d8a	-0.06707294
52	0xbbeec58a	-0.007286732
53	0xbe6f359d	-0.23360296
54	0x3ddc5dc7	0.10760074
55	0x3b75fae3	0.0037533573
56	0x3d3c226d	0.04593127
57	0xbe1e4c47	-0.15458785
58	0x3dad8b93	0.08473887
59	0xbe47c296	-0.19507822
60	0x3e28b6c7	0.16475974
61	0x3d98c9b5	0.074603476
62	0xbcf2f779	-0.02965902
63	0xbca229d7	-0.019795341
64	0xbe7b7147	-0.2455493
65	0xbdfe6e4d	-0.12423382
66	0xbc876159	-0.016525911
67	0xbdabed33	-0.083948515
68	0x3e80b6a6	0.2513935
69	0x3d8b145e	0.06790994
70	0x3e2738e4	0.16330296
71	0xbd1b1815	-0.037864763
72	0xbe2cd3ed	-0.16877718
73	0xbe6fc57e	-0.23415181
74	0x3a49b59d	0.0007694604
75	0xbddc1602	-0.10746385
76	0xbcc327b9	-0.023822652
77	0x3e2b85df	0.16750287
78	0xbe3c6205	-0.18396766
79	0x3e74988c	0.23886317
80	0xbe601825	-0.2188421
81	0x3e89ee20	0.26939487
82	0x3e934d71	0.2877002
83	0xbe24ebe6	-0.16105613
84	0xbe90d1ca	-0.28285056
85	0xbdfcac48	-0.123375475
86	0x3e1bafa0	0.15203714
87	0x3c47fde6	0.01220653
88	0xbdfbf8aa	-0.12303288
89	0xbd8ad2db	-0.06778499
90	0xbe378de7	-0.17925225
91	0xbe34ab38	-0.1764344
92	0x3e4669fe	0.1937637
93	0x3e7b0c49	0.24516405
94	0x3e769cf8	0.24083316
95	0x3e16821f	0.14698075
96	0x3e235872	0.15951708
97	0x3e58d7bf	0.2117605
98	0xbe911c05	-0.2834169
99	0x3c2a1d5d	0.010382977
100	0xbe8e8f1a	-0.27843553
101	0xbe85cbff	-0.261322
102	0xbe28c3d6	-0.16480955
103	0x3e533866	0.20626983
104	0x3e828051	0.25488523
105	0xbe63b509	-0.22237028
106	0x3e8e320b	0.27772555
107	0xbe1e6f56	-0.15472159
108	0x3e05cd4f	0.130666
109	0x3d1cf5e3	0.038320433
110	0xbe2cda8e	-0.16880247
111	0xbdb3d095	-0.08780018
112	0xbc894e5d	-0.016761
113	0xbcd1dc2c	-0.025617681
114	0x3d3957ec	0.045249864
115	0x3e086e77	0.13323389
116	0x3c9ad2b1	0.018899294
117	0xbe567864	-0.20944363
118	0x3e71afb0	0.23602176
119	0xbe834068	-0.25635076
120	0x3b3f6bfd	0.0029208653
121	0x3e6013fc	0.21882623
122	0xbe817904	-0.2528764
123	0xbe5afb7c	-0.21384996
124	0xbcffffc4	-0.031249888
125	0xbe351449	-0.1768352
126	0x3e531912	0.20615032
127	0x3d9e0625	0.07716016
128	0xbdceccd4	-0.100976616
129	0xbe0b31ef	-0.13593267
130	0xbc8ffabd	-0.017575616
131	0xbdb2cfb6	-0.08731024
132	0xbde3f238	-0.11130184
133	0x3e6bee9b	0.2304024
134	0xbe3e2d28	-0.18571913
135	0xbdb32245	-0.08746771
136	0x3e7c987f	0.24667548
137	0xbe787602	-0.24263766
138	0xbd87aca5	-0.06624726
139	0x3e74884f	0.23880123
140	0xbd6398f0	-0.055565774
141	0x3e116db8	0.1420201
142	0x3deb1c35	0.114799894
143	0xbe19dc68	-0.15025485
144	0xbe73410d	-0.23755284
145	0xbdd7ff80	-0.1054678
146	0xbe03a695	-0.12856515
147	0x3e90977a	0.28240567
148	0x3dc0daff	0.0941677
149	0xbe140ba2	-0.14457563
150	0x3e536b07	0.20646296
151	0xbd3f1806	-0.04665377
152	0xbe7d77b3	-0.24752693
153	0xbd499487	-0.049213912
154	0x3b3fd770	0.0029272698
155	0xbdfab129	-0.12240822
156	0xbe83372c	-0.2562803
157	0xbe8fc82b	-0.28082404
158	0x3e8546fb	0.26030716
159	0xbdef4b7f	-0.116843216
160	0xbe044b0a	-0.1291925
161	0x39acc32b	0.00032951808
162	0x3d3567e5	0.044288535
163	0x3e531c80	0.2061634
164	0x3d1e4529	0.038640175
165	0x3e8f9bea	0.2804864
166	0x3e5f2623	0.21791892
167	0xbddafcae	-0.10692726
168	0x3e915001	0.2838135
169	0xbd9006bd	-0.07032535
170	0xbe664c1c	-0.22489971
171	0x3deeaf70	0.11654556
172	0xbde42e85	-0.111416854
173	0xbe648e2b	-0.22319858
174	0x3e7d2c0b	0.24723832
175	0x3bd6528e	0.006540603
176	0x3e3521d0	0.1768868
177	0x3e430e51	0.1904843
178	0xbe8346af	-0.25639865
179	0xbe7897e3	-0.2427669
180	0x3e883191	0.26600316
181	0x3e03be66	0.128656
182	0x3df3cccd	0.11904297
183	0xbe96fad0	-0.2948823
184	0xbe12f779	-0.14352216
185	0xbd2f04c8	-0.04272917
186	0x3e385f3f	0.18005084
187	0x3e2124f4	0.15736753
188	0x3cb8486a	0.022495467
189	0xbe73d625	-0.23812158
190	0xbce552e6	-0.02799363
191	0x3d8aaff2	0.0677184
192	0xbe7a2fc2	-0.2443228
193	0xbd15c103	-0.036561023
194	0x3e53e834	0.20694047
195	0x3e96c4e7	0.294471
196	0x3e911a48	0.28340364
197	0x3d9b3c84	0.07579902
198	0xbd0f14ad	-0.034931827
199	0xbde689ca	-0.1125675
200	0x3e842d3d	0.25815764
201	0xbe30cfb2	-0.1726673
202	0xbe2b245e	-0.16713092
203	0xbcdff228	-0.027337149
204	0x3e6c7f02	0.23095325
205	0xbde1228a	-0.10992916
206	0x3e860f58	0.2618358
207	0xbe175c56	-0.14781317
208	0xbdf19031	-0.117950805
209	0x3e82d44c	0.25552595
210	0xbdff9837	-0.124802046
211	0x3e819d2d	0.25315228
212	0xbd1ea03f	-0.03872704
213	0xbe1cb473	-0.15303211
214	0xbe84abdb	-0.25912365
215	0x3e23455a	0.15944424
216	0x3e8a00c2	0.26953703
217	0x3e1ee5de	0.15517375
218	0x3dcc587b	0.09977814
219	0x3e77774e	0.24166605
220	0x3ce2d6d2	0.027690325
221	0x3e05c2cc	0.1306259
222	0xbe1373f9	-0.14399709
223	0xbe60e07c	-0.21960634
224	0x3db0215b	0.08600112
225	0xbe6fd632	-0.23421553
226	0xbdf6234a	-0.120184496
227	0xbe235209	-0.15949263
228	0x3e22244a	0.15834156
229	0x3e8b0714	0.27153838
230	0xbe2772b8	-0.16352355
231	0xbd0de922	-0.03464616
232	0x3e14a2fe	0.14515302
233	0x3e569ad2	0.20957497
234	0xbe138253	-0.14405183
235	0x3b4653af	0.0030262282
236	0xbe02fdc8	-0.12792122
237	0x3c85bbce	0.016324904
238	0xbe7cd5f0	-0.24690986
239	0x3e3957be	0.18099877
240	0xbe4ec49f	-0.20192192
241	0xbe83e991	-0.25764135
242	0xbe8eb1e9	-0.2787011
243	0x3dea4123	0.11438205
244	0xbe619fd8	-0.22033632
245	0xbe477f2d	-0.19482107
246	0xbe602ad7	-0.21891342
247	0x3e7aca18	0.24491155
248	0x3e636bd5	0.22209103
249	0x3e4fb4cd	0.20283814
250	0x3deb44e2	0.11487748
251	0x3def68ec	0.11689934
252	0xbe35fc19	-0.17771949
253	0xbdcf7bc0	-0.10131025
254	0x3e1f0c34	0.15531999
255	0x3dbed96f	0.09318816

fc2._model.0.bias f4 [20]
0	0xb9174739	-0.00014427015
1	0xba6deeb3	-0.00090764015
2	0x00000000	0.0
3	0xba20f4ba	-0.0006139983
4	0x39b2e097	0.00034118138
5	0x00000000	0.0
6	0x3ac7b6b0	0.001523694
7	0xb8e7d05f	-0.000110537505
8	0xba4ccf5d	-0.0007812882
9	0x00000000	0.0
10	0xba4bd1b1	-0.0007775082
11	0x3a79a8e4	0.0009523763
12	0xb84beec3	-4.8621336e-05
13	0x3aa96eb5	0.001292667
14	0x00000000	0.0
15	0x2a101951	1.2798553e-13
16	0xb8a48fb7	-7.8468984e-05
17	0x00000000	0.0
18	0xb86ffaca	-5.7215606e-05
19	0xaf62405c	-2.0577445e-10

fc3._model.0.weight f4 [64, 48]
0	0x3cc52298	0.024064347
1	0x3cf77b7d	0.030210251
2	0x3de12007	0.10992437
3	0x3d809e60	0.06280208
4	0x3e5e0e69	0.21685185
5	0x3e3528ad	0.17691298
6	0xbe259c5c	-0.16172928
7	0xbcff862e	-0.031191912
8	0xbe096ec7	-0.13421164
9	0xbdc7d352	-0.09757103
10	0x3d6166d2	0.055029698
11	0x3c774adc	0.015093531
12	0xbdba9745	-0.091108836
13	0xbdaa86ec	-0.083265156
14	0x3d3a9946	0.04555633
15	0xbe19b5e4	-0.15010792
16	0x3dee96aa	0.11649831
17	0xba0a68cd	-0.0005279899
18	0x3d5a6e88	0.053328067
19	0xbe411388	-0.18855107
20	0x3d9da944	0.076983005
21	0x3e25dad0	0.16196752
22	0xbd9643f0	-0.07337177
23	0x3e363625	0.17794092
24	0xbb9785ab	-0.0046240888
25	0xbe238ef3	-0.159725
26	0x3e25a8e9	0.16177715
27	0xbdb97b08	-0.090566695
28	0x3d4319ee	0.04763215
29	0xbe0a4aa9	-0.13505043
30	0xbdf4bd36	-0.119501516
31	0x3e28e67f	0.16494177
32	0x3e104531	0.14088894
33	0x3e3b337b	0.18281357
34	0x3d987cb8	0.07445663
35	0x3cb629a5	0.022236655
36	0xbd9efa62	-0.077626005
37	0x3e068456	0.1313642
38	0xbdff299d	-0.12459109
39	0x3d896f3f	0.06710672
40	0xbe42f322	-0.1903806
41	0x3e4955f5	0.19661696
42	0xbdee0161	-0.11621357
43	0x3e3a37a6	0.1818529
44	0x3e5ecc53	0.21757631
45	0x3dc63cfe	0.09679602
46	0xbe619482	-0.22029307
47	0xbe66a361	-0.22523262
48	0xbdfc9b0b	-0.123342596
49	0xbe00d2e1	-0.12580444
50	0xbe267442	-0.16255286
51	0x3e4c4467	0.19947968
52	0x3e134e22	0.14385274
53	0x3d58490a	0.05280403
54	0x3e2d355a	0.16914883
55	0xbd8de61e	-0.06928657
56	0x3d77eb70	0.060527265
57	0xbe42d1e6	-0.19025382
58	0x3dcd6e3c	0.10030791
59	0xbde0eebb	-0.10983034
60	0xbe5fd79c	-0.21859592
61	0xbe6fd202	-0.23419955
62	0xbe397df3	-0.18114452
63	0x3e214faf	0.15753053
64	0x3bf269be	0.0073978594
65	0x3d3b2e91	0.045698706
66	0xbd0bc58c	-0.034123942
67	0xbe22eca5	-0.15910585
68	0xbdc9aa83	-0.09846976
69	0x3d03efc2	0.032211073
70	0x3de4d2ca	0.11173017
71	0xbdc35dba	-0.09539361
72	0x3e54e5eb	0.20790832
73	0xbda3c3ec	-0.079963535
74	0x3e438c8f	0.19096588
75	0x3e7298df	0.23691128
76	0x3dc1866c	0.09449467
77	0xbe182281	-0.14856912
78	0x3e1b6faa	0.15179315
79	0xbb2d52bf	-0.0026447026
80	0x3e42e6d0	0.1903336
81	0xbd439f1c	-0.04775916
82	0xbdde7010	-0.10861218
83	0x3dab3cf3	0.083612345
84	0xbe2d1027	-0.16900693
85	0x3e405bc9	0.18785013
86	0xbe3a0524	-0.18166023
87	0xbe04c333	-0.12965088
88	0xbe2f6803	-0.17129521
89	0xbe578bea	-0.21049467
90	0xbdf65659	-0.12028188
91	0xbce5c1a9	-0.028046446
92	0x3dce55d2	0.10074963
93	0xbde3393b	-0.110949
94	0xbe5c2b44	-0.2150088
95	0xbbc95ffd	-0.006145476
96	0x3ca25dff	0.019820211
97	0x3e51c77f	0.20486258
98	0x3dd755ee	0.10514437
99	0x3d98f867	0.07469254
100	0xbdbac3d1	-0.0911938
101	0x3e1cdf42	0.15319541
102	0xbe5fa1b3	-0.21839027
103	0xbdb8c604	-0.090221435
104	0x3e2f5fc1	0.17126371
105	0xbe1f8d77	-0.15581308
106	0xbe14d9e7	-0.14536248
107	0xbdc873e3	-0.09787729
108	0xbd297dd5	-0.04137977
109	0x3d8285b4	0.06373158
110	0x3d3389a9	0.043832455
111	0x3d9839f3	0.07432928
112	0x3dff29bf	0.12459134
113	0x3e45a581	0.19301416
114	0xbbcb6b95	-0.006207893
115	0xbe2e2d4d	-0.17009468
116	0x3d173b48	0.03692177
117	0xbd97ca6e	-0.07411657
118	0xbd9ebd69	-0.07750971
119	0xbdc47bfb	-0.0959396
120	0xbbb82154	-0.0056192074
121	0x3e60fc97	0.21971355
122	0x3cc7eb88	0.024404302
123	0x3e0c8275	0.1372164
124	0xbe3fca4d	-0.18729515
125	0x3e654490	0.22389436
126	0x3d85b59e	0.06528781
127	0x3e292701	0.16518785
128	0xbc95daa1	-0.018292727
129	0xbe663bbe	-0.22483727
130	0xbe4a1685	-0.19735153
131	0x3e260875	0.16214164
132	0xbe248d5b	-0.16069548
133	0x3d7467f5	0.059669454
134	0xbd647e7b	-0.055784684
135	0x3e1120de	0.14172694
136	0x3e42e064	0.1903091
137	0xbe0c031c	-0.13673061
138	0xbe5b3481	-0.21406747
139	0xbdc1fd4a	-0.09472139
140	0xbe4305cb	-0.19045179
141	0xbd88f24a	-0.06686838
142	0x3e03debc	0.12877935
143	0xbcc258f3	-0.023724055
144	0xbdf7bfa4	-0.120970994
145	0xbe03713a	-0.12836161
146	0xbe2a00a0	-0.16601801
147	0x3d053734	0.03252335
148	0xbd880a35	-0.06642572
149	0x3e4ea528	0.2018019
150	0xbd61ee2a	-0.05515877
151	0x3e07a83f	0.13247775
152	0x3e29392b	0.16525714
153	0xbe56e433	-0.20985489
154	0x3de4359c	0.11143038
155	0x3d6f8af6	0.058482133
156	0xbcd6d8c2	-0.026226405
157	0xbd5ec3a0	-0.05438578
158	0xbe699f77	-0.22814737
159	0x3de5f2de	0.11227964
160	0x3e130b21	0.14359714
161	0xbde47999	-0.111560054
162	0xbc1af447	-0.009457654
163	0xbe32dff2	-0.17468241
164	0xbe003a0c	-0.12522143
165	0xbe3d3c10	-0.18479943
166	0x3e2ac38a	0.16676155
167	0x3dccf3ea	0.100074604
168	0x3d477b10	0.048701346
169	0xbdabaa7a	-0.08382125
170	0xbe5bf925	-0.2148176
171	0x3c5c3f1a	0.013442779
172	0x3cc3782c	0.023861013
173	0xbe5efcf9	-0.21776189
174	0x3e3d4e2a	0.18486848
175	0xbe46b140	-0.19403553
176	0x3c82eaaf	0.015981046
177	0x3dbf57f0	0.093429446
178	0x3d7bf25f	0.06151044
179	0xbe2bd1ec	-0.16779298
180	0x3dde4784	0.10853484
181	0x3e023c7f	0.1271839
182	0xbd5c3cdf	-0.05376899
183	0xbe42bf9b	-0.19018404
184	0x3df6aac9	0.120442934
185	0x3d8fdacf	0.07024156
186	0xbe202996	-0.15640864
187	0x3c9d855a	0.019228626
188	0x3d84fe84	0.064938575
189	0x3d02020b	0.03174023
190	0x3e3d41d7	0.18482147
191	0xbd744c03	-0.059642803
192	0xbd7a3225	-0.061082978
193	0x3e3c1456	0.18367133
194	0xbe08c803	-0.13357548
195	0x3e120766	0.14260635
196	0xbdf72bf8	-0.12068933
197	0x3daab9c0	0.0833621
198	0xbe577e0d	-0.21044178
199	0x3bfb254c	0.0076643582
200	0x3cdbbdb4	0.026823856
201	0x3e5ec5af	0.21755098
202	0x3d947f99	0.072509
203	0xbe533cb8	-0.20628631
204	0x3d3211e9	0.04347411
205	0xbcfdd207	-0.030983938
206	0xbe37cde2	-0.17949632
207	0xbdf6046d	-0.12012563
208	0x3dcf5d9b	0.10125276
209	0x3dc055ca	0.09391363
210	0xbe1e5b74	-0.15464574
211	0x3e33d3ea	0.17561308
212	0xbe0108db	-0.12601034
213	0xbe528181	-0.20557214
214	0xbe18a44c	-0.14906424
215	0x3cc553a1	0.024087729
216	0x3da3e7e8	0.08003217
217	0xbe738a1b	-0.23783152
218	0x3da3c068	0.07995683
219	0x3e304718	0.1721462
220	0x3e4cc604	0.19997412
221	0x3d7b0173	0.06128068
222	0xbd6fc476	-0.05853697
223	0xbde693ac	-0.11258635
224	0xbe38813b	-0.18018048
225	0x3d6659fe	0.056238167
226	0x3d026a7b	0.03183983
227	0x3bc1c1ca	0.005912994
228	0x3da0d642	0.078533664
229	0xbc194cd4	-0.009356696
230	0x3e2a8d7a	0.16655532
231	0x3de04812	0.10951246
232	0xbe6aabb8	-0.22917068
233	0x3b7d1584	0.003861756
234	0xbce64a3a	-0.028111566
235	0x3e0730ec	0.13202256
236	0xbe1347dd	-0.14382882
237	0x3d2358d6	0.039879642
238	0xbdeb44e3	-0.114877485
239	0x3e0fc343	0.1403933
240	0xbd475d91	-0.048673216
241	0x3def8c17	0.11696642
242	0x3e44e027	0.19226132
243	0x3e340180	0.17578697
244	0xbdd13ace	-0.10216294
245	0x3e680f21	0.22662021
246	0x3d9c2cd0	0.07625735
247	0x3e16eb40	0.14738178
248	0xbe2ff862	-0.17184594
249	0xbe0df748	-0.13863862
250	0x3e6d58be	0.23178384
251	0x3e41d17a	0.18927565
252	0xbdc68213	-0.096927784
253	0x3e0f22f9	0.13978185
254	0x3e59ea8b	0.21280877
255	0xbdb2ef18	-0.0873701

fc3._model.0.bias f4 [64]
0	0xbb816165	-0.003948378
1	0x3b84ce1f	0.004052892
2	0xbb850831	-0.0040598144
3	0x3b849b6b	0.0040468476
4	0xbb848821	-0.004044548
5	0x3b848855	0.0040445724
6	0xbb84e9b2	-0.004056179
7	0xbb822e97	-0.003972839
8	0x3b850b98	0.00406022
9	0x3b850b7e	0.004060208
10	0x3b851459	0.0040612635
11	0x3b8565b6	0.004070963
12	0x3b8462d2	0.0040401006
13	0xbb848a87	-0.004044834
14	0x3b84d74b	0.0040539852
15	0xbb84b0ed	-0.0040494115
16	0xbb84ad82	-0.004049004
17	0xbb852e2b	-0.0040643415
18	0x3b886d18	0.0041633956
19	0x3b84bcf2	0.0040508443
20	0x3b84c883	0.004052223
21	0xbb84e634	-0.0040557627
22	0x3b86581e	0.00409986
23	0x3b840e6b	0.004030039
24	0xbb85315a	-0.004064721
25	0xbb848f08	-0.004045371
26	0x3b851978	0.004061874
27	0xbb85b41c	-0.0040803086
28	0x3b84b6f8	0.004050132
29	0x3b8408a8	0.004029352
30	0x3b850e3b	0.0040605343
31	0x3b84be67	0.004051018
32	0x3b85c374	0.0040821377
33	0xbb84b459	-0.0040498194
34	0x3b84a13f	0.0040475423
35	0xbb849883	-0.004046501
36	0x3b84acfe	0.0040489426
37	0xbb84c28f	-0.0040515135
38	0x3b84b3b2	0.0040497417
39	0x3b84bbf2	0.004050725
40	0x3b857da6	0.0040738164
41	0x3b850e21	0.004060522
42	0xbb84c6bc	-0.0040520113
43	0x3b84c9ac	0.0040523615
44	0xbb856fe9	-0.0040721786
45	0x3b85150c	0.004061347
46	0x3b848082	0.0040436396
47	0x3b84d9a9	0.0040542674
48	0xbb84ba0c	-0.004050499
49	0x3b84a5a4	0.004048066
50	0x3b84bf4d	0.004051125
51	0x3b851fb2	0.0040626163
52	0xbb850e00	-0.004060507
53	0x3b850888	0.004059855
54	0x3b849679	0.004046258
55	0x3b836051	0.0040092845
56	0xbb85245c	-0.0040631723
57	0xbb84c843	-0.0040521934
58	0xbb84d406	-0.0040535955
59	0xbb854741	-0.004067332
60	0xbb84aff3	-0.004049295
61	0x3b84578f	0.004038758
62	0x3b84c5aa	0.0040518837
63	0xbb84bbe1	-0.004050717

fc4._model.0.weight f4 [1, 64]
0	0xbc04da41	-0.008108676
1	0x3e9bf5d2	0.30460984
2	0xbe7f5915	-0.24936326
3	0x3e204784	0.15652281
4	0xbdffa00e	-0.124817
5	0x3dd963df	0.10614752
6	0xbe0a9d6a	-0.13536611
7	0xbc856951	-0.01628557
8	0x3e03efe7	0.12884484
9	0x3e397f35	0.18114932
10	0x3e82d1e0	0.25550747
11	0x3d8a9058	0.06765813
12	0x3de57288	0.11203486
13	0xbe1af928	-0.15134108
14	0x3e51fcbf	0.20506571
15	0xbe4e3ec4	-0.2014113
16	0xbe765853	-0.2405713
17	0xbe43f919	-0.19137992
18	0x3c11e15d	0.008903828
19	0x3e870504	0.26371014
20	0x3e1f7634	0.15572435
21	0xbe49dde3	-0.1971355
22	0x3d0c68a6	0.034279488
23	0x3d844ccf	0.064599626
24	0xbe2ed012	-0.1707156
25	0xbe1bdbb4	-0.15220529
26	0x3e68f8bc	0.22751135
27	0xbd4e46f2	-0.050360627
28	0x3e683070	0.22674727
29	0x3d8a60a0	0.06756711
30	0x3e9c68da	0.30548745
31	0x3e1646a8	0.1467539
32	0x3d81adfd	0.06332014
33	0xbe823f87	-0.25439093
34	0x3e44ecb5	0.19230922
35	0xbe1d9881	-0.15390207
36	0x3e883115	0.26599947
37	0xbe5a005d	-0.21289201
38	0x3e7d70f3	0.24750118
39	0x3e516e4f	0.20452236
40	0x3d2c30b7	0.042038646
41	0x3e14e38e	0.1453993
42	0xbe1f1728	-0.15536177
43	0x3e4f45ab	0.2024142
44	0xbd0b659d	-0.034032453
45	0x3e262dfa	0.16228476
46	0x3e19b3f1	0.15010048
47	0x3e6ca8f1	0.23111321
48	0xbe960933	-0.29303893
49	0x3e22451c	0.15846676
50	0x3e94ca2c	0.29060495
51	0x3e7bb895	0.24582131
52	0xbe865db2	-0.2624336
53	0x3e6fe002	0.23425296
54	0x3e4ac47f	0.1980152
55	0x3d108056	0.03527864
56	0xbe73d7c2	-0.23812774
57	0xbe2e3fd7	-0.1701654
58	0xbe9871c8	-0.29774308
59	0xbe07fd89	-0.1328031
60	0xbe264688	-0.16237843
61	0x3db3a483	0.087716125
62	0x3e797d03	0.24364094
63	0xbe8e3ba4	-0.27779877
