example/cloudManufacturing_network/rl/phase/ckpts/policy-model-weight-array.global-step-16800.pth (torch, 33911 bytes, 7 tensors)

fc1._model.0.weight f4 [24, 141]
0.07854086 -0.079915814 -0.1528783 0.11866494 0.0799564 0.12867133 0.01820342 -0.18066786
0.16596901 -0.11654597 0.14965811 0.03041777 0.16726817 -0.1219973 0.16863252 -0.03353288
-0.14454801 -0.16218594 -0.0066458476 0.016516928 -0.017288333 -0.062113628 0.06442223 -0.15732743
0.09104115 0.09236502 -0.1853471 -0.11277431 0.13331352 -0.17294748 0.18303224 0.04420176
-0.09819914 0.06174997 -0.18794744 0.16443473 -0.13237226 0.074291244 -0.088330254 0.03859137
0.14358099 0.14252196 0.15133776 0.005046027 -0.16926338 -0.030924287 0.0002861938 -0.08944537
-0.03680103 -0.052408658 0.039915334 -0.12036185 0.010667172 0.012303945 -0.18657525 -0.01697239
0.014079819 -0.035010114 0.13539569 -0.10727045 -0.16924278 -0.10913308 -0.06758046 0.15271384
0.13987206 0.038587045 -0.11821305 -0.0076679573 -0.14190349 -0.15720303 -0.13307881 -0.07791205
-0.01679199 -0.18706262 0.009436664 0.17094284 0.14791487 0.17230125 -0.018505905 0.05215898
0.084838696 -0.12332483 0.09530821 0.086748675 -0.052746214 -0.010872127 -0.03695481 0.17855798
0.06452331 0.15137498 -0.031042818 -0.107622735 -0.11693944 -0.1722078 0.027299382 -0.18124901
0.10661132 -0.063804045 0.11248611 -0.10706366 0.055554193 -0.101575784 -0.046363924 -0.08873885
-0.14918557 0.16626753 -0.17190103 -0.08633373 0.14742768 -0.09372302 0.18047667 -0.022415226
0.069653004 0.13917817 0.15171616 -0.12777014 0.015839266 -0.032797076 0.078289926 -0.17440265
-0.055580996 -0.10016835 -0.18312474 -0.16417447 0.13888395 0.18005306 0.18403608 0.032520674
-0.06807018 0.175714 0.19017097 -0.06784579 -0.14073844 0.043557376 0.017673263 -0.1695837
-0.15796722 0.06339196 -0.04851586 -0.12090343 0.15765332 0.08727443 -0.12328393 0.14204305
-0.06207088 -0.15135512 -0.14044148 -0.06293559 -0.05073707 -0.14156808 0.10901224 0.09074237
0.043552745 0.16050906 0.0700448 0.10840641 -0.075047374 -0.019139603 0.12274296 -0.074040584
-0.03697196 0.12232054 0.100998916 0.06397428 -0.0084103905 0.046963252 -0.08517256 0.057726428
-0.15955958 0.005808283 -0.1046695 0.09752694 0.008287988 -0.04137496 -0.15665874 -0.017174546
0.14035688 0.057619296 -0.15288614 -0.0018692198 0.08376924 -0.16365789 -0.044815492 -0.05702698
0.011921671 -0.059743118 0.18020913 0.13140321 -0.0018459783 0.057156283 -0.12244438 -0.1667485
-0.11385547 -0.14920378 0.043576915 -0.07178248 0.037823126 0.16046524 -0.087053165 0.12424312
0.124199085 0.065729596 0.12348102 0.13726614 0.16002247 0.13927001 0.06939695 0.17190965
0.17856197 -0.14541961 -0.025749562 -0.13050947 0.09157783 -0.048487145 0.11358636 -0.009192853
-0.032799944 -0.15038748 -0.07984852 0.09317643 -0.16078648 0.009958163 -0.1770537 -0.043035023
-0.10926114 -0.12550399 0.024419371 -0.08983249 0.034095276 -0.13327785 0.17441748 -0.05440385
-0.036590572 0.095806286 -0.17517377 0.1740587 -0.018343778 -0.008936734 0.17808838 -0.10429654
0.11891257 -0.1334221 0.044381216 -0.039969347 0.03990892 -0.08967443 -0.17220603 0.13657314
-0.1800712 -0.1816284 -0.0031794675 0.124077514 0.01922994 -0.03299527 0.18248819 -0.0107097635
00000000: 08da a03d e7aa a3bd 218c 1cbe 9b06 f33d
00000010: 2ec0 a33d 6bc2 033e 571f 953c ff00 39be
00000020: c8f3 293e a7af eebd fa3f 193e b02e f93c
00000030: 5948 2b3e b8d9 f9bd 01ae 2c3e c659 09bd
00000040: 6504 14be 1214 26be 69c5 d9bb 824e 873c
00000050: 43a0 8dbc dc6a 7ebd cdef 833d 711a 21be
00000060: c873 ba3d df29 bd3d a1cb 3dbe 38f6 e6bd
00000070: 5783 083e 2519 31be ce6c 3b3e e80c 353d
00000080: a11c c9bd 89ed 7c3d 4b75 40be 9461 283e
00000090: 988c 07be 0226 983d 7ee6 b4bd fc11 1e3d
000000a0: e506 133e 47f1 113e 49f8 1a3e 2459 a53b
000000b0: 6153 2dbe ee54 fdbc 480c 9639 222f b7bd
000000c0: adbc 16bd 76aa 56bd 437e 233d 4680 f6bd
000000d0: 5dc5 2e3c 7c96 493c 950d 3fbe ae09 8bbc
000000e0: 0baf 663c c466 0fbd 2ba5 0a3e 9cb0 dbbd
000000f0: fb4d 2dbe 2a81 dfbd a067 8abd 0461 1c3e
00000100: 9f3a 0f3e 730d 1e3d af19 f2bd 7d43 fbbb
00000110: 264f 11be d5f9 20be d045 08be 5a90 9fbd
00000120: 5b8f 89bc 588d 3fbe 3d9c 1a3c a40b 2f3e
00000130: ff76 173e bd6f 303e b299 97bc a8a4 553d
00000140: e9bf ad3d ba91 fcbd f330 c33d 4aa9 b13d
00000150: 6a0c 58bd 0121 32bc ed5d 17bd e7d7 363e
00000160: cc24 843d 0b02 1b3e 824d febc 4f69 dcbd
00000170: f27d efbd 3e57 30be f4a2 df3c 5799 39be
00000180: 0957 da3d b2ab 82bd 1e5f e63d 3144 dbbd
00000190: cb8c 633d f706 d0bd 19e8 3dbd b7bc b5bd
000001a0: 1ac4 18be 0942 2a3e d306 30be bdcf b0bd
000001b0: 48f7 163e dbf1 bfbd e0ce 383e 23a0 b7bc
000001c0: 3ca6 8e3d b984 0e3e 7b5b 1b3e 2dd6 02be
000001d0: 59c1 813c 3a56 06bd 7856 a03d 9c96 32be
000001e0: e6a8 63bd 1025 cdbd 0d85 3bbe 5a1d 28be
000001f0: 9837 0e3e d45f 383e f473 3c3e 6634 053d
00000200: 6168 8bbd 5fee 333e 2ebc 423e bcf2 8abd
00000210: bd1d 10be 3869 323d 85c7 903c 59a7 2dbe
00000220: 29c2 21be a5d3 813d 91b8 46bd 389c f7bd
00000230: df6f 213e f0bc b23d 497c fcbd bc73 113e
00000240: 093e 7ebd d6fc 1abe e4cf 0fbe 60e4 80bd
00000250: add1 4fbd 39f7 10be cf41 df3d 23d7 b93d
00000260: 5d64 323d 7d5c 243e a673 8f3d 2e04 de3d
00000270: 70b2 99bd a8ca 9cbc a960 fb3d 97a2 97bd
00000280: e96f 17bd 3183 fa3d 85d8 ce3d f304 833d
00000290: bccb 09bc 8a5c 403d f36e aebd 8c72 6c3d
000002a0: 9663 23be 6953 be3b f65c d6bd 34bc c73d
000002b0: 57ca 073c ca78 29bd 266b 20be a2b1 8cbc
000002c0: b7b9 0f3e 3602 6c3d 2f8e 1cbe 9c00 f5ba
000002d0: 358f ab3d ef95 27be 7390 37bd 1f95 69bd
000002e0: 1d53 433c 33b5 74bd be88 383e 908e 063e
000002f0: c1f4 f1ba b51c 6a3d 1ec4 fabd 1ec0 2abe
00000300: 0f2d e9bd e0c8 18be b57d 323d b102 93bd
00000310: 6cec 1a3d 0051 243e ee48 b2bd 2d73 fe3d
00000320: 175c fe3d 3d9d 863d 9ee3 fc3d 7f8f 0c3e
00000330: eedc 233e cc9c 0e3e fd1f 8e3d 1509 303e
00000340: f3d8 363e e1e8 14be bff0 d2bc 46a4 05be
00000350: 288d bb3d 759a 46bd f79f e83d 9f9d 16bc
00000360: 3c59 06bd 2dff 19be 9f87 a3bd 49d3 be3d
00000370: 36a5 24be 9027 233c 914d 35be 7e45 30bd
00000380: 4ec4 dfbd 1e84 00be 220b c83c 19fa b7bd
00000390: 7da7 0b3d fd79 08be 7f9a 323e 92d6 5ebd
000003a0: ffdf 15bd 1636 c43d c160 33be 723c 323e
000003b0: b145 96bc 616b 12bc cd5c 363e 6d99 d5bd
000003c0: 6f88 f33d ce9f 08be 14c9 353d e6b6 23bd
000003d0: 8977 233d 3aa7 b7bd c756 30be d4d9 0b3e
000003e0: 9664 38be ccfc 39be 9d5e 50bb 5a1c fe3d
000003f0: 1b88 9d3c 0c26 07bd 2fde 3a3e 0178 2fbc

fc1._model.0.bias f4 [24]
0.0014577807 0.0013988181 0.0013610455 -0.0012640798 -0.0014669514 0.0014257237 -0.0013985708 -0.0014522078
-0.0014195958 0.001428141 0.0015398794 0.0012839164 0.00022418333 0.0013351758 -0.0014818728 0.0014655236
0.0014407373 0.001127898 -0.0013586933 0.0017489 -0.00161685 -0.0016115282 -0.0014585475 0.001143374
00000000: 0113 bf3a 8c58 b73a 1c65 b23a 7baf a5ba
00000010: b946 c0ba 59df ba3a 4050 b7ba 0258 beba
00000020: bb11 baba 7630 bb3a c7d5 c93a 1649 a83a
00000030: c112 6b39 1101 af3a 663b c2ba d016 c03a
00000040: 1fd7 bc3a fad5 933a 2f16 b2ba 593b e53a
00000050: 7cec d3ba ea39 d3ba bc2c bfba 44dd 953a

fc2._model.0.weight f4 [20, 48]
0.18122941 -0.17518096 -0.20134462 -0.19975133 -0.09428004 -0.16309881 0.016132217 0.13058884
-0.29617053 0.0012918436 -0.077502325 -0.09874955 0.20370297 -0.25631133 0.21445481 0.18881989
0.02273088 0.15474078 -0.10752262 -0.19661862 0.28735262 -0.106505424 0.07360442 0.11645579
-0.22492401 -0.2535945 -0.16984624 0.01247499 0.015543058 0.13526522 -0.2368807 0.22236766
-0.021928268 0.18121326 0.24241795 0.2308694 -0.055625193 0.24811347 -0.294945 0.028699841
0.14753811 -0.2885655 -0.23868419 -0.18136737 0.01750784 0.23843455 0.198583 0.22742037
0.028962303 0.09522206 -0.04073769 0.2409279 -0.01692024 -0.02741384 0.050751727 -0.2435043
-0.2250624 -0.21850722 0.21991691 0.16131756 0.012292521 0.18373804 -0.2298045 -0.19333468
-0.23610154 0.24874753 -0.17710105 -0.16419859 0.11018351 -0.21865286 -0.0073061646 0.21840934
0.24152227 -0.0696507 -0.11741517 0.096938625 -0.20294476 0.17112856 -0.19070493 0.10198043
-0.13881554 0.11684807 0.21579354 0.19194248 -0.091516435 -0.19485344 -0.015099754 0.26248905
0.22474839 0.11465152 0.1502012 0.047134265 -0.16747649 -0.00493448 0.20057686 0.09582418
-0.027051555 -0.13759093 0.12397311 -0.13538359 0.29101247 -0.010407658 -0.0054861745 -0.23719157
-0.24036969 -0.12267514 -0.16342002 -0.29212654 0.09263406 0.24294655 -0.12541191 0.05075785
0.11885513 -0.20109434 -0.031953175 0.15692915 0.24068269 -0.18016374 0.23293754 -0.29340872
-0.15664873 0.17149314 -0.168899 0.12663336 0.07496942 0.2725982 0.19895528 0.031649426
-0.07167423 0.18070537 -0.019121105 -0.2551744 0.22394173 0.28621286 -0.07747885 0.1460927
-0.28652197 0.047317587 0.058516987 -0.0074033663 0.10318874 0.19521044 0.038200427 0.12864973
0.051890675 0.063802145 -0.19856112 0.08356474 0.18306093 0.12988774 0.091682225 0.07274536
0.2912177 0.104413845 -0.00325671 -0.0881989 -0.09344923 -0.0028312067 -0.27610788 0.027388236
-0.11190847 -0.0839411 -0.1113604 0.10704411 0.2817031 -0.28108588 0.1530464 -0.022323113
0.0062707197 0.26569518 0.26883203 0.16261424 -0.1346755 -0.24083358 0.14775889 -0.13041416
0.111212224 0.07886078 0.23376079 -0.090275176 -0.19063035 -0.117678165 -0.109607376 -0.25526008
0.09048647 -0.29409796 0.00527337 -0.26276502 -0.121775456 0.115501784 -0.07331631 -0.044995993
-0.06007561 -0.2456319 -0.027455721 0.19274229 -0.011438208 -0.15724285 0.20174839 -0.25464097
0.08986034 -0.041861366 -0.047787655 0.18265525 -0.054845247 -0.06437437 -0.112734385 -0.07749367
-0.16864173 -0.16206715 0.27321833 0.29253793 0.014959 0.11288062 0.11493657 0.19841185
-0.04103848 -0.020333923 -0.26462644 0.1762409 -0.10677572 0.105759986 -0.2585845 0.22560863
-0.22993234 -0.26372507 -0.032514255 -0.2594287 0.1827852 -0.23580335 -0.03627013 -0.0010154903
-0.18203475 0.28491557 0.13967814 -0.09453057 0.04585678 -0.26858947 0.2562815 0.027826669
-0.23571466 0.14236377 -0.10665337 -0.13210507 0.2923602 -0.18911201 -0.24923609 -0.13910322
0.22389945 -0.23522647 -0.28853852 0.09011198 0.27331182 -0.020909602 0.22686523 -0.012215534
00000000: 3494 393e a362 33be 492d 4ebe 9d8b 4cbe
00000010: e515 c1bd 6003 27be b627 843c 15b9 053e
00000020: aaa3 97be 1453 a93a 8ab9 9ebd 343d cabd
00000030: 8397 503e 3d3b 83be 0b9a 5b3e 005a 413e
00000040: 1c36 ba3c 5e74 1e3e d234 dcbd 6456 49be
00000050: e21f 933e 841f dabd eabd 963d 6080 ee3d
00000060: 7b52 66be 23d7 81be 2cec 2dbe e763 4c3c
00000070: 4fa8 7e3c f782 0a3e db90 72be 59b4 633e
00000080: e9a2 b3bc f88f 393e 693c 783e 0769 6c3e
00000090: 3ed7 63bd 7511 7e3e 0803 97be ee1b eb3c
000000a0: 3b14 173e dbbe 93be a169 74be 5eb8 39be
000000b0: 9a6c 8f3c 3028 743e 5859 4b3e e3e0 683e
000000c0: 5a42 ed3c c903 c33d 90dc 26bd ceb5 763e
000000d0: 519c 8abc fd92 e0bc 0be1 4f3d 3159 79be
000000e0: c276 66be 5bc0 5fbe e631 613e 6e30 253e
000000f0: 9266 493c d325 3c3e df51 6bbe 87f9 45be
00000100: 9ac4 71be acb7 7e3e fa59 35be ad23 28be
00000110: e4a7 e13d 89e6 5fbe 8d68 efbb b3a6 5f3e
00000120: 9d51 773e 07a5 8ebd 5d77 f0bd c287 c63d
00000130: c0d0 4fbe 533c 2f3e 2748 43be 1edb d03d
00000140: a925 0ebe 0a4e ef3d fbf8 5c3e 928c 443e
00000150: f86c bbbd a987 47be f564 77bc f764 863e
00000160: 7124 663e 6bce ea3d 58ce 193e dc0f 413d
00000170: f57e 2bbe 6bb1 a1bb 0564 4d3e 783f c43d
00000180: 399b ddbc a3e4 0cbe 9de5 fd3d ffa1 0abe
00000190: 96ff 943e e284 2abc 5ec5 b3bb 59e2 72be
000001a0: 7923 76be 1b3d fbbd 9457 27be 9c91 95be
000001b0: edb6 bd3d fbc6 783e fb6b 00be 77e7 4f3d
000001c0: 526a f33d adeb 4dbe 55e1 02bd 09b2 203e
000001d0: 8675 763e d87c 38be 2e87 6e3e ab39 96be
000001e0: 8668 20be e69b 2f3e dcf3 2cbe 2dac 013e
000001f0: 9189 993d fe91 8b3e efba 4b3e d4a2 013d
00000200: f0c9 92bd d40a 393e dda3 9cbc 38a6 82be
00000210: fb50 653e 7e8a 923e 3bad 9ebd 5399 153e
00000220: 02b3 92be 16d0 413d 82af 6f3d f097 f2bb
00000230: 9e54 d33d 3fe5 473e 0d78 1c3d c1bc 033e
00000240: 518b 543d b3aa 823d 9b53 4bbe fe23 ab3d
00000250: 5374 3b3e 4b01 053e e4c3 bb3d 85fb 943d
00000260: 7d1a 953e edd6 d53d 876e 55bb a0a1 b4bd
00000270: 4f62 bfbd c48b 39bb 035e 8dbe 4b5d e03c
00000280: 4530 e5bd 50e9 abbd ec10 e4bd f139 db3d
00000290: 643b 903e 7dea 8fbe 32b8 1c3e f6de b6bc
000002a0: 9c7a cd3b 3309 883e 5aa4 893e 5984 263e
000002b0: 60e8 09be 149d 76be 1b4e 173e 4a8b 05be
000002c0: 3cc3 e33d c381 a13d fd5e 6f3e 31e2 b8bd
000002d0: 9a34 43be 4001 f1bd d579 e0bd 73b1 82be
000002e0: f850 b93d 0294 96be 3ccc ac3b 2389 86be
000002f0: 6965 f9bd 338c ec3d dd26 96bd b84d 38bd
00000300: d811 76bd ee86 7bbe d2ea e0bc 3c5e 453e
00000310: 5267 3bbc 4504 21be 2197 4e3e 4d60 82be
00000320: b308 b83d d376 2bbd fdbc 43bd fa09 3b3e
00000330: 69a5 60bd b6d6 83bd 49e1 e6bd 00b5 9ebd
00000340: 6bb0 2cbe eef4 25be 46e3 8b3e 88c7 953e
00000350: 9816 753c f42d e73d dd63 eb3d 7a2c 4b3e
00000360: f717 28bd 5493 a6bc 1e7d 87be 7f78 343e
00000370: 3bad dabd b198 d83d 3065 84be f305 673e
00000380: 6273 6bbe f906 87be ab2d 05bd d7d3 84be
00000390: 0b2c 3b3e 6f76 71be fd8f 14bd 331a 85ba
000003a0: 5167 3abe 74e0 913e c907 0f3e 3e99 c1bd
000003b0: 52d4 3b3d 8f84 89be 5437 833e c1f4 e33c
000003c0: 2f5f 71be cfc7 113e 156d dabd 8d46 07be
000003d0: 3cb0 953e 94a6 41be bf37 7fbe 1371 0ebe
000003e0: e645 653e 35df 70be 52bb 93be a18c b83d
000003f0: 87ef 8b3e 9d4a abbc 5c4f 683e aa23 48bc

fc2._model.0.bias f4 [20]
0.0 0.0 0.0 0.0005778378 -0.000107418586 -9.3641014e-05 0.0 -6.0626304e-09
6.797218e-05 0.0 0.0 0.0 0.0 0.0 6.025762e-05 -0.00027866664
0.0 0.0 -0.00041425432 -5.1884454e-06
00000000: 0000 0000 0000 0000 0000 0000 0a7a 173a
00000010: ea45 e1b8 2361 c4b8 0000 0000 764f d0b1
00000020: 498c 8e38 0000 0000 0000 0000 0000 0000
00000030: 0000 0000 0000 0000 20bd 7c38 011a 92b9
00000040: 0000 0000 0000 0000 4630 d9b9 6818 aeb6

fc3._model.0.weight f4 [64, 48]
0.08462985 -0.13721879 -0.04448223 0.03299285 -0.0022907467 -0.019541165 -0.092402436 -0.1079805
-0.12676512 0.0012215478 -0.21381402 -0.17629111 -0.002442665 -0.21843691 0.07175868 -0.047099005
-0.044369932 0.03147105 0.10191611 -0.029158896 0.041728057 0.078307495 0.17990668 -0.06636859
-0.16482668 -0.06649314 0.17657408 -0.17630991 0.15478559 0.13460684 -0.06349398 0.20933942
0.016328713 0.19869737 -0.07840668 -0.06938782 0.21209818 0.03551878 -0.034551643 -0.17400184
0.009534799 0.18386954 -0.098952405 0.0805881 -0.22640614 -0.12074765 0.2070172 -0.048139688
-0.15946288 -0.06324505 -0.118934765 0.15848914 -0.20514166 0.086775854 -0.07703248 0.15580417
-0.22474648 0.029058393 -0.046969544 0.06121862 0.07493657 0.098385684 -0.041028142 0.0609272
-0.13870893 -0.19824919 -0.06565348 -0.18344304 -0.1380943 0.19889474 -0.13308662 0.0050289338
0.108511135 0.09489173 -0.061018705 -0.17387031 0.12220297 0.016879182 -0.11464055 0.22428721
0.23284762 -0.044353176 -0.19364417 -0.12460403 0.012000826 0.06898734 -0.049979545 0.19064134
0.023800066 -0.013707209 -0.17998156 0.1460036 0.1208932 0.22553603 0.0573947 0.17817032
0.1555111 -0.11913621 0.03135567 0.18224324 0.00013010176 -0.17287898 0.14062953 0.01930542
0.16611299 0.21048452 0.18775362 -0.19800451 -0.17780137 -0.15695757 -0.063765414 0.1592807
-0.06718121 -0.0025029955 -0.08418606 -0.041248478 0.14459974 0.16338132 0.20511498 0.12092809
0.1586226 0.15632771 0.13699968 0.10404168 -0.16614844 0.11028776 -0.21167028 0.2260206
-0.031290706 0.13075805 0.10251961 0.21769318 0.0856334 0.14862159 0.20113786 -0.1863854
0.14233588 -0.0822446 0.016843848 -0.10510263 -0.20351171 -0.016101884 0.13856591 0.12550123
0.036786348 -0.004629453 0.06584855 -0.13612905 -0.2042041 -0.01594111 -0.09645173 -0.14460279
-0.014373303 0.22850694 -0.2202857 -0.08946833 0.21388775 0.14496136 0.1491847 0.11103922
-0.20378458 -0.14999145 0.07596568 -0.18185179 0.17347527 -0.10582445 0.1910805 -0.027611066
-0.16745745 0.14305398 -0.20628692 0.09110679 -0.06998097 -0.16389252 0.16672325 0.10977345
0.13366722 -0.21593188 -0.108684085 0.09380641 0.18518907 -0.20581378 0.1941228 0.040251456
0.11021743 -0.1357917 0.22368883 0.065758444 -0.16298258 0.21067186 0.1272041 -0.1983348
-0.16357091 -0.1270274 0.0055667073 -0.11133332 0.06458515 0.1872345 0.031965617 -0.055911846
-0.09379718 -0.052008957 -0.11235272 0.06274347 -0.092973605 -0.22092015 -0.017276177 0.16162641
0.22496165 -0.17687708 -0.22702727 -0.20704481 -0.1187474 0.16352855 0.1983938 0.13502331
-0.13804321 0.19250757 0.0962219 0.029783372 0.20870322 0.06518663 0.14260758 0.10086574
0.14238897 0.121827565 -0.04333661 -0.018636994 -0.03671407 -0.076705 0.108783364 0.13710444
0.03849045 -0.04404533 -0.19006738 0.065316014 -0.10836049 -0.116950415 0.21673892 0.008312681
0.110368215 -0.058356646 -0.17898977 0.16374886 -0.07879119 0.15728027 0.11645273 0.13210064
-0.124792114 -0.11810493 0.14328812 0.16393727 0.01447987 0.14913918 -0.18745267 -0.16249289
00000000: 6a52 ad3d 1583 0cbe 0033 36bd 8323 073d
00000010: 5a20 16bb cb14 a0bc 7d3d bdbd e124 ddbd
00000020: b7ce 01be 581c a03a 10f2 5abe a885 34be
00000030: 1e15 20bb edad 5fbe 37f6 923d e3ea 40bd
00000040: 3fbd 35bd cae7 003d 65b9 d03d a3de eebc
00000050: 0aeb 2a3d ae5f a03d 7539 383e 41ec 87bd
00000060: 53c8 28be 8e2d 88bd d6cf 343e 968a 34be
00000070: 1d80 1e3e 60d6 093e 2209 82bd 135d 563e
00000080: cbc3 853c 5377 4b3e ae93 a0bd 341b 8ebd
00000090: 4430 593e 247c 113d 0686 0dbd 8a2d 32be
000000a0: d837 1c3c 4c48 3c3e 8fa7 cabd 600b a53d
000000b0: 03d7 67be 8b4a f7bd 51fc 533e 1f2e 45bd
000000c0: 3d4a 23be 9f86 81bd 1294 f3bd fa4a 223e
000000d0: a810 52be 8ab7 b13d 34c3 9dbd 218b 1f3e
000000e0: f123 66be de0b ee3c 2363 40bd 60c0 7a3d
000000f0: 5878 993d 6f7e c93d 200d 28bd cd8e 793d
00000100: b709 0ebe d601 4bbe 5575 86bd 7ed8 3bbe
00000110: 9868 0dbe 10ab 4b3e dc47 08be c1c9 a43b
00000120: 163b de3d 9856 c23d c0ee 79bd 0f0b 32be
00000130: 8d45 fa3d 3646 8a3c aac8 eabd 8cab 653e
00000140: 9b6f 6e3e adab 35bd a84a 46be 6630 ffbd
00000150: 1d9f 443c 3c49 8d3d 5ab7 4cbd 7c37 433e
00000160: 5bf8 c23c 3494 60bc 164d 38be f881 153e
00000170: db96 f73d ebf2 663e b416 6b3d 4872 363e
00000180: 4d3e 1f3e affd f3bd ce6e 003d f99d 3a3e
00000190: ed6b 0839 3007 31be 3001 103e 6626 9e3c
000001a0: 8619 2a3e 4189 573e 7c42 403e b2c1 4abe
000001b0: 9011 36be 7cb9 20be 7197 82bd 7b1a 233e
000001c0: 4d96 89bd 4c09 24bb be69 acbd 2af4 28bd
000001d0: f411 143e 6f4d 273e a909 523e 25a9 f73d
000001e0: f66d 223e 5f14 203e a549 0c3e ce13 d53d
000001f0: d122 2abe 8dde e13d 18c0 58be f271 673e
00000200: af2a 00bd 70e5 053e cdf5 d13d f6ea 5e3e
00000210: 9060 af3d 4230 183e 15f7 4d3e d0db 3ebe
00000220: 7fc0 113e db6f a8bd 1cfc 893c 0c40 d7bd
00000230: 6065 50be 19e8 83bc 39e4 0d3e 6583 003e
00000240: 48ad 163d abb2 97bb 9bdb 863d 6a65 0bbe
00000250: e11a 51be ee96 82bc 7c88 c5bd c112 14be
00000260: 017e 6bbc b9fd 693e 9392 61be 2c3b b7bd
00000270: 6405 5b3e c070 143e e0c3 183e 8868 e33d
00000280: e8ac 50be 5c97 19be e593 9b3d 5b37 3abe
00000290: 80a3 313e 7dba d8bd 9baa 433e 9a30 e2bc
000002a0: f779 2bbe be7c 123e e13c 53be 3296 ba3d
000002b0: 2f52 8fbd 71d3 27be 80b9 2a3e e7d0 e03d
000002c0: 0fe0 083e 3f1d 5dbe c395 debd 931d c03d
000002d0: 34a2 3d3e d9c0 52be 21c8 463e b6de 243d
000002e0: adb9 e13d fb0c 0bbe af0e 653e 5dac 863d
000002f0: e8e4 26be 5dba 573e cb41 023e 4718 4bbe
00000300: 227f 27be 7913 02be ed68 b63b b902 e4bd
00000310: 3845 843d 67ba 3f3e 61ee 023d d203 65bd
00000320: bc18 c0bd 5807 55bd 2f19 e6bd a67f 803d
00000330: f268 bebd e438 62be c586 8dbc 6581 253e
00000340: 595c 663e 441f 35be d679 68be 8e03 54be
00000350: d631 f3bd 0774 273e bf27 4b3e 8d43 0a3e
00000360: 335b 0dbe b420 453e fd0f c53d 42fc f33c
00000370: 4cb6 553e 9180 853d b907 123e b292 ce3d
00000380: 6ace 113e bb80 f93d bb81 31bd 9cac 98bc
00000390: 7e61 16bd 8317 9dbd d0c9 de3d 1b65 0c3e
000003a0: 29a8 1d3d e068 34bd 06a1 42be 67c4 853d
000003b0: 1bec ddbd b383 efbd cff0 5d3e e931 083c
000003c0: bb08 e23d 6107 6fbd 1849 37be c8ad 273e
000003d0: 475d a1bd 140e 213e c57e ee3d 6445 073e
000003e0: 0293 ffbd ffe0 f1bd 1fba 123e 2cdf 273e
000003f0: fa3c 6d3c f1b7 183e 98f3 3fbe 8964 26be

fc3._model.0.bias f4 [64]
0.0001221622 0.00012174088 0.00012050162 -0.000121004115 -0.00012052804 0.00012113036 -0.00012222961 -0.00012157381
0.000120827215 0.00012064125 -0.0001210538 -0.00012090257 -0.00012244414 0.000121620076 0.00012233769 -0.00012203281
0.00012199341 0.00012106791 0.00012165561 -0.00012089256 -0.00012235796 0.000121017416 0.00012201519 -0.00012083415
-0.00012479593 0.00012239313 -0.000121976234 0.000121201505 0.000121610065 0.00012054906 -0.000121676945 0.00012222509
0.00012158332 -0.00012200394 0.00012185776 -0.00012070684 -0.0001216548 0.00012110899 -0.00012051139 -0.00012328546
0.00012251835 0.00012271968 0.00012109058 0.00012112505 -0.000121369405 -0.000119944285 -0.00012188113 -0.00012013422
0.00012108805 0.0001225939 0.0001218382 -0.00012094381 0.0001213438 -0.00012130549 -0.00012383235 0.000121046665
-0.00012106457 0.00012200918 0.00012107156 0.00012098458 0.00012138961 -0.000120848665 0.00012120899 0.00012093893
00000000: aa18 0039 234f ff38 d1b5 fc38 97c3 fdb8
00000010: 00c4 fcb8 5e07 fe38 c32a 00b9 71f5 feb8
00000020: 9e64 fd38 c700 fd38 44de fdb8 138d fdb8
00000030: 5964 00b9 480e ff38 c647 0039 deeb ffb8
00000040: b7d6 ff38 d7e5 fd38 5c21 ff38 b387 fdb8
00000050: 374d 00b9 bbca fd38 68e2 ff38 5768 fdb8
00000060: a7db 02b9 a856 0039 7ecd ffb8 902d fe38
00000070: e808 ff38 49cf fc38 d02c ffb8 8c29 0039
00000080: 8cfa fe38 5edc ffb8 e38d ff38 fe23 fdb8
00000090: ec20 ffb8 e5fb fd38 0fbb fcb8 3046 01b9
000000a0: 4578 0039 50ae 0039 03f2 fd38 8404 fe38
000000b0: b487 feb8 998a fbb8 6f9a ffb8 91f0 fbb8
000000c0: a7f0 fd38 8d8c 0039 6383 ff38 37a3 fdb8
000000d0: f579 fe38 6465 feb8 fed8 01b9 6fda fd38
000000e0: 0ce4 fdb8 2edf ff38 cde7 fd38 1ab9 fd38
000000f0: 8d92 fe38 2270 fdb8 9531 fe38 98a0 fd38

fc4._model.0.weight f4 [1, 64]
0.14881115 0.2438625 0.111798406 -0.21181205 -0.0710936 0.15062734 -0.18954785 -0.113492556
0.14838926 0.12081374 -0.23680595 -0.10365348 -0.10557757 0.22995898 0.1051273 -0.2737255
0.16219968 0.2431223 0.21902335 -0.191497 -0.11306665 0.22760977 0.304647 -0.12534161
-0.03226177 0.10453284 -0.20593868 0.2704861 0.28524268 0.12164376 -0.27752537 0.13228779
0.23706654 -0.08291003 0.30086863 -0.15151992 -0.2752162 0.18300037 -0.08037418 -0.064729504
0.12448924 0.06803248 0.24005468 0.24937047 -0.22512287 -0.07416838 -0.29432163 -0.08255601
0.22552258 0.11950417 0.16092722 -0.17719209 0.24986733 -0.25695178 -0.05487269 0.1213144
-0.23098521 0.05630952 0.1825941 0.14171171 0.2917444 -0.10153939 0.16020074 0.14427449
00000000: f361 183e 17b7 793e 90f6 e43d 42e5 58be
00000010: 8599 91bd 0e3e 1a3e d518 42be c96e e8bd
00000020: 5bf3 173e 326d f73d 427d 72be 4748 d4bd
00000030: 0e39 d8bd 5e7a 6b3e fb4c d73d c025 8cbe
00000040: ac17 263e 0df5 783e a847 603e ca17 44be
00000050: 7d8f e7bd 8912 693e b1fa 9b3e 8d59 00be
00000060: eb24 04bd 5015 d63d 97e1 52be 277d 8a3e
00000070: 540b 923e 5d20 f93d ce17 8ebe 7376 073e
00000080: 92c1 723e bccc a9bd 740b 9a3e 0a28 1bbe
00000090: 23e9 8cbe 7364 3b3e 389b a4bd e790 84bd
000000a0: 37f4 fe3d 9d54 8b3d e5d0 753e f95a 7f3e
000000b0: 9c86 66be 97e5 97bd 53b1 96be 2013 a9bd
000000c0: 64ef 663e 9abe f43d 1bca 243e d871 35be
000000d0: 39dd 7f3e 2f8f 83be 30c2 60bd af73 f83d
000000e0: 6387 6cbe d0a4 663d f3f9 3a3e e01c 113e
000000f0: 865f 953e e2f3 cfbd aa0b 243e b1bc 133e
