example/cloudManufacturing_network/rl/phase/ckpts/policy-model-weight-array.global-step-25600.pth (torch, 33911 bytes, 7 tensors)

fc1._model.0.weight f4 [24, 141]
0	0x3da09efa	0.078428224
1	0xbda3c769	-0.07997019
2	0xbe1c97e5	-0.15292318
3	0x3df20654	0.11817613
4	0x3da38fd3	0.07986417
5	0x3e039aa4	0.1285196
6	0x3c9418e0	0.018078268
7	0xbe39227d	-0.18079562
8	0x3e29de83	0.16588788
9	0xbdeee47a	-0.11664672
10	0x3e19cc21	0.15019275
11	0x3cf70bd1	0.030157002
12	0x3e2b396d	0.16721125
13	0xbdfa81fd	-0.122318245
14	0x3e2c9754	0.16854602
15	0xbd09e37d	-0.033664215
16	0xbe141ff9	-0.14465322
17	0xbe270856	-0.16311774
18	0xbbd97389	-0.0066360873
19	0x3c85699a	0.016285706
20	0xbc8d1d07	-0.017225755
21	0xbd7eb14d	-0.062180806
22	0x3d83ff9b	0.06445237
23	0xbe20ec12	-0.15715054
24	0x3dbbf9b9	0.0917849
25	0x3dbd5c47	0.09246116
26	0xbe3daf06	-0.18523797
27	0xbde747b1	-0.11292971
28	0x3e084c48	0.13310349
29	0xbe30e6a5	-0.17275484
30	0x3e3b7c2a	0.18309084
31	0x3d31fcae	0.043453865
32	0xbdc92502	-0.09821512
33	0x3d7e4bad	0.06208389
34	0xbe4046ce	-0.1877701
35	0x3e284d43	0.16435723
36	0xbe0778aa	-0.13229623
37	0x3d98517d	0.07437418
38	0xbdb36b63	-0.08760717
39	0x3d1df721	0.03856576
40	0x3e133683	0.14376263
41	0x3e12174d	0.14266701
42	0x3e1b2c00	0.15153503
43	0x3b9af5dc	0.0047290158
44	0xbe2da8c6	-0.16958913
45	0xbcffd00a	-0.03122713
46	0x3898a43c	7.278516e-05
47	0xbdb70bec	-0.08937821
48	0xbd158d12	-0.03651149
49	0xbd578142	-0.052613504
50	0x3d230730	0.039801776
51	0xbdf69067	-0.12039261
52	0x3c252c77	0.010081402
53	0x3c4736f7	0.012159101
54	0xbe3f36b2	-0.18673208
55	0xbc904bd4	-0.017614283
56	0x3c60c3ba	0.01371854
57	0xbd1159a8	-0.035485893
58	0x3e0a0bbf	0.13481043
59	0xbddc4d04	-0.10756877
60	0xbe2d9337	-0.1695069
61	0xbddff10e	-0.109346494
62	0xbd8b5a3c	-0.0680432
63	0x3e1bdc6b	0.15220802
64	0x3e0f2c5d	0.13981767
65	0x3d1dea1f	0.038553353
66	0xbdf22483	-0.1182337
67	0xbbfeb9cf	-0.007773615
68	0xbe115061	-0.14190818
69	0xbe2100c9	-0.15722956
70	0xbe087e6b	-0.13329475
71	0xbd9f7657	-0.077862434
72	0xbc897a7a	-0.016782034
73	0xbe3f7be2	-0.18699601
74	0x3c1b15de	0.009465663
75	0x3e2f20ce	0.17102358
76	0x3e17cf1e	0.14825103
77	0x3e307973	0.17233829
78	0xbc97ec22	-0.018545214
79	0x3d558d14	0.052136496
80	0x3dad5a2f	0.08464467
81	0xbdfcc823	-0.123428605
82	0x3dc32a5b	0.09529563
83	0x3db1a47d	0.08673952
84	0xbd58c249	-0.05291966
85	0xbc32e5c4	-0.010919038
86	0xbd17ab3b	-0.037028532
87	0x3e36bb8e	0.17844984
88	0x3d84215d	0.06451676
89	0x3e1b0b09	0.15140928
90	0xbcfe4c2c	-0.031042181
91	0xbddc7a8d	-0.10765562
92	0xbdef9bf0	-0.116996646
93	0xbe3066df	-0.17226742
94	0x3cdf252a	0.0272394
95	0xbe398e47	-0.18120681
96	0x3dda53f0	0.10660541
97	0xbd82c665	-0.06385497
98	0x3de65f1e	0.11248611
99	0xbddb6280	-0.10712147
100	0x3d634dd5	0.05549415
101	0xbdd0267a	-0.10163589
102	0xbd3daf3c	-0.046309695
103	0xbdb5d6ca	-0.088788584
104	0xbe18c41a	-0.14918557
105	0x3e2a4209	0.16626753
106	0xbe3015fa	-0.17195883
107	0xbdb0ef36	-0.08639376
108	0x3e16e788	0.1473676
109	0xbdc010a7	-0.09378176
110	0x3e38c120	0.18042421
111	0xbcb814fd	-0.022470945
112	0x3d8e87ed	0.069595195
113	0x3e0e84b9	0.13917817
114	0x3e1b5b7b	0.15171616
115	0xbe02d62d	-0.12777014
116	0x3c81c159	0.015839266
117	0xbd06563a	-0.032797076
118	0x3da05678	0.078289926
119	0xbe32969c	-0.17440265
120	0xbd63a8e6	-0.055580996
121	0xbdcd2510	-0.10016835
122	0xbe3b850d	-0.18312474
123	0xbe281d5a	-0.16417447
124	0x3e0e3798	0.13888395
125	0x3e385fd4	0.18005306
126	0x3e3c73f4	0.18403608
127	0x3d053466	0.032520674
128	0xbd8b6861	-0.06807018
129	0x3e33ee5f	0.175714
130	0x3e42bc2e	0.19017097
131	0xbd8af2bc	-0.06784579
132	0xbe101dbd	-0.14073844
133	0x3d326938	0.043557376
134	0x3c90c785	0.017673263
135	0xbe2da759	-0.1695837
136	0xbe21c229	-0.15796722
137	0x3d81d3a5	0.06339196
138	0xbd46b891	-0.04851586
139	0xbdf79c38	-0.12090343
140	0x3e216fdf	0.15765332
141	0x3db28b0b	0.087179266
142	0xbdfcae2c	-0.12337908
143	0x3e11608c	0.14196986
144	0xbd7d3017	-0.06181344
145	0xbe1b203a	-0.15149012
146	0xbe0ffb6e	-0.14060757
147	0xbd816f69	-0.06320078
148	0xbd4e7654	-0.050405815
149	0xbe111027	-0.14166318
150	0x3ddf1fbe	0.10894726
151	0x3db8a47e	0.090157494
152	0x3d31eda3	0.04343952
153	0x3e246dc6	0.160575
154	0x3d8f2a96	0.069905445
155	0x3dde9faf	0.10870301
156	0xbd99cf6b	-0.07510265
157	0xbc9cfd98	-0.019163892
158	0x3dfd3704	0.12364009
159	0xbd97b0be	-0.07406758
160	0xbd17436e	-0.03692954
161	0x3dfaac6b	0.12239917
162	0x3dcf1918	0.10112208
163	0x3d82bc4d	0.06383572
164	0xbc0c306e	-0.008556468
165	0x3d3dcefc	0.046339974
166	0xbdaea757	-0.08528011
167	0x3d6c92bf	0.057757135
168	0xbe235e6e	-0.15953991
169	0x3bb98a58	0.005662244
170	0xbdd6c489	-0.10486705
171	0x3dc73613	0.09727111
172	0x3c11b018	0.008892082
173	0xbd2a0c91	-0.04151589
174	0xbe208b5d	-0.15678163
175	0xbc8a2b66	-0.016866397
176	0x3e10054b	0.14064519
177	0x3d6c3524	0.057667866
178	0xbe1c757e	-0.15279195
179	0xbb1df28d	-0.002410087
180	0x3dabcd37	0.08388751
181	0xbe27abbe	-0.16374108
182	0xbd3824e3	-0.044957053
183	0xbd6a1003	-0.057144176
184	0x3c46898c	0.012117755
185	0xbd73bf98	-0.05950889
186	0x3e388b32	0.18021849
187	0x3e06e40a	0.13172927
188	0xbacfff90	-0.001586901
189	0x3d6ab883	0.05730487
190	0xbdfa564c	-0.12223491
191	0xbe2a61cb	-0.16638868
192	0xbde8a8ae	-0.11360298
193	0xbe183500	-0.14863968
194	0x3d336637	0.04379865
195	0xbd929a7f	-0.07158374
196	0x3d1c666a	0.038183607
197	0x3e246d36	0.16057286
198	0xbdb1cd84	-0.08681777
199	0x3dff0f32	0.1245407
200	0x3dfe4d05	0.12417034
201	0x3d871c2f	0.065971725
202	0x3dfda5d5	0.123851456
203	0x3e0d0c7f	0.13774298
204	0x3e23f835	0.16012652
205	0x3e0eb99a	0.13937989
206	0x3d8e61b2	0.06952228
207	0x3e302538	0.17201698
208	0x3e371255	0.17878087
209	0xbe14e695	-0.14541085
210	0xbcd266ed	-0.025683844
211	0xbe058385	-0.13038452
212	0x3dbb91a3	0.091586374
213	0xbd46e5ca	-0.048558988
214	0x3de8b096	0.11361806
215	0xbc155ced	-0.0091163935
216	0xbd060cb2	-0.03272695
217	0xbe19ef79	-0.15032758
218	0xbda39d8f	-0.07989036
219	0x3dbe8881	0.0930338
220	0xbe24c802	-0.16091922
221	0x3c1f618f	0.00972785
222	0xbe357a73	-0.17722492
223	0xbd30a487	-0.043125656
224	0xbddff3e5	-0.10935191
225	0xbe00c286	-0.12574205
226	0x3cc87d74	0.024473883
227	0xbdb7d9a2	-0.08977057
228	0x3d0c1ea5	0.034208912
229	0xbe086f36	-0.13323674
230	0x3e32a760	0.17446661
231	0xbd5edc0a	-0.054409064
232	0xbd15a66f	-0.036535677
233	0x3dc44ea3	0.09585311
234	0xbe335280	-0.1751194
235	0x3e324bd1	0.17411734
236	0xbc96c49f	-0.018404303
237	0xbc12a844	-0.00895125
238	0x3e36670a	0.17812744
239	0xbdd5996d	-0.10429654
240	0x3df3a50b	0.11896714
241	0xbe08901a	-0.1333622
242	0x3d360800	0.044441223
243	0xbd23edb0	-0.0400216
244	0x3d23a06a	0.039947905
245	0xbdb7a73a	-0.08967443
246	0xbe3056c7	-0.17220603
247	0x3e0be821	0.13662769
248	0xbe3854e3	-0.18001132
249	0xbe39ed11	-0.1815684
250	0xbb4c93f3	-0.0031216114
251	0x3dfe32e2	0.12412049
252	0x3c9dec9b	0.019277861
253	0xbd06ecd4	-0.0329407
254	0x3e3ade2f	0.18248819
255	0xbc2f7801	-0.0107097635

fc1._model.0.bias f4 [24]
0	0x3b026d05	0.0019901406
1	0x3b0abd6e	0.0021170038
2	0x3b02c486	0.0019953563
3	0xbaf134df	-0.0018402598
4	0xbb039879	-0.0020079894
5	0x3b055153	0.0020342662
6	0xbb041e6f	-0.0020159741
7	0xbb08420c	-0.002079132
8	0xbb089916	-0.00208432
9	0x3ac30498	0.0014878688
10	0x3b119c32	0.0022218344
11	0x3abe8c32	0.0014537631
12	0xb828d249	-4.0250165e-05
13	0x3adb12dd	0.0016713996
14	0xbb18c550	-0.0023310967
15	0x3b065247	0.0020495818
16	0x3b00d15f	0.0019656045
17	0x3acc0712	0.0015566072
18	0xbaf05806	-0.001833678
19	0x3b2345a4	0.0024913335
20	0xbb1d9fcb	-0.0024051543
21	0xbb128aec	-0.0022360636
22	0xbb0513e3	-0.0020306043
23	0x3a898531	0.0010491965

fc2._model.0.weight f4 [20, 48]
0	0x3e399434	0.18122941
1	0xbe3362a3	-0.17518096
2	0xbe4e2d49	-0.20134462
3	0xbe4c8b9d	-0.19975133
4	0xbdc115e5	-0.09428004
5	0xbe270360	-0.16309881
6	0x3c8427b6	0.016132217
7	0x3e05b915	0.13058884
8	0xbe97a3aa	-0.29617053
9	0x3aa95314	0.0012918436
10	0xbd9eb98a	-0.077502325
11	0xbdca3d34	-0.09874955
12	0x3e509783	0.20370297
13	0xbe833b3d	-0.25631133
14	0x3e5b9a0b	0.21445481
15	0x3e415a00	0.18881989
16	0x3cba361c	0.02273088
17	0x3e1e745e	0.15474078
18	0xbddc34d2	-0.10752262
19	0xbe495664	-0.19661862
20	0x3e931fe2	0.28735262
21	0xbdda1f84	-0.106505424
22	0x3d96bdea	0.07360442
23	0x3dee8060	0.11645579
24	0xbe66527b	-0.22492401
25	0xbe81d723	-0.2535945
26	0xbe2dec2c	-0.16984624
27	0x3c4c63e7	0.01247499
28	0x3c7ea84f	0.015543058
29	0x3e0a82f7	0.13526522
30	0xbe7290db	-0.2368807
31	0x3e63b459	0.22236766
32	0xbcb3a2e9	-0.021928268
33	0x3e398ff8	0.18121326
34	0x3e783c69	0.24241795
35	0x3e6c6907	0.2308694
36	0xbd63d73e	-0.055625193
37	0x3e7e1175	0.24811347
38	0xbe970308	-0.294945
39	0x3ceb1bee	0.028699841
40	0x3e17143b	0.14753811
41	0xbe93bedb	-0.2885655
42	0xbe7469a1	-0.23868419
43	0xbe39b85e	-0.18136737
44	0x3c8f6c9a	0.01750784
45	0x3e742830	0.23843455
46	0x3e4b5958	0.198583
47	0x3e68e0e3	0.22742037
48	0x3ced425a	0.028962303
49	0x3dc303c9	0.09522206
50	0xbd26dc90	-0.04073769
51	0x3e76b5ce	0.2409279
52	0xbc8a9c51	-0.01692024
53	0xbce092fd	-0.02741384
54	0x3d4fe10b	0.050751727
55	0xbe795931	-0.2435043
56	0xbe6676c2	-0.2250624
57	0xbe5fc05b	-0.21850722
58	0x3e6131e6	0.21991691
59	0x3e25306e	0.16131756
60	0x3c496692	0.012292521
61	0x3e3c25d3	0.18373804
62	0xbe6b51df	-0.2298045
63	0xbe45f987	-0.19333468
64	0xbe71c49a	-0.23610154
65	0x3e7eb7ac	0.24874753
66	0xbe3559fa	-0.17710105
67	0xbe2823ad	-0.16419859
68	0x3de1a7e4	0.11018351
69	0xbe5fe689	-0.21865286
70	0xbbef688d	-0.0073061646
71	0x3e5fa6b3	0.21840934
72	0x3e77519d	0.24152227
73	0xbd8ea507	-0.0696507
74	0xbdf0775d	-0.11741517
75	0x3dc687c2	0.096938625
76	0xbe4fd0c0	-0.20294476
77	0x3e2f3c53	0.17112856
78	0xbe434827	-0.19070493
79	0x3dd0db1e	0.10198043
80	0xbe0e25a9	-0.13881554
81	0x3def4e0a	0.11684807
82	0x3e5cf8fb	0.21579354
83	0x3e448c92	0.19194248
84	0xbdbb6cf8	-0.091516435
85	0xbe4787a9	-0.19485344
86	0xbc7764f5	-0.015099754
87	0x3e8664f7	0.26248905
88	0x3e662471	0.22474839
89	0x3deace6b	0.11465152
90	0x3e19ce58	0.1502012
91	0x3d410fdc	0.047134265
92	0xbe2b7ef5	-0.16747649
93	0xbba1b16b	-0.00493448
94	0x3e4d6405	0.20057686
95	0x3dc43f78	0.09582418
96	0xbcdd9b39	-0.027051555
97	0xbe0ce4a3	-0.13759093
98	0x3dfde59d	0.12397311
99	0xbe0aa1ff	-0.13538359
100	0x3e94ff96	0.29101247
101	0xbc2a84e2	-0.010407658
102	0xbbb3c55e	-0.0054861745
103	0xbe72e259	-0.23719157
104	0xbe762379	-0.24036969
105	0xbdfb3d1b	-0.12267514
106	0xbe275794	-0.16342002
107	0xbe95919c	-0.29212654
108	0x3dbdb6ed	0.09263406
109	0x3e78c6fb	0.24294655
110	0xbe006bfb	-0.12541191
111	0x3d4fe777	0.05075785
112	0x3df36a52	0.11885513
113	0xbe4debad	-0.20109434
114	0xbd02e155	-0.031953175
115	0x3e20b209	0.15692915
116	0x3e767586	0.24068269
117	0xbe387cd8	-0.18016374
118	0x3e6e872e	0.23293754
119	0xbe9639ab	-0.29340872
120	0xbe206886	-0.15664873
121	0x3e2f9be6	0.17149314
122	0xbe2cf3dc	-0.168899
123	0x3e01ac2d	0.12663336
124	0x3d998991	0.07496942
125	0x3e8b91fe	0.2725982
126	0x3e4bbaef	0.19895528
127	0x3d01a2d4	0.031649426
128	0xbd92c9f0	-0.07167423
129	0x3e390ad4	0.18070537
130	0xbc9ca3dd	-0.019121105
131	0xbe82a638	-0.2551744
132	0x3e6550fb	0.22394173
133	0x3e928a7e	0.28621286
134	0xbd9ead3b	-0.07747885
135	0x3e159953	0.1460927
136	0xbe92b302	-0.28652197
137	0x3d41d016	0.047317587
138	0x3d6faf82	0.058516987
139	0xbbf297f0	-0.0074033663
140	0x3dd3549e	0.10318874
141	0x3e47e53f	0.19521044
142	0x3d1c780d	0.038200427
143	0x3e03bcc1	0.12864973
144	0x3d549938	0.051903933
145	0x3d82fd41	0.063959606
146	0xbe4b7543	-0.1986895
147	0x3dab597d	0.08366678
148	0x3e3b6102	0.18298724
149	0x3e0520c2	0.13000777
150	0x3dbc1169	0.09183008
151	0x3d94f7f1	0.072738536
152	0x3e952077	0.2912633
153	0x3dd630d3	0.10458531
154	0xbb52606d	-0.0032100931
155	0xbdb4ec5d	-0.08834145
156	0xbdbf59fd	-0.09343336
157	0xbb3c2629	-0.0028709269
158	0xbe8d65d4	-0.2761675
159	0x3ce23db4	0.027617313
160	0xbde4f4c3	-0.11179497
161	0xbdac1574	-0.08402529
162	0xbde39cc0	-0.11113882
163	0x3ddb7a2e	0.10716663
164	0x3e903149	0.28162602
165	0xbe9001dc	-0.2812642
166	0x3e1c9bd9	0.15293826
167	0xbcb76cab	-0.022390684
168	0x3bcad03f	0.0061893757
169	0x3e880a37	0.26570293
170	0x3e899ca8	0.26877332
171	0x3e269084	0.16266066
172	0xbe09e20c	-0.13465136
173	0xbe76b1ed	-0.24091311
174	0x3e173892	0.14767674
175	0xbe058f65	-0.13042982
176	0x3de3e9da	0.11128588
177	0x3da16202	0.07880022
178	0x3e6f57c3	0.23373322
179	0xbdb8add4	-0.0901753
180	0xbe43333b	-0.19062512
181	0xbdf0e860	-0.11763072
182	0xbde07b03	-0.109609626
183	0xbe82b85d	-0.25531283
184	0x3db8f2f9	0.09030718
185	0xbe9693ff	-0.29409787
186	0x3bb068f1	0.0053836037
187	0xbe86852d	-0.2627348
188	0xbdf92dc8	-0.12166935
189	0x3dec8ec2	0.115506664
190	0xbd961926	-0.073290154
191	0xbd38604a	-0.045013703
192	0xbd757ade	-0.05993163
193	0xbe7bacc4	-0.24577624
194	0xbcdfbfbf	-0.027313111
195	0x3e453858	0.19259775
196	0xbc3917bc	-0.011297163
197	0xbe20e027	-0.15710507
198	0x3e4e7172	0.20160463
199	0xbe827329	-0.25478485
200	0x3db85460	0.09000468
201	0xbd2adf29	-0.04171673
202	0xbd445482	-0.047932155
203	0x3e3b2fce	0.18279955
204	0xbd613cda	-0.054989673
205	0xbd841400	-0.06449127
206	0xbde72d03	-0.11287882
207	0xbd9e69f6	-0.07735054
208	0xbe2c8a9b	-0.16849749
209	0xbe25cf01	-0.16192247
210	0x3e8bd058	0.2730739
211	0x3e95b4a7	0.2923939
212	0x3c72bd33	0.014815616
213	0x3de77990	0.11302483
214	0x3deb1840	0.11479235
215	0x3e4b5251	0.1985562
216	0xbd277ff2	-0.040893503
217	0xbca7c386	-0.020478975
218	0xbe876a25	-0.2644817
219	0x3e345279	0.17609586
220	0xbdda615a	-0.106630996
221	0x3dd8e410	0.105903745
222	0xbe84782e	-0.2587294
223	0x3e66dff6	0.22546372
224	0xbe6b4d59	-0.22978725
225	0xbe86f3f5	-0.26358
226	0xbd05c5d0	-0.03265935
227	0xbe84c0d3	-0.25928363
228	0x3e3b0605	0.18264015
229	0xbe719b9f	-0.23594521
230	0xbd152809	-0.036415134
231	0xba643e02	-0.00087067496
232	0xbe3a414f	-0.18188976
233	0x3e91f378	0.28506064
234	0x3e0ee1c3	0.13953309
235	0xbdc1e552	-0.094675675
236	0x3d3b3c59	0.04571185
237	0xbe89718b	-0.2684444
238	0x3e832453	0.2561365
239	0x3ce52518	0.02797179
240	0xbe71870a	-0.2358667
241	0x3e119fcd	0.14221115
242	0xbdda18c8	-0.10649258
243	0xbe071e44	-0.13195139
244	0x3e95c48b	0.29251513
245	0xbe41d08d	-0.18927212
246	0xbe7f61df	-0.24939679
247	0xbe0e9b41	-0.13926412
248	0x3e651bc4	0.22373873
249	0xbe710957	-0.23538719
250	0xbe93a641	-0.2883778
251	0x3db8389c	0.089951724
252	0x3e8bda76	0.2731511
253	0xbcac9ac9	-0.021069901
254	0x3e682537	0.22670446
255	0xbc4ac5d3	-0.0123762665

fc2._model.0.bias f4 [20]
0	0x00000000	0.0
1	0x00000000	0.0
2	0x00000000	0.0
3	0x3a14ca5e	0.0005675907
4	0xb91ecbd7	-0.0001514399
5	0xb91280a8	-0.00013971573
6	0x00000000	0.0
7	0xb2321d76	-1.0367662e-08
8	0x38acacd3	8.23379e-05
9	0x00000000	0.0
10	0xaaad2df4	-3.076286e-13
11	0x00000000	0.0
12	0x00000000	0.0
13	0x00000000	0.0
14	0x39224707	0.00015475984
15	0xb9b299bf	-0.00034065355
16	0x00000000	0.0
17	0x00000000	0.0
18	0xb9ad9083	-0.000331048
19	0xb6b564d3	-5.405958e-06

fc3._model.0.weight f4 [64, 48]
0	0x3dabce16	0.08388917
1	0xbe0ccbe6	-0.13749656
2	0xbd384243	-0.044985067
3	0x3d0970ab	0.033554714
4	0xbacdb216	-0.0015693333
5	0xbca8539b	-0.020547679
6	0xbdbc7b74	-0.09203234
7	0xbddbff66	-0.10742073
8	0xbe011e1f	-0.12609147
9	0x3a03fc3a	0.0005034838
10	0xbe5ba93c	-0.21451277
11	0xbe3464fb	-0.17616646
12	0xbb15788c	-0.0022807447
13	0xbe5ffeb8	-0.21874511
14	0x3d946856	0.07246463
15	0xbd44b242	-0.048021562
16	0xbd399bac	-0.045314476
17	0x3d00010a	0.03125099
18	0x3dd29cb2	0.102837935
19	0xbcf25ec4	-0.029586203
20	0x3d2d8f4a	0.04237298
21	0x3da1fa8b	0.079091154
22	0x3e391a02	0.18076327
23	0xbd8848d8	-0.06654519
24	0xbe29a863	-0.1656814
25	0xbd881840	-0.0664525
26	0x3e342e9b	0.17595904
27	0xbe33ba3f	-0.17551516
28	0x3e1f3ebb	0.15551274
29	0x3e08c5c2	0.13356689
30	0xbd80591a	-0.06266995
31	0x3e56e09b	0.20984118
32	0x3c8bc652	0.01706234
33	0x3e4aea56	0.19815955
34	0xbda1cdb6	-0.079005644
35	0xbd8eb56e	-0.06968199
36	0x3e594546	0.21217832
37	0x3d0ef8f9	0.034905408
38	0xbd09bb36	-0.033625804
39	0xbe332df7	-0.17498003
40	0x3c0c5807	0.008565909
41	0x3e3b8cf3	0.18315487
42	0xbdc8c752	-0.09803642
43	0x3da4d0b8	0.080476224
44	0xbe6745a8	-0.22585166
45	0xbdf62f40	-0.12020731
46	0x3e54f2db	0.20795767
47	0xbd46ba4e	-0.048517518
48	0xbe240c22	-0.16020253
49	0xbd821817	-0.06352251
50	0xbdf49b65	-0.11943702
51	0x3e22de0d	0.15905018
52	0xbe5153e3	-0.20442156
53	0x3dafa89c	0.085770816
54	0xbd9d0114	-0.07666221
55	0x3e201daf	0.15636323
56	0xbe65738b	-0.22407357
57	0x3ce82c86	0.028341543
58	0xbd433ede	-0.047667377
59	0x3d7b4201	0.061342243
60	0x3d99cd12	0.07509817
61	0x3dc8dcd0	0.09807742
62	0xbd252a35	-0.040323455
63	0x3d75c93e	0.060006373
64	0xbe0f00dd	-0.13965173
65	0xbe4b3b6f	-0.19846891
66	0xbd8492d7	-0.0647332
67	0xbe3c4867	-0.18386994
68	0xbe0cbfbb	-0.13745014
69	0x3e4c782d	0.19967718
70	0xbe0767b4	-0.13223153
71	0x3b9eff91	0.0048522432
72	0x3ddc7b9f	0.10765766
73	0x3dc26bb3	0.09493198
74	0xbd7c72f6	-0.061633073
75	0xbe313b0f	-0.17307685
76	0x3dfbc219	0.122928806
77	0x3c81c4ce	0.015840914
78	0xbde918ee	-0.11381708
79	0x3e662ee1	0.2247882
80	0x3e6f2fc0	0.23358059
81	0xbd37df0f	-0.04489046
82	0xbe46e77d	-0.19424243
83	0xbdffcab7	-0.12489837
84	0x3c45ed98	0.012080573
85	0x3d8c07d1	0.06837428
86	0xbd48ed64	-0.04905452
87	0x3e42377b	0.18966477
88	0x3cbb0c0c	0.022832893
89	0xbc6c45d7	-0.014420948
90	0xbe375d78	-0.17906749
91	0x3e156494	0.14589149
92	0x3df8b962	0.12144734
93	0x3e678078	0.226076
94	0x3d6eef8d	0.058333922
95	0x3e360f4e	0.17779276
96	0x3e1e7ce8	0.15477335
97	0xbdf48ecb	-0.11941298
98	0x3cfcc2a8	0.030854538
99	0x3e3b30a3	0.18280272
100	0x3a5e3304	0.000847623
101	0xbe320de7	-0.17388116
102	0x3e10624d	0.14099999
103	0x3ca2b78a	0.019862909
104	0x3e2ac992	0.16678455
105	0x3e56cdfa	0.20977011
106	0x3e3f8c02	0.18705752
107	0xbe4aa1c5	-0.19788273
108	0xbe35e765	-0.17764051
109	0xbe210a4e	-0.15726587
110	0xbd81274c	-0.063063234
111	0x3e2229f5	0.15836318
112	0xbd8b82e7	-0.06812077
113	0xbb326357	-0.0027219856
114	0xbdaa88c4	-0.08326867
115	0xbd2ab2cb	-0.041674417
116	0x3e14ba73	0.1452425
117	0x3e2819ef	0.16416143
118	0x3e52e90f	0.20596717
119	0x3df74c77	0.120751314
120	0x3e218ee2	0.15777162
121	0x3e201ec0	0.1563673
122	0x3e0ba8f7	0.13638674
123	0x3dd6b265	0.10483245
124	0xbe296536	-0.16542515
125	0x3ddfbfe9	0.10925276
126	0xbe57e885	-0.21084793
127	0x3e67f4d4	0.22651988
128	0xbcfa56bc	-0.030558936
129	0x3e0558e3	0.13022189
130	0x3dd0bced	0.10192285
131	0x3e5e9dc1	0.21739866
132	0x3daf89e9	0.08571226
133	0x3e178fb9	0.1480092
134	0x3e4ee928	0.2020613
135	0xbe3fdb08	-0.18735898
136	0x3e10c3d1	0.14137198
137	0xbda9e508	-0.08295637
138	0x3c917181	0.017754318
139	0xbdd77af7	-0.105215006
140	0xbe4fd440	-0.2029581
141	0xbc7efa40	-0.015562594
142	0x3e0ed9d5	0.13950284
143	0x3e002091	0.12512423
144	0x3d19b3ce	0.03752499
145	0xbb8e9e66	-0.0043523787
146	0x3d87e2a7	0.066350274
147	0xbe0bf83f	-0.13668917
148	0xbe51d743	-0.20492272
149	0xbc74bd50	-0.014937714
150	0xbdc64ab6	-0.09682219
151	0xbe14a517	-0.14516102
152	0xbc768169	-0.015045502
153	0x3e6ab943	0.22922234
154	0xbe60dbe5	-0.21958883
155	0xbdb77b5b	-0.08959075
156	0x3e5adb25	0.2137266
157	0x3e14c196	0.14526972
158	0x3e180b87	0.14848147
159	0x3de54a4d	0.111958124
160	0xbe4fb63f	-0.20284365
161	0xbe195de2	-0.1497722
162	0x3d99b249	0.07504708
163	0xbe39c797	-0.18142544
164	0x3e30fad6	0.17283186
165	0xbdda53fe	-0.106605515
166	0x3e42cae5	0.1902271
167	0xbce0bdf7	-0.027434332
168	0xbe2a9a9a	-0.16660538
169	0x3e12724b	0.14301412
170	0xbe529c04	-0.20567328
171	0x3db8f705	0.0903149
172	0xbd90cdf5	-0.07070533
173	0xbe26c3c4	-0.16285616
174	0x3e29e1d0	0.16590047
175	0x3ddfcab5	0.10927335
176	0x3e082015	0.13293488
177	0xbe5c9095	-0.21539529
178	0xbddd5c8b	-0.10808667
179	0x3dc0b801	0.09410096
180	0x3e3d8d63	0.18510966
181	0xbe52203d	-0.2052011
182	0x3e45d5e6	0.19319877
183	0x3d28dcdf	0.041226264
184	0x3de3b3c0	0.11118269
185	0xbe0a522c	-0.13507909
186	0x3e641f9e	0.22277686
187	0x3d86e740	0.06587076
188	0xbe27761c	-0.16353649
189	0x3e572ce9	0.21013226
190	0x3e014bef	0.12626623
191	0xbe4ab563	-0.19795756
192	0xbe26bdd5	-0.16283353
193	0xbe01caeb	-0.12675063
194	0x3bc6d4e4	0.006067859
195	0xbde527e0	-0.11189246
196	0x3d82cd35	0.063867964
197	0x3e40c0f6	0.18823609
198	0x3d016949	0.03159455
199	0xbd674c80	-0.05646944
200	0xbdc178ac	-0.094468445
201	0xbd521aa3	-0.051294934
202	0xbde4ac5b	-0.11165687
203	0x3d804057	0.06262272
204	0xbdbebd30	-0.093134284
205	0xbe61e7fd	-0.22061153
206	0xbc93468d	-0.017977977
207	0x3e2671b8	0.16254318
208	0x3e67526d	0.22590037
209	0xbe34e5ec	-0.17665833
210	0xbe696a18	-0.22794378
211	0xbe5393df	-0.20661877
212	0xbdf482a5	-0.11938981
213	0x3e26a7a5	0.16274889
214	0x3e4a4883	0.19754224
215	0x3e0a71e7	0.13520013
216	0xbe0c7c3b	-0.13719265
217	0x3e451662	0.1924682
218	0x3dc65167	0.09683495
219	0x3ced834f	0.028993277
220	0x3e54f8c9	0.20798029
221	0x3d879eca	0.066220835
222	0x3e113038	0.1417855
223	0x3dcd8cdc	0.100366324
224	0x3e110ea0	0.14165735
225	0x3dfa99b2	0.12236346
226	0xbd2f0fed	-0.042739797
227	0xbc964191	-0.018341811
228	0xbd16b44b	-0.036793035
229	0xbd9bd67c	-0.07609269
230	0x3ddce5de	0.10786031
231	0x3e0d641b	0.13807718
232	0x3d219a17	0.039453592
233	0xbd317ec7	-0.043333795
234	0xbe438f7d	-0.19097705
235	0x3d85ff7c	0.065428704
236	0xbddf0e4c	-0.10891399
237	0xbdf09e73	-0.11748972
238	0x3e5cfb5f	0.21580265
239	0x3c0e5f19	0.008689665
240	0x3de084b1	0.10962809
241	0xbd702aaa	-0.058634438
242	0xbe37ccd1	-0.17949225
243	0x3e2840f9	0.16431035
244	0xbd9fe37d	-0.07807062
245	0x3e20065d	0.15627427
246	0x3def40c6	0.116822764
247	0x3e07d803	0.13265996
248	0xbdfe3208	-0.124118865
249	0xbdf35931	-0.11882246
250	0x3e120316	0.1425899
251	0x3e27ffcc	0.16406173
252	0x3c6fe4a2	0.014641913
253	0x3e18672d	0.14883108
254	0xbe3f3aae	-0.18674728
255	0xbe275626	-0.16341457

fc3._model.0.bias f4 [64]
0	0x39df2d3a	0.0004256757
1	0x39dec010	0.00042486237
2	0x39dd8029	0.00042247892
3	0xb9de0515	-0.00042346926
4	0xb9dd41fa	-0.0004220156
5	0x39de8130	0.00042439392
6	0xb9df734d	-0.0004261978
7	0xb9de4248	-0.00042392523
8	0x39ddcbeb	0.00042304336
9	0x39ddae53	0.00042282286
10	0xb9de1ec8	-0.00042366073
11	0xb9ddc854	-0.0004230166
12	0xb9df7f7e	-0.00042628864
13	0x39deaef4	0.0004247349
14	0x39dfaba1	0.00042661748
15	0xb9df3b8e	-0.00042578246
16	0x39df48f2	0.00042588223
17	0x39de1f78	0.00042366586
18	0x39de9a1d	0.00042457963
19	0xb9ddeabf	-0.00042327304
20	0xb9df7a83	-0.00042625153
21	0x39de0f97	0.00042354755
22	0x39df3b1c	0.00042577914
23	0xb9ddf0a4	-0.00042331696
24	0xb9e1b024	-0.0004304658
25	0x39df9a62	0.000426489
26	0xb9df33e2	-0.0004257253
27	0x39de626d	0.00042416473
28	0x39dea98f	0.0004246947
29	0x39dd7f54	0.00042247272
30	0xb9deee7f	-0.00042520833
31	0x39df1a90	0.00042553665
32	0x39dea3fb	0.00042465315
33	0xb9df66b3	-0.0004261039
34	0x39def7c9	0.00042527754
35	0xb9ddb401	-0.00042286518
36	0xb9def1e9	-0.00042523377
37	0x39de4a41	0.00042398463
38	0xb9ddcd15	-0.00042305203
39	0xb9e08b45	-0.00042828373
40	0x39dfbd51	0.00042674926
41	0x39dfac46	0.00042662228
42	0x39de3426	0.00042381993
43	0x39de2cee	0.00042376615
44	0xb9de7249	-0.0004242829
45	0xb9dcca44	-0.0004211237
46	0xb9df1b11	-0.0004255404
47	0xb9dd301b	-0.00042188246
48	0x39de1ee4	0.00042366155
49	0x39dfcb0a	0.0004268515
50	0x39dee6ab	0.00042515
51	0xb9de1367	-0.00042357596
52	0x39deb4ed	0.0004247794
53	0xb9de5767	-0.0004240826
54	0xb9e12ae1	-0.00042947292
55	0x39ddf526	0.00042335055
56	0xb9de240e	-0.00042370002
57	0x39dfa57c	0.0004265717
58	0x39de4f4d	0.00042402223
59	0x39de2569	0.00042371012
60	0x39dea17b	0.00042463452
61	0xb9de128e	-0.00042356964
62	0x39de184d	0.00042361245
63	0x39de2fa8	0.00042378646

fc4._model.0.weight f4 [1, 64]
0	0x3e188203	0.14893346
1	0x3e7972e7	0.24360238
2	0x3de3e68d	0.111279584
3	0xbe57d441	-0.21077062
4	0xbd905fc3	-0.07049515
5	0x3e1aaf6d	0.15105982
6	0xbe430825	-0.19046076
7	0xbde711ec	-0.11282715
8	0x3e16f68f	0.14742492
9	0x3df62c81	0.12020207
10	0xbe7199b5	-0.23593791
11	0xbdd2990d	-0.10283098
12	0xbdd951f9	-0.10611338
13	0x3e6b0832	0.22952345
14	0x3dd932fe	0.10605429
15	0xbe8c9d0d	-0.2746357
16	0x3e26df8e	0.16296217
17	0x3e77ee8c	0.24212092
18	0x3e5fbaeb	0.21848647
19	0xbe4331f2	-0.19062021
20	0xbde86ca5	-0.11348847
21	0x3e680b73	0.22660618
22	0x3e9c76d6	0.30559415
23	0xbe003466	-0.12519988
24	0xbd063186	-0.032762073
25	0x3dd7ab86	0.105307624
26	0xbe53bb06	-0.20676813
27	0x3e8a5f06	0.27025622
28	0x3e91c65b	0.28471646
29	0x3df74cb2	0.12075175
30	0xbe8e3527	-0.27774927
31	0x3e0768cf	0.13223575
32	0x3e726783	0.23672299
33	0xbdab82db	-0.08374568
34	0x3e9a1d71	0.30100587
35	0xbe1a430f	-0.15064643
36	0xbe8d535f	-0.2760267
37	0x3e3adccd	0.18248291
38	0xbda4adaf	-0.0804094
39	0xbd865f8b	-0.06561192
40	0x3e006652	0.12539032
41	0x3d8b9c30	0.068169
42	0x3e754470	0.23951888
43	0x3e7e4e46	0.24834546
44	0xbe6646ef	-0.22487997
45	0xbd969ea3	-0.07354476
46	0xbe972209	-0.29518154
47	0xbda81e02	-0.082088485
48	0x3e65f64f	0.2245724
49	0x3df64d93	0.12026515
50	0x3e249085	0.16070755
51	0xbe352438	-0.17689598
52	0x3e804b98	0.25057673
53	0xbe831592	-0.25602394
54	0xbd64e02a	-0.055877842
55	0x3df751f9	0.12076182
56	0xbe6bbd28	-0.23021376
57	0x3d69b928	0.057061344
58	0x3e3b0036	0.18261799
59	0x3e10f013	0.14154081
60	0x3e95856b	0.29203352
61	0xbdcfca93	-0.1014606
62	0x3e235a3b	0.15952389
63	0x3e13b767	0.14425431
