example/cloudManufacturing_network/rl/phase/ckpts/policy-model-weight-array.global-step-5800.pth (torch, 33901 bytes, 7 tensors)

fc1._model.0.weight f4 [24, 141]
000000 78 20 1a 3e ce 50 0c be 34 e6 1b 3e ec 10 bd bd
       0.15051448 -0.137027 0.15224534 -0.09231743
000010 cb 84 2d 3d cc 04 3e 3e 56 51 37 3e 25 d7 75 bc
       0.04236297 0.18556517 0.17902121 -0.015004908
000020 e4 53 49 3d 45 26 42 3d 8c c0 36 be 90 f6 7b 3c
       0.04915227 0.047399778 -0.17846888 0.015378609
000030 36 3b 20 be 39 37 3e 3e 43 f6 e5 bd 34 a7 13 3e
       -0.15647587 0.18575753 -0.11228611 0.14419252
000040 e9 50 c6 bd e5 1e 73 3d 10 d4 29 3d 2a 41 f6 3d
       -0.09683401 0.059355635 0.041462004 0.12024148
000050 38 2c 52 bd c7 86 f2 bd 6a 81 15 3e 63 86 4c bc
       -0.0513117 -0.11842113 0.14600149 -0.012483212
000060 8a a6 42 3e eb ee 8f bd 3a 55 3b 3e bc 5d 47 bb
       0.19008842 -0.07027992 0.1829423 -0.003042086
000070 b8 6b 39 3e 53 d0 00 3e 70 bc d5 3d 9f 16 77 bd
       0.18107498 0.1257947 0.10436332 -0.060324308
000080 ae d7 f2 3d 66 7a 17 3e 3b 6e 31 3e 8f 2c c9 3d
       0.11857544 0.14792785 0.17327206 0.09822952
000090 40 e9 fe bd 22 d2 22 3e 9d 33 36 3e 42 5e 31 be
       -0.12446833 0.15900472 0.17793126 -0.17321113
0000a0 2c 7b 5c bd c1 81 0e be 5b e7 12 3d 0c f5 39 be
       -0.053828403 -0.13916685 0.03586517 -0.18159884
0000b0 80 da 09 3e 1d 0f e9 3b ee 69 a4 bd 43 a3 c8 3d
       0.13462257 0.0071123973 -0.08028017 0.09796765
0000c0 b1 7d f2 bb a6 f2 1a 3d 4c 33 9d bc 2a fe 18 bd
       -0.0074002375 0.037829064 -0.0191895 -0.037351765
0000d0 2f fd 29 3e 7f ca 09 3e b3 0e c3 3d ff 4a da bd
       0.16600488 0.13456152 0.09524288 -0.106588356
0000e0 b5 af 10 be 4c 81 15 be 27 08 07 3e 03 84 0b be
       -0.14129527 -0.14600104 0.13186704 -0.13624577
0000f0 9f 36 c1 3c 1e fb 41 3c d1 98 01 3e d2 8f 05 3e
       0.023585616 0.011839656 0.12655951 0.13043144
000100 8d d4 20 3e 06 29 03 3e 1b 8f 40 3e 6b 78 08 be
       0.15706082 0.12808618 0.1880459 -0.13327186
000110 db 18 3c 3a b6 dd 97 bd 51 0a 6a 3d 23 a3 0a 3c
       0.00071753346 -0.07415335 0.057138745 0.008461746
000120 e2 b0 09 3d bc 42 de 3d 25 6a 80 3d 98 c1 ce bc
       0.033615954 0.10852572 0.062702455 -0.025238797
000130 ad 88 45 bd 1d 3a 2b 3e 77 96 60 3b 28 d9 25 3d
       -0.048226047 0.16721387 0.0034269372 0.0404903
000140 43 41 0f 3e f8 70 2f 3e c9 bb 03 3e 79 7b 1c be
       0.13989739 0.17132938 0.12864603 -0.15281476
000150 bc 0c 17 3e f2 00 a2 bd 35 c8 29 3d 11 8e 85 bd
       0.14750952 -0.079103366 0.041450698 -0.06521238
000160 ef 42 bb 39 46 3e 06 bd f5 5d cc 3d 1b a7 be bd
       0.0003571729 -0.032774232 0.099788584 -0.093092166
000170 99 45 40 be a0 ab 3d be 1a ed 37 3e 00 12 c6 bd
       -0.1877655 -0.18522501 0.17961541 -0.09671402
000180 89 c6 51 3d ff 6d 41 be 2b 04 11 3e 46 93 a0 bd
       0.05121473 -0.18889616 0.14161746 -0.0784059
000190 f1 c8 62 bd d5 c4 2c be ec 11 12 be 68 2d 82 3d
       -0.055367414 -0.1687196 -0.14264649 0.06356317
0001a0 c5 24 d7 3d 23 a6 3c 3e d2 31 04 3e d6 bb 03 3e
       0.1050506 0.18422751 0.1290963 0.12864622
0001b0 0f 6d b6 bc 56 6a a9 bd 05 92 35 be 2b cc 8d bd
       -0.0222688 -0.08272235 -0.17731483 -0.069237076
0001c0 59 ae cc 3d 7a 55 78 bd 8f d7 21 3e 80 37 eb 3c
       0.09994192 -0.06062839 0.15804885 0.028712988
0001d0 11 39 16 be 05 d9 39 3d c0 70 35 3e d4 c7 fa 3d
       -0.14670207 0.04537298 0.17718792 0.122451454
0001e0 cd 31 f5 3d c7 3d 14 be 27 8d 1f 3e e4 e5 aa 3d
       0.11972389 -0.14476691 0.15581189 0.083446294
0001f0 db 0d 47 bd 43 cd 47 bc ac 15 14 3a 6c 31 81 3d
       -0.048597198 -0.012194934 0.00056489813 0.063082546
000200 1c d9 d9 3d 04 53 a3 bd b9 ff 0a 3e d2 a4 33 3e
       0.106371135 -0.07974818 0.13574113 0.17543343
000210 9b 6f 60 3d bc 09 6b bd 87 8d 57 3d e1 f0 a7 bd
       0.054793935 -0.05738233 0.052625205 -0.08200241
000220 6d 4e 3c bd b8 04 84 bc 1c 7a a9 bd 55 bb c1 bd
       -0.04597323 -0.016115531 -0.08275244 -0.09459559
000230 af ac d0 bd ef 76 d6 bd fd 1b 39 3d c4 e6 82 bd
       -0.10189187 -0.104719035 0.045192707 -0.06391671
000240 c7 00 17 3e d3 bb d4 3d cc 23 24 be 06 24 33 be
       0.1474639 0.10387387 -0.1602928 -0.1749421
000250 b8 0e bf 3d a4 04 1b bd e3 3b cf bc f5 3b 13 3d
       0.09328979 -0.037846223 -0.02529711 0.03594585
000260 57 a9 0f be 29 1c 00 3e 27 40 37 be bf a4 ea bd
       -0.14029442 0.12510742 -0.17895566 -0.11457204
000270 c5 85 19 be f8 43 35 be d6 fa 67 3c 99 0f 98 3d
       -0.14992435 -0.1770171 0.014158925 0.0742485
000280 d2 b8 20 be ff ea 70 bd 0f 82 05 be 2f 3f 08 3c
       -0.15695503 -0.05881786 -0.13037895 0.008315845
000290 94 86 32 3e fe 66 66 3d 43 4e 11 3e 57 89 37 3e
       0.1743415 0.056250565 0.1419001 0.17923485
0002a0 92 5d 41 3d 31 a2 86 3d 4f 74 83 bd 42 80 64 bd
       0.047208376 0.06573904 -0.064186685 -0.05578638
0002b0 0e 36 28 be bb 8b 0f 3c 9e 65 44 3d 64 c3 da bc
       -0.1642687 0.008761342 0.047948472 -0.026704498
0002c0 69 4c 4a bd f6 f3 8a 3c ca 9d ed bd 02 38 1c 3e
       -0.049389277 0.016962033 -0.116023615 0.1525574
0002d0 e6 47 22 3e 1d 8c 4e 3d 67 f3 03 3e a9 7c 43 be
       0.1584774 0.05042659 0.1288582 -0.19090523
0002e0 53 40 be bc 1e 68 81 3d d2 40 03 be 69 75 a6 3a
       -0.023224032 0.06318687 -0.12817696 0.0012699786
0002f0 86 f3 17 be 4f 45 dc bd 25 93 3a bd 51 cf 1a bd
       -0.1483899 -0.10755407 -0.045550484 -0.03779537
000300 0b c1 ff bd 95 90 89 3b 06 ab 70 3c 75 f9 9f bc
       -0.12487992 0.0041981437 0.014689213 -0.01952813
000310 db 70 a8 bd 60 76 1e 3e e0 55 14 3e 46 49 08 3e
       -0.082246505 0.15474844 0.14485884 0.13309202
000320 27 ee d4 bd 41 e8 d4 3c 30 9e c5 3d 7d 5f ef bd
       -0.103969865 0.025989654 0.096493125 -0.11688135
000330 16 94 51 bd 98 f5 c3 bb 5d a9 22 3e 4c 3f df 3d
       -0.051166616 -0.005980205 0.1588492 0.10900745
000340 df 61 0e 3e e3 58 14 be f6 c1 18 be e3 12 7e bd
       0.13904522 -0.14487033 -0.1491774 -0.06202973
000350 90 01 36 3e 3c ac 3a 3c 18 d2 0a be e7 73 fa 3d
       0.17774034 0.011393603 -0.13556707 0.12229138
000360 1e 00 9b bd 86 36 bf bd fb 2c ce bc c2 54 2b 3e
       -0.07568382 -0.093365714 -0.025167933 0.16731551
000370 30 83 2e be d7 dd de bd 65 36 2b be ff 2a e9 bd
       -0.17042232 -0.10882156 -0.16719969 -0.11385154
000380 e9 9a 19 bc 7e 0d 74 bd 92 9d d2 bd 6b ee 0b bd
       -0.009375312 -0.05958318 -0.102839604 -0.03416292
000390 b7 a6 b0 3d 47 f2 7a 3d 5c 34 bc 3c 50 c5 c2 bd
       0.08625548 0.06126621 0.022974186 -0.095102906
0003a0 32 5d b0 3c 77 8e e0 3d b3 c9 4a bc 72 d7 1a 3e
       0.021528814 0.10964673 -0.01237719 0.15121248
0003b0 71 1a 37 3e 04 40 e8 3c 82 f1 a4 bd c4 28 43 be
       0.1788118 0.028350838 -0.080538765 -0.1905852
0003c0 b7 9d 3d 3d 98 9e e5 bd 56 64 2b 3e 50 73 2f 3e
       0.046292987 -0.1121189 0.16737494 0.17133832
0003d0 6c 52 80 3c 6d d8 6d 3c e6 cd 3d 3e 66 2a a9 bd
       0.015664302 0.014516932 0.18535575 -0.0826004
0003e0 b3 b3 b2 bd 6d 8e a1 3d 1c 6b d2 bd d1 fa c7 bd
       -0.08725681 0.07888494 -0.10274336 -0.09764636
0003f0 42 a5 09 3e eb d1 ce bd 36 c7 32 be 5f 8a 06 3e
       0.13441947 -0.100986324 -0.17458805 0.13138722

fc1._model.0.bias f4 [24]
000000 1f d1 f9 ba 02 02 11 bb 2f fd b9 39 0f 1f 12 bb
       -0.0019059515 -0.002212644 0.00035474586 -0.0022296344
000010 45 17 13 bb aa 81 01 bb 4b 56 1b bb 12 f0 93 39
       -0.002244429 -0.0019761124 -0.0023702558 0.0002821689
000020 e9 83 19 bb af 60 07 bb 89 a1 09 bb ca c2 0d bb
       -0.0023424572 -0.0020656993 -0.0021000823 -0.0021630996
000030 ae 3c f8 3a f0 17 0e 3b 6a 5b 30 ba 1f 2f 1d bb
       0.0018938982 0.0021681748 -0.0006727489 -0.0023984385
000040 56 17 f9 3a ac 17 eb ba c7 22 be 3a c9 7e 10 bb
       0.0019004147 -0.0017936132 0.0014506214 -0.0022048226
000050 58 97 15 bb 62 e8 a7 3a ce da 14 bb a8 e4 a7 3a
       -0.0022825804 0.0012810344 -0.0022713426 0.0012809234

fc2._model.0.weight f4 [20, 48]
000000 58 b3 82 be ac 56 f6 bd fd 22 cb bc 9a 88 96 be
       -0.25527453 -0.1202825 -0.024796957 -0.29401094
000010 5f ba 22 3d e2 dd 3a be ee b0 bf bd b8 03 f6 3d
       0.03972852 -0.18248704 -0.093599185 0.12012428
000020 c1 49 25 3e f4 3a 55 3e b5 90 f5 3d b2 0a 63 be
       0.16141416 0.2082327 0.11990491 -0.22172049
000030 ac 24 2f 3d c0 33 3b 3e 2e 84 0b 3e 17 9b 87 bc
       0.042759582 0.1828146 0.13624641 -0.016553445
000040 86 26 3c 3d 1a 72 4f bd 40 f9 5a 3e ba d0 cf 3c
       0.045935176 -0.050645925 0.21384144 0.025368083
000050 9b 82 6e be cb 3d 81 be a7 3c 72 be 47 00 cf 3c
       -0.2329201 -0.25242457 -0.2365595 0.025268687
000060 88 d0 34 be b5 8f 6e 3d 4e 64 57 be ba 33 16 3e
       -0.17657673 0.05824252 -0.21034357 0.1466817
000070 d3 d0 95 3e b6 2a 79 be 56 23 96 3a fe 0d 83 3e
       0.29260883 -0.24332699 0.0011454623 0.25596613
000080 ed e7 69 3d e4 b5 78 be 88 5a 93 3d bf b7 4e 3e
       0.057105947 -0.24288136 0.07195002 0.20187281
000090 03 d7 63 3e 63 bc 48 3e 19 6b 4d 3e 0c e2 6e 3e
       0.22249989 0.19603114 0.20060386 0.23328418
0000a0 91 ca 6e be 07 d0 52 be 7e 95 0d 3e 73 cb 4f be
       -0.2331946 -0.20587169 0.13826558 -0.20292453
0000b0 ad e8 73 be e2 3d fb 3d c7 7e b7 3d 36 30 90 be
       -0.23819228 0.122676626 0.08959728 -0.28161782
0000c0 fb c2 26 3e c3 19 ff bd 7c f2 8d be 70 42 8b bd
       0.16285317 -0.124560855 -0.27724063 -0.06799781
0000d0 fa 76 d0 bb 2d 43 6e be af 42 de 3d 01 4c 99 3b
       -0.0063618394 -0.23267813 0.10852563 0.00467825
0000e0 9d 58 38 3d dc 59 1d be df 6f af 3d 0a b5 48 be
       0.045006383 -0.1536631 0.085662596 -0.19600311
0000f0 5a c4 27 3e 95 ae 9a 3d d0 63 eb bc 45 bd a9 bc
       0.16383496 0.0755283 -0.028734118 -0.020720134
000100 d4 7e 7a be 67 89 fc bd d2 f4 8e bc 50 08 aa bd
       -0.24462444 -0.12330895 -0.017450724 -0.08302367
000110 df 2f 81 3e 78 2f 89 3d 55 2b 28 3e 63 4e 17 bd
       0.25231835 0.06698507 0.1642278 -0.03693999
000120 62 c6 2d be f4 b7 70 be c8 00 23 b9 ee fa dd bd
       -0.16970208 -0.23507673 -0.00015545182 -0.10838877
000130 08 94 bb bc 54 78 2c 3e 8f 6f 3b be 02 8b 75 3e
       -0.022897735 0.16842777 -0.18304275 0.23978809
000140 9b 0a 61 be 59 67 8a 3e a9 c6 93 3e 5c de 25 be
       -0.21976702 0.27031973 0.28862503 -0.16198105
000150 03 4b 91 be 5d c7 fa bd 17 a2 1c 3e 8f d6 38 3c
       -0.28377542 -0.12245057 0.15296207 0.0112816235
000160 be 13 fa bd ef ed 88 bd 5c 80 38 be c3 b8 33 be
       -0.12210797 -0.06686007 -0.18017715 -0.1755095
000170 75 5c 47 3e d3 19 7a 3e 6d 8f 77 3e 94 74 17 3e
       0.19468863 0.24423914 0.24175806 0.14790565
000180 72 58 23 3e bf d7 58 3e 05 1c 91 be 5d 1d 2a 3c
       0.15951708 0.2117605 -0.2834169 0.010382977
000190 1a 8f 8e be ff cb 85 be d6 c3 28 be 66 38 53 3e
       -0.27843553 -0.261322 -0.16480955 0.20626983
0001a0 51 80 82 3e 09 b5 63 be 0b 32 8e 3e 56 6f 1e be
       0.25488523 -0.22237028 0.27772555 -0.15472159
0001b0 4f cd 05 3e e3 f5 1c 3d 8e da 2c be 95 d0 b3 bd
       0.130666 0.038320433 -0.16880247 -0.08780018
0001c0 5d 4e 89 bc 2c dc d1 bc ec 57 39 3d 77 6e 08 3e
       -0.016761 -0.025617681 0.045249864 0.13323389
0001d0 b1 d2 9a 3c 64 78 56 be b0 af 71 3e 68 40 83 be
       0.018899294 -0.20944363 0.23602176 -0.25635076
0001e0 fd 6b 3f 3b fc 13 60 3e 04 79 81 be 7c fb 5a be
       0.0029208653 0.21882623 -0.2528764 -0.21384996
0001f0 c4 ff ff bc 49 14 35 be 12 19 53 3e 25 06 9e 3d
       -0.031249888 -0.1768352 0.20615032 0.07716016
000200 d4 cc ce bd ef 31 0b be bd fa 8f bc b6 cf b2 bd
       -0.100976616 -0.13593267 -0.017575616 -0.08731024
000210 38 f2 e3 bd 9b ee 6b 3e 28 2d 3e be 45 22 b3 bd
       -0.11130184 0.2304024 -0.18571913 -0.08746771
000220 7f 98 7c 3e 02 76 78 be a5 ac 87 bd 4f 88 74 3e
       0.24667548 -0.24263766 -0.06624726 0.23880123
000230 f0 98 63 bd b8 6d 11 3e 35 1c eb 3d 68 dc 19 be
       -0.055565774 0.1420201 0.114799894 -0.15025485
000240 6c d9 71 be b3 22 d5 bd e5 d7 04 be 14 2e 90 3e
       -0.23618096 -0.10407009 -0.12972982 0.28160155
000250 c1 63 c3 3d 88 d7 12 be cd fd 52 3e 8b 78 38 bd
       0.09540511 -0.14340031 0.2060463 -0.045036834
000260 8e d6 7c be bb 88 44 bd 7c 2f 78 3b 21 0e fd bd
       -0.24691221 -0.04798196 0.00378701 -0.123562105
000270 b8 95 82 be 68 6c 90 be 04 e2 84 3e f8 3d f1 bd
       -0.2550485 -0.28207707 0.25953686 -0.11779398
000280 c6 0b 03 be 7b b4 be 3a 85 e9 3b 3d ef 6c 54 3e
       -0.1279746 0.0014549637 0.045877 0.2074468
000290 2c 29 1a 3d 9d 22 8f 3e dd b0 5e 3e d4 14 d9 bd
       0.03763692 0.27956095 0.21747155 -0.10599676
0002a0 25 b2 91 3e 61 44 8e bd fc 2f 67 be 32 68 eb 3d
       0.28456226 -0.06946636 -0.22576898 0.11494483
0002b0 5a 2e e2 bd a4 aa 63 be 73 f0 7d 3e fb 32 fc 3b
       -0.11043997 -0.22233063 0.24798755 0.007696507
0002c0 e0 3a 35 3e fb 80 43 3e 26 1d 83 be c7 db 79 be
       0.1769824 0.19092171 -0.25608176 -0.24400245
0002d0 ac a1 88 3e 27 51 03 3e 7c d6 f3 3d c9 27 97 be
       0.26685846 0.12823926 0.11906144 -0.2952254
0002e0 b2 09 12 be 2d 32 2b bd f8 62 39 3e e5 9d 21 3e
       -0.14261511 -0.0417959 0.1810416 0.15782888
0002f0 1e c8 b8 3c 23 ea 74 be b3 6e e5 bc 52 9c 8c 3d
       0.02255636 -0.23917441 -0.028006887 0.06865753
000300 ff 06 7b be e1 19 19 bd 73 bf 54 3e b9 2d 97 3e
       -0.24514388 -0.037378196 0.20776157 0.2952707
000310 af ae 90 3e 9e 8e 99 3d 59 c1 0b bd 92 32 e8 bd
       0.28258273 0.07497905 -0.034119938 -0.113377705
000320 8e c2 83 3e d1 a6 31 be 9d fa 2b be 04 43 d9 bc
       0.2573437 -0.17348792 -0.1679482 -0.026521213
000330 1d a8 6b 3e bf 73 df bd 92 7a 86 3e 5e 86 16 be
       0.23013349 -0.10910749 0.2626539 -0.14699695
000340 f7 3c f3 bd b8 68 82 3e dd a1 00 be 82 31 81 3e
       -0.118768625 0.2547052 -0.12561746 0.25233084
000350 de 44 1b bd 8d dd 1b be 2c 49 84 be 90 6f 22 3e
       -0.037907474 -0.15221234 -0.25837076 0.1586287
000360 c8 94 89 3e f8 0d 1e 3e 42 08 ce 3d 05 4f 78 3e
       0.26871324 0.15435016 0.10060169 0.24248894
000370 5c 17 dc 3c d9 ea 04 3e 39 b3 12 be 54 b8 61 be
       0.026866607 0.12980212 -0.1432618 -0.22042972
000380 c4 71 ae 3d 1a ae 70 be 12 d3 f7 bd 25 7a 22 be
       0.08517793 -0.23503914 -0.12100805 -0.15866907
000390 59 4c 21 3e 0e 73 8b 3e d8 9a 26 be dd 89 0a bd
       0.1575178 0.27236217 -0.16270006 -0.033822883
0003a0 0d cb 13 3e df c2 55 3e 30 5a 14 be 1f 57 10 3b
       0.14432926 0.20875119 -0.14487529 0.0022024584
0003b0 e8 25 02 be b4 7a 8c 3c 4e fe 7b be de 7f 38 3e
       -0.12709773 0.017148353 -0.24608728 0.18017527
0003c0 9f c4 4e be 91 e9 83 be e9 b1 8e be 23 41 ea 3d
       -0.20192192 -0.25764135 -0.2787011 0.11438205
0003d0 d8 9f 61 be 2d 7f 47 be d7 2a 60 be 18 ca 7a 3e
       -0.22033632 -0.19482107 -0.21891342 0.24491155
0003e0 d5 6b 63 3e cd b4 4f 3e e2 44 eb 3d ec 68 ef 3d
       0.22209103 0.20283814 0.11487748 0.11689934
0003f0 19 fc 35 be c0 7b cf bd 34 0c 1f 3e 6f d9 be 3d
       -0.17771949 -0.10131025 0.15531999 0.09318816

fc2._model.0.bias f4 [20]
000000 9f 2a 0c ba 7d 92 65 9b 00 00 00 00 29 8a 02 39
       -0.0005346927 -1.8989769e-22 0.0 0.00012449235
000010 00 00 00 00 00 00 00 00 9e ca c6 39 7b bf e2 b1
       0.0 0.0 0.00037916464 -6.5992345e-09
000020 da 18 46 36 00 00 00 00 19 74 5e ba 1a 34 7c b6
       2.9518765e-06 0.0 -0.0008485928 -3.7581253e-06
000030 00 00 00 00 18 82 19 3a 00 00 00 00 f4 7c 8b 10
       0.0 0.00058558723 0.0 5.5018354e-29
000040 00 00 00 00 00 00 00 00 95 ad 28 3a 00 00 00 00
       0.0 0.0 0.0006434557 0.0

fc3._model.0.weight f4 [64, 48]
000000 9a bc bc 3c 9e 14 0b 3d 86 05 e6 3d 58 31 8d 3d
       0.023039151 0.03395521 0.11231522 0.06894177
000010 d2 30 5f 3e f1 5d 33 3e 25 2c 23 be ec c5 0e bd
       0.21795967 0.17516305 -0.15934809 -0.03485672
000020 86 63 03 be 17 d8 c1 bd 1a d7 68 3d a3 30 a7 3c
       -0.12830934 -0.09465044 0.05684576 0.020408934
000030 76 56 c7 bd 99 6e ae bd f6 1c 30 3d 8d ce 14 be
       -0.09733288 -0.085171886 0.04299637 -0.14531918
000040 0e 1c e0 3d 03 b1 b6 bb ee 99 59 3d 59 2f 40 be
       0.10942851 -0.0055753007 0.053125314 -0.18768062
000050 1c 2c a2 3d 84 e5 24 3e 7e f4 94 bd de 76 34 3e
       0.079185694 0.16103178 -0.07273196 0.17623469
000060 64 0e 07 bb d5 c8 1f be 1d 9a 28 3e 0d 5a b0 bd
       -0.0020607943 -0.15603955 0.1646504 -0.08610926
000070 2c 68 4e 3d 75 97 06 be a9 d8 e9 bd e1 1e 29 3e
       0.050392315 -0.13143714 -0.11418278 0.16515686
000080 b9 7c 15 3e 65 ad 3f 3e 19 18 9e 3d 57 21 d7 3c
       0.14598359 0.18718489 0.0771944 0.026261015
000090 86 9f a6 bd 74 77 03 3e f0 93 00 be 5d ca 92 3d
       -0.081358954 0.12838537 -0.12556434 0.07167504
0000a0 fb 14 45 be 23 e3 47 3e dc 1e ed bd d9 9c 3e 3e
       -0.19246285 0.1952024 -0.115781516 0.1861452
0000b0 ca aa 62 3e c3 d3 c7 3d d4 41 60 be 5d 03 68 be
       0.22135463 0.09757187 -0.21900111 -0.22657533
0000c0 62 d9 f9 bd 50 43 05 be cb 2f 29 be a2 db 44 3e
       -0.121996656 -0.13013959 -0.16522138 0.19224408
0000d0 0e 5d 12 3e c2 11 60 3d ad 06 2b 3e 64 ec 84 bd
       0.1429331 0.054704435 0.16701765 -0.064904004
0000e0 9e 1f 5d 3d 68 fd 45 be ec 7b c9 3d 55 f2 ec bd
       0.05398523 -0.19334948 0.09838089 -0.11569659
0000f0 ed 9a 58 be 62 8c 6d be 54 32 36 be 45 c2 1b 3e
       -0.2115285 -0.23198083 -0.17792636 0.15210827
000100 28 a4 7b 3c f7 8f 52 3d 2d ba 0a bd 73 a6 23 be
       0.015358962 0.051406827 -0.033868957 -0.15981464
000110 83 e6 cd bd 75 bd 07 3d f9 1c e4 3d 0f 6c bf bd
       -0.10053732 0.033139665 0.111383386 -0.093467824
000120 64 05 52 3e 68 b0 ac bd 73 15 40 3e 8c 2a 6d 3e
       0.20509869 -0.08432084 0.18758182 0.23160762
000130 2a 5a bb 3d 76 7b 1c be cb 70 15 3e 64 1b 31 bb
       0.09148057 -0.15281472 0.14593808 -0.0027024383
000140 91 0b 3d 3e 82 41 58 bd cb 15 e5 bd f1 c4 a1 3d
       0.18461443 -0.052796848 -0.11185797 0.07898892
000150 80 9b 28 be 38 07 44 3e 09 92 38 be ad 00 0a be
       -0.16465569 0.19143379 -0.18024458 -0.1347682
000160 52 c6 2c be f3 af 55 be 0f 24 f7 bd c8 62 07 bd
       -0.16872528 -0.208679 -0.120674245 -0.03305319
000170 29 e7 c5 3d bd 9b e5 bd 50 75 5d be 69 f4 96 bb
       0.09663231 -0.11211345 -0.21626782 -0.0046067727
000180 30 7d 97 3c 0a 39 56 3e a5 cd dc 3d eb c1 a7 3d
       0.018492311 0.20920196 0.10781411 0.08191284
000190 5d d8 b8 bd aa ee 1a 3e 31 6d 5d be 64 bb c1 bd
       -0.09025643 0.15130106 -0.21623684 -0.0945957
0001a0 72 11 36 3e d0 5e 1c be 81 de 12 be c9 70 bc bd
       0.17780092 -0.15270543 -0.14342691 -0.092011996
0001b0 3b 60 46 bd 70 f9 7b 3d 62 65 26 3d 1a 56 a3 3d
       -0.048431616 0.06151718 0.04062403 0.07975407
0001c0 8b e2 ee 3d f4 d0 3f 3e 29 b4 d3 bb 9c 6f 2d be
       0.116643034 0.18732053 -0.0064606857 -0.16937107
0001d0 d6 c4 1f 3d 95 b4 99 bd 45 fd 9d bd 90 6b c8 bd
       0.039006077 -0.075051464 -0.07714323 -0.09786141
0001e0 8d 97 37 bb 2a 73 65 3e b2 9d e3 3c c5 ed 11 3e
       -0.0028013915 0.22407213 0.027785156 0.14250858
0001f0 93 b1 3c be e3 9a 69 3e 9b b3 91 3d 98 36 29 3e
       -0.18427114 0.22812991 0.07114335 0.16524732
000200 4c 16 4e bc 28 13 61 be a4 c4 46 be 9f c3 2a 3e
       -0.012578558 -0.21979964 -0.1941095 0.16676186
000210 bf 00 29 be 79 c0 65 3d 1e 43 6a bd 1c 5f 16 3e
       -0.16504191 0.05609176 -0.057192914 0.14684719
000220 6e 3f 40 3e 1f dc 0d be 04 cb 5a be 40 bf b7 bd
       0.18774197 -0.13853501 -0.21366507 -0.08972025
000230 d3 cc 3e be c1 95 86 bd 39 2b 05 3e eb e3 ce bc
       -0.18632822 -0.06571532 0.1300477 -0.025255164
000240 e8 0b f5 bd 84 d9 07 be 85 b6 2c be 6c bf cf 3c
       -0.119651616 -0.1326657 -0.168665 0.025359832
000250 2b f6 89 bd 16 93 50 3e 63 c2 6a bd 67 19 0c 3e
       -0.06736406 0.20368609 -0.057314288 0.13681565
000260 62 8f 22 3e f1 0d 5a be 81 44 e0 3d 9a a9 57 3d
       0.15875009 -0.2129438 0.10950566 0.05265198
000270 12 6e 9d bc fb bd 55 bd a4 5e 66 be 87 ea da 3d
       -0.019217525 -0.052183133 -0.2249704 0.10689264
000280 a1 22 1b 3e f3 e1 d8 bd 0c df 16 bc 4a 9d 33 be
       0.15149929 -0.105899714 -0.009208452 -0.1754047
000290 d5 5b 02 be f6 47 3c be b9 62 2a 3e f5 d7 d0 3d
       -0.12730344 -0.18386826 0.16639222 0.101974405
0002a0 c8 03 3c 3d b8 81 b4 bd b0 66 5f be 73 44 06 3c
       0.045902044 -0.088138044 -0.21816516 0.0081950305
0002b0 17 de aa 3c de 4b 63 be db 57 37 3e bc c1 46 be
       0.020857854 -0.2219691 0.17904608 -0.19409841
0002c0 ff a9 28 3c 03 1f b5 3d 15 cb 6e 3d 8b 82 30 be
       0.0102944365 0.08843806 0.058299143 -0.17237298
0002d0 06 1a e7 3d fd dd 05 3e d6 8b 56 bd 2e f5 47 be
       0.112842605 0.13072963 -0.05237945 -0.19527122
0002e0 e7 de fb 3d e5 80 93 3d 6a 92 20 be 70 d9 69 3c
       0.122983746 0.07202319 -0.15680853 0.014273033
0002f0 08 32 79 3d 44 b7 fa 3c 82 f7 3b 3e 60 19 6e bd
       0.06083873 0.030604966 0.18356135 -0.05812967
000300 98 9d 7f bd 3b 7a 40 3e 64 13 06 be 3e 5b 19 3e
       -0.062406152 0.18796627 -0.13093334 0.14976212
000310 e1 40 f5 bd 9d dc a6 3d 87 49 55 be 37 62 5a 3b
       -0.11975265 0.081475474 -0.2082883 0.00333227
000320 70 7e 08 3d c5 ee 61 3e 18 70 98 3d 70 45 4d be
       0.033323705 0.2206374 0.07443255 -0.2004602
000330 f7 60 15 3d eb eb 07 bd 58 0d 3b be fb 00 eb bd
       0.036469426 -0.033183973 -0.18266809 -0.114747964
000340 03 31 bf 3d eb be b4 3d f0 9d 1e be a4 91 34 3e
       0.0933552 0.08825477 -0.15489936 0.17633682
000350 84 cf fd bd 5e 75 53 be c5 43 18 be 00 b8 b5 3c
       -0.12393096 -0.20650241 -0.14869602 0.022182465
000360 b5 a0 a9 3d e9 20 6f be 5b 98 aa 3d 3d a5 35 3e
       0.082826056 -0.23352398 0.08329841 0.17738815
000370 e6 d7 4f 3e 52 1c 86 3d 27 f1 57 bd 2e 71 e6 bd
       0.20297202 0.065483704 -0.052720215 -0.11252056
000380 67 b0 32 be 9c c6 7a 3d 3e 8e 0f 3d 4c de 2b 3c
       -0.17450105 0.061224565 0.035047762 0.010490011
000390 54 06 98 3d a6 4f 53 bc 2f 22 29 3e fb ae ea 3d
       0.07423082 -0.012897408 0.16516946 0.11459156
0003a0 92 44 6d be fd 64 08 3b 53 0f e3 bc 66 43 0c 3e
       -0.23170689 0.0020812147 -0.027717268 0.13697585
0003b0 e1 16 0f be d8 fd 27 3d a3 af e8 bd 0a 35 0e 3e
       -0.13973571 0.04101357 -0.11361625 0.1388742
0003c0 9a 03 42 bd 5a c7 e6 3d ad 2c 42 3e 9a b6 2c 3e
       -0.047366716 0.11268492 0.18962355 0.16866532
0003d0 d0 2c d3 bd e1 fb 69 3e 4f ba 97 3d 46 55 1b 3e
       -0.10311282 0.2284999 0.074085824 0.15169248
0003e0 9b 9b 36 be 5c 21 11 be 2e 60 6b 3e 67 dd 3b 3e
       -0.17832796 -0.14172882 0.22985908 0.18346177
0003f0 85 38 b8 bd fd 60 11 3e 2e 25 5d 3e 0c ea bd bd
       -0.08995155 0.14197154 0.21596214 -0.092731565

fc3._model.0.bias f4 [64]
000000 da 8e 24 bb 94 c5 26 3b 3c e6 26 bb e9 a3 26 3b
       -0.002510956 0.0025447356 -0.002546682 0.0025427288
000010 8d 92 26 bb 24 8f 26 3b 0e dd 26 bb 3d 13 25 bb
       -0.002541694 0.0025414908 -0.0025461349 -0.002518847
000020 f1 e0 26 3b 23 d4 26 3b d9 ec 26 3b 0e 0d 27 3b
       0.0025463665 0.0025456033 0.0025470762 0.002548996
000030 a4 89 26 3b 69 9c 26 bb 95 c2 26 3b 9b b6 26 bb
       0.002541163 -0.0025422818 0.002544557 -0.0025438431
000040 7a b4 26 bb 6a f6 26 bb be 0a 26 3b f1 c2 26 3b
       -0.0025437162 -0.0025476464 0.0025335993 0.0025445784
000050 77 b0 26 3b 53 d6 26 bb bc 8f 27 3b 12 68 26 3b
       0.002543477 -0.0025457337 0.002556785 0.002539162
000060 69 f8 26 bb c9 a6 26 bb 69 e9 26 3b 2c 11 27 bb
       -0.0025477654 -0.0025429002 0.0025468713 -0.0025492413
000070 f6 be 26 3b a5 5f 26 3b 2d e1 26 3b f8 be 26 3b
       0.0025443411 0.0025386598 0.0025463805 0.0025443416
000080 16 34 27 3b fb be 26 bb e2 aa 26 3b ca a0 26 bb
       0.0025513223 -0.0025443423 0.0025431444 -0.0025425428
000090 47 b7 26 3b de b5 26 bb 85 bb 26 3b 4b ba 26 3b
       0.0025438832 -0.002543799 0.002544136 0.002544063
0000a0 5d c5 26 3b e1 e7 26 3b 39 c4 26 bb e8 ba 26 3b
       0.0025447228 0.00254678 -0.0025446548 0.0025440995
0000b0 51 35 27 bb cc e7 26 3b d7 a2 26 3b f4 c9 26 3b
       -0.0025513957 0.0025467752 0.002542665 0.0025449963
0000c0 2c bc 26 bb 8e ac 26 3b 29 be 26 3b ec f0 26 3b
       -0.002544175 0.002543244 0.0025442934 0.002547319
0000d0 94 e7 26 bb 87 e7 26 3b 10 ab 26 3b 61 f2 25 3b
       -0.002546762 0.002546759 0.002543155 0.002532147
0000e0 7d ef 26 bb 50 be 26 bb 02 ca 26 bb 9e 00 27 bb
       -0.0025472336 -0.0025443025 -0.0025449996 -0.0025482546
0000f0 a7 bc 26 bb 61 7d 26 3b 74 be 26 3b 62 c2 26 bb
       -0.0025442035 0.0025404321 0.0025443109 -0.002544545

fc4._model.0.weight f4 [1, 64]
000000 fe 24 6a bc fa af 99 3e a6 50 80 be 48 a0 24 3e
       -0.014291046 0.30017072 -0.2506153 0.16076767
000010 dc e6 02 be 0d d6 e1 3d 6e 44 0b be 2b 92 8a bc
       -0.12783378 0.11027155 -0.13600323 -0.016915401
000020 c9 16 ff 3d c5 87 35 3e fb af 81 3e f0 0d 86 3d
       0.12455518 0.17727573 0.25329575 0.06545627
000030 68 43 f3 3d 1e a7 22 be ad 98 55 3e f5 18 4b be
       0.11878091 -0.15884063 0.20859022 -0.19833739
000040 3f 94 7c be 1b 55 40 be 93 9c 99 3b 3c b8 88 3e
       -0.24665926 -0.18782465 0.0046878546 0.2670306
000050 1f 4e 24 3e 67 0e 45 be cd 8c e4 3c b2 1e 8c 3d
       0.16045426 -0.19243775 0.02789917 0.06841792
000060 df 22 2a be 81 e1 1b be 34 b5 64 3e 43 61 3b bd
       -0.16614865 -0.15222742 0.22334749 -0.045747053
000070 23 7b 67 3e fd 77 94 3d 8e f5 98 3e 27 c4 12 3e
       0.22605567 0.072494484 0.29874843 0.14332639
000080 13 50 80 3d 0e 7b 83 be 3b f9 4a 3e 87 4d 20 be
       0.06265273 -0.2567982 0.19821636 -0.15654574
000090 8a 98 8a 3e 67 b8 5c be d9 a2 82 3e c6 8c 54 3e
       0.27069503 -0.21554719 0.25514868 0.20756826
0000a0 2e be 12 3d 9e 26 19 3e ea 15 26 be e0 e0 4e 3e
       0.0358259 0.14956138 -0.16219297 0.2020297
0000b0 56 1c 07 bd ef ff 28 3e a4 cf 1d 3e 03 7a 6a 3e
       -0.032986008 0.16503881 0.1541124 0.22898106
0000c0 d6 22 98 be f2 65 20 3e b4 4a 96 3e 57 7b 78 3e
       -0.29714078 0.15663889 0.2935387 0.242658
0000d0 dd 30 87 be 6f 21 70 3e 03 db 49 3e 6e 27 26 3d
       -0.26404467 0.23450254 0.19712453 0.040564947
0000e0 3c bf 71 be 8a 14 35 be 67 fd 99 be 20 79 01 be
       -0.23608106 -0.17683616 -0.30076143 -0.12643862
0000f0 5f 83 2c be 3c 25 b6 3d e3 d9 7e 3e 0a c3 8e be
       -0.16846989 0.08893821 0.24887805 -0.27883178
