example/cloudManufacturing_network/rl/phase/ckpts/policy-model-weight-array.global-step-17600.pth (torch, 33911 bytes, 7 tensors)

fc1._model.0.weight f4 [24, 141]
00000000: 26d2 a03d 1bae a3bd f18e 1cbe e4ec f23d
00000010: d4bb a33d 0abd 033e 6afc 943c ae04 39be
00000020: 5af1 293e a9b5 eebd 784f 193e 0ff3 f83c
00000030: d347 2b3e 95ec f9bd 30ac 2c3e 946a 09bd
00000040: 7809 14be 4f2b 26be bd00 dabb 9410 873c
00000050: b7ca 8dbc fa64 7ebd 27eb 833d 9217 21be
00000060: 389d ba3d 4c2d bd3d 54c7 3dbe 8af9 e6bd
00000070: ef7b 083e 6416 31be a96b 3b3e 97d5 343d
00000080: 961f c9bd 2116 7d3d 116f 40be b85b 283e
00000090: e989 07be 4d2c 983d cfc2 b4bd 6c18 1e3d
000000a0: a70b 133e b1f6 113e 6cfe 1a3e 03a8 a43b
000000b0: 5c59 2dbe f56f fdbc d64a 9439 1821 b7bd
000000c0: 669f 16bd 6cb9 56bd 9d7e 233d 8b7c f6bd
000000d0: 7a13 2e3c 1c8e 493c 7813 3fbe 1582 8bbc
000000e0: 1e4e 663c 318b 0fbd d099 0a3e cac5 dbbd
000000f0: 9551 2dbe b584 dfbd ba80 8abd cb55 1c3e
00000100: 853b 0f3e 9712 1e3d 991a f2bd fee7 fabb
00000110: 4a4f 11be c2f7 20be e146 08be 5289 9fbd
00000120: 5278 89bc 488a 3fbe b1d3 1a3c 3910 2f3e
00000130: cf82 173e b072 303e efa0 97bc 40a3 553d
00000140: efb2 ad3d 3498 fcbd cb30 c33d b1a8 b13d
00000150: 9625 58bd e262 32bc 4b6e 17bd bad3 363e
00000160: aa1b 843d 7900 1b3e 4f4d febc 3172 dcbd
00000170: 1f82 efbd 6a59 30be 7c91 df3c c397 39be
00000180: 9356 da3d 73af 82bd 1e5f e63d 6a48 dbbd
00000190: 0d84 633d 570b d0bd 33e0 3dbd 69c0 b5bd
000001a0: 1ac4 18be 0942 2a3e ef08 30be 1cd4 b0bd
000001b0: 18f5 163e 22f6 bfbd f1cc 383e 80b0 b7bc
000001c0: 03a2 8e3d b984 0e3e 7b5b 1b3e 2dd6 02be
000001d0: 59c1 813c 3a56 06bd 7856 a03d 9c96 32be
000001e0: e6a8 63bd 1025 cdbd 0d85 3bbe 5a1d 28be
000001f0: 9837 0e3e d45f 383e f473 3c3e 6634 053d
00000200: 6168 8bbd 5fee 333e 2ebc 423e bcf2 8abd
00000210: bd1d 10be 3869 323d 85c7 903c 59a7 2dbe
00000220: 29c2 21be a5d3 813d 91b8 46bd 389c f7bd
00000230: df6f 213e 15b4 b23d f185 fcbd 7770 113e
00000240: dd2c 7ebd ac00 1bbe c2d7 0fbe 3bf7 80bd
00000250: 30b0 4fbd fbfb 10be 073a df3d f3b5 b93d
00000260: d74b 323d 1c5c 243e 0771 8f3d 2b16 de3d
00000270: 41b9 99bd 04db 9cbc 2790 fb3d 6aa4 97bd
00000280: 896f 17bd be86 fa3d 47dc ce3d 79fb 823d
00000290: 2c19 0abc bd1c 403d 4077 aebd b363 6c3d
000002a0: 9767 23be 8a8a bd3b c96a d6bd 14aa c73d
000002b0: be59 083c 1e8b 29bd bc71 20be 6056 8cbc
000002c0: 08c4 0f3e 9af9 6b3d be8e 1cbe 2c90 fbba
000002d0: ae8e ab3d e098 27be 3a9d 37bd 07aa 69bd
000002e0: 7576 433c a8a6 74bd 4786 383e 1d93 063e
000002f0: 067f eeba 3a1c 6a3d bbbc fabd e1b7 2abe
00000300: f11f e9bd 28bd 18be ac8d 323d 5202 93bd
00000310: 20fe 1a3d ba54 243e 503a b2bd 1081 fe3d
00000320: 5e5a fe3d b7a9 863d 67f5 fc3d 009e 0c3e
00000330: dde0 233e 3b9f 0e3e 8526 8e3d d40c 303e
00000340: c7dd 363e 63e9 14be 64e7 d2bc 56a2 05be
00000350: a38b bb3d 96a8 46bd 01a1 e83d 9685 16bc
00000360: 6b52 06bd e9fc 19be 948c a3bd 83c8 be3d
00000370: 3baa 24be 9d9f 223c fd53 35be 4553 30bd
00000380: 05cb dfbd da8c 00be 3f20 c83c dff4 b7bd
00000390: e9b8 0b3d 6776 08be 839c 323e 5dd7 5ebd
000003a0: fed4 15bd 8539 c43d c65e 33be 943e 323e
000003b0: 7057 96bc 6774 12bc 435e 363e 6d99 d5bd
000003c0: 6f8c f33d a09d 08be d1d1 353d 83be 23bd
000003d0: 6a7d 233d 3aa7 b7bd c756 30be d4db 0b3e
000003e0: 6862 38be 9dfa 39be d0d7 4fbb 8e1f fe3d
000003f0: 4c96 9d3c 0b1e 07bd 2fde 3a3e 0178 2fbc
0.07852583 -0.07992192 -0.15288903 0.118615896 0.0799481 0.12865081 0.018186767 -0.18068191
0.16595975 -0.11655743 0.14971721 0.030389337 0.16726618 -0.122033276 0.1686256 -0.033548906
-0.14456737 -0.16227458 -0.00665292 0.016487397 -0.017308576 -0.062108018 0.06441336 -0.15731648
0.09112018 0.09237155 -0.18533069 -0.112780645 0.13328527 -0.17293698 0.18302788 0.044149008
-0.09820478 0.061788682 -0.18792368 0.16441238 -0.13236202 0.07430325 -0.08826219 0.03859751
0.14359914 0.14254262 0.15136117 0.0050249114 -0.16928619 -0.030937174 0.00028284517 -0.08941859
-0.036773108 -0.052422926 0.03991567 -0.120354734 0.010624761 0.012301948 -0.1865977 -0.017029801
0.0140567105 -0.035044853 0.13535237 -0.10731085 -0.16925652 -0.10913984 -0.06762834 0.15267102
0.13987549 0.038591947 -0.11821479 -0.00765705 -0.14190403 -0.15719512 -0.13308288 -0.07789864
-0.016781006 -0.18705094 0.009449885 0.17096032 0.14795993 0.1723125 -0.018509356 0.05215764
0.084813945 -0.12333718 0.09530791 0.086747535 -0.05277022 -0.010887833 -0.036970418 0.17854205
0.06450589 0.15136899 -0.031042723 -0.10763968 -0.116947405 -0.17221609 0.027291052 -0.18124299
0.10661044 -0.063811205 0.11248611 -0.10707171 0.055545855 -0.10158413 -0.04635639 -0.0887459
-0.14918557 0.16626753 -0.17190908 -0.08634207 0.14741933 -0.09373118 0.18046929 -0.022423029
0.06964495 0.13917817 0.15171616 -0.12777014 0.015839266 -0.032797076 0.078289926 -0.17440265
-0.055580996 -0.10016835 -0.18312474 -0.16417447 0.13888395 0.18005306 0.18403608 0.032520674
-0.06807018 0.175714 0.19017097 -0.06784579 -0.14073844 0.043557376 0.017673263 -0.1695837
-0.15796722 0.06339196 -0.04851586 -0.12090343 0.15765332 0.08725754 -0.12330235 0.14203058
-0.062054504 -0.15136975 -0.14047149 -0.062971555 -0.050705135 -0.14158623 0.1089974 0.09067907
0.043529358 0.16050762 0.0700398 0.10844072 -0.075060375 -0.019147404 0.12283354 -0.07404406
-0.036971603 0.12232731 0.10100608 0.06395621 -0.008428853 0.046902407 -0.08518839 0.057712268
-0.15957485 0.0057843374 -0.104695864 0.09749237 0.008322177 -0.041392438 -0.15668386 -0.01713103
0.14039624 0.057611085 -0.15288827 -0.0019192747 0.08376823 -0.16366911 -0.044827677 -0.057046916
0.011930098 -0.05972925 0.18019973 0.13142057 -0.0018195815 0.057155825 -0.12243029 -0.16671707
-0.113830455 -0.14915907 0.04359214 -0.07178177 0.03784001 0.16047946 -0.087025285 0.124269605
0.1241958 0.06575339 0.12351494 0.13732147 0.16003747 0.13927929 0.06940941 0.17192394
0.17858039 -0.14542155 -0.025745101 -0.13050207 0.09157493 -0.04850062 0.11358834 -0.009187123
-0.032793444 -0.15037884 -0.079857975 0.09315588 -0.16080563 0.00992575 -0.1770782 -0.043048162
-0.10927395 -0.1255373 0.024429439 -0.08982252 0.03411189 -0.13326417 0.17442517 -0.054404605
-0.03658008 0.095812835 -0.17516622 0.17406684 -0.01835224 -0.008938885 0.17809395 -0.10429654
0.1189202 -0.13341379 0.04438955 -0.039976608 0.039914526 -0.08967443 -0.17220603 0.13658077
-0.18006289 -0.18162008 -0.0031714328 0.12408362 0.019236706 -0.032987636 0.18248819 -0.0107097635

fc1._model.0.bias f4 [24]
00000000: de19 c43a 1072 bc3a 24bd b63a cc85 a9ba
00000010: f257 c5ba 3ef2 bf3a 6c9e bcba 5288 c3ba
00000020: c301 bfba 4323 be3a d6de cf3a 35da ab3a
00000030: ebdc 8039 72e1 b23a 8cb2 c8ba 0d6c c53a
00000040: 1fcc c13a 1cc9 963a 0ea1 b6ba 7c37 ec3a
00000050: 3b58 daba 7995 d9ba 7152 c4ba e07f 983a
0.0014961322 0.0014377255 0.0013941866 -0.0012933551 -0.0015056117 0.0014644337 -0.0014390475 -0.0014917946
-0.0014572669 0.0014506358 0.0015859257 0.0013111295 0.0002457866 0.001364751 -0.0015312 0.0015062109
0.0014785564 0.0011504027 -0.0013933496 0.0018021907 -0.0016658375 -0.0016600332 -0.0014978183 0.0011634789

fc2._model.0.weight f4 [20, 48]
00000000: 3494 393e a362 33be 492d 4ebe 9d8b 4cbe
00000010: e515 c1bd 6003 27be b627 843c 15b9 053e
00000020: aaa3 97be 1453 a93a 8ab9 9ebd 343d cabd
00000030: 8397 503e 3d3b 83be 0b9a 5b3e 005a 413e
00000040: 1c36 ba3c 5e74 1e3e d234 dcbd 6456 49be
00000050: e21f 933e 841f dabd eabd 963d 6080 ee3d
00000060: 7b52 66be 23d7 81be 2cec 2dbe e763 4c3c
00000070: 4fa8 7e3c f782 0a3e db90 72be 59b4 633e
00000080: e9a2 b3bc f88f 393e 693c 783e 0769 6c3e
00000090: 3ed7 63bd 7511 7e3e 0803 97be ee1b eb3c
000000a0: 3b14 173e dbbe 93be a169 74be 5eb8 39be
000000b0: 9a6c 8f3c 3028 743e 5859 4b3e e3e0 683e
000000c0: 5a42 ed3c c903 c33d 90dc 26bd ceb5 763e
000000d0: 519c 8abc fd92 e0bc 0be1 4f3d 3159 79be
000000e0: c276 66be 5bc0 5fbe e631 613e 6e30 253e
000000f0: 9266 493c d325 3c3e df51 6bbe 87f9 45be
00000100: 9ac4 71be acb7 7e3e fa59 35be ad23 28be
00000110: e4a7 e13d 89e6 5fbe 8d68 efbb b3a6 5f3e
00000120: 9d51 773e 07a5 8ebd 5d77 f0bd c287 c63d
00000130: c0d0 4fbe 533c 2f3e 2748 43be 1edb d03d
00000140: a925 0ebe 0a4e ef3d fbf8 5c3e 928c 443e
00000150: f86c bbbd a987 47be f564 77bc f764 863e
00000160: 7124 663e 6bce ea3d 58ce 193e dc0f 413d
00000170: f57e 2bbe 6bb1 a1bb 0564 4d3e 783f c43d
00000180: 399b ddbc a3e4 0cbe 9de5 fd3d ffa1 0abe
00000190: 96ff 943e e284 2abc 5ec5 b3bb 59e2 72be
000001a0: 7923 76be 1b3d fbbd 9457 27be 9c91 95be
000001b0: edb6 bd3d fbc6 783e fb6b 00be 77e7 4f3d
000001c0: 526a f33d adeb 4dbe 55e1 02bd 09b2 203e
000001d0: 8675 763e d87c 38be 2e87 6e3e ab39 96be
000001e0: 8668 20be e69b 2f3e dcf3 2cbe 2dac 013e
000001f0: 9189 993d fe91 8b3e efba 4b3e d4a2 013d
00000200: f0c9 92bd d40a 393e dda3 9cbc 38a6 82be
00000210: fb50 653e 7e8a 923e 3bad 9ebd 5399 153e
00000220: 02b3 92be 16d0 413d 82af 6f3d f097 f2bb
00000230: 9e54 d33d 3fe5 473e 0d78 1c3d c1bc 033e
00000240: d697 543d 75b6 823d c655 4bbe 5a2b ab3d
00000250: 0371 3b3e 5004 053e 0ccd bb3d e1f9 943d
00000260: 5d1a 953e 36df d53d a0c6 54bb a3a8 b4bd
00000270: 9861 bfbd 95fa 39bb 625e 8dbe 169b e03c
00000280: b324 e5bd 0df0 abbd 3904 e4bd a042 db3d
00000290: 7c39 903e a8ed 8fbe f7b3 1c3e d7f1 b6bc
000002a0: 974b cd3b 8309 883e c9a3 893e b186 263e
000002b0: a5e7 09be 43a1 76be c249 173e b08c 05be
000002c0: 76c7 e33d 037a a13d f55e 6f3e 71d6 b8bd
000002d0: 3d33 43be e6fc f0bd f379 e0bd 46b2 82be
000002e0: 8e41 b93d 7d94 96be e569 ad3b 4d88 86be
000002f0: 9b5d f9bd 208c ec3d f924 96bd 6e53 38bd
00000300: e1fc 75bd 2f8c 7bbe 41c1 e0bc fa58 453e
00000310: 1f15 3bbc 3eff 20be e591 4e3e ec62 82be
00000320: 3513 b83d c561 2bbd 06d2 43bd 3b0f 3b3e
00000330: 70ba 60bd 45df 83bd cceb e6bd 94aa 9ebd
00000340: 2bab 2cbe aaef 25be a5e0 8b3e e9c4 953e
00000350: 16c3 743c 7338 e73d 5d59 eb3d bb31 4b3e
00000360: df02 28bd 87bd a6bc 7c7a 87be 3873 343e
00000370: b5a2 dabd 2fa3 d83d d367 84be ad00 673e
00000380: 1c6e 6bbe 5604 87be c542 05bd 34d1 84be
00000390: c426 3b3e 987b 71be 17a5 14bd 8d77 82ba
000003a0: 0b62 3abe 17e3 913e 8302 0f3e caa3 c1bd
000003b0: 3cbf 3b3d ec81 89be b134 833e f41e e43c
000003c0: be64 71be 3bc2 113e 6061 dabd f040 07be
000003d0: 10b3 953e 69ac 41be 993d 7fbe ef76 0ebe
000003e0: 0c40 653e 0fe5 70be 65b8 93be f580 b83d
000003f0: 9aec 8b3e 5079 abbc 8249 683e 4b81 48bc
0.18122941 -0.17518096 -0.20134462 -0.19975133 -0.09428004 -0.16309881 0.016132217 0.13058884
-0.29617053 0.0012918436 -0.077502325 -0.09874955 0.20370297 -0.25631133 0.21445481 0.18881989
0.02273088 0.15474078 -0.10752262 -0.19661862 0.28735262 -0.106505424 0.07360442 0.11645579
-0.22492401 -0.2535945 -0.16984624 0.01247499 0.015543058 0.13526522 -0.2368807 0.22236766
-0.021928268 0.18121326 0.24241795 0.2308694 -0.055625193 0.24811347 -0.294945 0.028699841
0.14753811 -0.2885655 -0.23868419 -0.18136737 0.01750784 0.23843455 0.198583 0.22742037
0.028962303 0.09522206 -0.04073769 0.2409279 -0.01692024 -0.02741384 0.050751727 -0.2435043
-0.2250624 -0.21850722 0.21991691 0.16131756 0.012292521 0.18373804 -0.2298045 -0.19333468
-0.23610154 0.24874753 -0.17710105 -0.16419859 0.11018351 -0.21865286 -0.0073061646 0.21840934
0.24152227 -0.0696507 -0.11741517 0.096938625 -0.20294476 0.17112856 -0.19070493 0.10198043
-0.13881554 0.11684807 0.21579354 0.19194248 -0.091516435 -0.19485344 -0.015099754 0.26248905
0.22474839 0.11465152 0.1502012 0.047134265 -0.16747649 -0.00493448 0.20057686 0.09582418
-0.027051555 -0.13759093 0.12397311 -0.13538359 0.29101247 -0.010407658 -0.0054861745 -0.23719157
-0.24036969 -0.12267514 -0.16342002 -0.29212654 0.09263406 0.24294655 -0.12541191 0.05075785
0.11885513 -0.20109434 -0.031953175 0.15692915 0.24068269 -0.18016374 0.23293754 -0.29340872
-0.15664873 0.17149314 -0.168899 0.12663336 0.07496942 0.2725982 0.19895528 0.031649426
-0.07167423 0.18070537 -0.019121105 -0.2551744 0.22394173 0.28621286 -0.07747885 0.1460927
-0.28652197 0.047317587 0.058516987 -0.0074033663 0.10318874 0.19521044 0.038200427 0.12864973
0.051902615 0.06382457 -0.19856939 0.08357878 0.1830483 0.12989926 0.09169969 0.07274223
0.29121676 0.10442965 -0.0032467023 -0.088212274 -0.093447864 -0.0028378118 -0.2761107 0.0274177
-0.111886404 -0.083953954 -0.11133618 0.10706067 0.28168857 -0.28111005 0.15303026 -0.022332115
0.0062651145 0.26569757 0.2688277 0.16262318 -0.13467272 -0.24084954 0.1477423 -0.1304195
0.111220285 0.078846 0.23376067 -0.090252765 -0.19062515 -0.117669865 -0.1096076 -0.25526637
0.09045707 -0.29410163 0.0052921646 -0.26275864 -0.12176057 0.11550164 -0.07331271 -0.04500144
-0.060055617 -0.24565195 -0.0274359 0.19272223 -0.01141861 -0.15722367 0.20172842 -0.25466096
0.089880385 -0.041841287 -0.047807716 0.18267529 -0.0548653 -0.0643907 -0.112754434 -0.07747379
-0.1686217 -0.16204706 0.27319828 0.29251793 0.01493909 0.11290064 0.11491654 0.1984319
-0.041018363 -0.020354046 -0.26460636 0.17622077 -0.10675565 0.10578 -0.25860462 0.22558852
-0.22991222 -0.26370496 -0.03253438 -0.2594086 0.18276507 -0.23582304 -0.036290254 -0.0009953842
-0.18201463 0.28493568 0.13965802 -0.094550684 0.045836672 -0.26856935 0.25626138 0.02784679
-0.23573586 0.1423425 -0.10663104 -0.13208365 0.29238176 -0.18913426 -0.24925841 -0.13912557
0.22387713 -0.23524879 -0.2885162 0.090089716 0.2732895 -0.02093187 0.22684291 -0.012237857

fc2._model.0.bias f4 [20]
00000000: 0000 0000 0000 0000 0000 0000 5d36 183a
00000010: 39d3 eeb8 7798 d2b8 0000 0000 3595 e6b1
00000020: 81f4 9238 0000 0000 0000 0000 0000 0000
00000030: 0000 0000 0000 0000 d35e 7238 e87d 94b9
00000040: 0000 0000 0000 0000 e826 d6b9 a031 afb6
0.0 0.0 0.0 0.00058064406 -0.00011388068 -0.00010041979 0.0 -6.710844e-09
7.007365e-05 0.0 0.0 0.0 0.0 0.0 5.7785608e-05 -0.00028322567
0.0 0.0 -0.00040846248 -5.2211835e-06

fc3._model.0.weight f4 [64, 48]
00000000: 6126 ad3d 2b8b 0cbe b976 36bd d74b 073d
00000010: cd01 11bb 55d3 a0bc 3d12 bdbd 7ffe dcbd
00000020: 35bb 01be 3c3f 993a c906 5bbe c98e 34be
00000030: 3352 1fbb 3fbc 5fbe c90d 933d b24b 41bd
00000040: 9f1e 36bd 4edb 003d 48e8 d03d 7454 efbc
00000050: 1b31 2b3d 838c a03d 9e51 383e baf7 87bd
00000060: 9ae0 28be 9230 88bd 94ba 343e 1d7a 34be
00000070: d594 1e3e 9bbe 093e 1ad2 81bd 116f 563e
00000080: fe6e 863c aa6c 4b3e dbb6 a0bd 4d3d 8ebd
00000090: 2c37 593e 5d2b 113d b930 0dbd 7746 32be
000000a0: 8aac 1a3c 8d36 3c3e fc78 cabd 69fe a43d
000000b0: aac6 67be a229 f7bd 1e17 543e 3357 45bd
000000c0: 3a60 23be c696 81bd deb5 f3bd 0b55 223e
000000d0: 36fc 51be f587 b13d 0198 9dbd 4a9e 1f3e
000000e0: 7610 66be 399e ed3c e8b5 40bd ea9b 7a3d
000000f0: 6d7e 993d d261 c93d 10de 27bd 1f2e 793d
00000100: 0722 0ebe f504 4bbe 8046 86bd 34e7 3bbe
00000110: 1a57 0dbe 73c1 4b3e bb2f 08be 1b12 a43b
00000120: 990a de3d 9353 c23d a243 7abd 9bfa 31be
00000130: ec6e fa3d 4788 893c ab91 eabd 81bd 653e
00000140: fb84 6e3e 4ad6 35bd 385c 46be 7752 ffbd
00000150: 150d 453c df20 8d3d 2062 4cbd 961e 433e
00000160: f632 c23c b0af 61bc d635 38be 7d7b 153e
00000170: 85b7 f73d 5e03 673e ce81 6b3d 0568 363e
00000180: 5e28 1f3e cd0d f4bd 752b 003d 03a8 3a3e
00000190: 3ef7 5939 ec1e 31be bd16 103e 26bf 9e3c
000001a0: f32c 2a3e 987b 573e da2d 403e c8ca 4abe
000001b0: 890e 36be c3c7 20be ff7f 82bd 6002 233e
000001c0: cfc6 89bd d5d0 24bb 043b acbd d82e 29bd
000001d0: 6623 143e c463 273e ba21 523e aa9d f73d
000001e0: ca55 223e dc12 203e 8034 0c3e 9d34 d53d
000001f0: 310e 2abe 2faf e13d a1a4 58be d383 673e
00000200: c4aa ffbc ceda 053e cad2 d13d f6d9 5e3e
00000210: 2e6e af3d 1a1c 183e 5a0c 4e3e a8f4 3ebe
00000220: e2a7 113e 2e93 a8bd 89b5 8a3c fe4c d7bd
00000230: 1255 50be 9d64 83bc f3fe 0d3e 2679 003e
00000240: 1e05 173d 7fb0 96bb 57fd 863d 786f 0bbe
00000250: 4b2f 51be d5d8 81bc a1b3 c5bd e125 14be
00000260: 3bb5 6cbc 670b 6a3e ea7d 61be f928 b7bd
00000270: 5b02 5b3e 0a7f 143e 21b8 183e ce98 e33d
00000280: a094 50be 3d94 19be 1e65 9b3d ab28 3abe
00000290: 0892 313e 35e7 d8bd 8392 433e b002 e2bc
000002a0: c261 2bbe 417e 123e b327 53be 5775 ba3d
000002b0: 7d7b 8fbd bbbb 27be 059e 2a3e 12ad e03d
000002c0: b6ca 083e 9a12 5dbe b372 debd 9b3f c03d
000002d0: 5d9b 3d3e aeac 52be d8b2 463e 3042 253d
000002e0: f5ea e13d 4bfb 0abe 79f7 643e 52b9 863d
000002f0: 39f5 26be eca9 573e 0b27 023e 060e 4bbe
00000300: 3569 27be 690b 02be 7e83 b83b cf16 e4bd
00000310: 711c 843d 24d2 3f3e 2f98 023d 3550 65bd
00000320: 923f c0bd afd0 54bd edef e5bd d491 803d
00000330: 016f bebd 9d2a 62be 9ee4 8dbc 8099 253e
00000340: 9974 663e 251c 35be 3291 68be e1f4 53be
00000350: b554 f3bd b15d 273e ae0f 4b3e 4b49 0a3e
00000360: 0743 0dbe 3822 453e 453a c53d 0879 f33c
00000370: aca1 553e f0af 853d 43ec 113e ee6e ce3d
00000380: 18b9 113e 0196 f93d ae3b 31bd 8d24 98bc
00000390: b17c 16bd 33ef 9cbd 459f de3d f37d 0c3e
000003a0: 9a0a 1e3d 3722 34bd 33b8 42be 5dd1 853d
000003b0: b30c debd 96a4 efbd 16d6 5d3e efd5 083c
000003c0: badc e13d b827 6fbd 025a 37be dab7 273e
000003d0: 5f34 a1bd 46f6 203e fca9 ee3d 9058 073e
000003e0: 066c ffbd 6cfc f1bd 6ba5 123e 0ed6 273e
000003f0: c96d 6d3c a2a9 183e d2e7 3fbe b77c 26be
0.08454586 -0.13724963 -0.044546816 0.03303131 -0.0022126317 -0.019632021 -0.09231994 -0.10790729
-0.1266907 0.0011691819 -0.21389307 -0.17632593 -0.002431047 -0.21849154 0.07180364 -0.04719133
-0.044462796 0.031459145 0.10200554 -0.029215075 0.041794877 0.078393005 0.17999884 -0.06639047
-0.16491929 -0.06649889 0.17649299 -0.17624708 0.15486462 0.13451616 -0.06338902 0.20940806
0.016410347 0.19865671 -0.07847377 -0.06945286 0.21212453 0.035441745 -0.034470294 -0.17409693
0.009440551 0.18380184 -0.09886357 0.080563374 -0.22634378 -0.12068488 0.20711944 -0.048178863
-0.15954676 -0.06327586 -0.11899923 0.15852754 -0.20506367 0.0866851 -0.07695008 0.15587726
-0.22467217 0.02900611 -0.04704848 0.061183847 0.07494817 0.09833111 -0.04098326 0.060835
-0.13880168 -0.1982611 -0.065564156 -0.18349916 -0.13802758 0.19898014 -0.13299458 0.005007041
0.10841865 0.09488597 -0.061099656 -0.17380755 0.12228188 0.016788615 -0.11453565 0.22435571
0.23292916 -0.044393815 -0.19371116 -0.12466901 0.012027045 0.06891035 -0.049898267 0.19054636
0.02370594 -0.013774797 -0.17989287 0.14597888 0.120955504 0.22559878 0.05749684 0.17813118
0.15542743 -0.11916695 0.031291444 0.18228154 0.00020786838 -0.17296952 0.14071174 0.019378256
0.1661871 0.21043241 0.18767491 -0.19803917 -0.17778982 -0.15701203 -0.063720696 0.15918875
-0.06727373 -0.0025148888 -0.08409694 -0.04130444 0.14466628 0.16346651 0.20520678 0.12090619
0.15853038 0.15632194 0.13691902 0.10410426 -0.16606976 0.11019742 -0.21156551 0.2260888
-0.031209357 0.13071749 0.10245283 0.21762833 0.08565937 0.1485447 0.20121899 -0.18648016
0.14224198 -0.08231197 0.016932266 -0.10512732 -0.20344952 -0.016039187 0.13866787 0.12546214
0.036870115 -0.0045986767 0.065912895 -0.1361674 -0.20428197 -0.015850464 -0.09653402 -0.14467575
-0.014447506 0.22855912 -0.22020689 -0.08943362 0.21387617 0.14501587 0.1491399 0.111131296
-0.20369196 -0.14997955 0.07587646 -0.18179576 0.17340863 -0.10590974 0.19098859 -0.027589172
-0.1673651 0.14305975 -0.20620613 0.09104412 -0.070059754 -0.16380207 0.16661842 0.109705105
0.13358578 -0.21589127 -0.10861721 0.09387132 0.18516298 -0.20573685 0.19404161 0.040346324
0.110311426 -0.13572423 0.22360028 0.06578316 -0.16304483 0.21060914 0.12710206 -0.19829568
-0.16348727 -0.12699665 0.0056309095 -0.11137163 0.06450737 0.18732506 0.031883415 -0.055984695
-0.09387125 -0.05195683 -0.11227403 0.062778145 -0.09298516 -0.22086568 -0.017320927 0.16171837
0.22505416 -0.17686518 -0.22711638 -0.20698883 -0.11881391 0.16344334 0.198302 0.13504522
-0.137951 0.19251335 0.09630255 0.029720798 0.20862454 0.06527698 0.14250283 0.10079752
0.14230764 0.12186814 -0.043269806 -0.018572116 -0.03674001 -0.07662811 0.10870222 0.13719921
0.03858433 -0.043977942 -0.19015579 0.065340735 -0.10842266 -0.11701314 0.21663699 0.008351787
0.110284284 -0.058387488 -0.17905429 0.16378728 -0.07871317 0.15718946 0.11653516 0.13217378
-0.12471776 -0.11815724 0.14320914 0.16390249 0.014491507 0.1490846 -0.18740776 -0.16258512

fc3._model.0.bias f4 [64]
00000000: 6be3 1239 a56e 1239 6313 1139 9fa1 11b9
00000010: e517 11b9 c7c6 1139 57f8 12b9 5a3b 12b9
00000020: 706f 1139 f73a 1139 c8af 11b9 e583 11b9
00000030: 7430 13b9 874d 1239 2d15 1339 ddc1 12b9
00000040: bfb6 1239 f7b3 1139 3a56 1239 3882 11b9
00000050: ca19 13b9 91a5 1139 52bd 1239 0171 11b9
00000060: 58b7 15b9 6e23 1339 96b1 12b9 16da 1139
00000070: 0a4b 1239 c520 1139 2c60 12b9 dbf3 1239
00000080: f243 1239 f7b6 12b9 c190 1239 be4d 11b9
00000090: 8259 12b9 e7c0 1139 5617 11b9 681a 14b9
000000a0: 8f47 1339 ce7b 1339 20ba 1139 eec3 1139
000000b0: ea07 12b9 b074 10b9 be97 12b9 7aac 10b9
000000c0: 46b9 1139 dd5c 1339 0d8a 1239 ed90 11b9
000000d0: 4c03 1239 4ef6 11b9 8db2 14b9 58ab 1139
000000e0: fcb2 11b9 f3ba 1239 9ab5 1139 029c 1139
000000f0: 4a0f 1239 8b76 11b9 e8d7 1139 3890 1139
0.00014008365 0.00013964863 0.000138355 -0.00013888486 -0.00013837179 0.00013902328 -0.00014016159 -0.00013945755
0.00013869791 0.00013850244 -0.00013893761 -0.00013877412 -0.00014037063 0.00013952526 0.00014026901 -0.00013995865
0.00013991723 0.0001389532 0.00013955767 -0.00013876788 -0.0001402862 0.00013889956 0.00013994172 -0.00013870375
-0.00014278048 0.00014032211 -0.00013989801 0.00013909521 0.00013951599 0.00013840485 -0.00013959472 0.00014014488
0.00013948957 -0.00013991805 0.0001397757 -0.00013857239 -0.0001395699 0.0001390014 -0.00013836971 -0.00014124217
0.0001404567 0.00014065133 0.00013897615 0.00013901267 -0.00013926593 -0.0001377638 -0.00013980173 -0.00013797163
0.00013897297 0.00014053607 0.00013975073 -0.00013882267 0.00013924873 -0.00013920033 -0.00014180895 0.00013892108
-0.00013894954 0.00013993289 0.0001389593 0.00013886395 0.0001392934 -0.00013872438 0.00013908709 0.00013882003

fc4._model.0.weight f4 [1, 64]
00000000: 536c 183e abb2 793e 00d6 e43d dbca 58be
00000010: 9668 91bd 7644 1a3e 4a31 42be 9c4e e8bd
00000020: 58dd 173e 8c4f f73d 1369 72be 071a d4bd
00000030: 1c57 d8bd d378 6b3e 437d d73d 7d30 8cbe
00000040: 422c 263e aeda 783e 043a 603e ecfd 43be
00000050: a5ae e7bd 8cf9 683e be07 9c3e b64c 00be
00000060: 666e 04bd 043d d63d 8ff5 52be f777 8a3e
00000070: d606 923e baf5 f83d 631c 8ebe c872 073e
00000080: 4db6 723e 15f2 a9bd df0e 9a3e 3610 1bbe
00000090: e8f2 8cbe 5755 3b3e 8191 a4bd f5c3 84bd
000000a0: e121 ff3d 2b68 8b3d 5bc8 753e bd42 7f3e
000000b0: d677 66be aebe 97bd edbc 96be 6bf3 a8bd
000000c0: d9d6 663e f3e5 f43d 4fce 243e be62 35be
000000d0: 37ec 7f3e ac83 83be a029 61bd 0652 f83d
000000e0: 4c70 6cbe 3def 663d b5f4 3a3e 0915 113e
000000f0: 735e 953e 67e2 cfbd fdf7 233e 08c3 133e
0.14885072 0.24384563 0.1117363 -0.21171133 -0.07100026 0.15065178 -0.18964115 -0.113431185
0.1483053 0.12075719 -0.23672895 -0.10356527 -0.1056349 0.2299531 0.10521939 -0.27380744
0.1622782 0.2430217 0.21897131 -0.19139832 -0.11312608 0.22751445 0.30474657 -0.12529263
-0.032331847 0.104608566 -0.20601486 0.2704465 0.2852084 0.121562436 -0.27756032 0.1322738
0.23702355 -0.082981266 0.3008947 -0.15142903 -0.27529073 0.18294273 -0.08035565 -0.06482688
0.12457634 0.06806978 0.24002211 0.24927802 -0.22506651 -0.07409416 -0.29441014 -0.08249553
0.22542895 0.11957922 0.16094325 -0.17713448 0.24992453 -0.25686395 -0.054971337 0.1212502
-0.23089713 0.0563805 0.18257411 0.1416818 0.29173622 -0.10150605 0.16012569 0.14429867
