example/cloudManufacturing_network/rl/phase/ckpts/policy-model-weight-array.global-step-23800.pth (torch, 33911 bytes, 7 tensors)

fc1._model.0.weight f4 [24, 141]
0	0x3e189cf9	0.1490363
1	0xbe0dbc99	-0.13841476
2	0x3e1aa736	0.15102848
3	0xbdc19901	-0.09453011
4	0x3d2b8dce	0.041883282
5	0x3e3d3058	0.18475473
6	0x3e35fdf5	0.17772658
7	0xbc8323e8	-0.016008332
8	0x3d43a5fd	0.04776572
9	0x3d3c8de3	0.04603375
10	0xbe354331	-0.17701413
11	0x3c73d5aa	0.014882484
12	0xbe211b29	-0.15733017
13	0x3e3dae9e	0.18523642
14	0xbde88f55	-0.113554634
15	0x3e124ab3	0.14286308
16	0xbdc81ca7	-0.0977109
17	0x3d8216f7	0.063520364
18	0x3d27ca8b	0.040964644
19	0x3df560ac	0.11981329
20	0xbd507f8a	-0.05090288
21	0xbdf4ece1	-0.119592436
22	0x3e14285d	0.14468522
23	0xbc5e80a9	-0.01358048
24	0x3e466383	0.19373898
25	0xbd9191cd	-0.071078874
26	0x3e3adf0f	0.18249153
27	0xbba182dd	-0.00492893
28	0x3e37f260	0.17963552
29	0x3dfe184e	0.124069795
30	0x3dd21625	0.1025813
31	0xbd7d320a	-0.0618153
32	0x3defcaa0	0.117085695
33	0x3e16aa6f	0.14713453
34	0x3e31c45a	0.17360058
35	0x3dc5c670	0.096569896
36	0xbe02213a	-0.12707987
37	0x3e1fdd0d	0.15611668
38	0x3e39fb0f	0.18162178
39	0xbe34727a	-0.17621794
40	0xbd625e55	-0.055265743
41	0xbe0fa82c	-0.14028996
42	0x3d08c31e	0.033389203
43	0xbe3df814	-0.18551666
44	0x3e05f5af	0.13082002
45	0x3ae992cd	0.0017820239
46	0xbdac16a0	-0.08402753
47	0x3dc589cb	0.096454225
48	0xbc0e4682	-0.008683803
49	0x3d0d12bc	0.034441695
50	0xbcd85430	-0.026407331
51	0xbd368615	-0.044561464
52	0x3e222404	0.15834051
53	0x3e04119e	0.12897345
54	0x3dba0f6d	0.090849735
55	0xbde3e268	-0.11127168
56	0xbe1746ca	-0.14773098
57	0xbe1bc701	-0.15212633
58	0x3e013a0a	0.12619796
59	0xbe11489f	-0.14187859
60	0x3c910150	0.017700821
61	0x3c04a010	0.0080948025
62	0x3dfea77c	0.12434289
63	0x3e003abe	0.12522408
64	0x3e1dd08b	0.15411584
65	0x3dff9e38	0.1248135
66	0x3e4107a2	0.18850568
67	0xbe0b661b	-0.13613169
68	0xb993619a	-0.00028110744
69	0xbd9b3219	-0.07577915
70	0x3d5e3f6c	0.054259703
71	0x3b9f88d7	0.0048686075
72	0x3cf4bfce	0.029876616
73	0x3dd84a63	0.10561063
74	0x3d7384e5	0.05945291
75	0xbce0948e	-0.027414586
76	0xbd4d2c3e	-0.05009102
77	0x3e28133f	0.16413592
78	0xb8201a26	-3.8171325e-05
79	0x3d17f8c0	0.03710246
80	0x3e0bd601	0.13655855
81	0x3e2c7964	0.16843182
82	0x3dff96f4	0.12479964
83	0xbe1e9686	-0.15487108
84	0x3e141760	0.14462042
85	0xbda2be13	-0.0794641
86	0x3d2892ad	0.041155506
87	0xbd86d08a	-0.065827444
88	0x3a0b1602	0.00053057086
89	0xbd06dfed	-0.032928396
90	0x3dccdef8	0.100034654
91	0xbdc0dc9c	-0.09417078
92	0xbe4097ba	-0.18807879
93	0xbe3dfd9b	-0.18553774
94	0x3e379a82	0.17930034
95	0xbdc6b6fb	-0.097028695
96	0x3d507bd1	0.05089933
97	0xbe40db3f	-0.18833636
98	0x3e11a8cf	0.14224552
99	0xbda138e1	-0.07872177
100	0xbd64144c	-0.05568342
101	0xbe2d17ac	-0.16903561
102	0xbe1264fe	-0.14296338
103	0x3d8186d7	0.06324547
104	0x3dd680d7	0.10473793
105	0x3e3c5352	0.18391159
106	0x3e03df01	0.12878038
107	0x3e0368ff	0.12833022
108	0xbcb903c9	-0.022584813
109	0xbdaa1045	-0.083038844
110	0xbe35e568	-0.17763293
111	0xbd8dcc2b	-0.069237076
112	0x3dccae59	0.09994192
113	0xbd78557a	-0.06062839
114	0x3e21d78f	0.15804885
115	0x3ceb3780	0.028712988
116	0xbe163911	-0.14670207
117	0x3d39d905	0.04537298
118	0x3e3570c0	0.17718792
119	0x3dfac7d4	0.122451454
120	0x3df531cd	0.11972389
121	0xbe143dc7	-0.14476691
122	0x3e1f8d27	0.15581189
123	0x3daae5e4	0.083446294
124	0xbd470ddb	-0.048597198
125	0xbc47cd43	-0.012194934
126	0x3a1415ac	0.00056489813
127	0x3d81316c	0.063082546
128	0x3dd9d91c	0.106371135
129	0xbda35304	-0.07974818
130	0x3e0affb9	0.13574113
131	0x3e33a4d2	0.17543343
132	0x3d606f9b	0.054793935
133	0xbd6b09bc	-0.05738233
134	0x3d578d87	0.052625205
135	0xbda7f0e1	-0.08200241
136	0xbd3c4e6d	-0.04597323
137	0xbc8404b8	-0.016115531
138	0xbda97a1c	-0.08275244
139	0xbdc1bb55	-0.09459559
140	0xbdd0acaf	-0.10189187
141	0xbdd61e74	-0.10455027
142	0x3d3ab50c	0.045582816
143	0xbd820a12	-0.06349577
144	0x3e1960ac	0.14978284
145	0x3dd470c5	0.103730716
146	0xbe241154	-0.16022235
147	0xbe3150c6	-0.17315969
148	0x3dbfd927	0.093675904
149	0xbd196af9	-0.037455533
150	0xbccdaceb	-0.025106868
151	0x3d08e204	0.03341867
152	0xbe105747	-0.14095794
153	0x3dff34b7	0.124612264
154	0xbe37f82a	-0.17965761
155	0xbdeb73b6	-0.114966795
156	0xbe19352b	-0.14961688
157	0xbe35ad52	-0.17741898
158	0x3c2abc42	0.010420861
159	0x3d97c543	0.074106716
160	0xbe2094cd	-0.15681763
161	0xbd76a235	-0.060213286
162	0xbe050fac	-0.1299426
163	0x3c0e4407	0.008683211
164	0x3e32dd1c	0.17467159
165	0x3d57b106	0.052659057
166	0x3e10c0a0	0.1413598
167	0x3e36fb51	0.17869307
168	0x3d412825	0.047157425
169	0x3d885675	0.06657115
170	0xbd80020b	-0.0625039
171	0xbd5c9bf2	-0.05385966
172	0xbe271e11	-0.16320063
173	0x3c22323d	0.009899673
174	0x3d45b9af	0.048272785
175	0xbce1eb73	-0.027578091
176	0xbd4229b2	-0.047403045
177	0x3ca2d8f0	0.019878834
178	0xbde6f731	-0.11277617
179	0x3e18f640	0.14937687
180	0x3e245968	0.16049731
181	0x3d56c08f	0.052429732
182	0x3e055fef	0.13024877
183	0xbe40b558	-0.18819177
184	0xbc93e465	-0.018053243
185	0x3d8b3da4	0.067988664
186	0xbdfc1e31	-0.12310446
187	0x3bc33674	0.005957419
188	0xbe1460f8	-0.14490116
189	0xbdd627f5	-0.1045684
190	0xbd2579b2	-0.04039926
191	0xbcfe58f9	-0.031048285
192	0xbdf196c1	-0.11796332
193	0x3c3769be	0.0111946445
194	0x3cb05c94	0.02152852
195	0xbc617f8a	-0.013763318
196	0xbda15552	-0.07877602
197	0x3e24fe6b	0.16112678
198	0x3e1a4965	0.1506706
199	0x3e0d8928	0.13821852
200	0xbdcb6f47	-0.09933334
201	0x3d00957e	0.031392567
202	0x3dcc314b	0.099703394
203	0xbde9ccb0	-0.11415994
204	0xbd3eb4b5	-0.046559054
205	0xbb314dcd	-0.002705443
206	0x3e260365	0.16212232
207	0x3ddf4b96	0.10903089
208	0x3e11b5b2	0.14229468
209	0xbe11c286	-0.14234361
210	0xbe168b91	-0.14701678
211	0xbd72a99d	-0.059243787
212	0x3e395512	0.18098858
213	0x3c703f3b	0.014663513
214	0xbe07ffb4	-0.13281137
215	0x3e000a84	0.12504011
216	0xbd967a09	-0.07347495
217	0xbdbb10f9	-0.09134097
218	0xbcb45bd7	-0.022016449
219	0x3e2e0ab4	0.1699627
220	0xbe2be754	-0.16787463
221	0xbdd92fd4	-0.106048256
222	0xbe290c2b	-0.16508548
223	0xbde28a04	-0.11061481
224	0xbc0580cf	-0.008148386
225	0xbd6b9b46	-0.057521127
226	0xbdd1de38	-0.10247463
227	0xbd0aa197	-0.03384551
228	0x3db1d62c	0.08683428
229	0x3d7a5078	0.061111897
230	0x3cbe0326	0.02319486
231	0xbdc340e8	-0.09533864
232	0x3cb9288f	0.022602348
233	0x3de133ab	0.10996183
234	0xbc45a045	-0.012062137
235	0x3e1b2a33	0.15152816
236	0x3e376d48	0.17912781
237	0x3cead580	0.028666258
238	0xbda5b495	-0.08091084
239	0xbe43a432	-0.19105604
240	0x3d3ee8da	0.046608783
241	0xbde4f8f7	-0.11180299
242	0x3e2bb727	0.16769086
243	0x3e2fc645	0.17165478
244	0x3c82ec95	0.015981952
245	0x3c72fa15	0.014830132
246	0x3e3e20b1	0.18567158
247	0xbda884d8	-0.08228463
248	0xbdb20e12	-0.0869409
249	0x3da2340e	0.07920085
250	0xbdd1c55a	-0.1024272
251	0xbdc7542a	-0.0973285
252	0x3e09a542	0.13441947
253	0xbdced1eb	-0.100986324
254	0xbe32c736	-0.17458805
255	0x3e068a5f	0.13138722

fc1._model.0.bias f4 [24]
0	0xbb6a6a67	-0.0035768987
1	0xbab5bab5	-0.0013864847
2	0x39600568	0.00021364319
3	0xbab8ee51	-0.001410911
4	0xbb123751	-0.0022310803
5	0xbad26707	-0.0016052433
6	0xbb191d38	-0.0023363363
7	0xba8d69b2	-0.0010788946
8	0xbaac12f1	-0.0013128204
9	0xbb19b27a	-0.0023452328
10	0xba9f8529	-0.0012170422
11	0xba982533	-0.0011607766
12	0x3af741db	0.0018864231
13	0x3ae3029c	0.0017319503
14	0x3942dcb5	0.00018583502
15	0xbaf04f48	-0.0018334175
16	0x3a13848e	0.0005627357
17	0xbab42e25	-0.0013746662
18	0x39992670	0.00029211072
19	0xbb019d93	-0.001977776
20	0xbb0ac612	-0.0021175188
21	0x3ac1a7a7	0.0014774696
22	0xbb31d8cd	-0.002713728
23	0x3a88a651	0.0010425543

fc2._model.0.weight f4 [20, 48]
0	0xbe832d9e	-0.2562074
1	0xbdf44b18	-0.119283855
2	0xbcd2d4b0	-0.025736183
3	0xbe960a59	-0.2930477
4	0x3d2474e2	0.04015053
5	0xbe3b1c0a	-0.18272415
6	0xbdc45017	-0.095855884
7	0x3df54f23	0.11977985
8	0x3e257824	0.16159111
9	0x3e54edc0	0.2079382
10	0x3df90de0	0.121608496
11	0xbe63d13c	-0.22247785
12	0x3d352b5d	0.044230808
13	0x3e391aea	0.18076673
14	0x3e0bcb3c	0.13651747
15	0xbc8b37a8	-0.016994312
16	0x3d3e8d9b	0.046521764
17	0xbd4c3d40	-0.0498631
18	0x3e59b04d	0.2125866
19	0x3cd681a0	0.026184857
20	0xbe6fda1f	-0.2342305
21	0xbe819c70	-0.25314665
22	0xbe73f915	-0.23825486
23	0x3cd01816	0.02540211
24	0xbe359e25	-0.17736109
25	0x3d73a729	0.05948559
26	0xbe58630b	-0.21131532
27	0x3e16f984	0.1474362
28	0x3e95f6b7	0.2928979
29	0xbe798323	-0.24366431
30	0xb9cbda98	-0.00038882042
31	0x3e83c162	0.25733477
32	0x3d6644c8	0.05621794
33	0xbe78e789	-0.24307074
34	0x3d971033	0.07376137
35	0x3e4f16ba	0.20223513
36	0x3e64bae2	0.22336915
37	0x3e46f824	0.19430596
38	0x3e4e5fec	0.20153779
39	0x3e6ecb11	0.23319651
40	0xbe6ec13a	-0.23315898
41	0xbe52d29c	-0.20588154
42	0x3e0c2589	0.13686194
43	0xbe5062aa	-0.20350137
44	0xbe74b39d	-0.23896642
45	0x3dfa0071	0.122071154
46	0x3db41369	0.08792765
47	0xbe90a34f	-0.28249595
48	0x3e27b2f4	0.16376859
49	0xbdfd39c4	-0.123645335
50	0xbe8d7a7d	-0.27632514
51	0xbd896271	-0.06708229
52	0xbbee770a	-0.007277374
53	0xbe6f3329	-0.2335936
54	0x3ddc62ae	0.10761009
55	0x3b7697e3	0.0037627153
56	0x3d3c189d	0.04592191
57	0xbe1e49d3	-0.15457849
58	0x3dad907a	0.08474822
59	0xbe47c50a	-0.19508758
60	0x3e28b453	0.16475038
61	0x3d98ce9c	0.074612826
62	0xbcf2e3d9	-0.029649662
63	0xbca23d77	-0.0198047
64	0xbe7b6ed3	-0.24553995
65	0xbdfe6966	-0.12422447
66	0xbc8774f9	-0.01653527
67	0xbdabe84c	-0.083939165
68	0x3e80b7df	0.25140283
69	0x3d8b0f77	0.06790059
70	0x3e273b58	0.16331232
71	0xbd1b0e46	-0.03785541
72	0xbe2cd661	-0.16878654
73	0xbe6fc7f2	-0.23416117
74	0x3a474197	0.0007601021
75	0xbddc1aea	-0.10747321
76	0xbcc31419	-0.023813294
77	0x3e2b8853	0.16751222
78	0xbe3c5f91	-0.1839583
79	0x3e749b00	0.23887253
80	0xbe601a99	-0.21885146
81	0x3e89ef59	0.2694042
82	0x3e934eaa	0.28770953
83	0xbe24ee5a	-0.16106549
84	0xbe90d303	-0.2828599
85	0xbdfca760	-0.12336612
86	0x3e1bb214	0.1520465
87	0x3c47d6a5	0.012197171
88	0xbdfbf3c2	-0.123023525
89	0xbd8acdf3	-0.06777563
90	0xbe37905b	-0.17926161
91	0xbe34a8c4	-0.17642504
92	0x3e466c72	0.19377306
93	0x3e7b09d5	0.2451547
94	0x3e769f6c	0.24084252
95	0x3e168493	0.1469901
96	0x3e235872	0.15951708
97	0x3e58d7bf	0.2117605
98	0xbe911c05	-0.2834169
99	0x3c2a1d5d	0.010382977
100	0xbe8e8f1a	-0.27843553
101	0xbe85cbff	-0.261322
102	0xbe28c3d6	-0.16480955
103	0x3e533866	0.20626983
104	0x3e828051	0.25488523
105	0xbe63b509	-0.22237028
106	0x3e8e320b	0.27772555
107	0xbe1e6f56	-0.15472159
108	0x3e05cd4f	0.130666
109	0x3d1cf5e3	0.038320433
110	0xbe2cda8e	-0.16880247
111	0xbdb3d095	-0.08780018
112	0xbc894e5d	-0.016761
113	0xbcd1dc2c	-0.025617681
114	0x3d3957ec	0.045249864
115	0x3e086e77	0.13323389
116	0x3c9ad2b1	0.018899294
117	0xbe567864	-0.20944363
118	0x3e71afb0	0.23602176
119	0xbe834068	-0.25635076
120	0x3b3f6bfd	0.0029208653
121	0x3e6013fc	0.21882623
122	0xbe817904	-0.2528764
123	0xbe5afb7c	-0.21384996
124	0xbcffffc4	-0.031249888
125	0xbe351449	-0.1768352
126	0x3e531912	0.20615032
127	0x3d9e0625	0.07716016
128	0xbdceccd4	-0.100976616
129	0xbe0b31ef	-0.13593267
130	0xbc8ffabd	-0.017575616
131	0xbdb2cfb6	-0.08731024
132	0xbde3f238	-0.11130184
133	0x3e6bee9b	0.2304024
134	0xbe3e2d28	-0.18571913
135	0xbdb32245	-0.08746771
136	0x3e7c987f	0.24667548
137	0xbe787602	-0.24263766
138	0xbd87aca5	-0.06624726
139	0x3e74884f	0.23880123
140	0xbd6398f0	-0.055565774
141	0x3e116db8	0.1420201
142	0x3deb1c35	0.114799894
143	0xbe19dc68	-0.15025485
144	0xbe734162	-0.2375541
145	0xbdd8071f	-0.10548233
146	0xbe03a15d	-0.12854524
147	0x3e909526	0.2823879
148	0x3dc0d8be	0.0941634
149	0xbe140de8	-0.1445843
150	0x3e537a0a	0.20652023
151	0xbd3efe16	-0.046629034
152	0xbe7d8ba2	-0.24760297
153	0xbd49a84b	-0.049232762
154	0x3b3dd683	0.002896697
155	0xbdfabd5d	-0.122431494
156	0xbe833818	-0.25628734
157	0xbe8fc72c	-0.28081644
158	0x3e854dcf	0.26035926
159	0xbdef4322	-0.116827264
160	0xbe0449cd	-0.12918778
161	0x39a8004b	0.00032043675
162	0x3d35841c	0.044315442
163	0x3e531993	0.20615225
164	0x3d1e725b	0.038683277
165	0x3e8f9def	0.2805018
166	0x3e5f2250	0.21790433
167	0xbddafa99	-0.10692329
168	0x3e914f56	0.2838084
169	0xbd9002e3	-0.070318006
170	0xbe664bb8	-0.22489822
171	0x3dee937d	0.11649225
172	0xbde42a6c	-0.11140904
173	0xbe648fa4	-0.2232042
174	0x3e7d3ac0	0.24729443
175	0x3bd6f722	0.0065602222
176	0x3e350e4d	0.17681237
177	0x3e430482	0.19044688
178	0xbe834b4f	-0.25643393
179	0xbe78a38b	-0.24281137
180	0x3e8832bc	0.26601207
181	0x3e03c53a	0.12868205
182	0x3df3f0a0	0.1191113
183	0xbe96f7bf	-0.2948589
184	0xbe12f443	-0.14350991
185	0xbd2efbc7	-0.042720582
186	0x3e386483	0.18007092
187	0x3e211ba7	0.15733205
188	0x3cb8c80e	0.022556331
189	0xbe73ddb0	-0.23815036
190	0xbce5fd14	-0.028074779
191	0x3d8ac508	0.06775862
192	0xbe7a3008	-0.24432385
193	0xbd15c215	-0.036562044
194	0x3e53e87a	0.20694152
195	0x3e96c508	0.29447198
196	0x3e911a26	0.28340262
197	0x3d9b3bfa	0.07579799
198	0xbd0f139c	-0.03493081
199	0xbde68a51	-0.112568505
200	0x3e842d1b	0.25815663
201	0xbe30cff8	-0.17266834
202	0xbe2b24a4	-0.16713196
203	0xbcdff003	-0.027336126
204	0x3e6c7ebc	0.2309522
205	0xbde121ff	-0.10992812
206	0x3e860f7a	0.26183683
207	0xbe175c11	-0.14781214
208	0xbdf190ba	-0.117951825
209	0x3e82d42a	0.25552493
210	0xbdff98bf	-0.12480306
211	0x3e819d0b	0.25315127
212	0xbd1e9f2b	-0.038726013
213	0xbe1cb42d	-0.15303107
214	0xbe84abbc	-0.25912273
215	0x3e234515	0.15944321
216	0x3e8a00a0	0.26953602
217	0x3e1ee598	0.1551727
218	0x3dcc5907	0.09977918
219	0x3e777794	0.24166709
220	0x3ce2d4a7	0.027689291
221	0x3e05c286	0.13062486
222	0xbe1373be	-0.14399621
223	0xbe60e0c2	-0.21960738
224	0x3db020cf	0.08600008
225	0xbe6fd678	-0.23421657
226	0xbdf623d6	-0.12018554
227	0xbe2351c3	-0.15949158
228	0x3e222404	0.15834051
229	0x3e8b0736	0.2715394
230	0xbe277272	-0.16352251
231	0xbd0de80d	-0.03464513
232	0x3e14a2b8	0.14515197
233	0x3e569a8c	0.20957392
234	0xbe138299	-0.14405288
235	0x3b464254	0.0030251937
236	0xbe02fd82	-0.12792018
237	0x3c85bdf9	0.016325938
238	0xbe7cd5aa	-0.24690881
239	0x3e395778	0.18099773
240	0xbe4ec49f	-0.20192192
241	0xbe83e991	-0.25764135
242	0xbe8eb1e9	-0.2787011
243	0x3dea4123	0.11438205
244	0xbe619fd8	-0.22033632
245	0xbe477f2d	-0.19482107
246	0xbe602ad7	-0.21891342
247	0x3e7aca18	0.24491155
248	0x3e636bd5	0.22209103
249	0x3e4fb4cd	0.20283814
250	0x3deb44e2	0.11487748
251	0x3def68ec	0.11689934
252	0xbe35fc19	-0.17771949
253	0xbdcf7bc0	-0.10131025
254	0x3e1f0c34	0.15531999
255	0x3dbed96f	0.09318816

fc2._model.0.bias f4 [20]
0	0xb8eab4be	-0.00011191655
1	0xba6b8859	-0.0008984856
2	0x00000000	0.0
3	0xba20eddf	-0.0006138961
4	0x39b2b0a0	0.00034082402
5	0x00000000	0.0
6	0x3ab8d66a	0.0014101986
7	0xb89030a6	-6.8755166e-05
8	0xba4a916a	-0.0007727357
9	0x00000000	0.0
10	0xba4cf707	-0.00078187924
11	0x3a694fd8	0.0008900142
12	0xb84bec6d	-4.861916e-05
13	0x3aa67721	0.0012700298
14	0x00000000	0.0
15	0xa97d73dc	-5.6277777e-14
16	0xb8a48d56	-7.846455e-05
17	0x00000000	0.0
18	0x38cb78f6	9.702325e-05
19	0xaf5fd599	-2.0357617e-10

fc3._model.0.weight f4 [64, 48]
0	0x3cc200a6	0.02368195
1	0x3cf7fcdd	0.030271942
2	0x3de0f366	0.109839246
3	0x3d8129e8	0.06306821
4	0x3e5ddeb9	0.21666993
5	0x3e34f349	0.17670931
6	0xbe25f09d	-0.16205068
7	0xbd0076dd	-0.031363357
8	0xbe09560d	-0.13411732
9	0xbdc7d247	-0.09756904
10	0x3d614676	0.054998837
11	0x3c79e785	0.015252952
12	0xbdbafb67	-0.091299824
13	0xbdaaaa84	-0.083333045
14	0x3d39b726	0.04534068
15	0xbe19b5f8	-0.15010822
16	0x3dedea3e	0.11616944
17	0xba758003	-0.00093650835
18	0x3d5a0fc3	0.053237688
19	0xbe4138f7	-0.18869387
20	0x3d9d11e5	0.07669429
21	0x3e25dee6	0.1619831
22	0xbd96e5b9	-0.07368035
23	0x3e35efa8	0.17767203
24	0xbb9d6201	-0.0048029427
25	0xbe236d20	-0.15959597
26	0x3e25aec3	0.16179948
27	0xbdb8f9fa	-0.09032054
28	0x3d42b640	0.04753709
29	0xbe0a4679	-0.13503446
30	0xbdf4c9cf	-0.119525544
31	0x3e28ef74	0.16497594
32	0x3e106355	0.14100392
33	0x3e3b61cc	0.18299025
34	0x3d98c017	0.07458513
35	0x3cb89803	0.022533422
36	0xbd9f26ed	-0.077710964
37	0x3e066292	0.13123539
38	0xbdff6153	-0.12469735
39	0x3d899a80	0.06718922
40	0xbe431561	-0.19051124
41	0x3e48fbd6	0.19627318
42	0xbdee35f3	-0.11631384
43	0x3e3a76dc	0.18209404
44	0x3e5e9931	0.21738125
45	0x3dc698e1	0.09697128
46	0xbe61b5ea	-0.22042051
47	0xbe6711ac	-0.22565335
48	0xbdfbad80	-0.12288952
49	0xbe00ec25	-0.12590082
50	0xbe2654f0	-0.16243339
51	0x3e4be919	0.19913138
52	0x3e138c62	0.1440902
53	0x3d5950eb	0.053055685
54	0x3e2da5c0	0.1695776
55	0xbd8d7684	-0.06907371
56	0x3d776eb2	0.0604083
57	0xbe42d480	-0.19026375
58	0x3dcd81de	0.10034536
59	0xbde156de	-0.11002897
60	0xbe5f9731	-0.21835019
61	0xbe6fb9af	-0.23410676
62	0xbe393734	-0.18087465
63	0x3e214ec4	0.15752703
64	0x3bffb044	0.007802995
65	0x3d3d1d01	0.04617024
66	0xbd0b5484	-0.034016147
67	0xbe22bdce	-0.15892717
68	0xbdc8db73	-0.098074816
69	0x3d03e666	0.032202147
70	0x3de597df	0.11210608
71	0xbdc29c6f	-0.095024936
72	0x3e55276f	0.20815824
73	0xbda428ea	-0.08015616
74	0x3e438901	0.19095232
75	0x3e724151	0.23657729
76	0x3dc1ccf4	0.0946292
77	0xbe182541	-0.14857961
78	0x3e1b7a2a	0.1518332
79	0xbb306a70	-0.002691891
80	0x3e42c00e	0.19018576
81	0xbd44b582	-0.04802466
82	0xbdded009	-0.10879523
83	0x3daa77be	0.0832362
84	0xbe2cf2d1	-0.16889502
85	0x3e408a63	0.1880279
86	0xbe39e0bf	-0.1815214
87	0xbe04e526	-0.12978038
88	0xbe2f3892	-0.17111424
89	0xbe571418	-0.21003759
90	0xbdf61451	-0.12015594
91	0xbce87fb1	-0.0283812
92	0x3dceebe5	0.10103587
93	0xbde3adf9	-0.11117167
94	0xbe5bfe0a	-0.21483627
95	0xbbb6ff90	-0.0055846646
96	0x3c9eade3	0.019370025
97	0x3e51e068	0.2049576
98	0x3dd71836	0.10502665
99	0x3d99ad55	0.075037636
100	0xbdbb3f6e	-0.09142958
101	0x3e1c9dd2	0.15294579
102	0xbe6010f9	-0.21881475
103	0xbdb934c3	-0.090432666
104	0x3e2f7eaa	0.17138162
105	0xbe1f8afe	-0.15580365
106	0xbe14e3b3	-0.14539985
107	0xbdc80cab	-0.09768041
108	0xbd2a7d13	-0.041623186
109	0x3d82559d	0.06363986
110	0x3d3270cf	0.043564614
111	0x3d983bb8	0.074332654
112	0x3dfe572e	0.12418972
113	0x3e452a9e	0.19254538
114	0xbbceed5f	-0.006314918
115	0xbe2e5bd5	-0.17027219
116	0x3d15a124	0.03653063
117	0xbd97c582	-0.074107185
118	0xbd9f80c9	-0.07788236
119	0xbdc53b53	-0.09630456
120	0xbbc03a95	-0.0058663585
121	0x3e612e7a	0.21990386
122	0x3cc80931	0.024418445
123	0x3e0cd926	0.1375471
124	0xbe3fed3a	-0.18742839
125	0x3e65476c	0.22390527
126	0x3d85a10f	0.0652486
127	0x3e293337	0.16523443
128	0xbc94a771	-0.018146249
129	0xbe65f709	-0.22457518
130	0xbe49e710	-0.1971705
131	0x3e266a32	0.16251448
132	0xbe24aa71	-0.16080643
133	0x3d73af6d	0.05949347
134	0xbd650ee5	-0.055922408
135	0x3e114257	0.14185463
136	0x3e42b171	0.19013001
137	0xbe0c79d7	-0.13718353
138	0xbe5b5540	-0.21419239
139	0xbdc14fa3	-0.094390176
140	0xbe434fe3	-0.19073443
141	0xbd887e58	-0.06664723
142	0x3e03b210	0.12860894
143	0xbcc6e67b	-0.024279824
144	0xbdf6d512	-0.12052359
145	0xbe0389cd	-0.12845536
146	0xbe29e205	-0.16590126
147	0x3d03d14c	0.032182023
148	0xbd87900b	-0.06619271
149	0x3e4ee61d	0.20204969
150	0xbd603591	-0.054738585
151	0x3e07df21	0.1326871
152	0x3e291a83	0.1651402
153	0xbe56e69f	-0.20986412
154	0x3de448f3	0.111467265
155	0x3d6ebe4a	0.058286943
156	0xbcd4df82	-0.025985483
157	0xbd5e6475	-0.054295022
158	0xbe6959e4	-0.22788197
159	0x3de5f111	0.112276204
160	0x3e13738f	0.14399551
161	0xbde3852e	-0.111093864
162	0xbc1936cc	-0.0093514435
163	0xbe32b1d3	-0.17450647
164	0xbdffa95c	-0.124834746
165	0xbe3d3e7e	-0.1848087
166	0x3e2b248e	0.16713163
167	0x3dcdb0b4	0.10043469
168	0x3d487b0c	0.04894547
169	0xbdac0cd4	-0.08400884
170	0xbe5bfcd8	-0.21483171
171	0x3c56e51a	0.0131161455
172	0x3cc48b35	0.02399216
173	0xbe5effd4	-0.21777278
174	0x3e3d5848	0.18490708
175	0xbe46bd4f	-0.19408153
176	0x3c81ba11	0.015835794
177	0x3dbed0c6	0.09317164
178	0x3d7b374b	0.06133203
179	0xbe2c32c6	-0.16816244
180	0x3dde80fb	0.10864445
181	0x3e026a07	0.12735759
182	0xbd5bae0f	-0.053632792
183	0xbe42e098	-0.19030988
184	0x3df70798	0.12061995
185	0x3d90c5b5	0.070689596
186	0xbe200930	-0.15628505
187	0x3c9ad807	0.018901838
188	0x3d859095	0.065217175
189	0x3d011ca7	0.031521466
190	0x3e3d6e12	0.1849902
191	0xbd720bd8	-0.059093326
192	0xbd7c0870	-0.061531484
193	0x3e3c2cfd	0.18376537
194	0xbe08e6d1	-0.133693
195	0x3e126119	0.14294852
196	0xbdf7a63b	-0.12092253
197	0x3daa3776	0.083113596
198	0xbe57ec74	-0.21086293
199	0x3bf44526	0.007454532
200	0x3cdcb37d	0.026941055
201	0x3e5ec82a	0.21756044
202	0x3d946c53	0.07247224
203	0xbe53096d	-0.20609064
204	0x3d3114be	0.043232672
205	0xbcfe912d	-0.031075085
206	0xbe38139c	-0.1797623
207	0xbdf602a8	-0.120122254
208	0x3dce8c1d	0.10085318
209	0x3dbf60c8	0.093446314
210	0xbe1e7761	-0.15475227
211	0x3e33a5c0	0.17543697
212	0xbe016e66	-0.1263977
213	0xbe527f23	-0.20556311
214	0xbe19059f	-0.1494355
215	0x3cc25e72	0.023726676
216	0x3da36794	0.0797874
217	0xbe7358d0	-0.23764348
218	0x3da3c7a6	0.07997064
219	0x3e309ced	0.17247362
220	0x3e4ca39d	0.19984289
221	0x3d7b0caa	0.061291374
222	0xbd6fed38	-0.05857584
223	0xbde67b6a	-0.11254008
224	0xbe385b13	-0.18003492
225	0x3d6768e1	0.056496505
226	0x3d0325fd	0.03201865
227	0x3bcde440	0.006283313
228	0x3da09cbd	0.078423955
229	0xbc1c276a	-0.009530881
230	0x3e2a69bb	0.16641895
231	0x3de08a2f	0.109638564
232	0xbe6ada3a	-0.2293481
233	0x3b5fa949	0.0034128001
234	0xbce74e0f	-0.028235463
235	0x3e0786c5	0.13235004
236	0xbe139112	-0.14410809
237	0x3d243e79	0.04009864
238	0xbdeb9dab	-0.11504682
239	0x3e0f32de	0.13984248
240	0xbd4588bf	-0.048226114
241	0x3def5af9	0.116872735
242	0x3e44feed	0.19237871
243	0x3e33a85d	0.17544694
244	0xbdd0c175	-0.10193149
245	0x3e685003	0.22686772
246	0x3d9d0808	0.076675475
247	0x3e172207	0.14759074
248	0xbe301708	-0.17196286
249	0xbe0df9c7	-0.13864814
250	0x3e6d6249	0.23182024
251	0x3e419e71	0.18908097
252	0xbdc60482	-0.096688285
253	0x3e0f3abc	0.13987249
254	0x3e5a2ff3	0.21307354
255	0xbdb2f0f9	-0.08737368

fc3._model.0.bias f4 [64]
0	0xbb8175d5	-0.0039508143
1	0x3b84c12a	0.0040513473
2	0xbb84fe08	-0.004058603
3	0x3b8490d7	0.0040455866
4	0xbb847bbf	-0.004043072
5	0x3b847bab	0.0040430627
6	0xbb84dfdf	-0.004055008
7	0xbb82198e	-0.0039703315
8	0x3b84fe37	0.004058625
9	0x3b84fe18	0.0040586106
10	0x3b85071b	0.004059685
11	0x3b85597d	0.0040695057
12	0x3b8457ff	0.0040388103
13	0xbb84800c	-0.0040435847
14	0x3b84cd25	0.0040527754
15	0xbb84a2b4	-0.004047716
16	0xbb84a176	-0.004047568
17	0xbb85220a	-0.0040628957
18	0x3b8843a7	0.0041584554
19	0x3b84b01a	0.0040493133
20	0x3b84bcda	0.004050833
21	0xbb84d7f8	-0.004054066
22	0x3b8649e5	0.0040981644
23	0x3b840052	0.0040283585
24	0xbb8525fa	-0.004063365
25	0xbb8480c1	-0.004043669
26	0x3b850e43	0.004060538
27	0xbb85ab32	-0.004079246
28	0x3b84a980	0.0040485263
29	0x3b83faa6	0.0040276824
30	0x3b8500e4	0.004058944
31	0x3b84b197	0.0040494907
32	0x3b85bdcc	0.0040814634
33	0xbb84a8dc	-0.00404845
34	0x3b849674	0.0040462557
35	0xbb848c04	-0.0040450115
36	0x3b84a180	0.0040475726
37	0xbb84b727	-0.004050154
38	0x3b84a8c3	0.0040484383
39	0x3b84af15	0.0040491917
40	0x3b85659a	0.0040709497
41	0x3b850523	0.0040594502
42	0xbb84bc88	-0.004050795
43	0x3b84bd34	0.004050875
44	0xbb857255	-0.0040724673
45	0x3b8507f2	0.004059785
46	0x3b8473c5	0.004042121
47	0x3b84ce55	0.004052917
48	0xbb84ae92	-0.0040491307
49	0x3b849bc0	0.004046887
50	0x3b84b476	0.004049833
51	0x3b851571	0.004061394
52	0xbb85038c	-0.0040592607
53	0x3b84fd76	0.004058535
54	0x3b8489cf	0.0040447484
55	0x3b835271	0.0040076305
56	0xbb85189c	-0.0040617716
57	0xbb84bf0b	-0.0040510944
58	0xbb84c775	-0.0040520974
59	0xbb853737	-0.00406542
60	0xbb84a4c5	-0.0040479624
61	0x3b844904	0.0040370245
62	0x3b84ba4a	0.0040505277
63	0xbb84aeb7	-0.004049148

fc4._model.0.weight f4 [1, 64]
0	0xbc0af94c	-0.008482289
1	0x3e9be816	0.30450505
2	0xbe7fb3d7	-0.24970947
3	0x3e20a72d	0.15688772
4	0xbdffdded	-0.12493501
5	0x3dd95024	0.10610989
6	0xbe0ab9a5	-0.1354738
7	0xbc860cd8	-0.016363546
8	0x3e03f193	0.12885122
9	0x3e39a26f	0.1812837
10	0x3e829c56	0.255099
11	0x3d89c48b	0.06726941
12	0x3de5b1a5	0.11215524
13	0xbe1b49ed	-0.15164919
14	0x3e526c6c	0.20549172
15	0xbe4e0cbc	-0.20122045
16	0xbe765354	-0.24055225
17	0xbe43fdd0	-0.1913979
18	0x3c151efb	0.009101625
19	0x3e86db40	0.2633915
20	0x3e1f96d2	0.15584877
21	0xbe4961f7	-0.19666277
22	0x3d0b66ce	0.03403359
23	0x3d83dceb	0.06438621
24	0xbe2ed1c4	-0.17072207
25	0xbe1bee52	-0.1522763
26	0x3e69185f	0.22763203
27	0xbd4ee933	-0.050515365
28	0x3e67c9a4	0.22635514
29	0x3d8a17d8	0.06742829
30	0x3e9c54ab	0.30533347
31	0x3e160e5e	0.14653918
32	0x3d82340d	0.06357584
33	0xbe82411c	-0.254403
34	0x3e455622	0.19271138
35	0xbe1deed5	-0.15423138
36	0x3e884d07	0.26621267
37	0xbe5a530d	-0.21320744
38	0x3e7db8fc	0.24777597
39	0x3e5151f5	0.2044142
40	0x3d2aa7fa	0.0416641
41	0x3e1537cc	0.14572066
42	0xbe1efabb	-0.15525334
43	0x3e4fb1ef	0.2028272
44	0xbd0d1d91	-0.034452025
45	0x3e26146f	0.16218732
46	0x3e19b7a6	0.15011463
47	0x3e6d344e	0.23164484
48	0xbe962b31	-0.29329827
49	0x3e228bd1	0.15873648
50	0x3e9506f8	0.2910688
51	0x3e7c0dfa	0.24614707
52	0xbe8663df	-0.2624807
53	0x3e6fb206	0.23407754
54	0x3e4ad37e	0.1980724
55	0x3d106b0c	0.035258338
56	0xbe738ab2	-0.23783377
57	0xbe2e799f	-0.17038582
58	0xbe984797	-0.2974212
59	0xbe0784d3	-0.13234262
60	0xbe261d34	-0.16222078
61	0x3db3acc0	0.08773184
62	0x3e79b9ee	0.24387333
63	0xbe8e307b	-0.27771363
