example/cloudManufacturing_network/rl/phase/ckpts/policy-model-weight-array.global-step-29600.pth (torch, 33911 bytes, 7 tensors)

fc1._model.0.weight f4 [24, 141]
000000 67 f8 a0 3d 80 55 a3 bd a1 5f 1c be 7b fc f1 3d
       0.07859879 -0.07975292 -0.15270855 0.11815735
000010 b5 df a3 3d 22 c7 03 3e 4a 3f 95 3c 96 1c 39 be
       0.08001653 0.12868932 0.018218655 -0.18077311
000020 e6 19 2a 3e 7c 66 ee bd 2a ed 19 3e 7e 3c f8 3c
       0.16611442 -0.11640641 0.15031877 0.030302282
000030 d6 65 2b 3e d5 85 fa bd d4 ca 2c 3e 2b f1 08 bd
       0.16738066 -0.12232558 0.16874248 -0.03343312
000040 51 e2 13 be c3 55 27 be 5d 41 d2 bb 64 77 86 3c
       -0.14441802 -0.16341309 -0.0064164833 0.016414352
000050 d1 f7 8b bc 0a 98 7d bd 52 8f 84 3d 1c a7 20 be
       -0.017085942 -0.061912574 0.06472649 -0.15688747
000060 44 cb bc 3d f9 e7 bd 3d 3c 95 3d be 79 2c e7 bd
       0.09218457 0.09272761 -0.1851396 -0.11287779
000070 27 71 08 3e 70 94 30 be c9 cc 3b 3e 42 ba 30 3d
       0.13324414 -0.17244124 0.18339838 0.04314638
000080 48 f5 c8 bd 47 4e 7f 3d d7 0c 40 be b0 7e 28 3e
       -0.09812409 0.06233051 -0.18754898 0.16454577
000090 2d 53 07 be a2 9a 98 3d e1 6e b2 bd a4 11 1e 3d
       -0.13215323 0.07451369 -0.08712555 0.038591042
0000a0 97 5c 13 3e 73 30 12 3e 38 43 1b 3e 64 d8 95 3b
       0.14390789 0.14276294 0.1516236 0.004572915
0000b0 1e c7 2d be 16 3a 00 bd dd 71 24 b8 39 2a b7 bd
       -0.16970488 -0.031305395 -3.920669e-05 -0.089436
0000c0 06 c3 15 bd 1f e7 57 bd ff 46 22 3d e0 cf f6 bd
       -0.036562942 -0.05271065 0.03961849 -0.12051368
0000d0 c8 75 1f 3c 8d d0 44 3c 68 5b 3f be 5a 89 92 bc
       0.009732671 0.012012613 -0.18687212 -0.01788776
0000e0 54 0d 5e 3c 3a 32 12 bd 2f ca 09 3e e3 54 dc bd
       0.013552982 -0.03569243 0.13456033 -0.10758378
0000f0 f2 bb 2d be 7f 56 e0 bd 5f c2 8b bd bc aa 1b 3e
       -0.16966227 -0.10953998 -0.06824183 0.15201849
000100 86 32 0f 3e cd f1 1d 3d 22 1c f2 bd 4c 15 01 bc
       0.13984117 0.038560677 -0.11821772 -0.007878613
000110 5c 51 11 be f6 fa 20 be 3b 93 08 be 8b 4b 9f bd
       -0.14191192 -0.15720734 -0.13337414 -0.077780806
000120 01 b6 88 bc d0 5f 3f be 88 ea 1b 3c dc 29 2f 3e
       -0.016688349 -0.18688893 0.009516366 0.17105812
000130 62 07 18 3e ed 7b 30 3e 1f 9c 97 bc fb bd 55 3d
       0.14846566 0.17234774 -0.018507062 0.052183133
000140 00 4a ad 3d 9b b8 fc bd 68 2f c3 3d 99 a9 b1 3d
       0.0846138 -0.12339898 0.095305264 0.08674926
000150 4f bb 58 bd 61 c9 33 bc d1 f5 17 bd 01 b2 36 3e
       -0.052913006 -0.010973305 -0.037099663 0.1784134
000160 c9 26 84 3d 30 0d 1b 3e 44 ff ff bc e5 71 dc bd
       0.0645271 0.1514175 -0.03124965 -0.10763911
000170 c6 bd ef bd 6d 72 30 be f1 ee de 3c 79 6e 39 be
       -0.11706118 -0.1723115 0.027213546 -0.18108548
000180 8c 3c da 3d e3 d2 82 bd 06 27 e6 3d c6 68 db bd
       0.1065608 -0.0638788 0.11237912 -0.10713343
000190 b8 40 63 3d 09 2d d0 bd 66 a3 3d bd 03 dc b5 bd
       0.055481642 -0.1016484 -0.046298407 -0.088798545
0001a0 1a c4 18 be 09 42 2a 3e 1d 19 30 be c4 f5 b0 bd
       -0.14918557 0.16626753 -0.1719708 -0.08640626
0001b0 3f e4 16 3e 10 17 c0 bd 54 be 38 3e ed 2c b8 bc
       0.14735506 -0.09379399 0.18041354 -0.02248236
0001c0 a7 81 8e 3d b9 84 0e 3e 7b 5b 1b 3e 2d d6 02 be
       0.06958323 0.13917817 0.15171616 -0.12777014
0001d0 59 c1 81 3c 3a 56 06 bd 78 56 a0 3d 9c 96 32 be
       0.015839266 -0.032797076 0.078289926 -0.17440265
0001e0 e6 a8 63 bd 10 25 cd bd 0d 85 3b be 5a 1d 28 be
       -0.055580996 -0.10016835 -0.18312474 -0.16417447
0001f0 98 37 0e 3e d4 5f 38 3e f4 73 3c 3e 66 34 05 3d
       0.13888395 0.18005306 0.18403608 0.032520674
000200 61 68 8b bd 5f ee 33 3e 2e bc 42 3e bc f2 8a bd
       -0.06807018 0.175714 0.19017097 -0.06784579
000210 bd 1d 10 be 38 69 32 3d 85 c7 90 3c 59 a7 2d be
       -0.14073844 0.043557376 0.017673263 -0.1695837
000220 29 c2 21 be a5 d3 81 3d 91 b8 46 bd 38 9c f7 bd
       -0.15796722 0.06339196 -0.04851586 -0.12090343
000230 df 6f 21 3e 9f 41 b2 3d c2 00 fd bd c5 38 11 3e
       0.15765332 0.087039225 -0.1235366 0.14181812
000240 1a 0c 7d bd 84 3f 1b be b6 23 10 be d5 ba 81 bd
       -0.06177912 -0.15160948 -0.14076123 -0.063344635
000250 46 39 4e bd ae 39 11 be e1 c7 de 3d 17 54 b8 3d
       -0.05034759 -0.1418216 0.108779676 0.09000414
000260 4c 69 31 3d 47 52 24 3e d7 fa 8e 3d fa 95 de 3d
       0.04331331 0.16047011 0.06981438 0.108684495
000270 9d 20 9a bd f7 44 9e bc 12 9e fd 3d d6 d6 97 bd
       -0.07525752 -0.019319994 0.12383665 -0.074140236
000280 9e 8f 17 bd f6 9a fa 3d 7d c1 ce 3d 63 5a 82 3d
       -0.0370022 0.12236588 0.10095499 0.06364896
000290 ea 6f 0f bc de 84 3c 3d ed f3 ae bd dc 6a 6c 3d
       -0.00875471 0.04602515 -0.08542619 0.057719097
0002a0 59 6e 23 be c4 e8 b4 3b e2 2f d7 bd 27 bd c6 3d
       -0.15960063 0.005520912 -0.1050718 0.09704047
0002b0 93 b1 14 3c 97 87 2a bd 2c a1 20 be 51 9f 8b bc
       0.00907554 -0.041633215 -0.15686482 -0.017043741
0002c0 a3 e4 0f 3e 35 e9 6b 3d 57 89 1c be c2 ad 36 bb
       0.14052062 0.05759545 -0.15286766 -0.0027874564
0002d0 94 d3 ab 3d a9 c0 27 be 44 74 38 bd 25 29 6a bd
       0.08389965 -0.16382088 -0.045032755 -0.057168145
0002e0 a0 4b 47 3c da 94 73 bd 7f 85 38 3e 1d 09 07 3e
       0.0121640265 -0.059468128 0.18019675 0.1318707
0002f0 e4 77 c7 ba b4 12 6b 3d 24 42 fa bd 3c 40 2a be
       -0.0015218225 0.057390884 -0.122196466 -0.16626066
000300 c4 80 e8 bd bf e7 17 be 63 ba 33 3d 48 77 92 bd
       -0.11352685 -0.14834498 0.043878924 -0.07151657
000310 f8 e8 1c 3d a8 79 24 3e 4b b8 b1 bd 48 3d ff 3d
       0.038308114 0.16062033 -0.08677729 0.1246286
000320 27 45 fe 3d 74 4a 87 3d 76 f4 fd 3d 4d 20 0d 3e
       0.124155335 0.06605998 0.12400143 0.13781853
000330 00 00 24 3e 9d b9 0e 3e 4e 68 8e 3d 04 1f 30 3e
       0.16015625 0.13937993 0.06953488 0.17199332
000340 d4 22 37 3e 59 f2 14 be 78 aa d2 bc 1c 7e 05 be
       0.1788438 -0.14545573 -0.025716051 -0.13036388
000350 fb 64 bb 3d 40 43 47 bd c8 61 e8 3d 11 70 15 bc
       0.0915012 -0.04864812 0.11346775 -0.009120957
000360 8a fb 05 bd e4 11 1a be ef bc a3 bd 20 73 be 3d
       -0.03271059 -0.15045887 -0.079950206 0.09299302
000370 51 d3 24 be bf 91 1e 3c 2f 87 35 be bb b6 30 bd
       -0.16096236 0.009678303 -0.1772735 -0.043143015
000380 07 fd df bd b6 d2 00 be ce fb c8 3c ce ba b7 bd
       -0.10936933 -0.1258038 0.024534132 -0.08971177
000390 20 5b 0c 3d e7 6f 08 be f5 ab 32 3e 45 db 5d bd
       0.03426659 -0.13323937 0.17448409 -0.05416419
0003a0 4c 87 15 bd 99 6c c4 3d a7 47 33 be 57 52 32 3e
       -0.036505982 0.09591026 -0.17507802 0.17414223
0003b0 05 c6 97 bc 32 3b 12 bc 11 6f 36 3e f3 67 d5 bd
       -0.01852704 -0.008925246 0.17815806 -0.10420217
0003c0 ea aa f3 3d d5 8c 08 be 1b 15 36 3d 17 f9 23 bd
       0.11897834 -0.13334973 0.04445372 -0.040032472
0003d0 5f a8 23 3d 3a a7 b7 bd c7 56 30 be 11 eb 0b 3e
       0.039955493 -0.08967443 -0.17220603 0.1366389
0003e0 9e 51 38 be cb e9 39 be d3 c9 4b bb 5f 37 fe 3d
       -0.17999884 -0.18155591 -0.0031095638 0.12412905
0003f0 df 00 9e 3c 14 e1 06 bd 2f de 3a 3e 01 78 2f bc
       0.019287525 -0.032929495 0.18248819 -0.0107097635

fc1._model.0.bias f4 [24]
000000 73 45 0e 3b f8 1b 13 3b a9 59 0f 3b be 48 0e bb
       0.0021708875 0.002244709 0.002187351 -0.0021710838
000010 2d ed 0c bb 8e 94 15 3b a9 b7 11 bb de ff 10 bb
       -0.0021503672 0.0022824141 -0.0022234714 -0.0022125165
000020 b0 87 17 bb d2 5b bc 3a b7 85 1e 3b c2 46 bf 3a
       -0.0023121648 0.0014370626 0.0024188587 0.0014593231
000030 4e 58 38 b8 2c 29 e9 3a da e2 2b bb 51 a7 13 3b
       -4.395126e-05 0.001778876 -0.0026227743 0.0022530148
000040 fb b7 0b 3b 05 83 ee 3a d2 0b 00 bb 15 79 2b 3b
       0.0021319378 0.0018197006 -0.0019538295 0.00261647
000050 6d 6e 2e bb 80 3a 1c bb aa 88 10 bb 6a 08 80 3a
       -0.0026616112 -0.002383858 -0.0022054114 0.0009768133

fc2._model.0.weight f4 [20, 48]
000000 34 94 39 3e a3 62 33 be 49 2d 4e be 9d 8b 4c be
       0.18122941 -0.17518096 -0.20134462 -0.19975133
000010 e5 15 c1 bd 60 03 27 be b6 27 84 3c 15 b9 05 3e
       -0.09428004 -0.16309881 0.016132217 0.13058884
000020 aa a3 97 be 14 53 a9 3a 8a b9 9e bd 34 3d ca bd
       -0.29617053 0.0012918436 -0.077502325 -0.09874955
000030 83 97 50 3e 3d 3b 83 be 0b 9a 5b 3e 00 5a 41 3e
       0.20370297 -0.25631133 0.21445481 0.18881989
000040 1c 36 ba 3c 5e 74 1e 3e d2 34 dc bd 64 56 49 be
       0.02273088 0.15474078 -0.10752262 -0.19661862
000050 e2 1f 93 3e 84 1f da bd ea bd 96 3d 60 80 ee 3d
       0.28735262 -0.106505424 0.07360442 0.11645579
000060 7b 52 66 be 23 d7 81 be 2c ec 2d be e7 63 4c 3c
       -0.22492401 -0.2535945 -0.16984624 0.01247499
000070 4f a8 7e 3c f7 82 0a 3e db 90 72 be 59 b4 63 3e
       0.015543058 0.13526522 -0.2368807 0.22236766
000080 e9 a2 b3 bc f8 8f 39 3e 69 3c 78 3e 07 69 6c 3e
       -0.021928268 0.18121326 0.24241795 0.2308694
000090 3e d7 63 bd 75 11 7e 3e 08 03 97 be ee 1b eb 3c
       -0.055625193 0.24811347 -0.294945 0.028699841
0000a0 3b 14 17 3e db be 93 be a1 69 74 be 5e b8 39 be
       0.14753811 -0.2885655 -0.23868419 -0.18136737
0000b0 9a 6c 8f 3c 30 28 74 3e 58 59 4b 3e e3 e0 68 3e
       0.01750784 0.23843455 0.198583 0.22742037
0000c0 5a 42 ed 3c c9 03 c3 3d 90 dc 26 bd ce b5 76 3e
       0.028962303 0.09522206 -0.04073769 0.2409279
0000d0 51 9c 8a bc fd 92 e0 bc 0b e1 4f 3d 31 59 79 be
       -0.01692024 -0.02741384 0.050751727 -0.2435043
0000e0 c2 76 66 be 5b c0 5f be e6 31 61 3e 6e 30 25 3e
       -0.2250624 -0.21850722 0.21991691 0.16131756
0000f0 92 66 49 3c d3 25 3c 3e df 51 6b be 87 f9 45 be
       0.012292521 0.18373804 -0.2298045 -0.19333468
000100 9a c4 71 be ac b7 7e 3e fa 59 35 be ad 23 28 be
       -0.23610154 0.24874753 -0.17710105 -0.16419859
000110 e4 a7 e1 3d 89 e6 5f be 8d 68 ef bb b3 a6 5f 3e
       0.11018351 -0.21865286 -0.0073061646 0.21840934
000120 9d 51 77 3e 07 a5 8e bd 5d 77 f0 bd c2 87 c6 3d
       0.24152227 -0.0696507 -0.11741517 0.096938625
000130 c0 d0 4f be 53 3c 2f 3e 27 48 43 be 1e db d0 3d
       -0.20294476 0.17112856 -0.19070493 0.10198043
000140 a9 25 0e be 0a 4e ef 3d fb f8 5c 3e 92 8c 44 3e
       -0.13881554 0.11684807 0.21579354 0.19194248
000150 f8 6c bb bd a9 87 47 be f5 64 77 bc f7 64 86 3e
       -0.091516435 -0.19485344 -0.015099754 0.26248905
000160 71 24 66 3e 6b ce ea 3d 58 ce 19 3e dc 0f 41 3d
       0.22474839 0.11465152 0.1502012 0.047134265
000170 f5 7e 2b be 6b b1 a1 bb 05 64 4d 3e 78 3f c4 3d
       -0.16747649 -0.00493448 0.20057686 0.09582418
000180 39 9b dd bc a3 e4 0c be 9d e5 fd 3d ff a1 0a be
       -0.027051555 -0.13759093 0.12397311 -0.13538359
000190 96 ff 94 3e e2 84 2a bc 5e c5 b3 bb 59 e2 72 be
       0.29101247 -0.010407658 -0.0054861745 -0.23719157
0001a0 79 23 76 be 1b 3d fb bd 94 57 27 be 9c 91 95 be
       -0.24036969 -0.12267514 -0.16342002 -0.29212654
0001b0 ed b6 bd 3d fb c6 78 3e fb 6b 00 be 77 e7 4f 3d
       0.09263406 0.24294655 -0.12541191 0.05075785
0001c0 52 6a f3 3d ad eb 4d be 55 e1 02 bd 09 b2 20 3e
       0.11885513 -0.20109434 -0.031953175 0.15692915
0001d0 86 75 76 3e d8 7c 38 be 2e 87 6e 3e ab 39 96 be
       0.24068269 -0.18016374 0.23293754 -0.29340872
0001e0 86 68 20 be e6 9b 2f 3e dc f3 2c be 2d ac 01 3e
       -0.15664873 0.17149314 -0.168899 0.12663336
0001f0 91 89 99 3d fe 91 8b 3e ef ba 4b 3e d4 a2 01 3d
       0.07496942 0.2725982 0.19895528 0.031649426
000200 f0 c9 92 bd d4 0a 39 3e dd a3 9c bc 38 a6 82 be
       -0.07167423 0.18070537 -0.019121105 -0.2551744
000210 fb 50 65 3e 7e 8a 92 3e 3b ad 9e bd 53 99 15 3e
       0.22394173 0.28621286 -0.07747885 0.1460927
000220 02 b3 92 be 16 d0 41 3d 82 af 6f 3d f0 97 f2 bb
       -0.28652197 0.047317587 0.058516987 -0.0074033663
000230 9e 54 d3 3d 3f e5 47 3e 0d 78 1c 3d c1 bc 03 3e
       0.10318874 0.19521044 0.038200427 0.12864973
000240 b7 6a 54 3d 13 4f 83 3d ef 6e 4b be 41 a9 ab 3d
       0.051859584 0.064115666 -0.19866537 0.08381892
000250 a9 41 3b 3e e1 06 05 3e 56 25 bc 3d 4f c4 94 3d
       0.18286766 0.12990905 0.09186809 0.072640054
000260 f8 1c 95 3e be 20 d6 3d 0e c3 4d bb a1 30 b5 bd
       0.29123664 0.10455464 -0.003139678 -0.08847166
000270 4f 96 bf bd be 5e 3f bb 15 6e 8d be f8 96 e2 3c
       -0.09354841 -0.0029200758 -0.27623048 0.027659878
000280 7c ff e4 bd 67 41 ac bd bf 5f e3 bd 47 be db 3d
       -0.11181542 -0.08410912 -0.111022465 0.10729652
000290 5f 29 90 3e a1 10 90 be 01 9d 1c 3e fa 3d b8 bc
       0.28156564 -0.28137687 0.15294267 -0.02249049
0002a0 f3 d3 cb 3b fb 1b 88 3e 5b aa 89 3e b9 a9 26 3e
       0.0062203347 0.26583847 0.26887783 0.16275682
0002b0 60 05 0a be 4d bf 76 be 37 30 17 3e 46 ac 05 be
       -0.13478613 -0.24096413 0.14764486 -0.13053998
0002c0 7b c6 e3 3d ed 4f a1 3d 2e 72 6f 3e dc fa b8 bd
       0.111218415 0.07876573 0.233834 -0.09032223
0002d0 3c 5c 43 be be 1c f1 bd 52 be e0 bd 36 aa 82 be
       -0.19078153 -0.1177306 -0.10973801 -0.25520486
0002e0 2b 10 b9 3d 0f a2 96 be 70 6d b2 3b 21 76 86 be
       0.09036287 -0.29420516 0.005445175 -0.26262
0002f0 c8 5c f9 bd 66 46 ec 3d 3c 60 96 bd 95 dc 38 bd
       -0.121759 0.11536865 -0.07342574 -0.04513224
000300 73 5b 75 bd a4 b4 7b be 9c 81 df bc 74 30 45 3e
       -0.059901666 -0.24580628 -0.027283482 0.19256765
000310 02 9d 38 bc af d8 20 be 9b 69 4e 3e 15 77 82 be
       -0.011267902 -0.15707658 0.20157473 -0.25481477
000320 21 64 b8 3d 94 bf 2a bd 0d 74 44 bd ae 37 3b 3e
       0.09003473 -0.04168661 -0.047962237 0.18282959
000330 60 5c 61 bd 6b 20 84 bd c7 3c e7 bd 5c 5a 9e bd
       -0.055019736 -0.06451496 -0.11290889 -0.077320784
000340 bc 82 2c be 1c c7 25 be 67 cc 8b 3e b9 b0 95 3e
       -0.16846746 -0.16189235 0.27304384 0.2923639
000350 21 40 72 3c 4c 89 e7 3d 84 08 eb 3d 32 5a 4b 3e
       0.014785797 0.11305484 0.114762336 0.19858626
000360 47 60 27 bd e7 02 a8 bc 31 66 87 be 8d 4a 34 3e
       -0.0408633 -0.020509196 -0.26445153 0.17606564
000370 8c 51 da bd bc f3 d8 3d 22 7c 84 be 0c d8 66 3e
       -0.10660085 0.10593364 -0.25875956 0.22543353
000380 6c 45 6b be ff ef 86 be 83 e5 05 bd dd bc 84 be
       -0.22975701 -0.26354977 -0.032689583 -0.2592534
000390 19 fe 3a 3e 59 a3 71 be b5 47 15 bd 13 56 5c ba
       0.18260993 -0.23597468 -0.03644534 -0.000840516
0003a0 64 39 3a be 6e f7 91 3e d7 d9 0e 3e 2d f5 c1 bd
       -0.18185955 0.28509086 0.13950287 -0.09470592
0003b0 b2 1c 3b 3d 95 6d 89 be 5d 20 83 3e 84 64 e5 3c
       0.045681663 -0.26841417 0.2561063 0.028002031
0003c0 45 8f 71 be 8a 97 11 3e 3b 07 da bd ef 15 07 be
       -0.23589809 0.14217964 -0.1064591 -0.13191961
0003d0 bf c8 95 3e 4a d9 41 be a4 6a 7f be 0a a4 0e be
       0.2925472 -0.18930545 -0.24943024 -0.13929763
0003e0 fe 12 65 3e 1d 12 71 be de a1 93 be 20 27 b8 3d
       0.22370526 -0.23542066 -0.28834432 0.089918375
0003f0 13 d6 8b 3e c0 e0 ac bc 71 1c 68 3e 32 52 4b bc
       0.27311763 -0.021103263 0.226671 -0.012409734

fc2._model.0.bias f4 [20]
000000 00 00 00 00 00 00 00 00 00 00 00 00 fd 64 2f 3a
       0.0 0.0 0.0 0.00066907686
000010 3c 70 27 b9 92 85 1b b9 00 00 00 00 12 5c 3f b2
       -0.00015968172 -0.0001483171 0.0 -1.1138598e-08
000020 86 56 b2 38 00 00 00 00 87 e0 fb aa 00 00 00 00
       8.503818e-05 0.0 -4.4742354e-13 0.0
000030 00 00 00 00 00 00 00 00 95 ad 2e 39 f6 00 ed b9
       0.0 0.0 0.00016658597 -0.0004520488
000040 00 00 00 00 00 00 00 00 0e b7 b2 b9 a7 b3 b6 b6
       0.0 0.0 -0.00034087192 -5.444937e-06

fc3._model.0.weight f4 [64, 48]
000000 7d ac ab 3d 4f 0a 0d be 9c e5 38 bd 1e 31 0a 3d
       0.08382509 -0.13773464 -0.045140848 0.033738248
000010 58 79 b2 ba 86 0e ab bc 68 60 bc bd c6 8a db bd
       -0.0013616486 -0.020880949 -0.091980755 -0.10719828
000020 df e9 00 be f1 a1 93 39 91 e6 5b be 95 03 34 be
       -0.12589215 0.0002815868 -0.21474673 -0.17579491
000030 e2 8d 07 bb da e0 5f be 81 6f 95 3d 90 c3 45 bd
       -0.0020683934 -0.21863118 0.07296658 -0.048282206
000040 46 83 3a bd 40 77 ff 3c 71 ff d2 3d 6b 47 f4 bc
       -0.04553535 0.031184793 0.10302628 -0.029819211
000050 db 5e 2e 3d 2a 74 a2 3d 6f 49 39 3e a6 ed 87 bd
       0.04257093 0.07932313 0.18094419 -0.06637125
000060 2b d1 29 be 8a 29 88 bd f0 d8 33 3e 79 5f 33 be
       -0.16583697 -0.06648548 0.17563224 -0.17516889
000070 0e 6f 1f 3e 2d 60 08 3e af 72 7f bd c4 1a 57 3e
       0.15569708 0.13317938 -0.06236523 0.21006304
000080 f2 97 8e 3c fc d9 4a 3e 8a 4f a2 bd fb 49 8e bd
       0.017406438 0.19809717 -0.07925327 -0.069477044
000090 e6 5f 59 3e 59 e8 0e 3d 36 a1 07 bd bc 75 33 be
       0.21227989 0.034889553 -0.033112727 -0.17525381
0000a0 41 4d 08 3c 10 40 3b 3e f1 20 c8 bd 22 d5 a4 3d
       0.0083192 0.18286157 -0.09771908 0.08048464
0000b0 6e 1a 67 be a0 3c f6 bd c0 2b 55 3e e8 88 46 bd
       -0.22568676 -0.12023282 0.2081747 -0.048470408
0000c0 fb 1c 24 be af 94 82 bd fa ec f4 bd 1b 0e 23 3e
       -0.1602668 -0.063760154 -0.11959262 0.1592335
0000d0 8a 1d 51 be 23 fa ae 3d ef e5 9c bd e4 57 20 3e
       -0.20421425 0.085438035 -0.07661044 0.15658528
0000e0 5a 3f 65 be d5 5b e6 3c ca 33 44 bd d7 c6 7c 3d
       -0.22387448 0.02811996 -0.047900952 0.061713066
0000f0 34 3c 9a 3d 3f 18 c9 3d 72 1c 23 bd 71 b8 74 3d
       0.07531014 0.09819078 -0.03982205 0.05974621
000100 ae 3a 0f be c5 4c 4b be 32 30 84 bd 60 85 3c be
       -0.13987228 -0.19853504 -0.06454505 -0.18410254
000110 e4 8b 0c be e2 b4 4c 3e 52 38 07 be 95 ae a4 3b
       -0.13725239 0.19990876 -0.13205078 0.0050256946
000120 12 2a dc 3d 71 5a c2 3d 0e c9 7d bd 72 e0 30 be
       0.10750212 0.094899066 -0.06195932 -0.17273119
000130 9f 22 fc 3d 3a 33 7d 3c 60 79 e8 bd e9 68 66 3e
       0.12311291 0.015454108 -0.113512754 0.22500958
000140 d5 89 6f 3e 96 20 38 bd 46 28 47 be 8f 5f ff bd
       0.23392422 -0.04495295 -0.19448957 -0.12469398
000150 b5 96 47 3c 54 ff 8b 3d c3 d3 46 bd d4 ef 41 3e
       0.012181927 0.06835809 -0.048541795 0.18939143
000160 73 07 b9 3c 1f 12 71 bc 7f 0a 37 be ba 66 15 3e
       0.02258656 -0.014713793 -0.17875098 0.14589968
000170 ca 0f f9 3d e8 79 67 3e ed d2 6f 3d 92 1b 36 3e
       0.12161215 0.22605097 0.058550764 0.17783955
000180 f5 6b 1e 3e ef 0a f5 bd fb 7c fb 3c 92 60 3b 3e
       0.1547087 -0.11964976 0.030699244 0.18298557
000190 2b 2f 8a 3a e4 64 32 be f7 6f 10 3e 94 87 a4 3c
       0.0010542622 -0.17421299 0.14105211 0.02008418
0001a0 aa fd 2a 3e 0f 94 56 3e f7 4e 3f 3e ee 40 4a be
       0.16698328 0.20954917 0.18682466 -0.19751331
0001b0 06 b0 35 be d9 ec 20 be fc 20 80 bd 00 e6 21 3e
       -0.17742929 -0.1571535 -0.06256291 0.15810394
0001c0 34 f6 8b bd 77 b5 36 bb 51 26 aa bd c8 a5 2b bd
       -0.06834069 -0.0027879158 -0.083080895 -0.04190615
0001d0 31 ee 14 3e 71 56 28 3e 5c 18 53 3e f2 a6 f7 3d
       0.14543988 0.16439225 0.20614761 0.12092389
0001e0 1f 66 21 3e 2a 16 20 3e b4 53 0b 3e fa 66 d7 3d
       0.15761612 0.15633455 0.13606149 0.10517688
0001f0 13 35 29 be d4 f5 de 3d f0 98 57 be 98 2e 68 3e
       -0.16524152 0.10886732 -0.21054435 0.22674024
000200 d6 87 f7 bc 79 48 05 3e d8 3b d0 3d 0d d3 5e 3e
       -0.030216139 0.13015927 0.10167664 0.21760197
000210 d0 be af 3d 53 8b 17 3e 63 6f 4f 3e 78 22 40 be
       0.085813165 0.14799242 0.20257334 -0.18763149
000220 6e 83 10 3e 13 7e aa bd fe 05 94 3c d5 76 d7 bd
       0.14112636 -0.08324828 0.018069264 -0.10520712
000230 15 a9 4f be 88 5f 7f bc 92 12 0f 3e af 2c 00 3e
       -0.20279343 -0.015586741 0.13971928 0.12517045
000240 ac f7 19 3d 0f db 86 bb 1a 34 88 3d 41 28 0c be
       0.037589714 -0.0041154693 0.066505626 -0.1368723
000250 7d 0d 52 be f1 4b 6f bc f4 65 c6 bd 22 df 14 be
       -0.20512958 -0.014605508 -0.09687415 -0.14538243
000260 98 c3 79 bc 45 f3 6a 3e cf 9e 60 be 3d 3d b8 bd
       -0.015244387 0.22944362 -0.2193558 -0.08996055
000270 be a3 5a 3e 13 a4 14 3e 4d 88 17 3e 68 d2 e5 3d
       0.21351525 0.14515714 0.14798088 0.112217724
000280 82 7c 4f be 8f 4c 19 be b1 4f 99 3d cf 8a 39 be
       -0.2026234 -0.14970611 0.07485903 -0.18119358
000290 0d c7 30 3e 22 cd da bd 8c 9b 42 3e 12 28 e2 bc
       0.17263432 -0.10683657 0.19004649 -0.027606998
0002a0 cf 71 2a be dd 7a 12 3e b7 46 52 be 34 42 b8 3d
       -0.16644977 0.14304681 -0.20534788 0.08997002
0002b0 51 2e 91 bd 98 5e 26 be 33 92 29 3e 0f 57 df 3d
       -0.07088912 -0.16247022 0.16559677 0.10905277
0002c0 2f c6 07 3e 20 80 5c be 56 db dc bd 44 4d c0 3d
       0.13259195 -0.21533251 -0.107840225 0.09389737
0002d0 ee 72 3d 3e dc 1b 52 be a3 4f 45 3e fe fa 29 3d
       0.18500873 -0.2051844 0.1926866 0.04149913
0002e0 b4 34 e4 3d 93 05 0a be ec cc 63 3e 0d e3 86 3d
       0.11142865 -0.13478689 0.2224614 0.06586275
0002f0 4a a1 27 be 45 33 57 3e 26 13 01 3e 82 c1 4a be
       -0.1637012 0.21015652 0.12604961 -0.1980038
000300 c1 ac 26 be ff 8c 01 be 52 ea cb 3b c3 87 e5 bd
       -0.16276838 -0.12651442 0.0062230015 -0.11207535
000310 04 61 82 3d de 17 41 3e 7b 32 01 3d 17 34 68 bd
       0.063661605 0.18856761 0.031542283 -0.0566903
000320 d0 e0 c1 bd 06 33 51 bd 79 32 e4 bd 15 fe 7e 3d
       -0.09466708 -0.05107405 -0.111424394 0.06225403
000330 aa 2b bf bd 48 05 62 be be 5e 97 bc 9a b5 26 3e
       -0.093345 -0.22072327 -0.018477794 0.16280213
000340 0d 8c 67 3e a2 d4 34 be 53 9b 69 be 41 57 53 be
       0.22612019 -0.17659238 -0.22813158 -0.20638753
000350 12 ea f4 bd 3a 6b 26 3e 37 19 4a 3e d8 44 0a 3e
       -0.11958708 0.16251841 0.19736181 0.13502824
000360 6d 53 0c be e8 1e 45 3e 96 fb c6 3d e8 b1 ea 3c
       -0.137037 0.19250071 0.09715955 0.028649285
000370 b0 c8 54 3e 9d 68 88 3d c6 e0 10 3e 95 19 cd 3d
       0.20779681 0.066605784 0.14148244 0.10014645
000380 ea b4 10 3e b3 ba fa 3d 2f 0e 2e bd a1 ea 97 bc
       0.14131513 0.12242641 -0.042493995 -0.018544497
000390 c3 1d 17 bd 76 cd 9b bd a2 d9 db 3d 7a ab 0d 3e
       -0.036893617 -0.07607548 0.107348695 0.13834944
0003a0 79 9b 22 3d 15 4d 30 bd e1 e1 43 be 6c fb 85 3d
       0.03969905 -0.04304226 -0.19129135 0.065420955
0003b0 9c 64 df bd 27 92 f0 bd aa c2 5c 3e 56 9f 0d 3c
       -0.109078616 -0.11746626 0.21558633 0.008643946
0003c0 3b 63 e0 3d 74 24 71 bd a9 f5 37 be 0a 71 28 3e
       0.10956427 -0.058872655 -0.17964806 0.16449371
0003d0 ae 76 9f bd 08 af 1f 3e db 5b ef 3d 55 12 08 3e
       -0.07786308 0.15594113 0.11687442 0.13288243
0003e0 92 c9 fd bd 6a cd f3 bd c2 c5 11 3e 32 61 28 3e
       -0.12391962 -0.11904414 0.14235595 0.16443327
0003f0 eb 5f 73 3c 0e 85 18 3e 18 b7 3e be 69 9a 27 be
       0.014854412 0.14894506 -0.18624532 -0.16367497

fc3._model.0.bias f4 [64]
000000 d4 f0 05 3a 32 b5 05 3a 07 03 05 3a 11 53 05 ba
       0.00051094336 0.00051005476 0.00050739985 -0.0005085925
000010 f9 e2 04 ba e3 8f 05 3a 8d 12 06 ba dd 70 05 ba
       -0.0005069222 0.0005094988 -0.00051144586 -0.00050903653
000020 d2 35 05 3a 08 24 05 3a bc 60 05 ba 31 33 05 ba
       0.0005081567 0.00050789164 -0.0005087962 -0.00050811755
000030 a8 16 06 ba 9f b0 05 3a 44 2d 06 3a 2f f5 05 ba
       -0.00051150704 0.0005099866 0.00051184394 -0.00051100826
000040 a4 fd 05 3a 27 61 05 3a bd a0 05 3a 80 43 05 ba
       0.0005111343 0.0005088024 0.0005097499 -0.00050836056
000050 5b 1a 06 ba fc 58 05 3a 0b f6 05 3a 29 3f 05 ba
       -0.00051156216 0.0005086807 0.00051102106 -0.0005082959
000060 2b 45 07 ba f3 23 06 3a 5d f0 05 ba 1e 82 05 3a
       -0.0005160148 0.0005117051 -0.0005109364 0.00050929363
000070 c3 ab 05 3a 22 0c 05 3a 40 d1 05 ba aa e1 05 3a
       0.0005099142 0.00050753553 -0.0005104728 0.0005107174
000080 09 a5 05 3a 3f 03 06 ba 4f d3 05 3a 7b 26 05 ba
       0.00050981395 -0.0005112178 0.0005105035 -0.00050792814
000090 d7 cd 05 ba da 78 05 3a 36 2b 05 ba fb a0 06 ba
       -0.000510422 0.00050915556 -0.00050799863 -0.00051356823
0000a0 bd 36 06 3a 9c 38 06 3a 6e 6b 05 3a f6 68 05 3a
       0.0005119851 0.000512013 0.00050895556 0.0005089188
0000b0 75 88 05 ba fa a3 04 ba b0 e4 05 ba 59 db 04 ba
       -0.0005093881 -0.0005059835 -0.00051076245 -0.0005068086
0000c0 3b 60 05 3a b8 40 06 3a 19 cf 05 3a 12 54 05 ba
       0.0005087887 0.0005121338 0.00051044073 -0.0005086075
0000d0 c5 ac 05 3a 9a 7f 05 ba 77 f2 06 ba 4f 44 05 3a
       0.0005099292 -0.00050925615 -0.00051478244 0.0005083726
0000e0 ad 61 05 ba 0d 26 06 3a 63 76 05 3a 88 61 05 3a
       -0.0005088102 0.00051173643 0.00050911884 0.00050880807
0000f0 58 a2 05 3a 56 54 05 ba cd 58 05 3a d1 67 05 3a
       0.00050977385 -0.00050861144 0.000508678 0.0005089017

fc4._model.0.weight f4 [1, 64]
000000 dc 6f 18 3e a4 6d 79 3e 1b 36 e4 3d 45 74 57 be
       0.14886421 0.24358231 0.11143132 -0.21040447
000010 c4 e0 8f bd 05 e2 1a 3e 95 4b 43 be b8 c6 e6 bd
       -0.070252925 0.15125282 -0.19071801 -0.11268371
000020 e3 8e 16 3e ec b0 f5 3d 02 41 71 be 26 b7 d1 bd
       0.14702944 0.11996636 -0.23559955 -0.10240011
000030 d1 86 d9 bd 7d a3 6a 3e 4f d0 d9 3d 8e bf 8c be
       -0.10621417 0.22913928 0.10635435 -0.27489895
000040 e7 f3 26 3e 15 85 77 3e 4c 97 5f 3e 87 d0 42 be
       0.16303979 0.2417186 0.21835059 -0.1902486
000050 9d 28 e8 bd ba a5 67 3e 8a a1 9c 3e 47 49 00 be
       -0.11335871 0.22621813 0.30591995 -0.12527953
000060 c2 23 06 bd a1 1c d8 3d 09 13 54 be 57 5e 8a 3e
       -0.032748945 0.105523355 -0.20710386 0.270251
000070 15 9a 91 3e 6e b3 f6 3d 35 11 8e be a9 60 07 3e
       0.28437868 0.12045942 -0.27747503 0.13220467
000080 39 4c 72 3e e7 47 ac bd c9 21 9a 3e f4 f0 19 be
       0.23661889 -0.08412152 0.301039 -0.15033323
000090 85 80 8d be c2 7c 3a 3e 17 ce a4 bd fe f8 86 bd
       -0.27637115 0.18211654 -0.08047121 -0.0659046
0000a0 8b c6 00 3e 09 58 8b 3d 4b 13 75 3e 11 e3 7d 3e
       0.12575738 0.06803901 0.23933141 0.2479365
0000b0 46 6d 66 be df 45 96 bd 7a 43 97 be ff e2 a7 bd
       -0.22502622 -0.073375456 -0.29543668 -0.08197593
0000c0 bb a8 65 3e df ad f6 3d ff 44 24 3e 66 48 35 be
       0.22427647 0.12044882 0.16041945 -0.17703399
0000d0 d1 7b 80 3e 19 db 82 be 08 23 66 bd 7b 6f f7 3d
       0.25094464 -0.25557783 -0.056185752 0.1208181
0000e0 79 97 6b be 02 91 6a 3d a3 10 3b 3e 10 c5 10 3e
       -0.23007001 0.057267196 0.18268065 0.14137673
0000f0 a4 a2 95 3e c4 ea cf bd 01 53 23 3e 00 b4 13 3e
       0.29225647 -0.101522 0.15949632 0.14424133
