example/cloudManufacturing_network/rl/phase/ckpts/policy-model-weight-array.global-step-22000.pth (torch, 33911 bytes, 7 tensors)

fc1._model.0.weight f4 [24, 141]
00000000: 743b 0dbe ff1e 6d3c 4cd4 873d 866f febd
00000010: 746a 9e3d 5ca1 e8bc 52e5 a23d a379 20bc
00000020: 1897 883d bc87 243e b948 cbbd 9874 c03d
00000030: 41f6 0a3e ce48 b8bd 04a7 063e 5025 2b3e
00000040: 3610 b3bd 567f 3e3e f890 c03c f39a 173e
00000050: adb5 f8bd af84 3bbe a1d4 d13d affe 063e
00000060: 96b4 b3bd ead1 313e 2922 313e e4c6 413d
00000070: a1fb 073d f20b e8bd 08aa 133e 489c 38be
00000080: 74ea 15be ad48 393e f1bc a03d a1fa 1bbe
00000090: 9253 483d 2a99 953d 594b f5bd ebe8 0bbe
000000a0: 484d 783d 43de bcbd 71f9 c93d 89c0 c8bd
000000b0: 2e50 06bd ee9b 193d f5f5 073d e2e9 a1bd
000000c0: 2b3f 0f3c a38c 99bd ed0c 1fbe 395a 61bd
000000d0: 0524 31be 389d 05bb ff0a 42bc b45f a4bd
000000e0: 66cf da3d 20fc 5cbd 01d9 673d 40ab 9b3d
000000f0: 5067 f63b a039 0b3e a4c8 14be f5dc d9bd
00000100: e8f0 1a3e aeed fe3d 2099 4e3d b993 20be
00000110: 9439 783d c150 613d 3682 e4bd 149f 773b
00000120: 9b18 1abe 3707 283e 95ed a9bb 187b 3fbd
00000130: 666f e93d 3da3 d8bc 7b8c bb3d 61b5 573b
00000140: 9e87 e6bb 208c 8bbd 8d3b 8abd 8198 953d
00000150: 6e33 293d 081d 36bd 4ad9 893d 544d ac3c
00000160: c66e 8ebd e3e7 03be ec42 95bd 9ec3 04bd
00000170: ecae 243c 5ec1 e73d 97d1 1cbe b00a 2d3e
00000180: e03d a7bd 437f b63d fbf2 0ebe 8ed8 cfbd
00000190: 536e 1c3e c2e7 3ebd 65ca bbbd b410 0b3c
000001a0: 214d a4bd 2406 0e3d 300b 1abd 070f 0b3e
000001b0: 275a cbbd 4e1d 36be 944d 6cbc a154 1a3c
000001c0: c533 403e 5e73 b9bd 33d7 f9bd 1ea9 593b
000001d0: c9a6 3e3e 82e2 2f3e 6ddf ba3d 915f bd3b
000001e0: 6a9c d5bc 206e 1c3e 60fc 63bd a87a 973d
000001f0: 65e6 1abe de37 d63d 08a9 f23d 8d16 4bbd
00000200: d8f0 f3bd d216 aebd 1524 80bd 6f94 febd
00000210: 921c 1e3e c00a 2fbe d7a1 5dbd c8f1 213e
00000220: 1960 39be 146d 3b3e 6250 753c 7f63 2d3c
00000230: e6ed 863d 0fed 033e 3d75 3e3e 8712 e7bd
00000240: 322b 41bc 3191 a73d 12dd 5b3d 5f45 b73d
00000250: b774 85bd cb3f 93bc 0261 b5bd 5586 193d
00000260: 8ede 613d d011 903c 2595 183e 8362 dc3d
00000270: 0556 1c3e a8dd fc3d 41b2 353d aee7 253e
00000280: 33ee 7ebd 2fe5 e7bb 7634 ef3d 7898 8d3d
00000290: 907b 1ebe 70e5 0cbe f1cd 883d 515d eb3d
000002a0: 5268 0dbb 1eeb e8bd 32d2 29be 2827 38bd
000002b0: 43b9 c9bb c0f6 5f3d 52e4 e4bc 9998 40be
000002c0: 63d9 c9bd a466 aebd d6be 0dbd d23b 0abe
000002d0: bfaf 303e 12df e4bb a9cc b6bd 75d8 e53d
000002e0: f0e9 d8bd bd42 9d3a 2922 9d3c 3599 3b3e
000002f0: 5e11 30be 0362 13bd 9d12 103e a9fb cdbd
00000300: 24d7 32be 3295 aebd ca35 eabd 671a c9bb
00000310: 3ab9 b1bb c71b 1b3e fefd 0bbd 361e 303e
00000320: bf44 16be 1f7f bcbd e1dc a23d df38 633d
00000330: e27c f1bd 65be 0a3e 0778 0c3e d6f9 193e
00000340: a95e a53c e3fd 32be 578a cfbc 1d36 3ebc
00000350: 399a 37be c0b4 2f3e b513 f63d 4a7a c83d
00000360: ac19 0c3e 621f b2bc 0e32 103e cc7c 0fbe
00000370: b640 debc 6889 9ebd adaf 00be fdb9 293e
00000380: 30f9 b1bc 1936 4cbb e267 0dbe af13 aa3b
00000390: 0d57 02bd 9e4d 9f3d afd0 3dbe 73ed 2c3e
000003a0: 4f43 e8bd 0983 9cbd 6edf 533d c677 0e3d
000003b0: 9b68 26bd 9cd2 2c3e 1d23 b63d 6439 d23d
000003c0: 36b1 ec3c bda6 adbd 9eba 54bd b65e e03d
000003d0: fcb3 8bbc 6226 59bd 0eca 253e 0e07 3ebe
000003e0: f893 1d3e 2033 17be 8694 1d3d 9e38 e5bc
000003f0: b6f8 2f3e 3218 5f3d 539d 33be e97c 383c
-0.13792211 0.014472722 0.06632289 -0.12423615 0.07735148 -0.028397255 0.07953896 -0.009794625
0.06669444 0.16067404 -0.0992598 0.093972385 0.13570501 -0.089982614 0.13149649 0.16713452
-0.08743326 0.18603262 0.023506626 0.14805202 -0.12144027 -0.18312334 0.10245634 0.13183092
-0.087746784 0.17365232 0.17298187 0.047308818 0.033198956 -0.113304034 0.1442033 -0.18028367
-0.14640218 0.1809413 0.07848538 -0.15232326 0.048907824 0.07304604 -0.11977262 -0.1366307
0.060620576 -0.092220806 0.0986203 -0.09802348 -0.03279131 0.03750222 0.033193547 -0.07905938
0.008743088 -0.074975275 -0.15532275 -0.055017684 -0.17298897 -0.00203879 -0.011843442 -0.080260664
0.10684089 -0.053951383 0.056603435 0.07601023 0.00751964 0.13596201 -0.14529663 -0.10637847
0.15130961 0.124476776 0.050439 -0.15681352 0.060601786 0.055008654 -0.11157648 0.0037784027
-0.15048449 0.16409002 -0.0051857927 -0.04674825 0.11398201 -0.026445026 0.09157654 0.0032914507
-0.00703521 -0.06813836 -0.0674964 0.073044784 0.041308813 -0.04446128 0.06730898 0.021032967
-0.06954722 -0.12881427 -0.07288155 -0.032413118 0.01005147 0.11316179 -0.15314327 0.16898608
-0.081660986 0.08910992 -0.13959877 -0.101487264 0.1527646 -0.04660774 -0.09169463 0.008487869
-0.08022524 0.034673825 -0.037608325 0.13579951 -0.099293046 -0.17784616 -0.014422793 0.009419591
0.18769749 -0.09055208 -0.12199249 0.0033212374 0.18618311 0.1717625 0.09124646 0.0057792147
-0.02607556 0.15276384 -0.055660605 0.07396442 -0.15126951 0.104598746 0.118486464 -0.049582053
-0.11911172 -0.085004464 -0.06256882 -0.12430655 0.15440586 -0.17093945 -0.05410942 0.15814888
-0.18103065 0.18303329 0.014972778 0.010582804 0.06588344 0.128834 0.1859941 -0.11282831
-0.011790084 0.0818199 0.053677626 0.08948778 -0.06516402 -0.017974755 -0.088563934 0.037481625
0.055143885 0.017586619 0.14900644 0.10760977 0.15267189 0.12346965 0.04435945 0.1620166
-0.062238883 -0.0070768814 0.11679928 0.06913847 -0.15476823 -0.13759398 0.06679905 0.11492408
-0.0021577072 -0.1137297 -0.1658409 -0.044959217 -0.006156118 0.05467868 -0.027940903 -0.18808211
-0.09855916 -0.08515671 -0.034605823 -0.13499382 0.17254542 -0.0069846 -0.089257546 0.112229265
-0.10591495 0.0011998039 0.019181328 0.18320163 -0.17194125 -0.035982143 0.140696 -0.10057766
-0.17464882 -0.085245505 -0.11436041 -0.0061371806 -0.005423692 0.15147315 -0.034177773 0.17199025
-0.14674662 -0.09203934 0.079522856 0.05547416 -0.11791398 0.13549192 0.13717662 0.15036711
0.020186739 -0.17479663 -0.02533452 -0.011609581 -0.17929925 0.17158794 0.120154776 0.0978895
0.13681668 -0.02174348 0.14081594 -0.1401245 -0.027130466 -0.07741052 -0.12567015 0.16574855
-0.021725267 -0.0031160174 -0.1380916 0.0051903347 -0.0318213 0.07778476 -0.18536638 0.16887455
-0.11340963 -0.076421805 0.05172675 0.034782194 -0.040627103 0.16877216 0.08893416 0.10264853
0.028893095 -0.084790684 -0.051935785 0.10955565 -0.017053597 -0.05301512 0.16190359 -0.18557379
0.15388477 -0.14765596 0.03847172 -0.027981099 0.1718472 0.054466434 -0.17540483 0.01126025

fc1._model.0.bias f4 [24]
00000000: b5b0 40bb 4ae8 acbb d53a 6d3b 429b 833b
00000010: 0164 83bb b1e3 8c3b f4a7 9d3a 5b3d d13a
00000020: fb7f 2c3a b5b4 8c3b 49d2 973b 6064 abbb
00000030: 6fc2 7e3b 8e57 7bbb 1d36 a1ba 5a36 9fbb
00000040: 4892 f83a 319f 9cbb 5e93 a5bb bc79 db3a
00000050: a2d8 36ba 18e6 56bb 58e5 0c3b 10d1 ee3a
-0.00294022 -0.0052767145 0.0036198397 0.004016311 -0.004009724 0.004299604 0.0012028203 0.001596372
0.000658035 0.004294003 0.0046332222 -0.0052304715 0.0038873216 -0.0038351747 -0.0012299452 -0.004858774
0.0018964494 -0.0047797193 -0.005052968 0.0016744654 -0.000697503 -0.0032790955 0.0021499004 0.0018220264

fc2._model.0.weight f4 [20, 48]
00000000: fdb7 92bb c62e 443d 9279 8c3e acd2 90be
00000010: 6f36 70be d778 993d bde3 0abe 5495 bd3d
00000020: 02f1 283e 5db8 26bd 092a d8bd 444b fd3d
00000030: a7e8 abbd 7e7e 513e 6af6 99bc 1d5c 71bc
00000040: b58e 7cbe 7b72 2fbe c94f 1b3c 1658 bcbd
00000050: b439 a03d 1e18 d63d 4544 6a3e bae7 803e
00000060: 8eef 40be 8b41 043c f82b cabb 35ce e73d
00000070: fd47 21bd 858d 47be 3262 67be 6abd 013d
00000080: c7e4 28bd 4cb9 7d3e 21b2 f83d a90a fe3d
00000090: 7516 263e 0ce4 743e 8de4 3b3c f29c 6bbe
000000a0: 1f01 9b3d 9c4d 61be e753 d1bc 1358 08be
000000b0: accf 823e b1c2 043e be13 2c3d a757 4e3e
000000c0: aa6c 8b3e ae4d 11be 3c6d 143e 2d62 a63d
000000d0: 6910 6dbe b1e3 56be 0717 f9bd 64b3 2cbe
000000e0: 25b2 613e dcd1 773e 3b6f 87be d0e0 8bbe
000000f0: 3fd5 863e ae2a 123e a0fb 93be 8d3a 5f3e
00000100: ba98 0abe 24a1 513e a4f0 76bd 3bfc d63c
00000110: 6246 cebd e039 d23d 4653 2b3d 63fb 7c3e
00000120: d618 a5bd afb5 133d 88b4 60be f527 a7bd
00000130: 1dce 1bbe e300 7bbe e85a 82be 30b8 85be
00000140: ee12 8ebe a22c 693e cd5a 813c 6592 223e
00000150: 3b97 253e cd1b 7d3e 57fc dbbd 9962 953e
00000160: a3a9 71be a4e8 373e 672b 4dbe 5618 19be
00000170: 930e dabc 5a75 4f3e 1f2d 0e3d 4888 223e
00000180: e6fa 61be 3e73 223e f0c9 d43d 0df6 7ebd
00000190: 4864 a4bd 6d86 1c3e e7eb 6b3a 9738 843d
000001a0: 682a de3c e293 43bd 32f6 0a3e 9325 673e
000001b0: 9ad8 513d 697d 8e3e 4340 4d3d 0ff3 0e3e
000001c0: d86c 2abe b304 673d 2ca6 673e d1ed 613e
000001d0: b67f c63d eab0 713d 0acb 8b3e 482c 4d3e
000001e0: b3f1 493e 711d 753e e7f8 6bbe 046e c5bd
000001f0: a06b 62be 7b31 b43b a708 583e 7bf0 64be
00000200: 859e 35be 76e6 bf3b ee2d 44be 34f1 3fbd
00000210: 0fcc 5b3d e2b2 1a3e e06d 7b3e 23b6 353e
00000220: f712 353e 4cae 7dbd 2e08 85be dfb8 3dbe
00000230: 687b 29be 5b76 7f3e 6757 5bbe 48db 05bd
00000240: 7b02 f1bd 68d5 e93d a492 97be 0fef 94be
00000250: 79eb c4bd ec89 c1ba 114e c73c 9ee7 d93d
00000260: d0c5 e6bc 7292 f2bd 3a81 69be a392 fdbb
00000270: a922 93be 354f a23d b99c 2b3e 0903 2dbe
00000280: 808b 143e 94ba 723e 5dca 12be 9e04 93bd
00000290: 27ef 8d3e 7f86 ed3d 7eaa 87bc 293e 21bd
000002a0: a401 483e 8faf c93d 7c9e b53d 534d 8cbe
000002b0: 9a7a 0f3e 73ca b1bd 800a 733e 483a 2e3e
000002c0: 10e2 c6bd 8d9a 723e 9db9 a5bc 9a84 83bd
000002d0: c420 2ebd bddc 423e 6043 12be 28fe 803e
000002e0: b1c4 8a3c 7a23 31be 2509 5e3e ac1e 97bd
000002f0: 8f6c 0e3c f365 3d3d 826c 923d 260a 503e
00000300: 38c2 933e 16f8 56be c285 ee3c 0cfe c83d
00000310: 48e9 973e 8e66 483d 62d9 c73d 41cf 913e
00000320: 2428 7cbd fa94 abbd db4d 8f3e 6921 7cbe
00000330: f314 d03d 78ef cf3d 247c aa3d f08e 6cbe
00000340: 26ae 0cbe 0174 01be 2daf 05bd 04a2 f83d
00000350: cd3c b33c 92c6 493e c833 dcbd 19e1 cfbd
00000360: d15b 7cbe cba2 15bd 534d edbd 50de 123e
00000370: c953 89bc dbe6 493e 1df5 1fbe ec29 f73d
00000380: cb39 0ebe 29f5 88be 2627 323e 1b3a 1a3e
00000390: 24ef 4a3e 480e 8b3e 3b82 61be d641 833e
000003a0: 3ebf 20be 8df6 82bd 8f19 373e 9083 0b3c
000003b0: 6dcf 8d3e eb74 83be 36db 2abe db36 44be
000003c0: d408 80be 8640 81be 7d55 693e c575 103e
000003d0: d34c 4abe b0b7 61bd 437e 5dbe bc91 513e
000003e0: d17b a2bd 95e1 95bd b7a8 743e ae2c 3fbd
000003f0: 6e1f b93d 451a 1bbe 40b1 09be 1ec6 963d
-0.0044774995 0.04789617 0.274365 -0.2828573 -0.23458265 0.074937515 -0.13563438 0.09256998
0.16498187 -0.040703166 -0.105548926 0.123678714 -0.08393984 0.20458409 -0.018794257 -0.014731434
-0.24663813 -0.17133515 0.0094794715 -0.091964886 0.07823506 0.10453819 0.22877605 0.25176793
-0.18841383 0.008072267 -0.0061697923 0.11318628 -0.039375294 -0.19487579 -0.22596052 0.03167478
-0.041233804 0.24777716 0.121433504 0.12404377 0.16219504 0.23915118 0.011468065 -0.23009089
0.07568573 -0.22002262 -0.025552703 -0.13314848 0.25549066 0.12964894 0.042011015 0.20150624
0.27231342 -0.14189789 0.14494795 0.08124194 -0.23150791 -0.20985295 -0.12162595 -0.16865307
0.22040613 0.24201149 -0.2645205 -0.27319956 0.2633457 0.14274094 -0.28902912 0.21799679
-0.13534823 0.20471627 -0.060288087 0.02624332 -0.10072018 0.10264945 0.041827463 0.24705271
-0.08061378 0.03606194 -0.21943867 -0.08161918 -0.15215345 -0.24512057 -0.2545998 -0.26117086
-0.27748817 0.22770932 0.015790367 0.15876158 0.16170971 0.24717636 -0.107414894 0.29176787
-0.23599868 0.17959839 -0.20036088 -0.1495069 -0.026618278 0.2025961 0.034711 0.158723
-0.22068366 0.15864274 0.10390079 -0.06224637 -0.0802694 0.15285654 0.0008999691 0.06456106
0.02711983 -0.047748454 0.13570479 0.22572927 0.051231958 0.27830055 0.050110113 0.13959907
-0.16643083 0.056400966 0.22621983 0.22063376 0.09692328 0.05900661 0.27303344 0.20036423
0.19721107 0.23937012 -0.23044167 -0.096401244 -0.22111368 0.0054990626 0.2109705 -0.22357361
-0.17736252 0.0058563305 -0.19158146 -0.04686089 0.053661402 0.15107301 0.24553633 0.17745261
0.17683016 -0.0619338 -0.25982803 -0.18527554 -0.16550982 0.24947493 -0.2142006 -0.032679826
-0.11768051 0.11417657 -0.29604065 -0.29088637 -0.09615225 -0.0014765835 0.024329217 0.106398806
-0.028170496 -0.118443385 -0.22803202 -0.0077384277 -0.2873738 0.07925264 0.16759004 -0.16895689
0.1450634 0.23703986 -0.14335008 -0.07178615 0.2772152 0.11597919 -0.01656079 -0.03936592
0.19531876 0.09847938 0.08868119 -0.27402744 0.14011613 -0.08681192 0.23734474 0.1701442
-0.09711087 0.23691769 -0.020230109 -0.06421776 -0.042511716 0.19029517 -0.14283514 0.25193906
0.016939493 -0.1729869 0.21683176 -0.07378897 0.008692875 0.046239804 0.071496025 0.20316371
0.28859115 -0.20993075 0.029116515 0.098140806 0.29670167 0.04892593 0.09758259 0.28478435
-0.06156172 -0.083780244 0.27989087 -0.2462212 0.10160246 0.10153097 0.08324459 -0.23101401
-0.13738307 -0.12641908 -0.032637764 0.12140277 0.021879578 0.19704655 -0.10752064 -0.10150356
-0.246444 -0.036532205 -0.11587014 0.14342618 -0.016763585 0.1971697 -0.15620847 0.12068543
-0.13889234 -0.26749542 0.17397746 0.15061228 0.19817787 0.27159333 -0.22022335 0.25636166
-0.15697953 -0.06394682 0.17880844 0.008515254 0.27697316 -0.2567514 -0.16685185 -0.1916155
-0.25006735 -0.2524454 0.22786517 0.14107426 -0.19755869 -0.05510682 -0.21630196 0.2046575
-0.07933772 -0.07318417 0.23892485 -0.04667347 0.09039198 -0.1514674 -0.13446522 0.073620066

fc2._model.0.bias f4 [20]
00000000: 15a1 60ba 3731 95b9 700f 0739 b5d1 2ab5
00000010: 0000 0000 0000 0000 0930 4f3a d990 113a
00000020: 0000 0000 0000 0000 0000 0000 0000 0000
00000030: 0000 0000 3604 6c3a 2669 c2b9 d577 46ba
00000040: 0000 0000 96de 1db8 0000 0000 0000 0000
-0.0008568925 -0.00028456163 0.00012880354 -6.36351e-07 0.0 0.0 0.0007903581 0.0005552895
0.0 0.0 0.0 0.0 0.0 0.0009003313 -0.00037080905 -0.0007570957
0.0 -3.7639016e-05 0.0 0.0

fc3._model.0.weight f4 [64, 48]
00000000: 3f08 d2bd 949c 403d 8793 61bd 2ac8 063d
00000010: 4b65 333e 0f02 bcbc d5e3 c1bd 54ce 63be
00000020: 67f5 74bd 644a 103e 2479 2fbe 7141 5f3d
00000030: 7bb5 5b3d 4ac0 a63d fda3 66bd 0d2c a8bd
00000040: fb11 1ebd c940 8cbd 6f72 45bd 7fe6 993d
00000050: fb53 22be b936 79bd a668 b0bd b416 c03d
00000060: 0315 19bd 9f7e ffbc 88ea 18be 7526 c03a
00000070: 52f0 493e 02f9 4a3e e034 603c fe93 c8bb
00000080: f3ed bd3d 311e 363e e189 9c3d 41a1 023e
00000090: 20ff 72bd 9d91 a0bd 3610 01be 16a9 213e
000000a0: f08d 6a3e 7444 08be d8c7 5e3e 6248 06bd
000000b0: fd53 a5bd 3468 58be 85d7 bbbd dbbf 31bd
000000c0: 5651 6e3d 631e 023e eeb2 c33c 2c43 323d
000000d0: 1f81 743d 5ca9 9c3c f285 193e 2ca3 a23d
000000e0: 79c0 683d a8c4 373e 55ed c9bd eb51 03bd
000000f0: aa71 573e dcd7 28be c6ae 30be cbde 733e
00000100: 8e84 d7bd f6f4 c53d 3448 19be c684 1ebe
00000110: f9c8 bf3c 6fdb 84bd 8310 053e e6bd 03bd
00000120: 03dc 513e 8402 19be 791e b23d 15c6 2ebd
00000130: 1462 083e 356a fd3b cc3a 553e f16e 08bd
00000140: bad6 35be 52c2 333e 6330 65be 51eb 223e
00000150: 171f 71be c3fb 89bd b79c 69bd 2ace 24be
00000160: 05d1 d23d 7e20 9cbd 7455 f0bd 5f33 4bbe
00000170: 5ddc aa3d d343 623e e48e 173e b5b7 1cbd
00000180: 6971 4a3d e8f3 13bd 210f 44be fd2f f4bd
00000190: 161d 6cbe 0869 08be 1f36 4cbe 3ff9 61bd
000001a0: a3f1 5bbe 80dd 833d 621f 17be fa32 693e
000001b0: 64c3 22be 535a 843c 20f7 ef3d 7b70 24be
000001c0: c487 893d c4d8 1b3e d340 1d3d 1ebe 563c
000001d0: b419 46be d8a9 473d 7be8 00be ad7a d1bd
000001e0: 1274 17be a787 b83d fc05 243e b1fd 42be
000001f0: 415c 323e 8ba3 2bbe 9931 9a3d 78da abbc
00000200: 8e05 5d3d 54b2 53be 5431 0abe 0562 b63c
00000210: ccbe 903c 217c 16be 864b 953d adc2 f03d
00000220: 8547 b33b be36 fabd 98f7 f1bd 1e07 ab3d
00000230: 6601 1abd e685 46bb 5d54 2cbe aeac 573e
00000240: 7a8c 61be 4ac3 21be 8a29 babc 927c e6bd
00000250: e54c abbd a313 73be e320 1e3e 1330 3a3d
00000260: f998 68be b2e8 0bbe 211b aa3d 4327 e9bd
00000270: 2b3d d7bd f6d6 e73d 01c0 b5bd dbea a93c
00000280: 7436 b3bd bfe3 bf3d 8df7 e0bd 424b 153e
00000290: 810d 6b3d 33a3 ea3d cbb1 6dbe 7dcb 793c
000002a0: b5bf 39be 4e0d 10bc cec9 f7bd f218 473e
000002b0: 8285 193e 07a3 12bd 3adf 423e a7af c8bd
000002c0: 6aa6 0dbe 96d9 c6bc 657c e73d 0739 d2bc
000002d0: 0b4d aabd c427 d9bd 886d 4f3e 90af 0fbe
000002e0: 97f9 433e 8efc 2bbd d5d2 66be a59f 623e
000002f0: 1362 ef3d ce35 133e 28cb 8e3d 6760 2dbe
00000300: fb5e 563e 1918 91bd 9d07 2a3e 653d a4bd
00000310: 1b4a eebd 044e 053c b08e 153e 298f 5cbd
00000320: eae3 95bc 56e1 6f3d 18bf fa3d 236a 15bd
00000330: 3a8c e03d b751 b63c 85fe 4d3e e9fd 473e
00000340: 2f31 523e f3ee 943d bf4f 343e 997a 65be
00000350: d01d 03be 1fd6 44be c2f2 263e 841f 91bd
00000360: 3974 1bbd 3ce5 9bbb ab37 d0bd 12af 66be
00000370: fbd2 59be 9453 e5bd 08a8 8bbc 7b0d 3fbd
00000380: 2d9c 2db9 ac75 7bbd 396e 983d c6cb 1dbe
00000390: 4095 8c3d fcd9 a33d 3836 61be 2b37 db3d
000003a0: 493e 9cbd 6a7a 2bbe 21a6 8f3d 4e17 3dbe
000003b0: b8a5 5d3e 5f79 37bc 2a33 dabd 0f06 8bbc
000003c0: d206 bb3d 1f99 083e 1e3b b03d fe8e 35be
000003d0: 2546 393e 22a0 2a3d c43d 1fbc 4952 8bbc
000003e0: 5b47 753c 24c3 1fbe a3ec 3c3e 1be9 1e3d
000003f0: 0e5e 2d3e cfae 983d ae50 5b3e 0a07 ea3d
-0.10255479 0.047024325 -0.055072334 0.032905735 0.17519109 -0.0229502 -0.09467284 -0.22246677
-0.059804346 0.14090878 -0.17136055 0.05450577 0.05363987 0.08142145 -0.056308735 -0.08211527
-0.038591366 -0.06848294 -0.048204836 0.07514667 -0.15852349 -0.060843203 -0.0861371 0.0937933
-0.037373554 -0.031188307 -0.14933217 0.0014659899 0.19720581 0.19821551 0.013684481 -0.0061211577
0.09273901 0.17784955 0.07643486 0.12756826 -0.059325337 -0.078402735 -0.1260384 0.15787157
0.22905707 -0.13307363 0.21755922 -0.032783873 -0.0807266 -0.211335 -0.091719665 -0.04339586
0.058183037 0.12706904 0.023889031 0.04352109 0.059693452 0.019123726 0.14992502 0.07941279
0.05682418 0.17946112 -0.098597206 -0.032060545 0.21039453 -0.16488594 -0.17254171 0.23815458
-0.1052333 0.09665863 -0.1496895 -0.15480337 0.02341126 -0.06487166 0.1299458 -0.032163523
0.20494084 -0.14942366 0.086972184 -0.042669374 0.13318664 0.007733608 0.2082321 -0.033308927
-0.17757693 0.17554596 -0.2238174 0.15910079 -0.23547016 -0.06737473 -0.05703422 -0.1609427
0.102937736 -0.07623385 -0.11735049 -0.19843815 0.08342812 0.22096185 0.14800602 -0.038261134
0.049424563 -0.03612128 -0.19146396 -0.119232155 -0.2305797 -0.13321316 -0.1994252 -0.05516934
-0.21478896 0.06438732 -0.14758065 0.22773352 -0.15894848 0.016156351 0.11717057 -0.16058533
0.06715348 0.15219408 0.0383919 0.013106851 -0.19345742 0.04874596 -0.12588684 -0.10228477
-0.14790371 0.09010249 0.16017908 -0.19042088 0.17418005 -0.16761605 0.07528991 -0.020978197
0.053960375 -0.20673496 -0.1349538 0.022263536 0.017669104 -0.14695789 0.072897956 0.117558815
0.0054711723 -0.122174725 -0.11814803 0.08350967 -0.03759899 -0.0030292212 -0.16829057 0.21061966
-0.22026244 -0.15797153 -0.022724885 -0.11254229 -0.08364276 -0.2373796 0.15442233 0.045456003
-0.22714604 -0.13662985 0.08305956 -0.11384442 -0.10509714 0.113202974 -0.088745125 0.02074187
-0.087506205 0.09369611 -0.109847166 0.1457949 0.057385925 0.11456909 -0.23212354 0.015246269
-0.18139537 -0.008792235 -0.12099038 0.1944311 0.14992335 -0.035800006 0.19030467 -0.09799128
-0.13833013 -0.024273675 0.11303023 -0.025661958 -0.08315476 -0.10603288 0.20256627 -0.14031816
0.1913818 -0.0419889 -0.22541364 0.22131212 0.11688628 0.14375994 0.06972343 -0.16931306
0.2093467 -0.070846744 0.16604467 -0.080195226 -0.11635228 0.008136276 0.14605212 -0.053847466
-0.018297154 0.058564506 0.122434795 -0.036478173 0.10964246 0.022255762 0.20116623 0.19530453
0.20526575 0.072721384 0.17608546 -0.22410049 -0.12804341 -0.19222306 0.16303542 -0.07086089
-0.037952635 -0.0047575515 -0.10166868 -0.22527722 -0.21271889 -0.11197582 -0.017047897 -0.046643715
-0.00016556746 -0.061391518 0.07442898 -0.15409765 0.06864405 0.080005616 -0.21993339 0.10703882
-0.076290675 -0.16745916 0.070141084 -0.18465921 0.21645248 -0.011198371 -0.1065429 -0.016970662
0.0913216 0.13339661 0.08605026 -0.17730328 0.18093164 0.04165662 -0.009719316 -0.01700701
0.014970626 -0.15601784 0.18449645 0.038796525 0.1693041 0.07455217 0.21417496 0.11427124

fc3._model.0.bias f4 [64]
00000000: f90c 7abb 8bab 793b e183 78bb 48ff 773b
00000010: dd38 73bb 9ddd 783b 0bc5 78bb d2a0 783b
00000020: b707 86bb 8eef 77bb d73f 783b 0774 753b
00000030: e329 78bb 786d 79bb 46c0 7b3b 6374 783b
00000040: 9fb8 773b d494 78bb 3b31 78bb 929a 783b
00000050: 30ea 79bb 6628 793b 6163 783b cf18 79bb
00000060: 7186 793b 1880 653b e2b8 783b 7e7f 79bb
00000070: 2f4d 783b 5db8 783b e522 79bb 7cfc 78bb
00000080: e23c 79bb 5721 783b 6a25 793b 7fb0 78bb
00000090: 589d 7abb cfab 78bb c97f 783b b013 783b
000000a0: 6b99 763b 1030 7ebb 6aea 78bb 6fe5 78bb
000000b0: bea0 783b 31b1 783b e983 78bb afba 783b
000000c0: e7b9 7b3b 264d 77bb ce25 79bb d6f4 79bb
000000d0: 9cfb 773b adc3 783b 9853 793b 5676 763b
000000e0: cc8d 75bb ba1d 77bb 65a8 783b f078 79bb
000000f0: 5dce 783b d5cc 763b d3c8 783b 6d33 78bb
-0.0038154705 0.0038096632 -0.0037920403 0.0037841368 -0.003711275 0.0037973889 -0.0037959244 0.0037937653
-0.004090275 -0.0037831995 0.0037879848 0.003745319 -0.0037866763 -0.0038059633 0.0038414164 0.0037911169
0.0037799252 -0.0037930505 -0.003787114 0.0037933928 -0.0038133971 0.0038018464 0.0037901031 -0.0038009172
0.0038074518 0.0035018977 0.0037951996 -0.0038070376 0.0037887802 0.0037951686 -0.0038015184 -0.003799229
-0.0038030674 0.003786167 0.0038016685 -0.0037946997 -0.0038240757 -0.0037944203 0.0037917963 0.0037853532
0.0037628065 -0.0038785972 -0.0037981519 -0.003797855 0.0037937607 0.0037947411 -0.0037920421 0.003795307
0.0038410367 -0.0037735193 -0.0038016918 -0.0038140318 0.003783918 0.0037958429 0.003804421 0.0037607155
-0.003746855 -0.0037706927 0.0037942168 -0.003806647 0.00379648 0.003765871 0.0037961497 -0.003787245

fc4._model.0.weight f4 [1, 64]
00000000: e7d0 3b3d a24c 2fbe 233a 803e 6768 26be
00000010: 89cf 5a3c abf0 82be 4734 613e 2a98 d9bd
00000020: 22c5 173c a782 9c3d 6d16 1abe b665 d7bc
00000030: f231 493e cb29 c63d 283f 17bc d1d2 3bbe
00000040: 32c7 4fbd 85da 833e 3e97 4c3e 876f 42be
00000050: b56a 2f3d 374e 95be 447e 93be 2c1f 663e
00000060: 431b 6ebe 5cec 82bb 920a 8bbe f575 0d3e
00000070: ae23 8fbe 12f8 41be b8dd c33c 9d99 743e
00000080: b896 793e 5325 38be 9a85 5ebc 6bb9 823e
00000090: 2922 ae3d d8b4 8e3e fedf 4bbe cd10 a4bd
000000a0: 6c64 38bd d507 ca3c 7b4d 543d 2fb1 233e
000000b0: 3899 ccbd 62e6 c3bd 8bba 763e 07f8 d0bd
000000c0: b42a 06bd 2ad5 ce3d cd30 893e 81e6 a23d
000000d0: 4723 dcbd 3ce6 3dbe c98a 81be 411e 18bd
000000e0: 4ea8 0d3d 4ae5 623d 9acf 5cbe 7c1d 973d
000000f0: 611b 41be f3ab 51bd f777 5fbe d964 673e
0.04585352 -0.17119077 0.25044355 -0.16250764 0.013355144 -0.2557424 0.21992598 -0.10624726
0.009263309 0.076421075 -0.15047617 -0.026293617 0.19647959 0.0967594 -0.009231366 -0.18342139
-0.050727077 0.25752655 0.1997957 -0.18987857 0.042826373 -0.29161236 -0.2880727 0.22472829
-0.23252587 -0.0039954614 -0.27156502 0.13814528 -0.2795691 -0.18942288 0.023909435 0.23886724
0.24373901 -0.17982988 -0.013581658 0.25532088 0.08502609 0.27872348 -0.19909665 -0.08011017
-0.045017645 0.024661938 0.051831704 0.15985559 -0.09990162 -0.095654264 0.24094598 -0.102035575
-0.03275557 0.100992516 0.26795045 0.079541214 -0.10748916 -0.18544859 -0.25301197 -0.037138227
0.034584336 0.05539445 -0.21563569 0.073786706 -0.188581 -0.051189374 -0.21823107 0.22597064
