example/cloudManufacturing_network/rl/phase/ckpts/policy-model-weight-array.global-step-29800.pth (torch, 33911 bytes, 7 tensors)

fc1._model.0.weight f4 [24, 141]
0.1490141 -0.13844538 0.15082572 -0.09436629 0.042442217 0.18500495 0.17792924 -0.016053108
0.04773476 0.045727752 -0.17694896 0.015212125 -0.15729387 0.18548226 -0.11388116 0.14283268
-0.097865924 0.063631475 0.041132554 0.1202484 -0.05012032 -0.11972589 0.14471275 -0.013382965
0.19423641 -0.07066063 0.18276128 -0.0045791343 0.17948402 0.12382203 0.10239895 -0.061321985
0.11723529 0.14712135 0.17360435 0.0961921 -0.12765893 0.15576562 0.18100703 -0.1760634
-0.055798367 -0.14029603 0.032826215 -0.18633807 0.13009061 0.00232556 -0.084781274 0.09613191
-0.009057289 0.03386963 -0.02859464 -0.046766393 0.1563721 0.127169 0.08925837 -0.112897925
-0.14967936 -0.15460779 0.12350319 -0.14436404 0.015408545 0.0061413227 0.12338328 0.12280346
0.15278776 0.123635344 0.18820678 -0.13751131 -0.0006036621 -0.07612145 0.053190563 0.0034722784
0.028386736 0.10389757 0.058223773 -0.028594064 -0.05047689 0.16277875 -0.0010981906 0.03612228
0.13623904 0.16732973 0.1241308 -0.15555853 0.14401871 -0.079451695 0.041171458 -0.06579558
0.0005710759 -0.032870255 0.10009917 -0.094127014 -0.18807793 -0.18553662 0.17930059 -0.09702796
0.050899394 -0.18814401 0.14246269 -0.078721784 -0.055683453 -0.16903561 -0.14296338 0.06324545
0.104737915 0.18391159 0.12878038 0.12833022 -0.02258485 -0.08303886 -0.17763293 -0.069237076
0.09994192 -0.06062839 0.15804885 0.028712988 -0.14670207 0.04537298 0.17718792 0.122451454
0.11972389 -0.14476691 0.15581189 0.083446294 -0.048597198 -0.012194934 0.00056489813 0.063082546
0.106371135 -0.07974818 0.13574113 0.17543343 0.054793935 -0.05738233 0.052625205 -0.08200241
-0.04597323 -0.016115531 -0.08275244 -0.09459559 -0.10189187 -0.104590096 0.045704123 -0.06326669
0.14979284 0.10327058 -0.15995456 -0.17296994 0.09375039 -0.037333805 -0.024666687 0.033349425
-0.14108144 0.12458004 -0.17971411 -0.11484185 -0.14949502 -0.17728657 0.010330807 0.073993
-0.15720442 -0.06069602 -0.12983042 0.008700632 0.17451988 0.052258033 0.14073952 0.17871417
0.047089428 0.06669048 -0.062238175 -0.053665373 -0.1636144 0.009777985 0.04860864 -0.027132947
-0.0470316 0.02053646 -0.11231808 0.14984618 0.16045412 0.05305909 0.13053921 -0.18776938
-0.017266562 0.06869892 -0.12362786 0.0064260573 -0.14441031 -0.10389187 -0.039877716 -0.02929399
-0.11598855 0.012720218 0.023022858 -0.012733745 -0.077369586 0.16275398 0.15292402 0.14059995
-0.09713064 0.033383116 0.10167485 -0.11323276 -0.044306953 -0.0013023848 0.1632222 0.109306335
0.14368883 -0.14181118 -0.14624754 -0.058099847 0.18251736 0.016337808 -0.13091889 0.12623116
-0.07276335 -0.09101596 -0.020564685 0.1704981 -0.16745426 -0.10587108 -0.16437407 -0.110819876
-0.0088465335 -0.057665396 -0.10247791 -0.033850167 0.08682662 0.061100516 0.023175566 -0.09536584
0.022593247 0.10996165 -0.012062387 0.15152816 0.1791277 0.028666265 -0.08103644 -0.1912165
0.046608817 -0.11180297 0.16769086 0.17165478 0.01598199 0.014830172 0.18567158 -0.082284614
-0.086940885 0.079200864 -0.102427185 -0.097328484 0.13441947 -0.100986324 -0.17458805 0.13138722
00000000: 2797 183e a0c4 0dbe 0f72 1a3e 1d43 c1bd
00000010: e4d7 2d3d f071 3d3e 1533 363e cf81 83bc
00000020: 8685 433d 064d 3b3d 1c32 35be 473c 793c
00000030: a511 21be 10ef 3d3e 873a e9bd bb42 123e
00000040: ee6d c8bd 3851 823d 9c7a 283d cb44 f63d
00000050: f74a 4dbd d932 f5bd 942f 143e 3944 5bbc
00000060: e9e5 463e 85b6 90bd c625 3b3e 900c 96bb
00000070: a9ca 373e 6896 fd3d 8ab6 d13d c32c 7bbd
00000080: 0e19 f03d fba6 163e 57c5 313e 5d00 c53d
00000090: 06b9 02be 0681 1f3e e859 393e f749 34be
000000a0: d48c 64bd c3a9 0fbe c874 063d 68cf 3ebe
000000b0: 7936 053e 6c68 183b cea1 adbd cfe0 c43d
000000c0: 0665 14bc e2ba 0a3d 4e3f eabc 1e8e 3fbd
000000d0: 0220 203e 9738 023e 18cd b63d 0737 e7bd
000000e0: 8c45 19be 8151 1ebe 3eef fc3d 2bd4 13be
000000f0: 1f74 7c3c 263d c93b 60b0 fc3d 6180 fb3d
00000100: 6574 1c3e 8734 fd3d 47b9 403e c4cf 0cbe
00000110: 143f 1eba 90e5 9bbd 59de 593d 2a8f 633b
00000120: 4d8b e83c 40c8 d43d 0d7c 6e3d 193e eabc
00000130: dbc0 4ebd 79af 263e 29f1 8fba f5f4 133d
00000140: 3f82 0b3e 7c58 2b3e 4a38 fe3d bc4a 1fbe
00000150: a479 133e 92b7 a2bd 67a3 283d d5bf 86bd
00000160: 41b4 153a f6a2 06bd cb00 cd3d aac5 c0bd
00000170: 8097 40be 50fd 3dbe 939a 373e 98b6 c6bd
00000180: e27b 503d d3a8 40be bde1 113e e338 a1bd
00000190: 5514 64bd ac17 2dbe fe64 12be d586 813d
000001a0: d580 d63d 5253 3c3e 01df 033e ff68 033e
000001b0: dd03 b9bc 4710 aabd 68e5 35be 2bcc 8dbd
000001c0: 59ae cc3d 7a55 78bd 8fd7 213e 8037 eb3c
000001d0: 1139 16be 05d9 393d c070 353e d4c7 fa3d
000001e0: cd31 f53d c73d 14be 278d 1f3e e4e5 aa3d
000001f0: db0d 47bd 43cd 47bc ac15 143a 6c31 813d
00000200: 1cd9 d93d 0453 a3bd b9ff 0a3e d2a4 333e
00000210: 9b6f 603d bc09 6bbd 878d 573d e1f0 a7bd
00000220: 6d4e 3cbd b804 84bc 1c7a a9bd 55bb c1bd
00000230: afac d0bd 5533 d6bd 3f34 3b3d f791 81bd
00000240: 4b63 193e 877f d33d 21cb 23be 081f 31be
00000250: 3400 c03d 55eb 18bd cb11 cabc 6899 083d
00000260: a777 10be d223 ff3d fa06 38be 3432 ebbd
00000270: 3915 19be 9c8a 35be 8c42 293c a489 973d
00000280: 32fa 20be 649c 78bd 44f2 04be 188d 0e3c
00000290: 57b5 323e 850c 563d 051e 103e d900 373e
000002a0: d8e0 403d 0595 883d 75ed 7ebd 39d0 5bbd
000002b0: 898a 27be d733 203c da19 473d ea45 debc
000002c0: 35a4 40bd 143c a83c 0607 e6bd 4771 193e
000002d0: 164e 243e 7d54 593d 12ac 053e 9e46 40be
000002e0: 9b72 8dbc 05b2 8c3d 9a30 fdbd ad91 d23b
000002f0: 4ce0 13be 43c5 d4bd d156 23bd f3f9 efbc
00000300: 688b edbd 7668 503c 6f9a bc3c 33a1 50bc
00000310: f273 9ebd fba8 263e 1d98 1c3e 6ff9 0f3e
00000320: 6eec c6bd bcbc 083d e73a d03d 94e6 e7bd
00000330: 357b 35bd c8b4 aaba b823 273e 00dc df3d
00000340: 2a23 133e f336 11be eac1 15be 1bfa 6dbd
00000350: d5e5 3a3e ded6 853c 9a0f 06be be42 013e
00000360: f404 95bd 9366 babd 4577 a8bc 0e97 2e3e
00000370: 2179 2bbe f0d2 d8bd ad51 28be 88f5 e2bd
00000380: 0df1 10bc 8d32 6cbd f0df d1bd 79a6 0abd
00000390: 28d2 b13d 8944 7a3d afda bd3c 2a4f c3bd
000003a0: 7915 b93c 9333 e13d 51a1 45bc 332a 1b3e
000003b0: 406d 373e 84d5 ea3c 6ff6 a5bd 42ce 43be
000003c0: e3e8 3e3d f5f8 e4bd 27b7 2b3e 45c6 2f3e
000003d0: aaec 823c 40fa 723c b120 3e3e d684 a8bd
000003e0: 100e b2bd 1034 a23d 58c5 d1bd 2854 c7bd
000003f0: 42a5 093e ebd1 cebd 36c7 32be 5f8a 063e

fc1._model.0.bias f4 [24]
-0.0040801964 -0.0010829496 -0.0010666164 -0.0015947958 -0.0021071665 -0.0022582153 -0.0026693987 -0.0013615617
-0.0011591588 -0.0023771238 -0.0012624465 -0.00096791744 0.0024001896 0.0022530807 0.0017906013 -0.0013828248
0.00018584281 -0.0014888038 0.0002258312 -0.0025378366 -0.002395558 0.00022359482 -0.0026828723 0.00084171066
00000000: 2bb3 85bb c2f1 8dba b5cd 8bba 7808 d1ba
00000010: 6318 0abb 91fe 13bb 14f1 2ebb 6e76 b2ba
00000020: eaee 97ba 85c9 1bbb ad78 a5ba d7bb 7dba
00000030: 804c 1d3b 6ca8 133b 9cb2 ea3a e73f b5ba
00000040: cdde 4239 f723 c3ba 1acd 6c39 d551 26bb
00000050: cbfe 1cbb c774 6a39 21d3 2fbb 3fa6 5c3a

fc2._model.0.weight f4 [20, 48]
-0.25653204 -0.11895905 -0.026132552 -0.29273936 0.04026644 -0.1828593 -0.09620249 0.12021559
0.16122489 0.20795564 0.12202855 -0.2223264 0.0445511 0.18028928 0.13691431 -0.017067354
0.046742126 -0.049855515 0.21214323 0.026298093 -0.23439331 -0.2533356 -0.2386231 0.025083885
-0.17764066 0.05961456 -0.21147896 0.14764063 0.29282779 -0.24377038 -0.0007779834 0.25714827
0.056308635 -0.24331404 0.07379474 0.20219079 0.22343764 0.19410619 0.20158114 0.23322113
-0.23335923 -0.2060633 0.13683392 -0.20425583 -0.23924035 0.121962465 0.08761278 -0.28248185
0.16378815 -0.12362576 -0.27630553 -0.06706272 -0.0072969454 -0.23361316 0.10759052 0.0037431445
0.045941487 -0.15459806 0.084728666 -0.19506802 0.16476995 0.07459325 -0.029669229 -0.019785134
-0.24555951 -0.12424404 -0.016515702 -0.08395874 0.25138322 0.06792016 0.16329275 -0.03787498
-0.16876698 -0.2341416 0.0007796735 -0.10745363 -0.023832863 0.16749266 -0.18397787 0.23885296
-0.2188319 0.2693846 0.28768992 -0.16104592 -0.28284028 -0.1233857 0.15202694 0.012216741
-0.123043105 -0.06779521 -0.17924204 -0.1764446 0.1937535 0.24517426 0.24082296 0.14697054
0.15951708 0.2117605 -0.2834169 0.010382977 -0.27843553 -0.261322 -0.16480955 0.20626983
0.25488523 -0.22237028 0.27772555 -0.15472159 0.130666 0.038320433 -0.16880247 -0.08780018
-0.016761 -0.025617681 0.045249864 0.13323389 0.018899294 -0.20944363 0.23602176 -0.25635076
0.0029208653 0.21882623 -0.2528764 -0.21384996 -0.031249888 -0.1768352 0.20615032 0.07716016
-0.100976616 -0.13593267 -0.017575616 -0.08731024 -0.11130184 0.2304024 -0.18571913 -0.08746771
0.24667548 -0.24263766 -0.06624726 0.23880123 -0.055565774 0.1420201 0.114799894 -0.15025485
-0.23677681 -0.104553804 -0.12928984 0.28149518 0.09493123 -0.14508435 0.20656624 -0.04582006
-0.24860755 -0.048341684 0.0022804767 -0.12305867 -0.25613645 -0.28065684 0.26051846 -0.11619613
-0.12891723 0.0010653937 0.045037016 0.20643862 0.03851053 0.27948162 0.21925429 -0.10691392
0.28472954 -0.06944402 -0.22582194 0.115660205 -0.1105195 -0.22268283 0.24670403 0.0074730944
0.17595185 0.19127488 -0.2564574 -0.24353988 0.2667457 0.12807178 0.11912067 -0.2955607
-0.14272931 -0.041873563 0.1809189 0.15802084 0.021783918 -0.23903638 -0.026741771 0.06818524
-0.24372973 -0.035971407 0.20641388 0.29387146 0.2839815 0.076392785 -0.034708556 -0.11196918
0.25874195 -0.17211184 -0.16654609 -0.027932603 0.23154551 -0.11051041 0.2612725 -0.14839049
-0.117351465 0.25610808 -0.12421212 0.25372484 -0.039264426 -0.15356015 -0.25972623 0.16003682
0.27010226 0.15572417 0.099215195 0.24109179 0.028254556 0.13119054 -0.14339623 -0.21903782
0.0865684 -0.23366202 -0.119638145 -0.16005392 0.15890527 0.270975 -0.1640714 -0.03521245
0.14571421 0.21013102 -0.14348353 0.0035883593 -0.1284667 0.015777193 -0.24748112 0.18156825
-0.20192192 -0.25764135 -0.2787011 0.11438205 -0.22033632 -0.19482107 -0.21891342 0.24491155
0.22209103 0.20283814 0.11487748 0.11689934 -0.17771949 -0.10131025 0.15531999 0.09318816
00000000: 2b58 83be cda0 f3bd ef13 d6bc efe1 95be
00000010: 6cee 243d 783f 3bbe d005 c5bd 9733 f63d
00000020: 2318 253e 53f2 543e 1bea f93d 88a9 63be
00000030: 377b 363d c19d 383e 4433 0c3e d6d0 8bbc
00000040: ac74 3f3d 4c35 4cbd 133c 593e 196f d73c
00000050: cd04 70be 34b5 81be 9d59 74be b87c cd3c
00000060: 6fe7 35be 662e 743d f18d 58be 1b2f 173e
00000070: 86ed 953e f19e 79be 95f1 4bba f0a8 833e
00000080: e2a3 663d 5127 79be b221 973d 1a0b 4f3e
00000090: d6cc 643e c6c3 463e 496b 4e3e 85d1 6e3e
000000a0: b9f5 6ebe 4202 53be 311e 0c3e 7128 51be
000000b0: 6cfb 74be 75c7 f93d 546e b33d 76a1 90be
000000c0: 15b8 273e 812f fdbd eb77 8dbe 2e58 89bd
000000d0: 371b efbb 4a38 6fbe 6b58 dc3d 8b4f 753b
000000e0: 242d 3c3d f44e 1ebe 3986 ad3d e9bf 47be
000000f0: 74b9 283e 59c4 983d e20c f3bc 6f14 a2bc
00000100: f473 7bbe a973 febd f04b 87bc 8ff2 abbd
00000110: 4db5 803e ba19 8b3d 3736 273e cc22 1bbd
00000120: 40d1 2cbe d1c2 6fbe 0163 4c3a a610 dcbd
00000130: 233d c3bc 3283 2b3e b264 3cbe df95 743e
00000140: 7815 60be c7ec 893e 184c 933e 39e9 24be
00000150: 71d0 90be a4b1 fcbd f3ac 1b3e ba28 483c
00000160: 06fe fbbd 37d8 8abd 3a8b 37be e5ad 34be
00000170: 5167 463e f60e 7b3e 4b9a 763e 727f 163e
00000180: 7258 233e bfd7 583e 051c 91be 5d1d 2a3c
00000190: 1a8f 8ebe ffcb 85be d6c3 28be 6638 533e
000001a0: 5180 823e 09b5 63be 0b32 8e3e 566f 1ebe
000001b0: 4fcd 053e e3f5 1c3d 8eda 2cbe 95d0 b3bd
000001c0: 5d4e 89bc 2cdc d1bc ec57 393d 776e 083e
000001d0: b1d2 9a3c 6478 56be b0af 713e 6840 83be
000001e0: fd6b 3f3b fc13 603e 0479 81be 7cfb 5abe
000001f0: c4ff ffbc 4914 35be 1219 533e 2506 9e3d
00000200: d4cc cebd ef31 0bbe bdfa 8fbc b6cf b2bd
00000210: 38f2 e3bd 9bee 6b3e 282d 3ebe 4522 b3bd
00000220: 7f98 7c3e 0276 78be a5ac 87bd 4f88 743e
00000230: f098 63bd b86d 113e 351c eb3d 68dc 19be
00000240: 9f75 72be 4e20 d6bd 8e64 04be 2320 903e
00000250: 4e6b c23d fe90 14be 1a86 533e d1ad 3bbd
00000260: fa92 7ebe ee01 46bd 0d74 153b 2f06 fcbd
00000270: 5124 83be 41b2 8fbe ad62 853e 3df8 edbd
00000280: e102 04be aea4 8b3a bc78 383d a564 533e
00000290: 38bd 1d3d 3718 8f3e 3284 603e aff5 dabd
000002a0: 12c8 913e ab38 8ebd de3d 67be 42df ec3d
000002b0: 0c58 e2bd f806 64be fb9f 7c3e dce0 f43b
000002c0: b92c 343e 90dd 433e 624e 83be 8562 79be
000002d0: e492 883e 4025 033e 8af5 f33d bb53 97be
000002e0: a227 12be 9d83 2bbd ce42 393e 37d0 213e
000002f0: 3074 b23c f4c5 74be 8f11 dbbc b4a4 8b3d
00000300: 4994 79be c156 13bd 295e 533e 5276 963e
00000310: 0666 913e d273 9c3d 8f2a 0ebd 1950 e5bd
00000320: d379 843e 163e 30be 0f8b 2abe ead2 e4bc
00000330: 441a 6d3e 4853 e2bd 82c5 853e adf3 17be
00000340: f755 f0bd 9920 833e ed62 febd 39e8 813e
00000350: bcd3 20bd df3e 1dbe d6fa 84be b1e0 233e
00000360: d84a 8a3e 2876 1f3e 5631 cb3d c4e0 763e
00000370: 1976 e73c d056 063e 76d6 12be 734b 60be
00000380: c64a b13d 1945 6fbe d804 f5bd 2de5 23be
00000390: 10b8 223e 3cbd 8a3e 5502 28be ee3a 10bd
000003a0: 1b36 153e 962c 573e 59ed 12be ae2a 6b3b
000003b0: c68c 03be 2c3f 813c b16b 7dbe 07ed 393e
000003c0: 9fc4 4ebe 91e9 83be e9b1 8ebe 2341 ea3d
000003d0: d89f 61be 2d7f 47be d72a 60be 18ca 7a3e
000003e0: d56b 633e cdb4 4f3e e244 eb3d ec68 ef3d
000003f0: 19fc 35be c07b cfbd 340c 1f3e 6fd9 be3d

fc2._model.0.bias f4 [20]
-2.88641e-05 -0.000917621 0.0 0.00015200533 0.0006554714 0.0 0.0014088623 1.1570866e-05
-0.00082198414 0.0 -0.0012300621 0.0009163854 9.7717144e-05 0.0011575922 0.0 5.0198447e-13
-7.847362e-05 0.0 -0.00020279289 -2.0806887e-10
00000000: 2f21 f2b7 818c 70ba 0000 0000 9f63 1f39
00000010: f1d3 2b3a 0000 0000 93a9 b83a 7e20 4237
00000020: 6c7a 57ba 0000 0000 093a a1ba 9539 703a
00000030: 7eed cc38 59ba 973a 0000 0000 cb4b 0d2b
00000040: 3492 a4b8 0000 0000 cda4 54b9 2ec6 64af

fc3._model.0.weight f4 [64, 48]
0.02497291 0.030255182 0.109899305 0.062302243 0.21746504 0.17748195 -0.16072321 -0.030905785
-0.13433568 -0.09722192 0.056025878 0.015502354 -0.090296075 -0.08320218 0.046344154 -0.15013126
0.11732352 0.00088588544 0.05252911 -0.18751092 0.07759324 0.16180584 -0.07225119 0.17790024
-0.0044358424 -0.15970127 0.16120672 -0.09110536 0.047945227 -0.13548854 -0.119510934 0.16483301
0.14067575 0.18266341 0.074541986 0.022101011 -0.07723186 0.13174857 -0.12402376 0.06712794
-0.19027984 0.19745924 -0.116550244 0.1813617 0.2178191 0.09604284 -0.21991158 -0.22492367
-0.12446735 -0.12587397 -0.16252473 0.20015182 0.1429987 0.052071963 0.16775262 -0.06964028
0.060679078 -0.19079682 0.09889978 -0.11038457 -0.21972498 -0.2342837 -0.18217203 0.15757099
0.0063472465 0.04396374 -0.033108138 -0.16051759 -0.099308886 0.032422572 0.11031078 -0.095297046
0.20765342 -0.08000816 0.19171968 0.23765765 0.09403391 -0.14798701 0.15180519 -0.0024896301
0.19060974 -0.047544196 -0.108759984 0.083757594 -0.16956486 0.18730232 -0.18243581 -0.12968272
-0.17142321 -0.21162842 -0.11979255 -0.027348243 0.100414276 -0.10991918 -0.21552658 -0.0065230615
0.02093575 0.2049316 0.10511542 0.074027255 -0.09034808 0.15392005 -0.21701011 -0.08987031
0.17111287 -0.15527697 -0.14396869 -0.09732899 -0.040264405 0.06381483 0.044850722 0.07428961
0.12563139 0.194735 -0.0072155246 -0.1686974 0.037752297 -0.074326895 -0.076104276 -0.096035056
-0.0053672884 0.21975769 0.02365686 0.13647807 -0.18683937 0.22331746 0.06527526 0.16503471
-0.018566465 -0.22504915 -0.19720529 0.16199735 -0.1601438 0.060211204 -0.055016372 0.14175814
0.19043589 -0.13560739 -0.21455175 -0.09541132 -0.19012019 -0.06788871 0.12929095 -0.023349788
-0.12207677 -0.1284278 -0.16599025 0.033181358 -0.06725857 0.20108432 -0.05652225 0.13213168
0.16540578 -0.2103806 0.11005559 0.05793802 -0.027327128 -0.0544705 -0.22915374 0.11231926
0.14256841 -0.11326721 -0.008457034 -0.17606285 -0.12604098 -0.18459313 0.16536695 0.100168
0.048453517 -0.08386258 -0.21407877 0.014171826 0.023414422 -0.21719076 0.18488187 -0.19388182
0.016251156 0.09363878 0.06136739 -0.1676513 0.10799172 0.12664804 -0.054526348 -0.19021317
0.12031932 0.06913122 -0.15592878 0.019909307 0.06461261 0.0327472 0.18431328 -0.060013898
-0.05997133 0.18373884 -0.13360344 0.14194627 -0.11985172 0.08408405 -0.2090716 0.008013176
0.026674245 0.21807945 0.07388986 -0.20574051 0.044581354 -0.030900976 -0.17848435 -0.120164976
0.102287985 0.09562978 -0.15564951 0.17700133 -0.12518682 -0.20578012 -0.14766338 0.023994299
0.08028213 -0.23778832 0.07921464 0.17141426 0.20042397 0.060707778 -0.058548883 -0.112738565
-0.18045224 0.056028493 0.03198348 0.00576931 0.07908031 -0.008819975 0.16731736 0.10954348
-0.22904487 0.004976368 -0.028591527 0.13133961 -0.14350034 0.038867943 -0.11436856 0.14076567
-0.049782533 0.11690015 0.19228876 0.17644376 -0.1029957 0.22589982 0.07489461 0.14703466
-0.17169704 -0.13916238 0.23040959 0.18873069 -0.09802867 0.13969897 0.21180032 -0.08733065
00000000: fd93 cc3c b7d9 f73c e312 e13d a330 7f3d
00000010: 28af 5e3e d4bd 353e a094 24be 212e fdbc
00000020: 4b8f 09be 491c c7bd 647b 653d 96fd 7d3c
00000030: 26ed b8bd e865 aabd 5ed3 3d3d 02bc 19be
00000040: 5047 f03d c43a 683a c428 573d dd02 40be
00000050: 34e9 9e3d 6eb0 253e 6ff8 93bd 7b2b 363e
00000060: 8b5a 91bb bb88 23be 6013 253e 7295 babd
00000070: 3762 443d 82bd 0abe 26c2 f4bd fcc9 283e
00000080: 4e0d 103e 1e0c 3b3e 78a9 983d 2e0d b53c
00000090: bd2b 9ebd 19e9 063e 2b00 febd 607a 893d
000000a0: b8d8 42be c132 4a3e e5b1 eebd e2b6 393e
000000b0: f80b 5f3e 1cb2 c43d 8030 61be 6452 66be
000000c0: bde8 febd 1be5 00be e26c 26be 99f4 4c3e
000000d0: 406e 123e 6949 553d 58c7 2b3e 909f 8ebd
000000e0: a08a 783d 3e60 43be f88b ca3d 4e11 e2bd
000000f0: 96ff 60be 11e8 6fbe 4e8b 3abe 4a5a 213e
00000100: 90fc cf3b 5313 343d 669c 07bd b95e 24be
00000110: 7562 cbbd 88cd 043d 9eea e13d 192b c3bd
00000120: 19a3 543e 51db a3bd 2a52 443e 875c 733e
00000130: da94 c03d e889 17be d272 1b3e 1029 23bb
00000140: 332f 433e b4bd 42bd 8ebd debd 1a89 ab3d
00000150: 69a2 2dbe 2ecc 3f3e 74d0 3abe 8ccb 04be
00000160: 9189 2fbe 1fb5 58be cc55 f5bd 6c09 e0bc
00000170: 00a6 cd3d 4f1d e1bd 00b3 5cbe 68bf d5bb
00000180: 7381 ab3c 97d9 513e c146 d73d 9a9b 973d
00000190: 6a08 b9bd 389d 1d3e e637 5ebe ed0d b8bd
000001a0: 3638 2f3e ed00 1fbe 876c 13be 6c54 c7bd
000001b0: 4aec 24bd 59b1 823d 64b5 373d 2725 983d
000001c0: 84a5 003e 9d68 473e 3570 ecbb 03bf 2cbe
000001d0: 27a2 1a3d b338 98bd 8fdc 9bbd 07ae c4bd
000001e0: 14e0 afbb 2908 613e 08cc c13c e8c0 0b3e
000001f0: d252 3fbe 55ad 643e 09af 853d dcfe 283e
00000200: b318 98bc 4973 66be 2ff0 49be a2e2 253e
00000210: bcfc 23be 06a0 763d d958 61bd 0c29 113e
00000220: a001 433e aadc 0abe 74b3 5bbe 0367 c3bd
00000230: deae 42be 3c09 8bbd d964 043e 0e48 bfbc
00000240: 6303 fabd 9482 03be 59f9 29be 2de9 073d
00000250: dcbe 89bd 0ce9 4d3e e083 67bd 874d 073e
00000260: 2260 293e 036e 57be d364 e13d 6b50 6d3d
00000270: 24dd dfbc 761c 5fbd 47a7 6abe a407 e63d
00000280: 74fd 113e a4f8 e7bd 5f8f 0abc d249 34be
00000290: e310 01be fb05 3dbe f455 293e e124 cd3d
000002a0: 3277 463d 25c0 abbd 7737 5bbe f230 683c
000002b0: 9acf bf3c 4167 5ebe ac51 3d3e f588 46be
000002c0: 2521 853c b0c5 bf3d 5f5c 7b3d c8ac 2bbe
000002d0: c32a dd3d 06b0 013e 0557 5fbd 3ec7 42be
000002e0: fa69 f63d ab94 8d3d cbab 1fbe d818 a33c
000002f0: 9e53 843d ee21 063d 9fbc 3c3e 22d1 75bd
00000300: 7fa4 75bd 0926 3c3e 57cf 08be 5d5a 113e
00000310: d274 f5bd 4234 ac3d de16 56be b249 033c
00000320: f283 da3c 3850 5f3e 9153 973d a4ad 52be
00000330: f09a 363d 0b24 fdbc 9ac4 36be 0e19 f6bd
00000340: 5d7c d13d 8cd9 c33d 9662 1fbe d63f 353e
00000350: f930 00be 06b8 52be 1235 17be b18f c43c
00000360: f56a a43d c87e 73be 493b a23d 3887 2f3e
00000370: f13b 4d3e b8a8 783d f4d0 6fbd 7ae3 e6bd
00000380: 79c8 38be 227e 653d 1c01 033d 7b0c bd3b
00000390: dcf4 a13d a881 10bc 3e55 2b3e 5558 e03d
000003a0: bd8a 6abe cd10 a33b c738 eabc e47d 063e
000003b0: c1f1 12be fe33 1f3d 103a eabd e024 103e
000003c0: c5e8 4bbd 5969 ef3d 58e7 443e acad 343e
000003d0: 69ef d2bd 4852 673e 5862 993d 4190 163e
000003e0: 59d1 2fbe 9580 0ebe 7ef0 6b3e 9e42 413e
000003f0: 41c3 c8bd 3f0d 0f3e 2fe2 583e 69da b2bd

fc3._model.0.bias f4 [64]
-0.0039604567 0.004078222 -0.0040841545 0.004072913 -0.0040693628 0.004069836 -0.0040826653 -0.0040058186
0.004085188 0.0040847934 0.0040854597 0.004095144 0.0040648733 -0.0040692473 0.0040789437 -0.0040750015
-0.004072804 -0.004088876 0.0041777124 0.004076293 0.0040757903 -0.0040815533 0.0041291956 0.004055904
-0.004088998 -0.0040705353 0.0040862006 -0.0041036624 0.0040759235 0.004051359 0.0040854774 0.004077359
0.004106763 -0.0040752213 0.004072008 -0.0040716715 0.0040735966 -0.0040761014 0.0040745474 0.0040742587
0.004097656 0.004083996 -0.004075949 0.0040770415 -0.0040985537 0.0040863617 0.0040696105 0.004079319
-0.004075487 0.0040731295 0.004076072 0.00408735 -0.004084904 0.0040851883 0.0040721106 0.0040293187
-0.004087155 -0.0040756227 -0.004078373 -0.0040936694 -0.004073997 0.0040621683 0.0040754518 -0.004076484
00000000: b8c6 81bb 9ba2 853b 5fd4 85bb 1276 853b
00000010: 4a58 85bb 425c 853b e1c7 85bb 3e43 83bb
00000020: 0add 853b bbd9 853b 52df 853b 8f30 863b
00000030: a132 853b 5257 85bb a9a8 853b 9787 85bb
00000040: 2875 85bb fafb 85bb 31e5 883b 6d92 853b
00000050: 358e 853b 8dbe 85bb 344e 873b 64e7 843b
00000060: 00fd 85bb 2062 85bb 89e5 853b 0478 86bb
00000070: 538f 853b 43c1 843b 78df 853b 5e9b 853b
00000080: 0692 863b 6f89 85bb 7b6e 853b a86b 85bb
00000090: ce7b 853b d190 85bb c883 853b 5c81 853b
000000a0: a145 863b 0bd3 853b 8a8f 85bb b498 853b
000000b0: 294d 86bb e3e6 853b 5e5a 853b cfab 853b
000000c0: aa8b 85bb e377 853b 9290 853b 2def 853b
000000d0: a9da 85bb 0bdd 853b 576f 853b 6008 843b
000000e0: 8bed 85bb cd8c 85bb dfa3 85bb 3024 86bb
000000f0: 2a7f 85bb f01b 853b 5e8b 853b 0794 85bb

fc4._model.0.weight f4 [1, 64]
-0.0075111007 0.30511454 -0.24868017 0.15533416 -0.12447505 0.10613113 -0.13426362 -0.016223809
0.12920067 0.18141043 0.25645247 0.068040356 0.11167541 -0.15064791 0.20408012 -0.20221655
-0.2408724 -0.19133756 0.009307049 0.26378608 0.15557574 -0.19785368 0.034424823 0.064872
-0.17070483 -0.15256755 0.22742511 -0.050471153 0.2271142 0.0683473 0.306082 0.1468706
0.062245887 -0.25399634 0.1916703 -0.15349716 0.2659496 -0.21242635 0.2465375 0.20540215
0.043332323 0.14475177 -0.15490277 0.2022407 -0.032904796 0.16213633 0.14970326 0.23045786
-0.29247603 0.15804733 0.28986335 0.24487886 -0.26172304 0.2336337 0.19800219 0.035541706
-0.23829113 -0.16959292 -0.2979199 -0.1335902 -0.16198528 0.08813033 0.24363331 -0.27774435
00000000: ae1f f6bb f937 9c3e 04a6 7ebe eb0f 1f3e
00000010: c6ec febd 475b d93d 677c 09be cbe7 84bc
00000020: 2e4d 043e a8c3 393e bd4d 833e be58 8b3d
00000030: 14b6 e43d 7243 1abe 61fa 503e db11 4fbe
00000040: 41a7 76be feed 43be 987c 183c f80e 873e
00000050: 3f4f 1f3e 289a 4abe 0b01 0d3d 9cdb 843d
00000060: 3fcd 2ebe ab3a 1cbe 21e2 683e d7ba 4ebd
00000070: a090 683e abf9 8b3d c8b6 9c3e 3f65 163e
00000080: 8bf5 7e3d cf0b 82be 3845 443e 5c2e 1dbe
00000090: 8c2a 883e 4b86 59be 5474 7c3e f154 523e
000000a0: 3c7d 313d cf39 143e d59e 1ebe 3018 4f3e
000000b0: 2ec7 06bd 1107 263e d04b 193e 25fd 6b3e
000000c0: 6bbf 95be 29d7 213e f868 943e 86c1 7a3e
000000d0: 9000 86be ac3d 6f3e 16c1 4a3e 2e94 113d
000000e0: 9702 74be c4a9 2dbe f588 98be dfcb 08be
000000f0: 78df 25be ad7d b43d 037b 793e 8234 8ebe
