example/cloudManufacturing_network/rl/phase/ckpts/policy-model-weight-array.global-step-16200.pth (torch, 33911 bytes, 7 tensors)

fc1._model.0.weight f4 [24, 141]
000000 db fe 18 3e ba ac 0d be c1 a2 1a 3e 67 8e c0 bd
       0.1494097 -0.13835421 0.15101148 -0.09402161
000010 64 20 29 3d 6b 30 3d 3e ab 64 36 3e cb 6e 81 bc
       0.041290656 0.18475501 0.1781184 -0.0157999
000020 cd e5 43 3d 81 57 3d 3d e8 a9 35 be 7f a8 73 3c
       0.047826577 0.04622603 -0.17740595 0.014871716
000030 63 78 21 be 43 a7 3d 3e 64 7a e7 bd 38 57 12 3e
       -0.1576858 0.18520837 -0.11302641 0.14291084
000040 db f1 c7 bd 7e 84 81 3d 91 42 27 3d ef cb f4 3d
       -0.09762927 0.06324099 0.040834967 0.1195296
000050 7c 58 53 bd 37 bf f4 bd 8d 51 14 3e c7 dc 5f bc
       -0.051598057 -0.11950534 0.14484234 -0.013663477
000060 8e 87 45 3e be 42 91 bd 68 86 3a 3e 43 1d 89 bb
       0.19289991 -0.07092808 0.18215334 -0.0041843965
000070 c7 51 38 3e 5c 13 ff 3d 46 32 d3 3d 50 6f 7d bd
       0.17999946 0.124548644 0.10312323 -0.061873734
000080 8e 09 f1 3d d1 e9 16 3e c2 c7 31 3e ae d1 c6 3d
       0.117694005 0.14737631 0.17361358 0.09707962
000090 fc 2a 01 be c1 df 20 3e f6 4c 39 3e ae e0 32 be
       -0.12614053 0.15710355 0.18095765 -0.17468521
0000a0 af eb 60 bd 4c 67 0f be 75 9c 0e 3d 9f 62 3c be
       -0.054912265 -0.14004248 0.034817178 -0.18396996
0000b0 dd 72 07 3e f9 83 36 3b 87 1b a9 bd db 3e c6 3d
       0.1322741 0.0027849658 -0.082572035 0.096799575
0000c0 ff 1a 0a bc f3 45 13 3d 8b ee be bc cd ee 29 bd
       -0.008429288 0.03595538 -0.023307106 -0.041487504
0000d0 4b a7 25 3e a2 a3 06 3e bb 0b bd 3d d1 f8 df bd
       0.16177098 0.13148358 0.09230753 -0.1093613
0000e0 82 75 14 be 7e e5 18 be b1 e1 03 3e 08 33 0e be
       -0.1449795 -0.14931294 0.12879063 -0.13886654
0000f0 bc 96 a7 3c 26 86 1b 3c 2d e3 00 3e ad fc 02 3e
       0.020457618 0.009492433 0.1258666 0.127917
000100 ca f3 1e 3e ee 15 01 3e bb 85 3f 3e 61 1b 0a be
       0.15522686 0.12606022 0.18703358 -0.13487007
000110 0a 25 2b 39 e4 48 9a bd 8a 04 62 3d 27 4e d2 3b
       0.00016321629 -0.07533434 0.05518011 0.006418008
000120 cd 31 01 3d 05 03 db 3d 85 96 7a 3d 12 2e d9 bc
       0.031541634 0.10693935 0.061178703 -0.026511226
000130 cd 20 48 bd 23 62 29 3e 3e ac e3 3a fb 2b 1f 3d
       -0.048859406 0.16541342 0.0017370058 0.038860302
000140 81 3b 0d 3e 40 3c 2e 3e b0 bd 01 3e e4 88 1d be
       0.1379223 0.17015171 0.12670016 -0.15384251
000150 58 db 15 3e a0 cc a2 bd 93 46 28 3d 10 c4 86 bd
       0.14634454 -0.07949185 0.04108293 -0.06580365
000160 af 36 e3 39 ef 20 08 bd 16 e5 cb 3d e2 73 c0 bd
       0.00043337556 -0.033234533 0.09955804 -0.09397103
000170 e6 97 40 be f3 fd 3d be c7 9a 37 3e 1a b7 c6 bd
       -0.18807945 -0.18553905 0.17930137 -0.097028926
000180 87 7d 50 3d ff 6d 41 be 2b 04 11 3e d8 37 a1 bd
       0.050900962 -0.18889616 0.14161746 -0.078719795
000190 3d 12 64 bd 28 17 2d be 78 64 12 be e0 87 81 3d
       -0.055681456 -0.16903365 -0.14296138 0.06324744
0001a0 dc 81 d6 3d d6 53 3c 3e 85 df 03 3e 83 69 03 3e
       0.104739875 0.18391356 0.12878235 0.12833218
0001b0 ab ff b8 bc 3c 0f aa bd e2 e4 35 be 2b cc 8d bd
       -0.02258285 -0.08303687 -0.17763093 -0.069237076
0001c0 59 ae cc 3d 7a 55 78 bd 8f d7 21 3e 80 37 eb 3c
       0.09994192 -0.06062839 0.15804885 0.028712988
0001d0 11 39 16 be 05 d9 39 3d c0 70 35 3e d4 c7 fa 3d
       -0.14670207 0.04537298 0.17718792 0.122451454
0001e0 cd 31 f5 3d c7 3d 14 be 27 8d 1f 3e e4 e5 aa 3d
       0.11972389 -0.14476691 0.15581189 0.083446294
0001f0 db 0d 47 bd 43 cd 47 bc ac 15 14 3a 6c 31 81 3d
       -0.048597198 -0.012194934 0.00056489813 0.063082546
000200 1c d9 d9 3d 04 53 a3 bd b9 ff 0a 3e d2 a4 33 3e
       0.106371135 -0.07974818 0.13574113 0.17543343
000210 9b 6f 60 3d bc 09 6b bd 87 8d 57 3d e1 f0 a7 bd
       0.054793935 -0.05738233 0.052625205 -0.08200241
000220 6d 4e 3c bd b8 04 84 bc 1c 7a a9 bd 55 bb c1 bd
       -0.04597323 -0.016115531 -0.08275244 -0.09459559
000230 af ac d0 bd 4e 1b d7 bd df 8d 37 3d 20 89 83 bd
       -0.10189187 -0.10503255 0.044813033 -0.06422639
000240 45 c9 18 3e 1c 65 d3 3d d7 79 24 be 4d 41 32 be
       0.14920528 0.103220195 -0.16062103 -0.17407723
000250 c8 41 be 3d 90 92 1c bd cc 38 d3 bc d4 be 09 3d
       0.092898905 -0.03822571 -0.025783919 0.033629254
000260 64 2b 11 be 3d b3 fe 3d d5 91 37 be ae 6d ec bd
       -0.14176708 0.12436531 -0.17926724 -0.11544357
000270 33 fd 19 be 1c 4a 36 be 38 ae 2c 3c d3 fe 95 3d
       -0.15037994 -0.17801708 0.010539584 0.073239945
000280 da 44 21 be c6 e1 75 bd eb f7 05 be b3 0f 00 3c
       -0.15748921 -0.060029767 -0.13082854 0.007816243
000290 37 22 32 3e e2 0a 5a 3d f3 46 10 3e 54 cf 36 3e
       0.17395864 0.053233035 0.14089565 0.17852527
0002a0 f8 ef 40 3d f5 6b 86 3d 77 ee 82 bd 6b 1c 63 bd
       0.047103852 0.0656356 -0.0639314 -0.055447023
0002b0 f2 ae 27 be 97 aa 0e 3c 2e 7b 43 3d 1d f0 e0 bc
       -0.1637533 0.008707664 0.047724895 -0.027458245
0002c0 b2 dd 47 bd ec b3 93 3c ab 0e eb bd 5a 7f 19 3e
       -0.04879541 0.01803013 -0.11477407 0.14989987
0002d0 d3 e4 22 3e 83 81 53 3d 8a b3 04 3e 12 b5 42 be
       0.15907602 0.051637184 0.12959114 -0.19014385
0002e0 cd b4 a5 bc 77 3c 87 3d 2a 59 fe bd e1 81 84 3b
       -0.020227814 0.0660333 -0.124193504 0.004043803
0002f0 7d ea 15 be f1 55 d8 bd 2b c2 2e bd 70 8c 0b bd
       -0.14640231 -0.10563267 -0.04266564 -0.03406948
000300 11 03 f8 bd 37 04 04 3c 04 10 96 3c 63 29 82 bc
       -0.1210996 0.0080576455 0.018318184 -0.015888875
000310 cf 74 a4 bd bc 0c 22 3e b7 47 17 3e d4 d1 0a 3e
       -0.08030092 0.1582517 0.14773451 0.13556606
000320 06 be d0 bd 86 b4 e9 3c 0f 4c c8 3d 35 e6 ec bd
       -0.10192494 0.028528463 0.09780132 -0.11567346
000330 a2 a4 4a bd 0e 0f 7b bb 3b de 24 3e 55 94 e2 3d
       -0.049473412 -0.0038308534 0.16100399 0.11063448
000340 f3 30 10 3e 36 41 12 be a5 13 17 be 2c b7 76 bd
       0.14081173 -0.14282688 -0.14753588 -0.06023328
000350 5c ee 37 3e 68 4d 59 3c 97 3d 09 be d0 30 fd 3d
       0.1796202 0.013263084 -0.13402401 0.12362826
000360 d4 ad 97 bd 6c 21 bc bd 9e 7c c0 bc d5 99 2c 3e
       -0.07406202 -0.09186062 -0.023496922 0.16855557
000370 33 52 2d be f0 a1 db bd ec ad 2a be d7 3f e5 bd
       -0.16925888 -0.107242465 -0.16667908 -0.11193817
000380 55 c7 09 bc 6d 94 71 bd 02 d5 d1 bd 22 6c 0a bd
       -0.008409341 -0.05897944 -0.10245706 -0.03379453
000390 78 ca b1 3d 3e 96 7a 3d ae 04 c0 3c d1 4a c2 bd
       0.08681196 0.06117844 0.023439731 -0.09486926
0003a0 f7 95 b7 3c fc 32 e1 3d 07 a5 45 bc bf 29 1b 3e
       0.022410376 0.109960526 -0.012063271 0.15152644
0003b0 e7 6c 37 3e 90 d1 ea 3c 82 f1 a4 bd c4 28 43 be
       0.17912637 0.02866438 -0.080538765 -0.1905852
0003c0 cc e6 3e 3d 00 fa e4 bd a3 b6 2b 3e bf c5 2f 3e
       0.046606824 -0.11180496 0.16768889 0.17165278
0003d0 75 e8 82 3c eb f1 72 3c 2d 20 3e 3e e1 85 a8 bd
       0.015979985 0.014828186 0.18566962 -0.082286604
0003e0 1b 0f b2 bd 05 33 a2 3d 63 c6 d1 bd 36 55 c7 bd
       -0.086942874 0.079198875 -0.102429174 -0.097330496
0003f0 42 a5 09 3e eb d1 ce bd 36 c7 32 be 5f 8a 06 3e
       0.13441947 -0.100986324 -0.17458805 0.13138722

fc1._model.0.bias f4 [24]
000000 54 46 5e bb 6b 30 bc ba a4 a0 9d 3a 8c b6 80 ba
       -0.003391643 -0.0014357691 0.0012026024 -0.0009820028
000010 a2 b4 0a bb de 2c 70 ba ef 5c f3 ba 7c 67 9d ba
       -0.0021164794 -0.0009161959 -0.0018567125 -0.001200899
000020 66 ed 91 ba c2 52 11 bb cc 63 65 ba 78 fd 64 ba
       -0.0011133372 -0.0022174572 -0.00087505276 -0.00087352796
000030 eb 42 d2 3a c6 c4 91 3a 38 ec d3 b9 56 ce 02 bb
       0.0016041672 0.0011121265 -0.00040421053 -0.0019959412
000040 e4 f8 1f 3a 65 2a 8c ba 19 5e b1 b7 0d 6a 9f ba
       0.0006102456 -0.0010693787 -2.1143862e-05 -0.0012162343
000050 c1 5f df ba ad df 27 3b 5a 87 1d bb bf 77 8b 3a
       -0.0017042087 0.00256155 -0.0024036975 0.0010640546

fc2._model.0.weight f4 [20, 48]
000000 29 18 83 be 48 bd f4 bd 03 c2 d1 bc e1 2b 96 be
       -0.2560437 -0.11950165 -0.025605207 -0.29330352
000010 77 e8 24 3d 0f 6b 3b be 8c e8 c2 bd 3d 08 f6 3d
       0.04026076 -0.18302558 -0.09517011 0.1201329
000020 04 54 25 3e 22 68 55 3e ea 7b f7 3d 39 da 63 be
       0.1614533 0.20840505 0.120841816 -0.22251214
000030 84 33 31 3d 76 cb 39 3e 80 d0 0b 3e bc 54 86 bc
       0.04326202 0.1814402 0.13653755 -0.016397826
000040 a8 15 3c 3d 08 0f 50 bd 0a 8f 5a 3e 6f 17 d2 3c
       0.04591909 -0.050795585 0.21343628 0.02564594
000050 b9 ed 6e be e2 a1 81 be c7 90 73 be be 91 cf 3c
       -0.23332871 -0.2531882 -0.23785697 0.02533805
000060 9a 4d 35 be da 71 71 3d e4 f0 57 be d3 9c 16 3e
       -0.17705384 0.058946468 -0.21087986 0.14708261
000070 db e1 95 3e 93 6b 79 be f4 c6 a7 39 f2 91 83 3e
       0.29273877 -0.24357443 0.00032000954 0.25697285
000080 5d b1 66 3d ae ba 78 be ae 72 95 3d 1f 12 4f 3e
       0.05632149 -0.24289963 0.07297264 0.20221756
000090 02 23 64 3e 82 d8 47 3e d4 0c 4e 3e 41 db 6e 3e
       0.2227898 0.19516185 0.20122081 0.23325826
0000a0 22 bf 6e be 88 da 52 be e8 bf 0c 3e 4a 16 50 be
       -0.23315099 -0.20591176 0.13745081 -0.20321003
0000b0 7b 25 74 be fa 8b fa 3d 84 77 b5 3d ad 8a 90 be
       -0.23842423 0.1223373 0.088606864 -0.282308
0000c0 fb c2 26 3e c3 19 ff bd 7c f2 8d be 70 42 8b bd
       0.16285317 -0.124560855 -0.27724063 -0.06799781
0000d0 fa 76 d0 bb 2d 43 6e be af 42 de 3d 01 4c 99 3b
       -0.0063618394 -0.23267813 0.10852563 0.00467825
0000e0 9d 58 38 3d dc 59 1d be df 6f af 3d 0a b5 48 be
       0.045006383 -0.1536631 0.085662596 -0.19600311
0000f0 5a c4 27 3e 95 ae 9a 3d d0 63 eb bc 45 bd a9 bc
       0.16383496 0.0755283 -0.028734118 -0.020720134
000100 d4 7e 7a be 67 89 fc bd d2 f4 8e bc 50 08 aa bd
       -0.24462444 -0.12330895 -0.017450724 -0.08302367
000110 df 2f 81 3e 78 2f 89 3d 55 2b 28 3e 63 4e 17 bd
       0.25231835 0.06698507 0.1642278 -0.03693999
000120 62 c6 2d be f4 b7 70 be c8 00 23 b9 ee fa dd bd
       -0.16970208 -0.23507673 -0.00015545182 -0.10838877
000130 08 94 bb bc 54 78 2c 3e 8f 6f 3b be 02 8b 75 3e
       -0.022897735 0.16842777 -0.18304275 0.23978809
000140 9b 0a 61 be 59 67 8a 3e a9 c6 93 3e 5c de 25 be
       -0.21976702 0.27031973 0.28862503 -0.16198105
000150 03 4b 91 be 5d c7 fa bd 17 a2 1c 3e 8f d6 38 3c
       -0.28377542 -0.12245057 0.15296207 0.0112816235
000160 be 13 fa bd ef ed 88 bd 5c 80 38 be c3 b8 33 be
       -0.12210797 -0.06686007 -0.18017715 -0.1755095
000170 75 5c 47 3e d3 19 7a 3e 6d 8f 77 3e 94 74 17 3e
       0.19468863 0.24423914 0.24175806 0.14790565
000180 72 58 23 3e bf d7 58 3e 05 1c 91 be 5d 1d 2a 3c
       0.15951708 0.2117605 -0.2834169 0.010382977
000190 1a 8f 8e be ff cb 85 be d6 c3 28 be 66 38 53 3e
       -0.27843553 -0.261322 -0.16480955 0.20626983
0001a0 51 80 82 3e 09 b5 63 be 0b 32 8e 3e 56 6f 1e be
       0.25488523 -0.22237028 0.27772555 -0.15472159
0001b0 4f cd 05 3e e3 f5 1c 3d 8e da 2c be 95 d0 b3 bd
       0.130666 0.038320433 -0.16880247 -0.08780018
0001c0 5d 4e 89 bc 2c dc d1 bc ec 57 39 3d 77 6e 08 3e
       -0.016761 -0.025617681 0.045249864 0.13323389
0001d0 b1 d2 9a 3c 64 78 56 be b0 af 71 3e 68 40 83 be
       0.018899294 -0.20944363 0.23602176 -0.25635076
0001e0 fd 6b 3f 3b fc 13 60 3e 04 79 81 be 7c fb 5a be
       0.0029208653 0.21882623 -0.2528764 -0.21384996
0001f0 c4 ff ff bc 49 14 35 be 12 19 53 3e 25 06 9e 3d
       -0.031249888 -0.1768352 0.20615032 0.07716016
000200 d4 cc ce bd ef 31 0b be bd fa 8f bc b6 cf b2 bd
       -0.100976616 -0.13593267 -0.017575616 -0.08731024
000210 38 f2 e3 bd 9b ee 6b 3e 28 2d 3e be 45 22 b3 bd
       -0.11130184 0.2304024 -0.18571913 -0.08746771
000220 7f 98 7c 3e 02 76 78 be a5 ac 87 bd 4f 88 74 3e
       0.24667548 -0.24263766 -0.06624726 0.23880123
000230 f0 98 63 bd b8 6d 11 3e 35 1c eb 3d 68 dc 19 be
       -0.055565774 0.1420201 0.114799894 -0.15025485
000240 eb 94 72 be 33 0f d7 bd d0 09 04 be 0e 22 90 3e
       -0.2368962 -0.10500946 -0.12894368 0.28150982
000250 df 11 c2 3d 1d 7e 13 be 58 9a 53 3e b8 1d 3b bd
       0.09476065 -0.14403577 0.20664346 -0.04568264
000260 4c e8 7d be cf fd 47 bd b8 ba 50 3b 4a 9c fc bd
       -0.24795645 -0.048826035 0.0031849574 -0.12334497
000270 10 ec 82 be 87 0f 90 be 85 4b 85 3e 98 30 f0 bd
       -0.25570726 -0.28136846 0.2603418 -0.117280185
000280 8e 8c 03 be 42 4b 64 3a 60 79 39 3d 3f a1 53 3e
       -0.12846586 0.0008708724 0.045281768 0.20666979
000290 d5 fb 1d 3d 78 69 8f 3e fd 64 5e 3e 4f 93 d9 bd
       0.038570244 0.28010154 0.21718211 -0.106238
0002a0 67 97 91 3e 46 c4 8e bd 67 e7 66 be 0b 17 ec 3d
       0.28435823 -0.0697103 -0.2254921 0.115278326
0002b0 26 b8 e2 bd fb f7 63 be a9 69 7d 3e 4f 91 f1 3b
       -0.1107028 -0.22262566 0.24747337 0.0073720585
0002c0 f0 cb 34 3e 99 20 43 3e ad 37 83 be 1e d1 79 be
       0.17655921 0.19055404 -0.25628415 -0.24396178
0002d0 08 93 88 3e e0 77 03 3e 44 62 f4 3d 4d 25 97 be
       0.26674676 0.12838697 0.11932805 -0.29520646
0002e0 36 2f 12 be a2 03 2c bd e5 45 39 3e 8a 48 21 3e
       -0.14275822 -0.041995652 0.18093069 0.15750328
0002f0 57 41 ba 3c 98 cd 74 be 6e 17 f0 bc f1 2b 8d 3d
       0.022736235 -0.23906553 -0.029308047 0.06893147
000300 75 4a 7a be 3b 2b 16 bd e7 02 54 3e dc d1 96 3e
       -0.24442466 -0.03666232 0.20704232 0.29456985
000310 f0 0c 91 3e 36 07 9b 3d 3b ab 0e bd 64 be e6 bd
       0.28330183 0.07569735 -0.034831267 -0.11266783
000320 04 20 84 3e 63 ea 30 be f2 3e 2b be 0f 1e df bc
       0.25805676 -0.17276911 -0.1672323 -0.027236013
000330 59 64 6c 3e 19 ed e0 bd a2 1c 86 3e d0 41 17 be
       0.23085155 -0.10982723 0.2619372 -0.14771199
000340 5b c5 f1 bd f4 c6 82 3e 31 cd ff bd d2 8f 81 3e
       -0.11805221 0.25542414 -0.12490309 0.2530504
000350 ac 35 1e bd ca 99 1c be c2 9f 84 be d9 2a 23 3e
       -0.038625404 -0.15293041 -0.25903136 0.15934314
000360 5b f3 89 3e 12 cb 1e 3e 11 8e cc 3d 12 92 77 3e
       0.26943478 0.15507153 0.099880345 0.24176815
000370 6d 00 e2 3c ff a7 05 3e 69 5c 13 be 46 fb 60 be
       0.027588094 0.13052367 -0.1439072 -0.21970853
000380 ca eb af 3d fe f0 6f be e0 58 f6 bd 3d 37 23 be
       0.08589895 -0.23431775 -0.1202867 -0.1593904
000390 7d 09 22 3e 7b 14 8b 3e ed 57 27 be 04 7e 0d bd
       0.15823932 0.27164063 -0.16342135 -0.034544006
0003a0 31 88 14 3e 05 80 56 3e 1e 9d 13 be 65 a0 3f 3b
       0.14505078 0.20947273 -0.14415404 0.002923989
0003b0 fd e2 02 be 1e 92 86 3c 32 bb 7c be f3 3c 39 3e
       -0.12781902 0.016427096 -0.24680784 0.18089657
0003c0 9f c4 4e be 91 e9 83 be e9 b1 8e be 23 41 ea 3d
       -0.20192192 -0.25764135 -0.2787011 0.11438205
0003d0 d8 9f 61 be 2d 7f 47 be d7 2a 60 be 18 ca 7a 3e
       -0.22033632 -0.19482107 -0.21891342 0.24491155
0003e0 d5 6b 63 3e cd b4 4f 3e e2 44 eb 3d ec 68 ef 3d
       0.22209103 0.20283814 0.11487748 0.11689934
0003f0 19 fc 35 be c0 7b cf bd 34 0c 1f 3e 6f d9 be 3d
       -0.17771949 -0.10131025 0.15531999 0.09318816

fc2._model.0.bias f4 [20]
000000 ba d5 90 b9 36 0f 8d 9b 00 00 00 00 c9 bf 79 b8
       -0.0002762506 -2.3336323e-22 0.0 -5.954484e-05
000010 7c 67 9e 39 00 00 00 00 51 39 ef 39 2b c7 b6 39
       0.0003021321 0.0 0.00045628336 0.00034862137
000020 ca db 6c 36 00 00 00 00 fa f7 a9 ba 79 e5 e2 b7
       3.5294674e-06 0.0 -0.001296758 -2.7048156e-05
000030 0e e2 4a b8 61 bb 42 3a 00 00 00 00 ac 93 a6 1e
       -4.8371083e-05 0.00074284343 0.0 1.763701e-20
000040 6d 7f a3 b8 00 00 00 00 02 46 23 3a 00 00 00 00
       -7.7961806e-05 0.0 0.00062283885 0.0

fc3._model.0.weight f4 [64, 48]
000000 f0 92 ab 3c 48 d8 fd 3c 94 16 e3 3d f2 b4 86 3d
       0.020944089 0.03098692 0.11088291 0.06577481
000010 43 8f 5c 3e 93 e8 33 3e f4 93 27 be eb 35 09 bd
       0.21539025 0.17569189 -0.16365033 -0.033498686
000020 fa 68 07 be 7a d7 c8 bd 8b 7d 5f 3d e1 2c 85 3c
       -0.13223639 -0.09806724 0.054563086 0.016256751
000030 c0 17 bf bd 33 31 ac bd 68 5a 32 3d bb f6 18 be
       -0.09330702 -0.084078215 0.04354325 -0.1493787
000040 3c 21 e8 3d 5f ae 98 bb 82 e5 5a 3d c4 f8 42 be
       0.11334464 -0.0046594585 0.053441532 -0.19040209
000050 a3 6e 9b 3d 21 48 26 3e b6 52 9c bd 78 10 36 3e
       0.07589462 0.16238452 -0.07632963 0.1777972
000060 35 27 9c bb 81 96 22 be 53 2d 27 3e d1 7e b5 bd
       -0.004765416 -0.15877725 0.16325884 -0.08862079
000070 e3 97 42 3d d6 ae 08 be b5 8c f3 bd 9c 8b 28 3e
       0.04750813 -0.13347945 -0.11892072 0.16459507
000080 27 f8 11 3e e9 db 3b 3e 68 1a 9a 3d ae 8e c0 3c
       0.14254819 0.18345608 0.07524568 0.023505535
000090 f7 4c a1 bd 94 43 05 3e 62 9f 00 be 4f 91 8a 3d
       -0.07876008 0.1301406 -0.125608 0.06765997
0000a0 f2 ee 43 be b4 ea 47 3e dc ea ee bd ec 31 3b 3e
       -0.19134119 0.19523126 -0.116658896 0.18280762
0000b0 a0 0c 5f 3e df 0d c9 3d a1 84 62 be 83 2c 67 be
       0.2178216 0.09817099 -0.22120906 -0.22575574
0000c0 f9 34 f5 bd 58 cf 01 be a8 8d 27 be 2c 84 48 3e
       -0.11972994 -0.12676752 -0.16362631 0.1958167
0000d0 39 46 15 3e d1 31 5e 3d 2a c7 2f 3e c2 61 88 bd
       0.14577569 0.054246727 0.17165819 -0.06659271
0000e0 0b e0 6e 3d 59 18 42 be a2 bb ce 3d b3 ab e3 bd
       0.058319133 -0.189546 0.10094382 -0.111167334
0000f0 14 13 5d be 82 c8 6e be be 00 37 be 64 62 20 3e
       -0.21589309 -0.23318675 -0.17871377 0.15662533
000100 c1 47 34 3c a4 3c 4e 3d fb 60 0c bd 77 90 20 be
       0.011003436 0.0503508 -0.034272175 -0.15680109
000110 d6 9b c6 bd 9b d3 01 3d 6b d6 eb 3d 5e e2 c2 bd
       -0.09697692 0.031695943 0.11515506 -0.09515832
000120 98 21 55 3e 09 4d a6 bd 67 bb 41 3e 65 0d 70 3e
       0.20813596 -0.08120162 0.18919145 0.2344261
000130 15 f9 c1 3d 5d 14 1a be 96 b6 1a 3e 65 74 11 bb
       0.09471337 -0.1504683 0.15108714 -0.002219462
000140 1f f6 40 3e ce 29 47 bd 44 8f e0 bd f6 23 a8 3d
       0.18843888 -0.048623852 -0.10964826 0.08209984
000150 8e 96 2b be 87 fc 41 3e 5c b1 38 be 43 77 05 be
       -0.16756651 0.18943988 -0.18036407 -0.13033776
000160 6f 2d 2e be 43 b3 55 be cb 31 f5 bd f9 03 f0 bc
       -0.17009519 -0.20869164 -0.11972388 -0.02929877
000170 ce d2 cd 3d c2 cd e6 bd ae 01 5b be 47 13 b2 bb
       0.100499734 -0.11269714 -0.2138736 -0.005434427
000180 17 e6 84 3c e0 c3 52 3e fb 86 d9 3d 2d 70 a0 3d
       0.016222997 0.20582533 0.106214486 0.07833896
000190 98 ad be bd 2d 67 1b 3e 6e 2e 62 be f7 45 be bd
       -0.09310454 0.15176077 -0.22088024 -0.092906885
0001a0 63 a1 31 3e 6a 45 20 be 40 7f 15 be c5 b9 c5 bd
       0.1734672 -0.1565148 -0.14599323 -0.09654573
0001b0 be 7e 34 bd a7 74 80 3d 76 9e 29 3d fc 13 9a 3d
       -0.044066183 0.0627225 0.041410886 0.07523343
0001c0 c2 ce f7 3d 1a e6 40 3e cf 8a c6 bb a9 86 30 be
       0.12099983 0.18837777 -0.0060590277 -0.17238869
0001d0 43 2b 11 3d f9 bd 96 bd 1e b8 a5 bd 11 f3 c4 bd
       0.03544165 -0.07360453 -0.08091758 -0.09616674
0001e0 96 6f bf bb 22 40 62 3e 79 65 d6 3c 7f 0a 0f 3e
       -0.0058421595 0.22094777 0.026171433 0.13968848
0001f0 6f 02 40 be 44 34 67 3e 87 26 87 3d 2e b7 28 3e
       -0.18750928 0.22578532 0.065991454 0.16476128
000200 c3 5d 86 bc d4 5a 65 be 8c 08 49 be d7 92 27 3e
       -0.016402131 -0.2239793 -0.19632167 0.16364609
000210 c6 04 26 be fb ec 6d 3d e1 c7 69 bd ce d4 11 3e
       -0.16212758 0.05808733 -0.057075385 0.14241335
000220 c3 a6 41 3e 50 d8 0d be 5f c5 5b be 09 72 bf bd
       0.18911271 -0.13852048 -0.2146201 -0.09347922
000230 82 c3 42 be 02 63 85 bd f5 b6 02 3e 4b 15 c8 bc
       -0.19019893 -0.06513025 0.12765105 -0.024424216
000240 a1 6d f0 bd 13 6c 04 be 19 17 2b be 66 d2 ec 3c
       -0.1173966 -0.12931852 -0.1670803 0.02890892
000250 93 2d 84 bd 75 1a 50 3e e3 d5 57 bd 6f 63 0a 3e
       -0.06454005 0.20322593 -0.052694213 0.13514493
000260 b5 f9 26 3e 6c 2f 56 be 5e 7b e5 3d f8 1f 6a 3d
       0.16306193 -0.20916528 0.11205171 0.057159394
000270 01 06 c1 bc cf a8 5a bd b1 29 67 be e7 1b e4 3d
       -0.023562433 -0.053383645 -0.22574498 0.111381344
000280 5c b3 16 3e 91 07 db bd bb 69 1d bc 29 8c 30 be
       0.14716858 -0.106948026 -0.009607728 -0.17240967
000290 4e 76 fd bd 85 c0 3d be 77 3c 2e 3e cb 66 cd 3d
       -0.123760805 -0.18530472 0.17015253 0.10029372
0002a0 e3 5e 48 3d dc 2a ae bd 44 c4 5d be 3e 29 34 3c
       0.048918616 -0.085042685 -0.216569 0.010996161
0002b0 ab 2a c5 3c d7 e8 60 be 54 97 3c 3e 49 42 46 be
       0.024068197 -0.21963821 0.18417102 -0.19361223
0002c0 14 fb 66 3c 39 9c bd 3d 39 c8 77 3d c5 58 2d be
       0.014097948 0.09258313 0.06049368 -0.16928394
0002d0 8f 2e e1 3d d0 d6 03 3e 6b 00 57 bd 84 72 43 be
       0.109952085 0.12874913 -0.052490633 -0.19086653
0002e0 8a 18 f9 3d 04 7a 93 3d fe 9a 1f be ca 79 93 3c
       0.121628836 0.07201007 -0.15586469 0.01800241
0002f0 9e 79 84 3d dd ef f5 3c dd 67 3e 3e 16 7b 71 bd
       0.06468509 0.030021602 0.18594308 -0.058955275
000300 e5 6b 84 bd 06 0e 3d 3e 83 b1 07 be fd b9 15 3e
       -0.06465892 0.18462381 -0.13251309 0.1462173
000310 fa 07 fb bd 9d ce a7 3d c5 03 5a be 24 d1 a3 3b
       -0.12257381 0.08193705 -0.212905 0.0049992967
000320 1d b3 ed 3c 64 11 5e 3e 68 3a 93 3d e3 e1 51 be
       0.029016072 0.21686321 0.071888745 -0.20496325
000330 04 29 27 3d d3 01 03 bd 39 43 3a be a9 2f f4 bd
       0.0408106 -0.03198416 -0.18189706 -0.11923153
000340 33 0d c8 3d 04 e3 b6 3d f1 34 1e be 21 81 31 3e
       0.097681426 0.089300185 -0.15449883 0.17334415
000350 9d 87 02 be d0 fc 51 be 29 1d 1c be ef 7b c3 3c
       -0.12747045 -0.20506597 -0.15245499 0.023862807
000360 54 75 a3 3d f7 4a 72 be 2d 56 a7 3d cf c7 32 3e
       0.07981363 -0.2366141 0.081707336 0.17459033
000370 61 8f 4c 3e ca 57 81 3d 77 ea 6c bd 1a 70 e7 bd
       0.1997657 0.063155726 -0.05784079 -0.113006786
000380 75 94 36 be e0 d1 69 3d f9 93 06 3d 40 a7 f2 3b
       -0.1783007 0.057084918 0.03285596 0.0074051917
000390 d1 ef 9d 3d 4a e9 32 bc d7 3e 29 3e 12 ac e1 3d
       0.07711757 -0.010919878 0.16527878 0.11019148
0003a0 f1 e1 6b be a4 2c 09 3b 08 c4 ea bc ed 72 08 3e
       -0.23035409 0.002093115 -0.028657928 0.1332509
0003b0 2c 06 13 be 02 63 2a 3d d9 8f ed bd 89 0d 0f 3e
       -0.14357823 0.041598327 -0.115997024 0.13970007
0003c0 32 cb 38 bd 98 9b ed 3d d6 ca 43 3e 51 55 30 3e
       -0.045115657 0.11601943 0.19120345 0.17220046
0003d0 a5 67 cd bd 1b 82 69 3e 50 2b a1 3d 67 a2 19 3e
       -0.10029534 0.22803538 0.07869589 0.15003358
0003e0 eb 34 32 be 9a 45 0d be 86 f9 6d 3e 37 78 40 3e
       -0.17402999 -0.13796082 0.23239717 0.18795858
0003f0 cd 18 c1 bd 75 27 10 3e 98 5c 5c 3e 25 c0 b4 bd
       -0.094285585 0.14077552 0.21519697 -0.08825711

fc3._model.0.bias f4 [64]
000000 55 50 86 bb 18 6b 8b 3b 26 9d 8b bb 3d 0e 8b 3b
       -0.004098932 0.00425471 -0.004260677 0.0042436407
000010 72 fa 8a bb 58 f2 8a 3b ff 74 8b bb 47 71 88 bb
       -0.004241281 0.0042403154 -0.0042558904 -0.0041638943
000020 f0 a9 8b 3b c1 a0 8b 3b a3 af 8b 3b f6 38 8c 3b
       0.0042622015 0.0042611067 0.004262881 0.004279251
000030 84 c1 8a 3b 3c f4 8a bb cb 61 8b 3b 18 48 8b bb
       0.0042344946 -0.004240541 0.004253601 -0.0042505376
000040 35 2b 8b bb 5e d1 8b bb 36 d7 8f 3b 96 44 8b 3b
       -0.004247094 -0.004266902 0.004389669 0.0042501194
000050 68 35 8b 3b 9f 8c 8b bb 78 b7 8d 3b 69 74 8a 3b
       0.00424831 -0.0042587067 0.0043248497 0.004225303
000060 f3 de 8b bb 4a 13 8b bb 54 c4 8b 3b b3 a1 8c bb
       -0.004268521 -0.004244243 0.0042653475 -0.004291737
000070 75 47 8b 3b 67 66 8a 3b 4c ab 8b 3b e6 67 8b 3b
       0.0042504617 0.004223633 0.0042623635 0.004254329
000080 d3 84 8c 3b a6 3d 8b bb e5 1d 8b 3b 16 10 8b bb
       0.004288295 -0.0042492924 0.004245507 -0.004243861
000090 a1 31 8b 3b 41 45 8b bb 31 33 8b 3b 92 48 8b 3b
       0.0042478596 -0.004250199 0.004248046 0.0042505944
0000a0 52 5e 8c 3b 7e 9a 8b 3b 3e 3d 8b bb 67 54 8b 3b
       0.004283705 0.0042603603 -0.004249244 0.004252005
0000b0 7d 55 8c bb b7 94 8b 3b 0f f9 8a 3b 95 6f 8b 3b
       -0.004282652 0.0042596716 0.004241116 0.004255245
0000c0 49 42 8b bb 09 4b 8b 3b c3 46 8b 3b b9 c7 8b 3b
       -0.004249845 0.0042508882 0.004250379 0.004265752
0000d0 20 a2 8b bb 54 a2 8b 3b ca 22 8b 3b ed 7f 89 3b
       -0.00426127 0.0042612944 0.0042460905 0.004196158
0000e0 57 c2 8b bb 0b 48 8b bb 99 58 8b bb be ee 8b bb
       -0.0042651105 -0.0042505316 -0.004252505 -0.0042704036
0000f0 f0 2d 8b bb d2 d6 8a 3b db 48 8b 3b a7 44 8b bb
       -0.0042474195 0.0042370344 0.0042506284 -0.0042501274

fc4._model.0.weight f4 [1, 64]
000000 11 51 25 bc 97 06 9b 3e 9f 95 80 be 31 18 23 3e
       -0.0100901285 0.30278465 -0.25114152 0.15927197
000010 b8 06 01 be f9 97 db 3d 30 a0 0c be e2 61 83 bc
       -0.12600219 0.10722346 -0.13732982 -0.016037885
000020 2b 06 03 3e 03 5c 39 3e e2 c9 81 3e b8 6e 87 3d
       0.12795322 0.18101506 0.25349337 0.06612915
000030 e2 01 e9 3d 73 5e 1d be b8 26 54 3e ca 73 4c be
       0.11377312 -0.15368061 0.20717895 -0.19966045
000040 50 71 77 be 66 5d 43 be 34 c1 f8 3b 72 da 86 3e
       -0.24164319 -0.19078597 0.007591391 0.26338536
000050 a5 e9 21 3e 4a 35 47 be f6 ae 03 3d 88 c5 83 3d
       0.15811785 -0.19453922 0.032149278 0.064341605
000060 f9 0f 2e be 0a 19 1b be 02 64 68 3e e2 6d 4c bd
       -0.1699828 -0.1514627 0.226944 -0.04990948
000070 fb c6 66 3e 96 bc 89 3d fa 8a 9b 3e 34 04 15 3e
       0.22536843 0.06725423 0.30379468 0.14552385
000080 bb 1f 84 3d c0 af 82 be f4 c3 46 3e f8 9b 1e be
       0.064513646 -0.25524712 0.19410688 -0.15489185
000090 42 a8 88 3e ee 22 5c be 20 98 7f 3e a6 66 50 3e
       0.2669087 -0.214977 0.24960375 0.20351657
0000a0 0f db 23 3d af a1 16 3e a5 6a 21 be 84 e0 4f 3e
       0.040003832 0.14710115 -0.15763338 0.2030049
0000b0 44 fc 0e bd 80 df 26 3e 8e 3d 1a 3e 39 86 6d 3e
       -0.034908548 0.16296196 0.15062544 0.23195733
0000c0 00 bf 96 be d3 75 22 3e 2a 03 96 3e 07 35 7c 3e
       -0.29442596 0.15865259 0.2929929 0.24629603
0000d0 22 24 87 be 86 5c 70 3e f3 76 4a 3e cc 91 11 3d
       -0.26394755 0.23472795 0.19771938 0.035539433
0000e0 09 98 73 be 20 bc 30 be 18 b0 98 be b8 cf 05 be
       -0.23788466 -0.17259264 -0.2982185 -0.1306752
0000f0 01 6c 27 be a7 7b b2 3d 53 b5 7a 3e 85 03 8e be
       -0.16349794 0.08714991 0.24483232 -0.2773706
