example/cloudManufacturing_network/rl/phase/ckpts/policy-model-weight-array.global-step-9400.pth (torch, 33901 bytes, 7 tensors)

fc1._model.0.weight f4 [24, 141]
0.15003906 -0.1375844 0.15179889 -0.092379846 0.041683864 0.18527792 0.17865552 -0.015340733
0.048596226 0.046858754 -0.17788303 0.015171259 -0.15702042 0.18550336 -0.11262102 0.14365272
-0.097247295 0.06085919 0.041131373 0.120023444 -0.05157164 -0.11900179 0.14551453 -0.0129150925
0.19099413 -0.07063116 0.18259126 -0.0032624635 0.18049543 0.12536044 0.10389561 -0.060481746
0.11825146 0.14766212 0.1735299 0.097850725 -0.12490103 0.15853456 0.17930155 -0.17360725
-0.054308113 -0.13960281 0.035584558 -0.18238354 0.1338899 0.0058875787 -0.081056595 0.09743542
-0.007934157 0.037207823 -0.0200592 -0.038298216 0.1646839 0.13402727 0.09456208 -0.107220575
-0.14207384 -0.14687444 0.13111077 -0.136963 0.022716016 0.011374167 0.1264103 0.12994063
0.15640797 0.12734826 0.18780881 -0.13393407 0.0007484064 -0.074315734 0.05638632 0.007708168
0.032814182 0.10810844 0.062116556 -0.025321085 -0.048022546 0.16648361 0.0027465539 0.039814334
0.1391869 0.17081091 0.12802857 -0.15325895 0.14689861 -0.07938622 0.04116968 -0.065551974
0.0004925628 -0.03317311 0.099788584 -0.09340122 -0.1880247 -0.1854843 0.17935611 -0.09697404
0.050955657 -0.18889616 0.14161746 -0.07866509 -0.055626716 -0.1689789 -0.14290649 0.063302435
0.104794025 0.1839683 0.1288371 0.12838693 -0.022528097 -0.08298204 -0.17757587 -0.069237076
0.09994192 -0.06062839 0.15804885 0.028712988 -0.14670207 0.04537298 0.17718792 0.122451454
0.11972389 -0.14476691 0.15581189 0.083446294 -0.048597198 -0.012194934 0.00056489813 0.063082546
0.106371135 -0.07974818 0.13574113 0.17543343 0.054793935 -0.05738233 0.052625205 -0.08200241
-0.04597323 -0.016115531 -0.08275244 -0.09459559 -0.10189187 -0.1048707 0.044875115 -0.06411685
0.1475678 0.103660636 -0.16068943 -0.17460148 0.09281148 -0.038163587 -0.025595646 0.03488785
-0.14113401 0.1248616 -0.17925261 -0.11499445 -0.15026718 -0.17754494 0.012624007 0.07366465
-0.15735559 -0.058948155 -0.13077684 0.007977633 0.17396395 0.05518781 0.14133663 0.17883924
0.04704481 0.06551902 -0.06440069 -0.055887315 -0.16470835 0.008448536 0.047570936 -0.027174858
-0.049534123 0.017037004 -0.11590045 0.15139012 0.15834022 0.05094127 0.1292992 -0.1910613
-0.022312164 0.064057335 -0.12708484 0.0022021125 -0.14767572 -0.106703594 -0.044661336 -0.036948513
-0.12405657 0.00516528 0.015721727 -0.0183515 -0.08187298 0.15541422 0.14541578 0.13345927
-0.10325139 0.026578637 0.096335426 -0.116186395 -0.051318686 -0.005228386 0.15959294 0.10962317
0.13980278 -0.14410785 -0.14865297 -0.06147605 0.17818348 0.011950013 -0.13520081 0.12252806
-0.075349316 -0.09298006 -0.024968173 0.16748768 -0.17026453 -0.10848012 -0.16749182 -0.1132553
-0.008936738 -0.05961132 -0.1025537 -0.033877667 0.086597905 0.061135672 0.023377527 -0.095102906
0.021873955 0.10990584 -0.012117994 0.15147169 0.17907153 0.028609728 -0.080538765 -0.1905852
0.046552118 -0.11185969 0.16763414 0.17159794 0.015924994 0.01477394 0.18561487 -0.08234129
-0.0869976 0.07914415 -0.102483936 -0.09738555 0.13441947 -0.100986324 -0.17458805 0.13138722
00000000: d7a3 193e ede2 0cbe 2b71 1b3e a531 bdbd
00000010: b3bc 2a3d 7fb9 3d3e 79f1 363e b357 7bbc
00000020: d60c 473d f7ee 3f3d f826 36be df90 783c
00000030: f6c9 20be 98f4 3d3e d9a5 e6bd b319 133e
00000040: 9729 c7bd 7c47 793d 5f79 283d dace f53d
00000050: c93c 53bd 36b7 f3bd c301 153e d399 53bc
00000060: f793 433e 12a7 90bd 34f9 3a3e 0ecf 55bb
00000070: cbd3 383e 7d5e 003e 39c7 d43d b5bb 77bd
00000080: d22d f23d bd34 173e d2b1 313e f665 c83d
00000090: 1ccc ffbd e256 223e d39a 373e 19c6 31be
000000a0: 2f72 5ebd 0af4 0ebe 1dc1 113d c0c2 3abe
000000b0: 6f1a 093e 97ec c03b 0001 a6bd 398c c73d
000000c0: 44fe 01bc 3b67 183d 3153 a4bc 97de 1cbd
000000d0: e5a2 283e 723e 093e c4a9 c13d 7696 dbbd
000000e0: ce7b 11be 4166 16be e741 063e 0740 0cbe
000000f0: f016 ba3c b75a 3a3c b471 013e 280f 053e
00000100: 6929 203e 9567 023e f450 403e 0326 09be
00000110: b430 443a d932 98bd 58f5 663d cd94 fc3b
00000120: 2a68 063d f567 dd3d ee6d 7e3d 2a6e cfbc
00000130: 4ab3 44bd ae7a 2a3e 87ff 333b 5b14 233d
00000140: 0387 0e3e 0ee9 2e3e ec19 033e eaef 1cbe
00000150: 976c 163e 3e95 a2bd 8aa1 283d 1d40 86bd
00000160: 541f 013a 87e0 07bd f55d cc3d 2449 bfbd
00000170: 8c89 40be 99ef 3dbe 21a9 373e 539a c6bd
00000180: e1b6 503d ff6d 41be 2b04 113e 2a1b a1bd
00000190: d7d8 63bd ce08 2dbe 1456 12be b5a4 813d
000001a0: 409e d63d 3062 3c3e dfed 033e dd77 033e
000001b0: d88c b8bc 7df2 a9bd 73d6 35be 2bcc 8dbd
000001c0: 59ae cc3d 7a55 78bd 8fd7 213e 8037 eb3c
000001d0: 1139 16be 05d9 393d c070 353e d4c7 fa3d
000001e0: cd31 f53d c73d 14be 278d 1f3e e4e5 aa3d
000001f0: db0d 47bd 43cd 47bc ac15 143a 6c31 813d
00000200: 1cd9 d93d 0453 a3bd b9ff 0a3e d2a4 333e
00000210: 9b6f 603d bc09 6bbd 878d 573d e1f0 a7bd
00000220: 6d4e 3cbd b804 84bc 1c7a a9bd 55bb c1bd
00000230: afac d0bd 73c6 d6bd f8ce 373d b24f 83bd
00000240: 031c 173e 074c d43d c58b 24be bbca 32be
00000250: f213 be3d 6c51 1cbd f6ad d1bc 90e6 0e3d
00000260: 6f85 10be 70b7 ff3d ff8d 37be 3682 ebbd
00000270: a4df 19be 57ce 35be ecd4 4e3c 7edd 963d
00000280: d321 21be 9f73 71bd 5dea 05be 9eb4 023c
00000290: 9b23 323e 9d0c 623d 8dba 103e a221 373e
000002a0: 0fb2 403d d62e 863d 82e4 83bd 19ea 64bd
000002b0: 4ea9 28be ba6b 0a3c bed9 423d cf9d debc
000002c0: 4be4 4abd 3091 8b3c 375d edbd 0306 1b3e
000002d0: f023 223e cba7 503d 0267 043e 93a5 43be
000002e0: 00c8 b6bc 7e30 833d 8722 02be 5151 103b
000002f0: 4e38 17be 6a87 dabd ceee 36bd 5357 17bd
00000300: 5f11 febd 8241 a93b daca 803c e355 96bc
00000310: 05ad a7bd e824 1f3e e0e7 143e 8ca9 083e
00000320: 7775 d3bd 71bb d93c 824b c53d 22f3 edbd
00000330: 8b33 52bd e152 abbb 556c 233e 1d82 e03d
00000340: 7628 0f3e 0291 13be 7c38 18be 50ce 7bbd
00000350: bb75 363e fdc9 433c 1572 0abe feef fa3d
00000360: be50 9abd 546c bebd 0e8a ccbc e481 2b3e
00000370: d359 2ebe d32a debd fa82 2bbe 65f2 e7bd
00000380: 656b 12bc 002b 74bd ad07 d2bd 4fc3 0abd
00000390: 3e5a b13d 6669 7a3d 3a82 bf3c 50c5 c2bd
000003a0: 0231 b33c 5016 e13d 8d8a 46bc 651b 1b3e
000003b0: 875e 373e f35e ea3c 82f1 a4bd c428 43be
000003c0: 6fad 3e3d b116 e5bd 49a8 2b3e 5fb7 2f3e
000003d0: 2275 823c 650e 723c d311 3e3e 8da2 a8bd
000003e0: cc2b b2bd 5416 a23d 19e3 d1bd 1372 c7bd
000003f0: 42a5 093e ebd1 cebd 36c7 32be 5f8a 063e

fc1._model.0.bias f4 [24]
-0.0027703852 -0.0019002678 0.0008605279 -0.0016061559 -0.002313379 -0.0014757261 -0.002206937 -0.00048963696
-0.0017475385 -0.0021884225 -0.0015076878 -0.0015328965 0.0017821396 0.00163848 -0.00079827727 -0.0022941632
0.0012852689 -0.0016066878 0.00069709145 -0.0017619784 -0.0020980171 0.0020649042 -0.0025219189 0.001154182
00000000: 5a8f 35bb 6812 f9ba 0d95 613a a685 d2ba
00000010: 0f9c 17bb 276d c1ba 42a2 10bb fb5a 00ba
00000020: a90d e5ba a36b 0fbb 9c9d c5ba 79eb c8ba
00000030: af96 e93a 44c2 d63a 7b43 51ba ac59 16bb
00000040: 7876 a83a 7f97 d2ba 04bd 363a 2ff2 e6ba
00000050: e37e 09bb 5853 073b c746 25bb ec47 973a

fc2._model.0.weight f4 [20, 48]
-0.25544906 -0.12016066 -0.024921019 -0.29377 0.039939553 -0.18266246 -0.09396772 0.1197179
0.1618227 0.20822392 0.12008614 -0.22233734 0.04261724 0.18249229 0.13621214 -0.016383532
0.045790356 -0.050782755 0.21402979 0.025201546 -0.2328055 -0.2526472 -0.23680255 0.02567936
-0.1769366 0.058663964 -0.21075518 0.14702092 0.29288518 -0.24361223 0.0009200364 0.2563725
0.05674145 -0.24270874 0.07207801 0.20200902 0.22238791 0.1957226 0.20098127 0.2334845
-0.23342746 -0.20611125 0.13829754 -0.20323491 -0.23806699 0.12233599 0.089207664 -0.28196093
0.16285317 -0.124560855 -0.27724063 -0.06799781 -0.0063618394 -0.23267813 0.10852563 0.00467825
0.045006383 -0.1536631 0.085662596 -0.19600311 0.16383496 0.0755283 -0.028734118 -0.020720134
-0.24462444 -0.12330895 -0.017450724 -0.08302367 0.25231835 0.06698507 0.1642278 -0.03693999
-0.16970208 -0.23507673 -0.00015545182 -0.10838877 -0.022897735 0.16842777 -0.18304275 0.23978809
-0.21976702 0.27031973 0.28862503 -0.16198105 -0.28377542 -0.12245057 0.15296207 0.0112816235
-0.12210797 -0.06686007 -0.18017715 -0.1755095 0.19468863 0.24423914 0.24175806 0.14790565
0.15951708 0.2117605 -0.2834169 0.010382977 -0.27843553 -0.261322 -0.16480955 0.20626983
0.25488523 -0.22237028 0.27772555 -0.15472159 0.130666 0.038320433 -0.16880247 -0.08780018
-0.016761 -0.025617681 0.045249864 0.13323389 0.018899294 -0.20944363 0.23602176 -0.25635076
0.0029208653 0.21882623 -0.2528764 -0.21384996 -0.031249888 -0.1768352 0.20615032 0.07716016
-0.100976616 -0.13593267 -0.017575616 -0.08731024 -0.11130184 0.2304024 -0.18571913 -0.08746771
0.24667548 -0.24263766 -0.06624726 0.23880123 -0.055565774 0.1420201 0.114799894 -0.15025485
-0.23663238 -0.104668744 -0.1292151 0.28154716 0.095009126 -0.14384387 0.20658253 -0.045410268
-0.24767293 -0.048494462 0.0034227592 -0.1233937 -0.2555033 -0.28160793 0.26009867 -0.11739803
-0.1282953 0.0010769949 0.04547483 0.20695749 0.038294207 0.27989894 0.2175279 -0.10621951
0.28445974 -0.06962173 -0.22562638 0.11515323 -0.1105697 -0.2225127 0.24773374 0.00750869
0.17665751 0.1907352 -0.25617263 -0.24394779 0.2667993 0.12831263 0.119239144 -0.29522836
-0.14269511 -0.04189792 0.1809451 0.15766004 0.02267224 -0.2391406 -0.028803844 0.06878601
-0.24514388 -0.037378196 0.20776157 0.2952707 0.28258273 0.07497905 -0.034119938 -0.113377705
0.2573437 -0.17348792 -0.1679482 -0.026521213 0.23013349 -0.10910749 0.2626539 -0.14699695
-0.118768625 0.2547052 -0.12561746 0.25233084 -0.037907474 -0.15221234 -0.25837076 0.1586287
0.26871324 0.15435016 0.10060169 0.24248894 0.026866607 0.12980212 -0.1432618 -0.22042972
0.08517793 -0.23503914 -0.12100805 -0.15866907 0.1575178 0.27236217 -0.16270006 -0.033822883
0.14432926 0.20875119 -0.14487529 0.0022024584 -0.12709773 0.017148353 -0.24608728 0.18017527
-0.20192192 -0.25764135 -0.2787011 0.11438205 -0.22033632 -0.19482107 -0.21891342 0.24491155
0.22209103 0.20283814 0.11487748 0.11689934 -0.17771949 -0.10131025 0.15531999 0.09318816
00000000: 38ca 82be cb16 f6bd 2a27 ccbc 0569 96be
00000010: a897 233d de0b 3bbe 2672 c0bd a92e f53d
00000020: dab4 253e a738 553e b9ef f53d 66ac 63be
00000030: 6a8f 2e3d 42df 3a3e 327b 0b3e c236 86bc
00000040: ab8e 3b3d 9401 50bd a02a 5b3e 7973 ce3c
00000050: 9164 6ebe f95a 81be 5e7c 72be 855d d23c
00000060: de2e 35be a049 703d 35d0 57be a78c 163e
00000070: 0cf5 953e 7c75 79be 992e 713a 4243 833e
00000080: b969 683d a488 78be a39d 933d 74db 4e3e
00000090: a8b9 633e 816b 483e 09ce 4d3e 9016 6f3e
000000a0: 9c07 6fbe d40e 53be df9d 0d3e d01c 50be
000000b0: d5c7 73be 4b8b fa3d 82b2 b63d 2f5d 90be
000000c0: fbc2 263e c319 ffbd 7cf2 8dbe 7042 8bbd
000000d0: fa76 d0bb 2d43 6ebe af42 de3d 014c 993b
000000e0: 9d58 383d dc59 1dbe df6f af3d 0ab5 48be
000000f0: 5ac4 273e 95ae 9a3d d063 ebbc 45bd a9bc
00000100: d47e 7abe 6789 fcbd d2f4 8ebc 5008 aabd
00000110: df2f 813e 782f 893d 552b 283e 634e 17bd
00000120: 62c6 2dbe f4b7 70be c800 23b9 eefa ddbd
00000130: 0894 bbbc 5478 2c3e 8f6f 3bbe 028b 753e
00000140: 9b0a 61be 5967 8a3e a9c6 933e 5cde 25be
00000150: 034b 91be 5dc7 fabd 17a2 1c3e 8fd6 383c
00000160: be13 fabd efed 88bd 5c80 38be c3b8 33be
00000170: 755c 473e d319 7a3e 6d8f 773e 9474 173e
00000180: 7258 233e bfd7 583e 051c 91be 5d1d 2a3c
00000190: 1a8f 8ebe ffcb 85be d6c3 28be 6638 533e
000001a0: 5180 823e 09b5 63be 0b32 8e3e 566f 1ebe
000001b0: 4fcd 053e e3f5 1c3d 8eda 2cbe 95d0 b3bd
000001c0: 5d4e 89bc 2cdc d1bc ec57 393d 776e 083e
000001d0: b1d2 9a3c 6478 56be b0af 713e 6840 83be
000001e0: fd6b 3f3b fc13 603e 0479 81be 7cfb 5abe
000001f0: c4ff ffbc 4914 35be 1219 533e 2506 9e3d
00000200: d4cc cebd ef31 0bbe bdfa 8fbc b6cf b2bd
00000210: 38f2 e3bd 9bee 6b3e 282d 3ebe 4522 b3bd
00000220: 7f98 7c3e 0276 78be a5ac 87bd 4f88 743e
00000230: f098 63bd b86d 113e 351c eb3d 68dc 19be
00000240: c24f 72be 915c d6bd f750 04be f326 903e
00000250: 2594 c23d cf4b 13be 5f8a 533e 1e00 3abd
00000260: f99d 7dbe 21a2 46bd 5f50 603b d6b5 fcbd
00000270: 54d1 82be ea2e 90be a72b 853e 616e f0bd
00000280: d85f 03be f429 8d3a d143 3a3d aaec 533e
00000290: 63da 1c3d ea4e 8f3e a2bf 5e3e 9d89 d9bd
000002a0: b5a4 913e d695 8ebd 9a0a 67be 75d5 eb3d
000002b0: 5e72 e2bd 5fda 63be eaad 7d3e 750b f63b
000002c0: b5e5 343e 1750 433e 0f29 83be 73cd 79be
000002d0: eb99 883e 6364 033e a733 f43d 2c28 97be
000002e0: ab1e 12be 279d 2bbd ac49 393e a271 213e
000002f0: 22bb b93c 46e1 74be 0af6 ebbc aedf 8c3d
00000300: ff06 7bbe e119 19bd 73bf 543e b92d 973e
00000310: afae 903e 9e8e 993d 59c1 0bbd 9232 e8bd
00000320: 8ec2 833e d1a6 31be 9dfa 2bbe 0443 d9bc
00000330: 1da8 6b3e bf73 dfbd 927a 863e 5e86 16be
00000340: f73c f3bd b868 823e dda1 00be 8231 813e
00000350: de44 1bbd 8ddd 1bbe 2c49 84be 906f 223e
00000360: c894 893e f80d 1e3e 4208 ce3d 054f 783e
00000370: 5c17 dc3c d9ea 043e 39b3 12be 54b8 61be
00000380: c471 ae3d 1aae 70be 12d3 f7bd 257a 22be
00000390: 594c 213e 0e73 8b3e d89a 26be dd89 0abd
000003a0: 0dcb 133e dfc2 553e 305a 14be 1f57 103b
000003b0: e825 02be b47a 8c3c 4efe 7bbe de7f 383e
000003c0: 9fc4 4ebe 91e9 83be e9b1 8ebe 2341 ea3d
000003d0: d89f 61be 2d7f 47be d72a 60be 18ca 7a3e
000003e0: d56b 633e cdb4 4f3e e244 eb3d ec68 ef3d
000003f0: 19fc 35be c07b cfbd 340c 1f3e 6fd9 be3d

fc2._model.0.bias f4 [20]
-0.0002869736 -2.2711639e-22 0.0 3.9190876e-05 0.0 0.0 0.00042231573 0.0002664223
3.4498999e-06 0.0 -0.0012106801 -4.641335e-06 -3.9636907e-05 0.0005112492 0.0 1.5102232e-20
-6.0422553e-05 0.0 0.0007942314 0.0
00000000: f274 96b9 8f48 899b 0000 0000 e260 2438
00000010: 0000 0000 0000 0000 426a dd39 99ae 8b39
00000020: d484 6736 0000 0000 afaf 9eba c4bc 9bb6
00000030: ce3f 26b8 5a05 063a 0000 0000 f5a2 8e1e
00000040: 396e 7db8 0000 0000 f833 503a 0000 0000

fc3._model.0.weight f4 [64, 48]
0.022044396 0.03276237 0.111750856 0.06767937 0.2166723 0.17588638 -0.1611753 -0.03532026
-0.12896481 -0.09606083 0.055977203 0.01937825 -0.09577585 -0.08446126 0.042391956 -0.14698623
0.11035224 -0.005307584 0.052569117 -0.18883377 0.07756162 0.16191152 -0.073990524 0.17711674
-0.0030611749 -0.1572052 0.16440025 -0.08733504 0.04905493 -0.1316918 -0.116029985 0.16422221
0.14551537 0.18571348 0.07637029 0.025661064 -0.08053338 0.12933499 -0.12635331 0.06999271
-0.19243914 0.19525772 -0.11638674 0.1848629 0.21975327 0.09820685 -0.21938546 -0.22581112
-0.1209481 -0.12887117 -0.16458979 0.19357035 0.14430736 0.053961217 0.16892381 -0.06443432
0.054697067 -0.19184731 0.09930128 -0.114581175 -0.21314952 -0.23272486 -0.17730804 0.15386344
0.014367789 0.051113572 -0.033276733 -0.15858904 -0.09883467 0.032208093 0.112705395 -0.09439471
0.20617703 -0.08307293 0.18787456 0.23290369 0.09291205 -0.15254605 0.14787492 -0.0017038375
0.18512303 -0.051224437 -0.11097709 0.079650216 -0.16555019 0.19042009 -0.17941818 -0.13299987
-0.16875839 -0.2087438 -0.12000849 -0.031681065 0.09831658 -0.112784036 -0.2158324 -0.005420947
0.017441956 0.20793027 0.10717998 0.0805843 -0.09163432 0.1520452 -0.21814579 -0.095065996
0.17708744 -0.15421139 -0.1443497 -0.09313078 -0.046808753 0.062262665 0.040004916 0.077995725
0.117636435 0.18761493 -0.0070545585 -0.1705996 0.037300695 -0.07411754 -0.07846722 -0.09693226
-0.0038827122 0.22282058 0.027490929 0.14120965 -0.18570659 0.22786088 0.06920316 0.16424584
-0.013088333 -0.22137634 -0.1949929 0.16609812 -0.1641451 0.057108365 -0.058020994 0.14507577
0.18777558 -0.1384697 -0.21433344 -0.09109615 -0.18801531 -0.06504322 0.12961064 -0.024438405
-0.118607186 -0.13140306 -0.16803849 0.026681092 -0.06599659 0.20294462 -0.05541401 0.13728476
0.1594576 -0.21144864 0.110422224 0.0537609 -0.020833634 -0.052924596 -0.22435331 0.108641006
0.1505134 -0.1061909 -0.0086189555 -0.1741846 -0.12560686 -0.18479574 0.16770935 0.10105102
0.046974357 -0.08689643 -0.21787563 0.009485662 0.022282105 -0.22170131 0.18097627 -0.19310482
0.010799915 0.09000287 0.059175704 -0.17171669 0.1119537 0.1297209 -0.051555995 -0.19350949
0.12295143 0.07195915 -0.1561475 0.015638283 0.06251659 0.029937238 0.1839926 -0.058939964
-0.06344951 0.18670535 -0.13155834 0.1484422 -0.12111817 0.08221655 -0.21018694 0.0028632889
0.03261731 0.21914425 0.07351723 -0.20156729 0.038084302 -0.0324433 -0.18328494 -0.1164945
0.094339736 0.0885454 -0.15548804 0.17511833 -0.12562595 -0.20557609 -0.15001191 0.023104826
0.0817554 -0.2347637 0.08300988 0.17609899 0.20154984 0.06521621 -0.054648537 -0.1135127
-0.17500573 0.059662018 0.03417255 0.009835062 0.075118355 -0.011890148 0.16434683 0.11283156
-0.2316748 0.0021450068 -0.028376931 0.13561264 -0.14141192 0.04168058 -0.11404662 0.13968326
-0.04632315 0.11394605 0.19024877 0.16998541 -0.10174705 0.22775865 0.07598466 0.1521615
-0.17762147 -0.14023545 0.23077455 0.18456912 -0.09156674 0.14123067 0.21657903 -0.09098474
00000000: 7396 b43c d631 063d a2dd e43d 7b9b 8a3d
00000010: 58df 5d3e 8f1b 343e 230b 25be faab 10bd
00000020: 5a0f 04be 8abb c4bd 5a48 653d 23bf 9e3c
00000030: 2126 c4bd 06fa acbd 30a3 2d3d 8f83 16be
00000040: 5b00 e23d 3eeb adbb b752 573d a45d 41be
00000050: a0d8 9e3d 22cc 253e 5888 97bd 175e 353e
00000060: fe9d 48bb 66fa 20be 8a58 283e b7dc b2bd
00000070: d3ed 483d 37da 06be 21a1 edbd de29 283e
00000080: fb01 153e ad2b 3e3e 0768 9c3d 2737 d23c
00000090: afee a4bd 6470 043e c362 01be 5758 8f3d
000000a0: c40e 45be a4f1 473e 2c5c eebd b34c 3d3e
000000b0: 0007 613e ac20 c93d 95a6 60be 083b 67be
000000c0: a3b3 f7bd cef6 03be 3a8a 28be 4e37 463e
000000d0: 4fc5 133e 7006 5d3d 5dfa 2c3e 24f6 83bd
000000e0: 080a 603d 9f73 44be 785e cb3d 89a9 eabd
000000f0: de43 5abe 6d4f 6ebe 3d90 35be 618e 1d3e
00000100: e066 6b3c 775c 513d 2f4d 08bd 2a65 22be
00000110: d569 cabd a2ec 033d 16d2 e63d 0452 c1bd
00000120: 1220 533e 2422 aabd 3062 403e 4e7e 6e3e
00000130: ac48 be3d 0835 1cbe 866c 173e 4d53 dfba
00000140: e490 3d3e b7d0 51bd f547 e3bd a71f a33d
00000150: fd85 29be 7cfd 423e 66b9 37be 1e31 08be
00000160: 00cf 2cbe efc0 55be 03c7 f5bd 01c4 01bd
00000170: 345a c93d 51fb e6bd 2b03 5dbe 33a2 b1bb
00000180: 6fe2 8e3c aceb 543e 2d81 db3d 6209 a53d
00000190: c6aa bbbd bdb1 1b3e 9c61 5fbe f6b1 c2bd
000001a0: 6956 353e 97e9 1dbe 68d0 13be 5abb bebd
000001b0: 89ba 3fbd 2307 7f3d 32dc 233d 39bc 9f3d
000001c0: 5feb f03d 211e 403e ed29 e7bb a9b1 2ebe
000001d0: 9dc8 183d f0ca 97bd 6cb3 a0bd 6c84 c6bd
000001e0: 1a75 7ebb 142b 643e a834 e13c 4399 103e
000001f0: de29 3ebe 5d54 693e 63ba 8d3d 1030 283e
00000200: 7370 56bc 7bb0 62be 38ac 47be a015 2a3e
00000210: a715 28be 76ea 693d 6ca7 6dbd be8e 143e
00000220: 3e48 403e 00cb 0dbe 3a7a 5bbe 9e90 babd
00000230: 1687 40be 6135 85bd a7b8 043e 0d33 c8bc
00000240: 53e8 f2bd 868e 06be 4812 2cbe 4e92 da3c
00000250: 3829 87bd b7d0 4f3e cdf9 62bd 6094 0c3e
00000260: da48 233e fe85 58be 0c25 e23d 6434 5c3d
00000270: 4cab aabc 76c7 58bd e0bc 65be 2d7f de3d
00000280: 2f20 1a3e 9d7a d9bd 8536 0dbc 735d 32be
00000290: 169f 00be 183b 3dbe 00bc 2b3e d6f3 ce3d
000002a0: 2f68 403d c1f6 b1bd ca1a 5fbe c069 1b3c
000002b0: f688 b63c ab05 63be d851 393e 45bd 45be
000002c0: 20f2 303c 6d53 b83d 3962 723d 80d6 2fbe
000002d0: fb47 e53d 8ed5 043e 612c 53bd 5a27 46be
000002e0: f6cd fb3d 525f 933d 21e5 1fbe db1b 803c
000002f0: b308 803d f03e f53c 8e68 3c3e 086b 71bd
00000300: d1f1 81bd b02f 3f3e 3bb7 06be 3b01 183e
00000310: ce0c f8bd 2761 a83d 3f3b 57be 04a6 3b3b
00000320: ba99 053d 5a67 603e 3490 963d a867 4ebe
00000330: 49fe 1b3d 44e3 04bd 0caf 3bbe ab94 eebd
00000340: 3135 c13d 4a57 b53d 4238 1fbe 3852 333e
00000350: 17a4 00be 8a82 52be b99c 19be 5546 bd3c
00000360: 606f a73d e565 70be 1501 aa3d 4b53 343e
00000370: 1563 4e3e 1490 853d 25d7 5fbd 5979 e8bd
00000380: b434 33be 2960 743d 84f8 0b3d 3d23 213c
00000390: a7d7 993d e5ce 42bc 894a 283e 3c14 e73d
000003a0: 293c 6dbe 3e93 0c3b bd76 e8bc 0ade 0a3e
000003b0: 49ce 10be 41b9 2a3d 4691 e9bd 2109 0f3e
000003c0: 58bd 3dbd 8c5c e93d 93d0 423e a810 2e3e
000003d0: c260 d0bd 9039 693e d89d 9b3d 39d0 1b3e
000003e0: 67e2 35be e299 0fbe 2a50 6c3e b0ff 3c3e
000003f0: 5887 bbbd c69e 103e e5c6 5d3e 3556 babd

fc3._model.0.bias f4 [64]
-0.003633297 0.0037482562 -0.0037535653 0.0037399773 -0.0037371067 0.003737031 -0.003750061 -0.0036736133
0.0037544025 0.0037524442 0.0037554032 0.0037675705 0.0037338964 -0.0037381114 0.0037477135 -0.0037451365
-0.0037430534 -0.003758205 0.0038394406 0.0037456108 0.0037429577 -0.0037518835 0.003802817 0.0037272917
-0.0037592053 -0.0037410925 0.0037562794 -0.0037740974 0.003745699 0.0037264815 0.0037541632 0.0037481028
0.003774187 -0.0037447964 0.003741521 -0.0037398534 0.0037437803 -0.003744451 0.0037440814 0.0037459692
0.0037660608 0.0037537473 -0.003745324 0.0037459559 -0.0037723873 0.003752879 0.0037388706 0.0037488008
-0.0037448457 0.0037449952 0.0037453962 0.003756903 -0.0037539434 0.0037539843 0.003741821 0.0037054429
-0.0037565224 -0.0037456425 -0.003747202 -0.0037606694 -0.0037439573 0.003735017 0.0037456315 -0.003745574
00000000: 9c1c 6ebb 4ea5 753b 60fe 75bb 681a 753b
00000010: 3fea 74bb fae8 743b 95c3 75bb 01c1 70bb
00000020: 6c0c 763b 91eb 753b 361d 763b 58e9 763b
00000030: 63b4 743b 1afb 74bb 339c 753b f770 75bb
00000040: 044e 75bb 384c 76bb 209f 7b3b ec78 753b
00000050: 694c 753b 29e2 75bb af38 793b 9445 743b
00000060: 005d 76bb 1e2d 75bb e92b 763b d956 77bb
00000070: 677a 753b fc37 743b 6808 763b bba2 753b
00000080: 5a58 773b 426b 75bb 4e34 753b 5418 75bb
00000090: 365a 753b 7765 75bb 435f 753b ef7e 753b
000000a0: 04d0 763b 6e01 763b 1c74 75bb b67e 753b
000000b0: 283a 77bb ddf2 753b d707 753b 71ae 753b
000000c0: 166c 75bb 986e 753b 5275 753b 6036 763b
000000d0: b804 76bb 6805 763b 5739 753b 04d7 723b
000000e0: fd2f 76bb 7479 75bb 9e93 75bb 9075 76bb
000000f0: 2e5d 75bb 30c7 743b 4579 753b 4e78 75bb

fc4._model.0.weight f4 [1, 64]
-0.012712623 0.30067807 -0.25124547 0.15989897 -0.12684281 0.10929711 -0.13592865 -0.01631496
0.12540282 0.17881806 0.25368145 0.06615268 0.11691374 -0.15707149 0.2087539 -0.19823395
-0.24491137 -0.18909104 0.0057547637 0.26540336 0.15997471 -0.19275141 0.029255072 0.06682127
-0.16752943 -0.15131402 0.22500966 -0.04747238 0.22510046 0.07068344 0.3004357 0.14368837
0.06390639 -0.25555933 0.19684716 -0.15554078 0.2691374 -0.2154595 0.25329444 0.2064019
0.037413165 0.14941739 -0.16083474 0.20221867 -0.03359731 0.1647493 0.15241797 0.2296785
-0.29593262 0.15716034 0.29311615 0.24422394 -0.2644026 0.23481545 0.19637987 0.038796388
-0.23715378 -0.17583643 -0.2995182 -0.12771463 -0.16671778 0.08802748 0.24769212 -0.27754682
00000000: 9b48 50bc 7af2 993e 3fa3 80be 8ebc 233e
00000010: 15e3 01be 2ad7 df3d e130 0bbe f3a6 85bc
00000020: 9969 003e 151c 373e 89e2 813e 0e7b 873d
00000030: 7970 ef3d 59d7 20be 95c3 553e d7fd 4abe
00000040: 0cca 7abe 15a1 41be 7592 bc3b f3e2 873e
00000050: 69d0 233e a060 45be 55a8 ef3c 97d9 883d
00000060: d68c 2bbe 10f2 1abe ef68 663e 6672 42bd
00000070: bc80 663e 7bc2 903d b5d2 993e 0b23 133e
00000080: 5ae1 823d acd8 82be 4d92 493e 1546 1fbe
00000090: 61cc 893e 6aa1 5cbe cfaf 813e 055b 533e
000000a0: 8c3e 193d df00 193e ddb1 24be 6912 4f3e
000000b0: 559d 09bd 0ab4 283e 7513 1c3e d730 6b3e
000000c0: 7b84 97be a4ee 203e 5213 963e d715 7a3e
000000d0: c75f 87be 7673 703e ce17 493e f6e8 1e3d
000000e0: 71d8 72be 770e 34be 735a 99be a0c7 02be
000000f0: 11b8 2abe c047 b43d 01a3 7d3e 9e1a 8ebe
