example/cloudManufacturing_network/rl/phase/ckpts/policy-model-weight-array.global-step-4200.pth (torch, 33901 bytes, 7 tensors)

fc1._model.0.weight f4 [24, 141]
0	0x3e1a3b7c	0.15061754
1	0xbe0c2307	-0.13685237
2	0x3e1bfc24	0.15232903
3	0xbdbde84f	-0.09272825
4	0x3d2e51d2	0.0425585
5	0x3e3e2823	0.18569998
6	0x3e376887	0.17910968
7	0xbc70af0b	-0.014690171
8	0x3d4a0b01	0.0493269
9	0x3d42c756	0.047553383
10	0xbe371513	-0.17879133
11	0x3c7e072e	0.015504641
12	0xbe200e4c	-0.15630454
13	0x3e3e5eb6	0.18590817
14	0xbde5bd45	-0.11217741
15	0x3e13d4f2	0.14436701
16	0xbdc5f602	-0.09666063
17	0x3d710cc2	0.058850057
18	0x3d2a8970	0.041634977
19	0x3df640cb	0.12024077
20	0xbd5146a7	-0.05109277
21	0xbdf1dfa7	-0.118102364
22	0x3e15b4e4	0.14619786
23	0xbc49f7fb	-0.01232719
24	0x3e424e68	0.18975222
25	0xbd8fb7b0	-0.070174575
26	0x3e3b4f13	0.18291883
27	0xbb3f7c46	-0.002921836
28	0x3e39c079	0.18139829
29	0x3e010a91	0.12601687
30	0x3dd61bc8	0.104545176
31	0xbd777a78	-0.06041953
32	0x3df2e8e3	0.11860826
33	0x3e1768b0	0.14786029
34	0x3e30f2f3	0.17280178
35	0x3dc98aca	0.09840925
36	0xbdfecf1b	-0.12441846
37	0x3e22dba8	0.15904105
38	0x3e3591de	0.17731425
39	0xbe31a5c3	-0.1734839
40	0xbd5bde78	-0.05367896
41	0xbe0e54c8	-0.13899529
42	0x3d12e630	0.035864055
43	0xbe39830a	-0.18116394
44	0x3e0a3cc7	0.13499747
45	0x3bf98f5c	0.0076159667
46	0xbda40d65	-0.08010367
47	0x3dc929a5	0.09822396
48	0xbbe90949	-0.0071117026
49	0x3d1cef97	0.03831443
50	0xbc991808	-0.018688217
51	0xbd16e09f	-0.03683531
52	0x3e2a9020	0.16656542
53	0x3e09e8d0	0.13467717
54	0x3dc32cd3	0.09530034
55	0xbdd9b26d	-0.10629735
56	0xbe103cab	-0.14085643
57	0xbe14f51e	-0.1454663
58	0x3e079361	0.13239814
59	0xbe0afc1c	-0.13572735
60	0x3cc59d97	0.024122996
61	0x3c41261a	0.011788869
62	0x3e018816	0.12649569
63	0x3e05ba4b	0.13059346
64	0x3e20e6c6	0.15713033
65	0x3e034bca	0.1282188
66	0x3e406532	0.18788603
67	0xbe084936	-0.13309178
68	0x39fbe385	0.00048043966
69	0xbd972b0b	-0.07381257
70	0x3d6b5bb5	0.057460506
71	0x3c112887	0.00885976
72	0x3d0b57ac	0.034019157
73	0x3ddee7e7	0.108840756
74	0x3d814750	0.0631243
75	0xbccc10da	-0.02491038
76	0xbd45cffa	-0.048294045
77	0x3e2b660d	0.16738148
78	0x3b76af19	0.0037640987
79	0x3d2709a8	0.040780693
80	0x3e0fab73	0.14030246
81	0x3e2f7790	0.17135453
82	0x3e03ee8a	0.12883964
83	0xbe1c76fa	-0.15279761
84	0x3e17373e	0.14767167
85	0xbda16076	-0.078797266
86	0x3d2b08be	0.041756384
87	0xbd84dd28	-0.06487495
88	0x390eb5a2	0.00013609839
89	0xbd04c0ac	-0.03241031
90	0x3dcc5df5	0.099788584
91	0xbdbe443b	-0.09290358
92	0xbe3ff926	-0.18747386
93	0xbe3d5f26	-0.18493327
94	0x3e383994	0.17990714
95	0xbdc578b4	-0.09642163
96	0x3d52f838	0.05150625
97	0xbe416dff	-0.18889616
98	0x3e11042b	0.14161746
99	0xbd9ffa60	-0.07811427
100	0xbd61970a	-0.055075683
101	0xbe2c785b	-0.16842787
102	0xbe11c549	-0.14235415
103	0x3d82c70a	0.0638562
104	0x3dd7bc67	0.10533982
105	0x3e3cf296	0.18451914
106	0x3e047e45	0.12938793
107	0x3e040850	0.12893796
108	0xbcb4093d	-0.021977061
109	0xbda8d131	-0.08243025
110	0xbe354520	-0.1770215
111	0xbd8dcc2b	-0.069237076
112	0x3dccae59	0.09994192
113	0xbd78557a	-0.06062839
114	0x3e21d78f	0.15804885
115	0x3ceb3780	0.028712988
116	0xbe163911	-0.14670207
117	0x3d39d905	0.04537298
118	0x3e3570c0	0.17718792
119	0x3dfac7d4	0.122451454
120	0x3df531cd	0.11972389
121	0xbe143dc7	-0.14476691
122	0x3e1f8d27	0.15581189
123	0x3daae5e4	0.083446294
124	0xbd470ddb	-0.048597198
125	0xbc47cd43	-0.012194934
126	0x3a1415ac	0.00056489813
127	0x3d81316c	0.063082546
128	0x3dd9d91c	0.106371135
129	0xbda35304	-0.07974818
130	0x3e0affb9	0.13574113
131	0x3e33a4d2	0.17543343
132	0x3d606f9b	0.054793935
133	0xbd6b09bc	-0.05738233
134	0x3d578d87	0.052625205
135	0xbda7f0e1	-0.08200241
136	0xbd3c4e6d	-0.04597323
137	0xbc8404b8	-0.016115531
138	0xbda97a1c	-0.08275244
139	0xbdc1bb55	-0.09459559
140	0xbdd0acaf	-0.10189187
141	0xbdd5a8f6	-0.10432617
142	0x3d3b0810	0.045661986
143	0xbd81fee5	-0.063474454
144	0x3e1769aa	0.14786401
145	0x3dd59e9a	0.104306415
146	0xbe2398ec	-0.15976304
147	0xbe32f34c	-0.17475623
148	0x3dc00c5c	0.09377357
149	0xbd191895	-0.03737696
150	0xbccbbef7	-0.024871333
151	0x3d15887a	0.036507107
152	0xbe0f2643	-0.1397944
153	0x3e0096e6	0.12557563
154	0xbe36bc49	-0.17845263
155	0xbde9c8ce	-0.114152536
156	0xbe190abf	-0.14945506
157	0xbe34be8d	-0.17650814
158	0x3c722003	0.01477814
159	0x3d990d7d	0.07473276
160	0xbe203d2e	-0.15648338
161	0xbd6ff014	-0.058578566
162	0xbe05082f	-0.12991403
163	0x3c0fc2cb	0.00877447
164	0x3e32f613	0.17476682
165	0x3d685db9	0.056730006
166	0x3e11d605	0.14241798
167	0x3e383a3c	0.17990965
168	0x3d42e7fb	0.047584515
169	0x3d8793f9	0.066200204
170	0xbd82aa55	-0.063801445
171	0xbd632b69	-0.05546132
172	0xbe27fd84	-0.16405302
173	0x3c146daa	0.009059349
174	0x3d45832c	0.0482208
175	0xbcda3300	-0.026635647
176	0xbd48d98a	-0.049035586
177	0x3c8d4186	0.017243158
178	0xbded0a45	-0.115742244
179	0x3e1cdfad	0.153197
180	0x3e22967c	0.15877718
181	0x3d4f56bc	0.050619826
182	0x3e041026	0.12896785
183	0xbe432d7e	-0.19060323
184	0xbcc1695c	-0.02360981
185	0x3d80ae80	0.06283283
186	0xbe03df09	-0.1287805
187	0x3a899d7c	0.0010499205
188	0xbe181001	-0.14849855
189	0xbddd0653	-0.10792222
190	0xbd3c8cb2	-0.046032615
191	0xbd1cb7a8	-0.038261086
192	0xbe005a17	-0.12534367
193	0x3b731d17	0.0037096196
194	0x3c68695a	0.014185274
195	0xbca3e0fd	-0.020004744
196	0xbda8e6cd	-0.08247147
197	0x3e1e2f39	0.15447702
198	0x3e13cf7a	0.14434615
199	0x3e07c7cf	0.13259815
200	0xbdd5f4c8	-0.10447079
201	0x3cd0f744	0.02550853
202	0x3dc4c5ad	0.09608016
203	0xbdf098cf	-0.11747896
204	0xbd52284d	-0.051307965
205	0xbbd22a5f	-0.0064137424
206	0x3e223e10	0.15843987
207	0x3dde778b	0.10862645
208	0x3e0df16a	0.13861623
209	0xbe14d3d6	-0.14533934
210	0xbe193cde	-0.14964625
211	0xbd7f6372	-0.062350698
212	0x3e359627	0.1773306
213	0x3c339926	0.010961806
214	0xbe0b27e7	-0.1358944
215	0x3df9a245	0.121891536
216	0xbd9ba9a5	-0.076007165
217	0xbdbf1c07	-0.09331518
218	0xbcceb73b	-0.025233855
219	0x3e2b0f9e	0.16705176
220	0xbe2ebac7	-0.17063437
221	0xbddf9a1a	-0.109180644
222	0xbe2b21b2	-0.16712072
223	0xbde98e2e	-0.11404072
224	0xbc19e65f	-0.009393304
225	0xbd745815	-0.059654314
226	0xbdd33e1c	-0.10314581
227	0xbd0d2f06	-0.034468673
228	0x3daff5a0	0.08591771
229	0x3d7bd9aa	0.061486878
230	0x3cb9331e	0.022607382
231	0xbdc2c550	-0.095102906
232	0x3caed126	0.021339964
233	0x3ddff599	0.10935516
234	0xbc4f90f2	-0.012668835
235	0x3e1a8afe	0.15092084
236	0x3e36cdde	0.1785197
237	0x3ce5dcfe	0.028059479
238	0xbda4f182	-0.080538765
239	0xbe4328c4	-0.1905852
240	0x3d3c6bfb	0.046001416
241	0xbde63780	-0.112410545
242	0x3e2b17e2	0.1670833
243	0x3e2f26bf	0.17104624
244	0x3c7bd7e6	0.015371298
245	0x3c6919b2	0.014227318
246	0x3e3d8176	0.18506417
247	0xbda9c344	-0.08289197
248	0xbdb34c9b	-0.08754846
249	0x3da0f585	0.07859329
250	0xbdd30420	-0.10303521
251	0xbdc89480	-0.09793949
252	0x3e09a542	0.13441947
253	0xbdced1eb	-0.100986324
254	0xbe32c736	-0.17458805
255	0x3e068a5f	0.13138722

fc1._model.0.bias f4 [24]
0	0xbad45a06	-0.0016201145
1	0xbaf2d660	-0.0018527023
2	0x39e34a3d	0.00043352126
3	0xbaf7b3fb	-0.0018898243
4	0xbaf3fbda	-0.0018614486
5	0xbad90cdc	-0.0016559619
6	0xbafd6148	-0.001933136
7	0xb844b494	-4.6898218e-05
8	0xbafd133d	-0.0019308102
9	0xbae14b52	-0.0017188585
10	0xbae8f71b	-0.0017773838
11	0xbae9aa91	-0.0017827322
12	0x3ac6b38c	0.001515971
13	0x3af8ff4c	0.0018996983
14	0xba4ac936	-0.0007735671
15	0xbb0009ab	-0.0019537013
16	0x3abe8715	0.0014536107
17	0xbaca8a5b	-0.001545261
18	0x3a989dfc	0.0011643763
19	0xbaf63713	-0.0018784724
20	0xbaf5cea8	-0.0018753605
21	0x3a91059e	0.0011064296
22	0xbaf0bb40	-0.0018366352
23	0x3a9f34cf	0.0012146475

fc2._model.0.weight f4 [20, 48]
0	0xbe82bddd	-0.2553548
1	0xbdf63a55	-0.12022845
2	0xbccc1826	-0.024913859
3	0xbe96815f	-0.29395577
4	0x3d22e2bf	0.039767023
5	0xbe3ae9b2	-0.1825321
6	0xbdbfb49a	-0.09360619
7	0x3df6061e	0.120128855
8	0x3e253806	0.16134652
9	0x3e553fc0	0.208251
10	0x3df4c5ed	0.11951814
11	0xbe631377	-0.22175394
12	0x3d2eed30	0.04270667
13	0x3e3b2de1	0.1827922
14	0x3e0b98b4	0.1363247
15	0xbc873aa5	-0.016507456
16	0x3d3bda21	0.04586232
17	0xbd4fc87b	-0.050728302
18	0x3e5b15d9	0.21395053
19	0x3ccf1201	0.02527714
20	0xbe6e723a	-0.23285761
21	0xbe8143cb	-0.25247034
22	0xbe724aa0	-0.2366128
23	0x3ccef26c	0.02526208
24	0xbe34ccd9	-0.17656268
25	0x3d6e5ace	0.058192067
26	0xbe575865	-0.21029814
27	0x3e163257	0.1466764
28	0x3e95d349	0.2926276
29	0xbe792eb7	-0.24334227
30	0x3aa4be31	0.0012568888
31	0x3e83093b	0.2559298
32	0x3d69f874	0.05712171
33	0xbe78abf7	-0.2428435
34	0x3d93233a	0.07184453
35	0x3e4ec0f6	0.20190796
36	0x3e63c956	0.22244772
37	0x3e48df71	0.19616486
38	0x3e4d67ab	0.20059077
39	0x3e6eeb76	0.23332009
40	0xbe6ed229	-0.23322357
41	0xbe52d7d6	-0.20590147
42	0x3e0da998	0.13834226
43	0xbe4fcd27	-0.20293103
44	0xbe73da9f	-0.23813866
45	0x3dfb3f9d	0.12267993
46	0x3db7d2fb	0.08975788
47	0xbe902f9f	-0.28161332
48	0x3e26c2fb	0.16285317
49	0xbdff19c3	-0.124560855
50	0xbe8df27c	-0.27724063
51	0xbd8b4270	-0.06799781
52	0xbbd076fa	-0.0063618394
53	0xbe6e432d	-0.23267813
54	0x3dde42af	0.10852563
55	0x3b994c01	0.00467825
56	0x3d38589d	0.045006383
57	0xbe1d59dc	-0.1536631
58	0x3daf6fdf	0.085662596
59	0xbe48b50a	-0.19600311
60	0x3e27c45a	0.16383496
61	0x3d9aae95	0.0755283
62	0xbceb63d0	-0.028734118
63	0xbca9bd45	-0.020720134
64	0xbe7a7ed4	-0.24462444
65	0xbdfc8967	-0.12330895
66	0xbc8ef4d2	-0.017450724
67	0xbdaa0850	-0.08302367
68	0x3e812fdf	0.25231835
69	0x3d892f78	0.06698507
70	0x3e282b55	0.1642278
71	0xbd174e63	-0.03693999
72	0xbe2dc662	-0.16970208
73	0xbe70b7f4	-0.23507673
74	0xb92300c8	-0.00015545182
75	0xbdddfaee	-0.10838877
76	0xbcbb9408	-0.022897735
77	0x3e2c7854	0.16842777
78	0xbe3b6f8f	-0.18304275
79	0x3e758b02	0.23978809
80	0xbe610a9b	-0.21976702
81	0x3e8a6759	0.27031973
82	0x3e93c6a9	0.28862503
83	0xbe25de5c	-0.16198105
84	0xbe914b03	-0.28377542
85	0xbdfac75d	-0.12245057
86	0x3e1ca217	0.15296207
87	0x3c38d68f	0.0112816235
88	0xbdfa13be	-0.12210797
89	0xbd88edef	-0.06686007
90	0xbe38805c	-0.18017715
91	0xbe33b8c3	-0.1755095
92	0x3e475c75	0.19468863
93	0x3e7a19d3	0.24423914
94	0x3e778f6d	0.24175806
95	0x3e177494	0.14790565
96	0x3e235872	0.15951708
97	0x3e58d7bf	0.2117605
98	0xbe911c05	-0.2834169
99	0x3c2a1d5d	0.010382977
100	0xbe8e8f1a	-0.27843553
101	0xbe85cbff	-0.261322
102	0xbe28c3d6	-0.16480955
103	0x3e533866	0.20626983
104	0x3e828051	0.25488523
105	0xbe63b509	-0.22237028
106	0x3e8e320b	0.27772555
107	0xbe1e6f56	-0.15472159
108	0x3e05cd4f	0.130666
109	0x3d1cf5e3	0.038320433
110	0xbe2cda8e	-0.16880247
111	0xbdb3d095	-0.08780018
112	0xbc894e5d	-0.016761
113	0xbcd1dc2c	-0.025617681
114	0x3d3957ec	0.045249864
115	0x3e086e77	0.13323389
116	0x3c9ad2b1	0.018899294
117	0xbe567864	-0.20944363
118	0x3e71afb0	0.23602176
119	0xbe834068	-0.25635076
120	0x3b3f6bfd	0.0029208653
121	0x3e6013fc	0.21882623
122	0xbe817904	-0.2528764
123	0xbe5afb7c	-0.21384996
124	0xbcffffc4	-0.031249888
125	0xbe351449	-0.1768352
126	0x3e531912	0.20615032
127	0x3d9e0625	0.07716016
128	0xbdceccd4	-0.100976616
129	0xbe0b31ef	-0.13593267
130	0xbc8ffabd	-0.017575616
131	0xbdb2cfb6	-0.08731024
132	0xbde3f238	-0.11130184
133	0x3e6bee9b	0.2304024
134	0xbe3e2d28	-0.18571913
135	0xbdb32245	-0.08746771
136	0x3e7c987f	0.24667548
137	0xbe787602	-0.24263766
138	0xbd87aca5	-0.06624726
139	0x3e74884f	0.23880123
140	0xbd6398f0	-0.055565774
141	0x3e116db8	0.1420201
142	0x3deb1c35	0.114799894
143	0xbe19dc68	-0.15025485
144	0xbe720c01	-0.23637392
145	0xbdd570fc	-0.10421941
146	0xbe04b0e4	-0.12958103
147	0x3e902b7a	0.2815817
148	0x3dc31f54	0.0952746
149	0xbe12d4ea	-0.14339033
150	0x3e52d4c0	0.2058897
151	0xbd3903dd	-0.0451697
152	0xbe7cd178	-0.24689281
153	0xbd4514bc	-0.048115477
154	0x3b6f060d	0.0036472112
155	0xbdfcd3ff	-0.123451225
156	0xbe829e1e	-0.2551126
157	0xbe905bcd	-0.28195038
158	0x3e84faaf	0.25972506
159	0xbdf164d8	-0.117868125
160	0xbe03164f	-0.12801479
161	0x3aa6b3ef	0.0012718419
162	0x3d3b6534	0.04575081
163	0x3e5444b5	0.20729335
164	0x3d1a031c	0.03760062
165	0x3e8f316c	0.27967393
166	0x3e5e94b5	0.21736415
167	0xbdd8e688	-0.10590845
168	0x3e91a2b3	0.28444442
169	0xbd8e8225	-0.06958417
170	0xbe6714bf	-0.22566508
171	0x3deb3928	0.11485511
172	0xbde267ed	-0.110549785
173	0xbe63ccb9	-0.22246064
174	0x3e7dfa95	0.2480262
175	0x3bf892ec	0.007585874
176	0x3e3521d3	0.17688684
177	0x3e436466	0.19081268
178	0xbe832d15	-0.25620332
179	0xbe79c0a3	-0.24389891
180	0x3e8891e1	0.26673797
181	0x3e036ea7	0.1283518
182	0x3df414b5	0.11918012
183	0xbe971840	-0.2951069
184	0xbe122a00	-0.14273834
185	0xbd2baa94	-0.041910723
186	0x3e39496a	0.18094411
187	0x3e2180b4	0.15771753
188	0x3cb9ab39	0.022664653
189	0xbe74cee1	-0.23907043
190	0xbce4bfc5	-0.027923474
191	0x3d8c93f5	0.06864158
192	0xbe7b06ff	-0.24514388
193	0xbd1919e1	-0.037378196
194	0x3e54bf73	0.20776157
195	0x3e972db9	0.2952707
196	0x3e90aeaf	0.28258273
197	0x3d998e9e	0.07497905
198	0xbd0bc159	-0.034119938
199	0xbde83292	-0.113377705
200	0x3e83c28e	0.2573437
201	0xbe31a6d1	-0.17348792
202	0xbe2bfa9d	-0.1679482
203	0xbcd94304	-0.026521213
204	0x3e6ba81d	0.23013349
205	0xbddf73bf	-0.10910749
206	0x3e867a92	0.2626539
207	0xbe16865e	-0.14699695
208	0xbdf33cf7	-0.118768625
209	0x3e8268b8	0.2547052
210	0xbe00a1dd	-0.12561746
211	0x3e813182	0.25233084
212	0xbd1b44de	-0.037907474
213	0xbe1bdd8d	-0.15221234
214	0xbe84492c	-0.25837076
215	0x3e226f90	0.1586287
216	0x3e8994c8	0.26871324
217	0x3e1e0df8	0.15435016
218	0x3dce0842	0.10060169
219	0x3e784f05	0.24248894
220	0x3cdc175c	0.026866607
221	0x3e04ead9	0.12980212
222	0xbe12b339	-0.1432618
223	0xbe61b854	-0.22042972
224	0x3dae71c4	0.08517793
225	0xbe70ae1a	-0.23503914
226	0xbdf7d312	-0.12100805
227	0xbe227a25	-0.15866907
228	0x3e214c59	0.1575178
229	0x3e8b730e	0.27236217
230	0xbe269ad8	-0.16270006
231	0xbd0a89dd	-0.033822883
232	0x3e13cb0d	0.14432926
233	0x3e55c2df	0.20875119
234	0xbe145a30	-0.14487529
235	0x3b10571f	0.0022024584
236	0xbe0225e8	-0.12709773
237	0x3c8c7ab4	0.017148353
238	0xbe7bfe4e	-0.24608728
239	0x3e387fde	0.18017527
240	0xbe4ec49f	-0.20192192
241	0xbe83e991	-0.25764135
242	0xbe8eb1e9	-0.2787011
243	0x3dea4123	0.11438205
244	0xbe619fd8	-0.22033632
245	0xbe477f2d	-0.19482107
246	0xbe602ad7	-0.21891342
247	0x3e7aca18	0.24491155
248	0x3e636bd5	0.22209103
249	0x3e4fb4cd	0.20283814
250	0x3deb44e2	0.11487748
251	0x3def68ec	0.11689934
252	0xbe35fc19	-0.17771949
253	0xbdcf7bc0	-0.10131025
254	0x3e1f0c34	0.15531999
255	0x3dbed96f	0.09318816

fc2._model.0.bias f4 [20]
0	0xba0a307b	-0.00052715064
1	0x9b1bd876	-1.2891242e-22
2	0x00000000	0.0
3	0x38cf9884	9.8989374e-05
4	0x00000000	0.0
5	0x00000000	0.0
6	0x399bd9e1	0.00029726236
7	0xa43203c5	-3.860079e-17
8	0x360f63ce	2.1366754e-06
9	0x00000000	0.0
10	0xba3398fb	-0.0006851104
11	0xb6550ad6	-3.174578e-06
12	0x00000000	0.0
13	0x3a0cff04	0.00053785765
14	0x00000000	0.0
15	0x00000000	0.0
16	0x00000000	0.0
17	0x00000000	0.0
18	0x3a0aaf82	0.0005290435
19	0x00000000	0.0

fc3._model.0.weight f4 [64, 48]
0	0x3cbf8ccf	0.023382572
1	0x3d0de0fa	0.034638382
2	0x3de5e440	0.11225176
3	0x3d8ebe8b	0.06969937
4	0x3e5fd289	0.21857657
5	0x3e32efae	0.17474243
6	0xbe2279d4	-0.15866786
7	0xbd0cf272	-0.0344109
8	0xbe0351a4	-0.12824112
9	0xbdc0963c	-0.09403655
10	0x3d6b5257	0.057451572
11	0x3ca9ba8e	0.020718839
12	0xbdc8574f	-0.09782278
13	0xbdafaa7c	-0.08577439
14	0x3d323564	0.04350795
15	0xbe140e7b	-0.14458649
16	0x3ddfab50	0.10921347
17	0xbbb5b9c4	-0.0055458266
18	0x3d5a6135	0.05331536
19	0xbe3f9166	-0.18707809
20	0x3da38611	0.079845555
21	0x3e24650e	0.16054174
22	0xbd951b5d	-0.0728061
23	0x3e33e1c3	0.1756659
24	0xbae5281e	-0.0017483269
25	0xbe1f1826	-0.15536556
26	0x3e28932b	0.1646239
27	0xbdaed8c3	-0.08537438
28	0x3d50bc15	0.05096062
29	0xbe0668d5	-0.13125928
30	0xbde87a9f	-0.11351513
31	0x3e29aaa9	0.16569008
32	0x3e159bdb	0.14610235
33	0x3e4044f7	0.18776308
34	0x3d9f2f02	0.07772638
35	0x3cd89eca	0.026442904
36	0xbda6bc9c	-0.08141443
37	0x3e02d56c	0.12776726
38	0xbe000f59	-0.12505855
39	0x3d9451c4	0.07242158
40	0xbe44fb9a	-0.19236603
41	0x3e47e96d	0.19522639
42	0xbdecda1f	-0.11565041
43	0x3e3f32d9	0.1867174
44	0x3e6344a4	0.22194153
45	0x3dc7481d	0.097305514
46	0xbe60c3ea	-0.21949735
47	0xbe6888be	-0.22708413
48	0xbdfa92a7	-0.12235003
49	0xbe05fb70	-0.13084197
50	0xbe292128	-0.16516554
51	0x3e441227	0.1914755
52	0x3e11b74f	0.14230083
53	0x3d61cf23	0.05512918
54	0x3e2a5086	0.1663228
55	0xbd85d9b2	-0.06535663
56	0x3d5ccddc	0.05390726
57	0xbe46a2c1	-0.19398023
58	0x3dc8336a	0.097754315
59	0xbded9c14	-0.11602035
60	0xbe58178d	-0.21102734
61	0xbe6cea59	-0.23136272
62	0xbe36b965	-0.1784416
63	0x3e1afe1a	0.15135995
64	0x3c7f49e2	0.01558158
65	0x3d527404	0.051380172
66	0xbd0b8b58	-0.034068435
67	0xbe2448c4	-0.16043383
68	0xbdcf4645	-0.10120825
69	0x3d09c86a	0.033638395
70	0x3de4454d	0.111460306
71	0xbdbe3984	-0.09288314
72	0x3e51b02e	0.20477363
73	0xbdae1cca	-0.08501585
74	0x3e401a6d	0.1876008
75	0x3e6c6599	0.23085631
76	0x3dba286f	0.09089743
77	0xbe1cac5f	-0.1530013
78	0x3e14bcdc	0.14525169
79	0xbb55007e	-0.0032501514
80	0x3e3cea32	0.18448713
81	0xbd5ab2d2	-0.053393193
82	0xbde634f0	-0.11240566
83	0x3da162b5	0.07880155
84	0xbe288beb	-0.16459624
85	0x3e44ae38	0.19207084
86	0xbe391856	-0.1807569
87	0xbe0ac8fd	-0.13553233
88	0xbe2cdfe1	-0.16882278
89	0xbe55b56c	-0.20869988
90	0xbdf76ea5	-0.12081651
91	0xbd09ccf3	-0.03364272
92	0x3dc4adc1	0.096034534
93	0xbde51087	-0.11184793
94	0xbe5cf06d	-0.2157609
95	0xbb85b484	-0.004080357
96	0x3c9a6323	0.0188461
97	0x3e56f17e	0.2099056
98	0x3ddcb09e	0.107758746
99	0x3da9553c	0.0826821
100	0xbdb78c5b	-0.089623176
101	0x3e1a7f47	0.15087615
102	0xbe5cb6d1	-0.21554114
103	0xbdc0cde0	-0.094142675
104	0x3e36260a	0.17787948
105	0xbe1bb92d	-0.15207358
106	0xbe1239e4	-0.14279896
107	0xbdbbc693	-0.091687344
108	0xbd486e43	-0.04893328
109	0x3d79705d	0.060898174
110	0x3d2881e6	0.041139506
111	0x3da4deef	0.08050334
112	0x3dee6d90	0.11641991
113	0x3e3fd7db	0.18734686
114	0xbbcd2573	-0.006260568
115	0xbe2ccd07	-0.16875087
116	0x3d228507	0.039677646
117	0xbd9aba5d	-0.07555077
118	0xbd9e25b0	-0.07722032
119	0xbdc99ea5	-0.09844712
120	0xbb223f5c	-0.0024757003
121	0x3e6629bb	0.22476856
122	0x3ce376fb	0.027766695
123	0x3e12b2fe	0.14326093
124	0xbe3c1873	-0.18368702
125	0x3e69cbeb	0.22831695
126	0x3d931c14	0.0718309
127	0x3e29c66c	0.16579598
128	0xbc4bfdf2	-0.012450682
129	0xbe607681	-0.21920206
130	0xbe4634cf	-0.19356082
131	0x3e2af4d6	0.1669496
132	0xbe291069	-0.16510166
133	0x3d632330	0.05545348
134	0xbd682979	-0.056680176
135	0x3e1727b1	0.14761235
136	0x3e4058f8	0.18783939
137	0xbe0dd6bd	-0.13851447
138	0xbe5aa58b	-0.21352212
139	0xbdb68996	-0.08912961
140	0xbe3e2ff7	-0.18572985
141	0xbd8720ed	-0.06598077
142	0x3e04a628	0.12954009
143	0xbcd33678	-0.025782809
144	0xbdf5c4bf	-0.12000417
145	0xbe089149	-0.13336672
146	0xbe2ca7b6	-0.16860852
147	0x3cc9751b	0.024591973
148	0xbd8b4116	-0.067995235
149	0x3e51025b	0.20411055
150	0xbd6d99dc	-0.05800806
151	0x3e0ba2e0	0.1363635
152	0x3e227b27	0.15867291
153	0xbe5ab2fc	-0.2135734
154	0x3ddefcc2	0.108880535
155	0x3d565740	0.0523293
156	0xbc9954f3	-0.018717265
157	0xbd53370c	-0.05156617
158	0xbe66e5a7	-0.22548543
159	0x3dd962ca	0.10614546
160	0x3e1b5cd7	0.15172134
161	0xbdd8f000	-0.10592651
162	0xbc1a2133	-0.009407329
163	0xbe343f4c	-0.17602271
164	0xbe030b7f	-0.12797354
165	0xbe3bc55e	-0.18337008
166	0x3e2a76da	0.16646901
167	0x3dd209eb	0.10255798
168	0x3d3aaffb	0.045577984
169	0xbdb5ed56	-0.08883159
170	0xbe5f6190	-0.21814561
171	0x3bf3f433	0.0074448823
172	0x3ca6194e	0.020275738
173	0xbe637c99	-0.22215499
174	0x3e36a448	0.17836106
175	0xbe47510c	-0.1946451
176	0x3c2696d2	0.010167794
177	0x3db3e705	0.08784298
178	0x3d6c8df6	0.057752572
179	0xbe30b38a	-0.17255989
180	0x3de7390a	0.11290176
181	0x3e0684a2	0.13136533
182	0xbd58a498	-0.052891344
183	0xbe48bd29	-0.19603409
184	0x3dfbabd5	0.12288634
185	0x3d9375dc	0.07200214
186	0xbe20b77f	-0.15694998
187	0x3c603602	0.0136847515
188	0x3d76c012	0.060241766
189	0x3cfce460	0.030870616
190	0x3e3c7c34	0.18406755
191	0xbd6bf2b0	-0.05760449
192	0xbd7e2c22	-0.062053807
193	0x3e4131dc	0.18866676
194	0xbe062240	-0.13099003
195	0x3e1a2473	0.15052967
196	0xbdf3f632	-0.119121924
197	0x3da5fe23	0.08105113
198	0xbe5493c4	-0.20759493
199	0x3b780128	0.0037842486
200	0x3d08cf16	0.033400618
201	0x3e6293af	0.2212665
202	0x3d99b786	0.075057074
203	0xbe4cf0f2	-0.20013788
204	0x3d1354b2	0.035969444
205	0xbd0a7263	-0.033800494
206	0xbe3a865c	-0.18215317
207	0xbde97976	-0.1140012
208	0x3dbebcb6	0.093133375
209	0x3db4cd0a	0.088281706
210	0xbe1e69e1	-0.15470077
211	0x3e353387	0.17695437
212	0xbdfc7058	-0.12326115
213	0xbe53f7e3	-0.2070003
214	0xbe1857de	-0.14877269
215	0x3cb0f119	0.02159934
216	0x3daa4a71	0.0831498
217	0xbe6e6b45	-0.23283108
218	0x3daa8dfc	0.083278626
219	0x3e3669c3	0.17813782
220	0x3e507062	0.2035537
221	0x3d867dab	0.06566938
222	0xbd552369	-0.052035723
223	0xbde552c6	-0.111974284
224	0xbe328f44	-0.17437464
225	0x3d7d360a	0.061819114
226	0x3d11cae5	0.035593886
227	0x3c2eedac	0.010676783
228	0x3d97e764	0.07417181
229	0xbc5db7aa	-0.013532558
230	0x3e29a853	0.16568117
231	0x3dec3eb1	0.11535395
232	0xbe6d2b09	-0.23160948
233	0x3b09c8b0	0.002102416
234	0xbce1e760	-0.027576149
235	0x3e0cdd7a	0.13756362
236	0xbe0e7a76	-0.13913903
237	0x3d26e741	0.040747885
238	0xbde9b8dc	-0.11412212
239	0x3e0dab81	0.13834955
240	0xbd437533	-0.04771919
241	0x3de55811	0.11198438
242	0x3e423b85	0.18968017
243	0x3e2bed62	0.16789773
244	0xbdd47788	-0.10374361
245	0x3e6a6b22	0.2289243
246	0x3d964ebd	0.07339237
247	0x3e1adec9	0.15124048
248	0xbe36afcc	-0.17840499
249	0xbe11c64a	-0.14235798
250	0x3e6abc72	0.22923449
251	0x3e3b88e4	0.18313938
252	0xbdb7324d	-0.08945141
253	0x3e1202a4	0.1425882
254	0x3e5c9e32	0.21544722
255	0xbdbf719d	-0.09347842

fc3._model.0.bias f4 [64]
0	0xbaff428e	-0.0019474791
1	0x3b00df74	0.0019664438
2	0xbb00f1ee	-0.0019675451
3	0x3b00ce43	0.0019654192
4	0xbb00c41b	-0.0019648138
5	0x3b00c0c5	0.001964615
6	0xbb00ec89	-0.0019672236
7	0xbaffbb32	-0.0019510745
8	0x3b00ecdd	0.0019672432
9	0x3b00e674	0.001966861
10	0x3b00f4a1	0.001967706
11	0x3b00fc9b	0.0019681815
12	0x3b00bfac	0.0019645495
13	0xbb00ca1b	-0.0019651714
14	0x3b00dd98	0.001966333
15	0xbb00d6ee	-0.0019659358
16	0xbb00d77d	-0.001965969
17	0xbb00f8a8	-0.001967946
18	0x3affb4eb	0.0019508874
19	0x3b00df45	0.001966433
20	0x3b00d510	0.0019658245
21	0xbb00e6dc	-0.0019668853
22	0x3b013300	0.0019714236
23	0x3b00ab19	0.0019633232
24	0xbb00f929	-0.001967976
25	0xbb00cedd	-0.001965455
26	0x3b00f1e7	0.0019675435
27	0xbb00fbb5	-0.001968128
28	0x3b00dc60	0.0019662604
29	0x3b00a695	0.001963054
30	0x3b00ee0f	0.0019673144
31	0x3b00d968	0.0019660834
32	0x3b01120f	0.0019694602
33	0xbb00dd6d	-0.001966323
34	0x3b00d1eb	0.001965637
35	0xbb00cc1c	-0.0019652909
36	0x3b00d925	0.0019660678
37	0xbb00d7b3	-0.0019659817
38	0x3b00db84	0.0019662092
39	0x3b00d8b4	0.0019660415
40	0x3b00c9f5	0.0019651626
41	0x3b00f22c	0.0019675596
42	0xbb00df62	-0.0019664397
43	0x3b00d9e4	0.0019661123
44	0xbb0112a5	-0.001969495
45	0x3b00f1d1	0.0019675384
46	0x3b00cdaf	0.0019653847
47	0x3b00e235	0.001966608
48	0xbb00dbb3	-0.00196622
49	0x3b00d061	0.0019655454
50	0x3b00dd17	0.001966303
51	0x3b00f647	0.0019678043
52	0xbb00f26e	-0.001967575
53	0x3b00f1d3	0.0019675388
54	0x3b00d227	0.001965651
55	0x3b006895	0.0019593586
56	0xbb00f59f	-0.0019677652
57	0xbb00dbef	-0.001966234
58	0xbb00e31a	-0.0019666613
59	0xbb00fd17	-0.0019682103
60	0xbb00daf4	-0.0019661756
61	0x3b00b5ba	0.0019639567
62	0x3b00dcae	0.0019662785
63	0xbb00df0e	-0.00196642

fc4._model.0.weight f4 [1, 64]
0	0xbc741900	-0.014898539
1	0x3e99b955	0.3002421
2	0xbe803add	-0.2504491
3	0x3e255877	0.16147028
4	0xbe0382d9	-0.12842883
5	0x3de2e398	0.11078566
6	0xbe0b990e	-0.13632604
7	0xbc8da8bf	-0.017292378
8	0x3dfe86cb	0.124280535
9	0x3e3548ae	0.17703506
10	0x3e81640d	0.25271645
11	0x3d84da5d	0.06486962
12	0x3df4d441	0.11954547
13	0xbe236b7f	-0.15958975
14	0x3e55cf59	0.20879878
15	0xbe4b6895	-0.19864114
16	0xbe7d48eb	-0.24734847
17	0xbe3fbcf8	-0.1872443
18	0x3b8c167a	0.0042751404
19	0x3e88fdda	0.26756173
20	0x3e24cfb6	0.1609486
21	0xbe44cc06	-0.19218454
22	0x3cdf345f	0.027246652
23	0x3d8d532d	0.0690063
24	0xbe2979d5	-0.16550381
25	0xbe1c5efb	-0.15270607
26	0x3e640b75	0.22269996
27	0xbd392217	-0.045198526
28	0x3e67ced2	0.2263749
29	0x3d959fef	0.073058955
30	0x3e98a238	0.29811263
31	0x3e12c6f0	0.14333701
32	0x3d7e7dd3	0.062131714
33	0xbe83d113	-0.25745448
34	0x3e4ba157	0.19885765
35	0xbe20dd81	-0.15709497
36	0x3e8aea26	0.27131766
37	0xbe5d3de3	-0.21605639
38	0x3e82fc19	0.2558296
39	0x3e54a196	0.20764765
40	0x3d10ecb1	0.035381977
41	0x3e190a13	0.1494525
42	0xbe26974d	-0.16268654
43	0x3e4f2423	0.20228629
44	0xbd064c6d	-0.03278773
45	0x3e2919cf	0.16513751
46	0x3e1e8de0	0.15483809
47	0x3e6a9ee3	0.22912173
48	0xbe9874d4	-0.29776633
49	0x3e20829a	0.1567482
50	0x3e969c33	0.29416046
51	0x3e77e138	0.24207008
52	0xbe870406	-0.26370257
53	0x3e6fe1bf	0.23425959
54	0x3e4a7466	0.19770965
55	0x3d2887f5	0.041145284
56	0xbe71198c	-0.23544902
57	0xbe356922	-0.17715886
58	0xbe9a34cc	-0.30118406
59	0xbe00ef26	-0.12591228
60	0xbe2d02d8	-0.16895616
61	0x3db6c07d	0.08923433
62	0x3e7f3615	0.24922974
63	0xbe8f11da	-0.27943307
