example/cloudManufacturing_network/rl/phase/ckpts/policy-model-weight-array.global-step-12400.pth (torch, 33911 bytes, 7 tensors)

fc1._model.0.weight f4 [24, 141]
000000 a8 5c 0c be c0 0b 7b 3c a5 0a 8a 3d 7f 3b fd bd
       -0.1370722 0.015322626 0.067403115 -0.123648636
000010 13 a7 9f 3d 98 5e de bc ef 44 a5 3d 77 fb 1e bc
       0.07795539 -0.027144715 0.08069789 -0.009703509
000020 e5 51 8a 3d e5 3b 25 3e 05 23 c8 bd ac bf c1 3d
       0.067539014 0.16136129 -0.097723044 0.09460387
000030 c1 cb 0b 3e 68 a2 b8 bd 7a 95 07 3e 43 04 2c 3e
       0.13651945 -0.090153515 0.13240615 0.167985
000040 44 35 b1 bd 5b 84 3e 3e e6 62 c6 3c a7 b1 17 3e
       -0.08652738 0.18605177 0.02421708 0.14813863
000050 77 07 f7 bd 77 27 3b be ab ee d2 3d 85 83 07 3e
       -0.12061971 -0.18276773 0.102994286 0.13233764
000060 1d 8f b3 bd e3 0c 32 3e df 13 31 3e ab 88 45 3d
       -0.08767531 0.17387728 0.17292736 0.04822604
000070 07 ab 0a 3d 07 85 e6 bd bd 74 14 3e a2 e4 38 be
       0.03385451 -0.11255842 0.14497657 -0.18055966
000080 8a 37 15 be 9e 90 3a 3e 49 2a a1 3d 52 50 1b be
       -0.14571968 0.1821923 0.078693934 -0.15167359
000090 85 5a 48 3d 52 95 95 3d 04 7d f5 bd 03 cd 0b be
       0.04891445 0.07303871 -0.119867355 -0.13652425
0000a0 dc ef 79 3d e8 ce bc bd 17 0c ca 3d 24 e3 c9 bd
       0.061019763 -0.09219152 0.09865587 -0.09857777
0000b0 19 1d 08 bd 0c 86 13 3d 35 d0 06 3d 04 ee a3 bd
       -0.033230875 0.03601651 0.032913405 -0.08004382
0000c0 c8 e6 0a 3c dd 9c 9a bd 8c cb 1f be dd f5 64 bd
       0.008477874 -0.075494505 -0.1560499 -0.055898536
0000d0 2e fb 31 be 8f 31 33 bb a9 6f 4a bc 1c 3d a4 bd
       -0.17380974 -0.0027342772 -0.012355723 -0.08019468
0000e0 c7 dd d9 3d dc b6 60 bd d8 77 63 3d cf 69 99 3d
       0.10638004 -0.05486189 0.055534214 0.074908845
0000f0 f1 e6 d1 3b e4 50 0a 3e b7 c2 15 be 27 3c db bd
       0.006405704 0.1350742 -0.14625059 -0.107048325
000100 3f f4 18 3e 99 f7 fa 3d 9e bd 4a 3d 50 e1 21 be
       0.14936922 0.12254257 0.04949724 -0.15808606
000110 6a 77 6f 3d 22 d3 5e 3d be 66 e8 bd 44 29 83 3b
       0.05846349 0.05440057 -0.113477215 0.004002722
000120 df f5 19 be ce 94 28 3e 4e d9 a6 bb e3 89 3e bd
       -0.15035199 0.16463014 -0.0050918227 -0.046518218
000130 3b dd e9 3d 7d f8 d4 bc fc fe bc 3d d2 f0 81 3b
       0.114191495 -0.025997395 0.09228322 0.0039654756
000140 04 7b ce bb e4 d3 89 bd 72 36 88 bd d9 de 95 3d
       -0.0063012857 -0.06729868 -0.066510096 0.073178954
000150 6d 4f 2b 3d b0 f2 36 bd e9 0e 89 3d d7 6f aa 3c
       0.041823793 -0.04466504 0.06692297 0.020805283
000160 af d2 8c bd f2 fe 03 be c8 f5 96 bd 5d 06 04 bd
       -0.06876122 -0.12890223 -0.07371098 -0.03223263
000170 75 48 18 3c 3f 43 e6 3d 53 3b 1d be db 78 2c 3e
       0.009294619 0.11243295 -0.15354662 0.16842978
000180 1e b5 a6 bd 83 91 b7 3d 40 b6 0f be 07 e3 cf bd
       -0.08140014 0.08963301 -0.14034367 -0.10150724
000190 3b 68 1c 3e 58 00 3f bd b0 d6 bb bd ec f7 0a 3c
       0.15274136 -0.046631187 -0.09171808 0.008481961
0001a0 3b 56 a4 bd 31 f1 0d 3d 30 0b 1a bd 07 0f 0b 3e
       -0.0802426 0.034653846 -0.037608325 0.13579951
0001b0 27 5a cb bd 4e 1d 36 be 94 4d 6c bc a1 54 1a 3c
       -0.099293046 -0.17784616 -0.014422793 0.009419591
0001c0 c5 33 40 3e 5e 73 b9 bd 33 d7 f9 bd 1e a9 59 3b
       0.18769749 -0.09055208 -0.12199249 0.0033212374
0001d0 c9 a6 3e 3e 82 e2 2f 3e 6d df ba 3d 91 5f bd 3b
       0.18618311 0.1717625 0.09124646 0.0057792147
0001e0 6a 9c d5 bc 20 6e 1c 3e 60 fc 63 bd a8 7a 97 3d
       -0.02607556 0.15276384 -0.055660605 0.07396442
0001f0 65 e6 1a be de 37 d6 3d 08 a9 f2 3d 8d 16 4b bd
       -0.15126951 0.104598746 0.118486464 -0.049582053
000200 d8 f0 f3 bd d2 16 ae bd 15 24 80 bd 6f 94 fe bd
       -0.11911172 -0.085004464 -0.06256882 -0.12430655
000210 92 1c 1e 3e c0 0a 2f be d7 a1 5d bd c8 f1 21 3e
       0.15440586 -0.17093945 -0.05410942 0.15814888
000220 19 60 39 be 14 6d 3b 3e 62 50 75 3c 7f 63 2d 3c
       -0.18103065 0.18303329 0.014972778 0.010582804
000230 e6 ed 86 3d b1 aa 04 3e df 32 3f 3e ab 01 e5 bd
       0.06588344 0.12955739 0.1867175 -0.11181959
000240 14 2b 0d bc 55 81 aa 3d 8d 3d 5f 3d 27 28 b8 3d
       -0.008616228 0.083254494 0.05450206 0.089920335
000250 5c f3 83 bd 81 4f 8d bc c6 0d b4 bd 25 a6 13 3d
       -0.064429015 -0.017249824 -0.087916896 0.03604712
000260 f2 ff 65 3d 06 d9 8e 3c 05 95 18 3e a4 07 de 3d
       0.05615229 0.01743747 0.14900596 0.10841301
000270 6c 13 1d 3e f1 6e fe 3d be 71 3d 3d a0 6c 27 3e
       0.1533944 0.12423504 0.04625105 0.16350031
000280 ac 0e 7f bd f8 1b ed bb ba e5 f0 3d 3c a2 8e 3d
       -0.06226985 -0.007236 0.11762567 0.069645375
000290 01 eb 1d be ee c4 0f be cb c1 89 3d 67 c5 eb 3d
       -0.15421678 -0.14039966 0.06726416 0.11512261
0002a0 e0 94 b7 ba 46 b6 e6 bd dc ca 28 be 51 e6 33 bd
       -0.001400616 -0.11265235 -0.16483635 -0.04392082
0002b0 47 7f a7 bb 9c 5e 65 3d 6d 4f d9 bc 40 d2 40 be
       -0.005111608 0.05599843 -0.026527131 -0.18830204
0002c0 a3 40 c7 bd 75 a3 ac bd 96 c0 09 bd 5e 3a 09 be
       -0.09729125 -0.084296145 -0.03363093 -0.13401172
0002d0 36 c8 31 3e 62 bc d2 bb df 60 b4 bd 77 93 e7 3d
       0.1736153 -0.0064311484 -0.08807539 0.113074236
0002e0 51 41 d6 bd ec 5c 15 3b 23 ab a8 3c cb 00 3d 3e
       -0.10461677 0.0022790981 0.020589417 0.18457334
0002f0 c7 14 2f be ad b3 0e bd 06 29 11 3e 7f b0 c9 bd
       -0.1709777 -0.03483932 0.14175805 -0.09848117
000300 87 d3 30 be 2b b5 ab bd e3 00 e6 bd b7 51 b2 bb
       -0.17268191 -0.083841644 -0.11230638 -0.00544187
000310 71 c1 a0 bb 8e cc 1c 3e 6c a5 05 bd 40 a2 31 3e
       -0.0049058725 0.15312406 -0.03262846 0.1734705
000320 55 6e 13 be 7d 0e b9 bd 76 d6 a5 3d b5 32 68 3d
       -0.14397557 -0.090359665 0.08097546 0.056688983
000330 6a 4e ee bd 04 a2 0b 3e 0a 19 0d 3e e3 79 19 3e
       -0.1163605 0.13636023 0.13779083 0.14987902
000340 90 13 ac 3c 64 7a 32 be d5 66 c8 bc 2c e2 2b bc
       0.021005422 -0.17429501 -0.024463097 -0.010490935
000350 78 d0 36 be c5 63 30 3e 00 21 f7 3d 4e a1 c9 3d
       -0.17852962 0.17225559 0.12066841 0.098452196
000360 25 c4 0c 3e 31 93 af bc b1 cb 10 3e a0 69 0f be
       0.13746698 -0.021432491 0.14140202 -0.14005136
000370 f1 86 dd bc 2e 01 a0 bd db 24 01 be cd 5e 29 3e
       -0.027041884 -0.07812725 -0.12611715 0.1654007
000380 20 61 af bc 63 11 33 bb 86 c9 0c be 64 34 c2 3b
       -0.021408617 -0.0027323596 -0.1374875 0.0059266556
000390 ce 43 00 bd 0f 07 a1 3d 5c ba 3d be 45 ba 2d 3e
       -0.031314664 0.078626744 -0.18528122 0.16965587
0003a0 92 17 e8 bd 87 b2 9a bd 7c 6e 57 3d e7 77 11 3d
       -0.11332621 -0.07553583 0.0525956 0.03551474
0003b0 7f ef 22 bd 15 84 2d 3e 40 ef b7 3d 02 0d d4 3d
       -0.039779183 0.16944917 0.0898118 0.103540435
0003c0 d5 e1 ec 3c 72 9a ad bd 02 a2 54 bd 03 6b e0 3d
       0.028916279 -0.08476724 -0.051912315 0.10957911
0003d0 5f 85 8b bc 87 0e 59 bd 24 d0 25 3e 0e 07 3e be
       -0.01703137 -0.05299237 0.1619268 -0.18557379
0003e0 f8 93 1d 3e 20 33 17 be 86 94 1d 3d 9e 38 e5 bc
       0.15388477 -0.14765596 0.03847172 -0.027981099
0003f0 b6 f8 2f 3e 32 18 5f 3d 53 9d 33 be e9 7c 38 3c
       0.1718472 0.054466434 -0.17540483 0.01126025

fc1._model.0.bias f4 [24]
000000 88 bc de ba cf a7 1e bb e2 2e 16 3b 00 43 33 3a
       -0.0016993443 -0.0024208908 0.0022916128 0.0006838292
000010 98 c2 20 bb 71 0d 32 3b bd 97 b7 3a 78 98 c7 ba
       -0.002453005 0.0027168656 0.0014007014 -0.0015227934
000020 1e 38 64 ba 5a 8c ee 3a 87 be 31 3b 4a 48 38 bb
       -0.0008705872 0.0018199787 0.002712162 -0.002811926
000030 a6 a4 2c 3b bb 68 28 bb ca de 12 bb 85 ab 26 bb
       0.0026343255 -0.002569719 -0.0022410625 -0.0025431823
000040 d9 75 1c 3b 31 b5 0e bb 43 ee 03 bb f1 ce 13 3b
       0.0023873954 -0.002177548 -0.0020131029 0.0022553767
000050 77 ee 0f bb 82 1f c4 ba ee 53 be 3a 38 2e c2 b9
       -0.0021962204 -0.0014963003 0.0014520863 -0.00037037

fc2._model.0.weight f4 [20, 48]
000000 32 f0 9d bb d3 69 41 3d 61 5e 8c 3e 78 81 90 be
       -0.0048198933 0.047220062 0.27415755 -0.28223777
000010 74 7c 6f be ce f0 99 3d 97 81 0a be d3 d0 bf 3d
       -0.23387319 0.07516633 -0.13525997 0.09366002
000020 08 37 29 3e d2 92 23 bd 5b d4 d7 bd 0e 09 fc 3d
       0.16524899 -0.03993494 -0.105385505 0.123064145
000030 a1 fd ab bd 93 0e 52 3e 3a 60 93 bc 17 bc 7f bc
       -0.08397985 0.20513372 -0.01799022 -0.015608809
000040 b3 3e 7d be 94 69 30 be c3 c0 10 3c 69 ce bc bd
       -0.24730949 -0.17227775 0.0088350205 -0.09219057
000050 33 a2 a1 3d a4 dc d6 3d 16 5d 6a 3e 63 53 81 3e
       0.07892265 0.104913026 0.22887072 0.25258932
000060 d2 32 41 be 2a 25 fe 3b 3d 3c e6 bb f6 b0 e9 3d
       -0.18867043 0.007755895 -0.007026224 0.11410706
000070 00 68 20 bd cc 52 47 be 68 4d 67 be 50 96 04 3d
       -0.039161682 -0.19465178 -0.22588122 0.03236991
000080 9e 22 25 bd 79 09 7f 3e d4 a2 f8 3d 5f 5e fc 3d
       -0.040316217 0.24905957 0.12140432 0.12322687
000090 05 7e 25 3e dc 47 75 3e 02 33 43 3c f8 a8 6b be
       0.16161354 0.23953193 0.011914017 -0.23013675
0000a0 8e 47 9a 3d f1 f6 61 be 7c d7 d2 bc fd 76 09 be
       0.07533179 -0.22066857 -0.025737517 -0.13424297
0000b0 d2 1d 83 3e 69 c9 04 3e a1 b5 2d 3d a3 ef 4e 3e
       0.2560869 0.12967457 0.042409543 0.20208602
0000c0 bf 4f 8b 3e ed 89 11 be 8e 1f 14 3e de e7 a5 3d
       0.2720928 -0.14212771 0.14465162 0.08100866
0000d0 92 52 6d be e1 91 56 be 71 9c f8 bd 88 ff 2c be
       -0.2317603 -0.20954086 -0.12139214 -0.16894352
0000e0 09 62 61 3e 49 21 78 3e 2f 8a 87 be 0a 04 8c be
       0.22010054 0.24231447 -0.26472613 -0.27346832
0000f0 33 b0 86 3e 77 5c 12 3e 07 dc 93 be ad 8c 5f 3e
       0.26306304 0.14293085 -0.28878805 0.21831007
000100 51 e7 0a be 5c 54 51 3e 18 27 76 bd 22 68 d9 3c
       -0.13564803 0.20442337 -0.060095876 0.026538912
000110 db bb ce bd 00 a2 d1 3d 21 5e 2c 3d 47 49 7d 3e
       -0.10094424 0.10235977 0.042081956 0.24734984
000120 5e c4 a5 bd de 5c 12 3d 93 fe 60 be 60 c9 a7 bd
       -0.08094095 0.035733096 -0.21972112 -0.08192706
000130 c5 09 1c be 89 ac 7a be 0f 36 82 be 76 dd 85 be
       -0.15238102 -0.2447988 -0.25431868 -0.26145524
000140 c9 3b 8e be d3 78 69 3e 4f 2f 7f 3c 94 48 22 3e
       -0.27779987 0.22799997 0.015575244 0.15847999
000150 98 4b 25 3e 38 72 7d 3e 61 3d db bd 02 80 95 3e
       0.16142118 0.24750602 -0.107050665 0.29199225
000160 d1 fb 71 be 9f 99 37 3e 98 f6 4c be 85 c5 18 be
       -0.23631217 0.17929696 -0.20015943 -0.14919098
000170 79 08 dc bc 5b 45 4f 3e 68 ee 0c 3d d2 d8 22 3e
       -0.026859509 0.20241301 0.03440705 0.15903023
000180 75 e0 61 be 13 8d 22 3e e9 f4 d4 3d c2 ad 7e bd
       -0.2205828 0.15874128 0.103982754 -0.062177427
000190 8d 2d a4 bd 81 69 1c 3e 8a ec 4d 3a 90 45 84 3d
       -0.080165006 0.15274622 0.00078553765 0.064585805
0001a0 a7 05 de 3c 03 39 43 bd 78 0c 0b 3e fe 44 67 3e
       0.027102305 -0.047661792 0.13578975 0.22584912
0001b0 1e 19 52 3d ca 70 8e 3e cf c9 4c 3d 0c db 0e 3e
       0.051293485 0.27820426 0.049997147 0.13950747
0001c0 fc 65 2a be ab a6 66 3d 88 90 67 3e be d7 61 3e
       -0.16640466 0.05631129 0.22613728 0.22054955
0001d0 be 3d c6 3d 6d 5c 71 3d ac bf 8b 3e 1d 48 4d 3e
       0.09679745 0.058926035 0.27294672 0.2004704
0001e0 29 0a 4a 3e f7 3b 75 3e bb df 6b be 3c 30 c5 bd
       0.19730438 0.23948656 -0.23034565 -0.096283406
0001f0 f7 4d 62 be 85 6e b3 3b 87 ea 57 3e 6f d5 64 be
       -0.22100054 0.0054758214 0.21085559 -0.22347043
000200 8d be 35 be 4a 9e c3 3b 89 11 44 be c4 6e 3f bd
       -0.1774847 0.0059697973 -0.19147314 -0.046736494
000210 e1 3c 5c 3d 91 94 1a 3e 88 4e 7b 3e dd a3 35 3e
       0.053768996 0.15095736 0.24541676 0.1773829
000220 d2 2f 35 3e 46 5d 7d bd cd 16 85 be 6d d0 3d be
       0.17694023 -0.06185653 -0.25993958 -0.1853654
000230 72 9c 29 be f6 7f 7f 3e 54 38 5b be cb f2 05 bd
       -0.16563585 0.24951157 -0.21408206 -0.03270225
000240 73 04 f1 bd cf d4 e9 3d d7 92 97 be 5d ee 94 be
       -0.11768427 0.11417543 -0.29604217 -0.29088107
000250 17 ed c4 bd c1 2a c2 ba 25 4d c7 3c 8b e8 d9 3d
       -0.09615534 -0.0014813767 0.024328778 0.10640057
000260 2d d9 e6 bc 22 95 f2 bd 22 83 69 be 30 6a fd bb
       -0.02817973 -0.11844851 -0.2280393 -0.007733606
000270 b0 22 93 be 06 4d a2 3d 7a 9a 2b 3e 32 03 2d be
       -0.28737402 0.07924847 0.16758147 -0.1689575
000280 4d 8b 14 3e 95 bb 72 3e d3 cc 12 be ed 05 93 bd
       0.14506264 0.2370437 -0.14335947 -0.07178865
000290 8c ef 8d 3e 8b 84 ed 3d 69 a9 87 bc e8 3f 21 bd
       0.27721822 0.11597546 -0.016560273 -0.039367586
0002a0 8e fe 47 3e 46 ad c9 3d da 9a b5 3d ae 4c 8c be
       0.19530699 0.098475024 0.08867426 -0.27402252
0002b0 ff 75 0f 3e 06 d5 b1 bd aa 0a 73 3e f5 3a 2e 3e
       0.14009856 -0.08683209 0.23734537 0.17014678
0002c0 83 e6 c6 bd ca 95 72 3e 6a f6 a5 bc 24 7c 83 bd
       -0.09711935 0.23689952 -0.020259101 -0.06420162
0002d0 95 23 2e bd 26 dc 42 3e 06 46 12 be b3 fd 80 3e
       -0.042514402 0.19029292 -0.14284524 0.25193557
0002e0 23 c4 8a 3c 6a 22 31 be 55 06 5e 3e 00 24 97 bd
       0.016939228 -0.17298284 0.21682103 -0.07379913
0002f0 c3 85 0e 3c f4 56 3d 3d aa 6a 92 3d 62 08 50 3e
       0.0086988835 0.046225503 0.07149251 0.20315698
000300 38 c2 93 3e 16 f8 56 be c2 85 ee 3c 0c fe c8 3d
       0.28859115 -0.20993075 0.029116515 0.098140806
000310 48 e9 97 3e 8e 66 48 3d 62 d9 c7 3d 41 cf 91 3e
       0.29670167 0.04892593 0.09758259 0.28478435
000320 24 28 7c bd fa 94 ab bd db 4d 8f 3e 69 21 7c be
       -0.06156172 -0.083780244 0.27989087 -0.2462212
000330 f3 14 d0 3d 78 ef cf 3d 24 7c aa 3d f0 8e 6c be
       0.10160246 0.10153097 0.08324459 -0.23101401
000340 26 ae 0c be 01 74 01 be 2d af 05 bd 04 a2 f8 3d
       -0.13738307 -0.12641908 -0.032637764 0.12140277
000350 cd 3c b3 3c 92 c6 49 3e c8 33 dc bd 19 e1 cf bd
       0.021879578 0.19704655 -0.10752064 -0.10150356
000360 d1 5b 7c be cb a2 15 bd 53 4d ed bd 50 de 12 3e
       -0.246444 -0.036532205 -0.11587014 0.14342618
000370 c9 53 89 bc db e6 49 3e 1d f5 1f be ec 29 f7 3d
       -0.016763585 0.1971697 -0.15620847 0.12068543
000380 cb 39 0e be 29 f5 88 be 26 27 32 3e 1b 3a 1a 3e
       -0.13889234 -0.26749542 0.17397746 0.15061228
000390 24 ef 4a 3e 48 0e 8b 3e 3b 82 61 be d6 41 83 3e
       0.19817787 0.27159333 -0.22022335 0.25636166
0003a0 3e bf 20 be 8d f6 82 bd 8f 19 37 3e 90 83 0b 3c
       -0.15697953 -0.06394682 0.17880844 0.008515254
0003b0 6d cf 8d 3e eb 74 83 be 36 db 2a be db 36 44 be
       0.27697316 -0.2567514 -0.16685185 -0.1916155
0003c0 d4 08 80 be 86 40 81 be 7d 55 69 3e c5 75 10 3e
       -0.25006735 -0.2524454 0.22786517 0.14107426
0003d0 d3 4c 4a be b0 b7 61 bd 43 7e 5d be bc 91 51 3e
       -0.19755869 -0.05510682 -0.21630196 0.2046575
0003e0 d1 7b a2 bd 95 e1 95 bd b7 a8 74 3e ae 2c 3f bd
       -0.07933772 -0.07318417 0.23892485 -0.04667347
0003f0 6e 1f b9 3d 45 1a 1b be 40 b1 09 be 1e c6 96 3d
       0.09039198 -0.1514674 -0.13446522 0.073620066

fc2._model.0.bias f4 [20]
000000 b5 c8 e5 b9 d8 cd 38 b8 65 61 f2 37 7e b8 2b b5
       -0.00043827822 -4.4060725e-05 2.8894001e-05 -6.3970936e-07
000010 00 00 00 00 00 00 00 00 c5 58 70 34 61 a8 d1 39
       0.0 0.0 2.2384036e-07 0.00039989038
000020 00 00 00 00 00 00 00 00 00 00 00 00 00 00 00 00
       0.0 0.0 0.0 0.0
000030 00 00 00 00 c1 3a 22 3a 79 f2 fe b9 a5 11 15 b9
       0.0 0.00061885646 -0.00048627311 -0.0001421632
000040 00 00 00 00 d7 45 75 b4 00 00 00 00 00 00 00 00
       0.0 -2.284281e-07 0.0 0.0

fc3._model.0.weight f4 [64, 48]
000000 a1 76 d0 bd 65 91 46 3d bd 82 66 bd 97 df 06 3d
       -0.10178877 0.048478503 -0.056277025 0.032928076
000010 63 42 33 3e 98 fa d6 bc b5 c5 c7 bd de 65 63 be
       0.17505793 -0.02624254 -0.097545065 -0.22206828
000020 7e ba 7a bd e3 c6 0e 3e 1d a5 33 be f6 65 69 3d
       -0.06121301 0.13943057 -0.17543454 0.056982003
000030 7e 42 4e 3d 2b eb a8 3d a8 87 66 bd 42 19 a0 bd
       0.05035638 0.0824798 -0.056281716 -0.078173175
000040 15 ab 1c bd 92 9d 86 bd 23 25 38 bd 09 7d 96 3d
       -0.038249094 -0.06573023 -0.04495729 0.07348067
000050 98 ac 21 be e8 49 81 bd 32 8e b7 bd ae e5 bc 3d
       -0.15788496 -0.063129246 -0.089626685 0.092234954
000060 cf 7b 17 bd de ff ef bc 0d 3b 1a be df ed d4 ba
       -0.036983307 -0.029296812 -0.15061589 -0.0016245208
000070 2e bb 4b 3e 5d db 48 3e a3 2b 6e 3c 56 2a 03 bc
       0.19895622 0.1961493 0.014536771 -0.008005699
000080 af 44 be 3d df 9e 33 3e bc 5e 95 3d bc d9 05 3e
       0.09290444 0.17541073 0.0729346 0.1307134
000090 8a 8d 76 bd 79 4b 9c bd 9b 49 00 be c4 7b 23 3e
       -0.060193576 -0.07631583 -0.12528078 0.15965182
0000a0 86 24 69 3e 0b 8f 06 be 17 5b 60 3e 1d 57 07 bd
       0.22767839 -0.13140504 0.21909748 -0.033042062
0000b0 af 67 a4 bd 25 ce 56 be 9e 12 bc bd 9d 19 32 bd
       -0.080275886 -0.20977075 -0.091832384 -0.043481458
0000c0 b3 3b 6b 3d f2 a6 00 3e 0c 73 cd 3c 5f 33 32 3d
       0.05742998 0.12563685 0.025079273 0.043506023
0000d0 ac 00 75 3d e0 3c b7 3c f6 6c 1c 3e 06 d6 a1 3d
       0.059815094 0.022367895 0.1527594 0.0790215
0000e0 5f 67 6e 3d 19 42 39 3e 7c b9 c1 bd 49 59 0d bd
       0.05820405 0.1809162 -0.094592065 -0.034508977
0000f0 e0 c0 5a 3e dd e9 29 be 47 b8 30 be b2 e3 6f 3e
       0.21362638 -0.16593118 -0.17257796 0.23426703
000100 a6 2e d8 bd 87 65 c0 3d 3c 90 1c be fb d8 1c be
       -0.105557725 0.09394365 -0.15289396 -0.15317146
000110 26 a0 ba 3c ff 40 80 bd 54 99 08 3e c3 fb fa bc
       0.022781443 -0.06262397 0.1333974 -0.030637627
000120 98 77 51 3e 9e eb 1a be 71 b7 b4 3d 8c 48 22 bd
       0.20455778 -0.15128943 0.08824051 -0.039619967
000130 23 9e 06 3e e9 fe 1f 3c d5 5b 54 3e 75 de 00 bd
       0.13146262 0.009765365 0.20738156 -0.03146215
000140 8c 03 36 be 47 37 36 3e 99 ab 61 be db bb 1f 3e
       -0.1777479 0.17794524 -0.22038116 0.15599005
000150 d3 3e 70 be 82 30 8e bd 49 b1 6c bd 17 99 26 be
       -0.23461466 -0.06942846 -0.05778626 -0.16269337
000160 cb 9b d5 3d b6 7a 9f bd dd 6f f3 bd 22 f0 4a be
       0.10430106 -0.07787077 -0.118865706 -0.19818166
000170 05 f1 a9 3d 05 ad 60 3e 90 a9 17 3e ea 69 1c bd
       0.08297924 0.21941002 0.14810777 -0.038186945
000180 a5 7c 4d 3d 65 2f 0e bd 2e 41 45 be a2 27 f4 bd
       0.0501677 -0.034713168 -0.19263145 -0.11921622
000190 fd 3b 6c be 53 ac 0b be 3f 12 4f be 42 67 60 bd
       -0.23069759 -0.13639955 -0.20221804 -0.054785974
0001a0 77 54 5d be aa ee 80 3d 5c 24 1b be 8e ac 6b 3e
       -0.21614252 0.062955216 -0.15150589 0.23015043
0001b0 aa 02 26 be f2 bd 8c 3c 49 0b f0 3d 4f 86 20 be
       -0.16211954 0.017180417 0.117209025 -0.15676235
0001c0 24 2c 8a 3d 2f 96 1e 3e 0f 2d 2a 3d 9b 9a 3c 3c
       0.067467004 0.15486978 0.041546877 0.01151147
0001d0 e4 77 45 be a3 9c 3e 3d e6 65 04 be ab 8b d4 bd
       -0.19284016 0.0465361 -0.12929496 -0.10378202
0001e0 0d 10 17 be 7a 4b bc 3d 91 bf 22 3e 02 0f 46 be
       -0.14752217 0.091940835 0.1589339 -0.19341663
0001f0 72 16 34 3e 7e ae 2d be da e8 9b 3d ef a9 ba bc
       0.17586687 -0.16961095 0.07612772 -0.022786109
000200 9c b9 5d 3d 52 1c 56 be 18 a3 0d be 81 87 cf 3c
       0.05413209 -0.20909241 -0.13831747 0.025333168
000210 42 e0 89 3c 12 6d 14 be 2f ce 96 3d fb 48 f4 3d
       0.016830567 -0.14494732 0.07363545 0.119279824
000220 dc 72 87 3b 5c eb f6 bd 36 ea ee bd 43 80 aa 3d
       0.0041335654 -0.1205661 -0.11665766 0.08325245
000230 9c 32 18 bd e6 cd c4 ba b7 6d 2c be 06 9a 57 3e
       -0.03715764 -0.0015014976 -0.16838728 0.21054849
000240 88 4f 62 be 67 33 23 be 4b ac b0 bc 46 88 e6 bd
       -0.22100651 -0.15937577 -0.02156653 -0.11256461
000250 1e 0c ab bd 13 d3 6f be 43 fc 20 3e 31 9f 38 3d
       -0.083519205 -0.23420362 0.1572123 0.04507369
000260 ad 35 67 be aa 71 0a be 15 1d b2 3d 5c 18 ee bd
       -0.2257907 -0.13519922 0.08696953 -0.1162574
000270 01 c4 d0 bd d1 c2 e5 3d 1c d1 b5 bd 65 af 8a 3c
       -0.10193635 0.11218799 -0.08877775 0.016929338
000280 a7 dd b3 bd e4 69 ba 3d 79 6a e7 bd 0e ec 16 3e
       -0.08782511 0.09102228 -0.11299605 0.14738485
000290 89 8b 68 3d 13 2a ef 3d bb 35 6a be 17 2e 89 3c
       0.056773696 0.11677947 -0.22872059 0.01674561
0002a0 85 24 3a be 01 22 2e bc e3 41 f5 bd 27 27 4a 3e
       -0.18177994 -0.010628224 -0.119754575 0.19741498
0002b0 01 ce 17 3e 7d 7b 0a bd 2f 06 42 3e 0e fe c4 bd
       0.14824678 -0.033809174 0.18947671 -0.096187696
0002c0 02 d2 0d be fb 90 b3 bc 1e 59 ee 3d cd 51 eb bc
       -0.13849643 -0.021919718 0.116380915 -0.02872553
0002d0 1f 97 a8 bd b6 3f dd bd 48 ae 4e 3e 0e 72 11 be
       -0.08231949 -0.108031675 0.2018367 -0.14203665
0002e0 9f 55 45 3e 73 95 32 bd ee 58 68 be 40 e3 62 3e
       0.19270943 -0.043599557 -0.22690174 0.22157001
0002f0 7a 7d ee 3d 1b a8 11 3e 3c 01 8f 3d 15 4c 2d be
       0.116450265 0.14224283 0.06982657 -0.16923554
000300 c4 14 57 3e 1b 68 8e bd 49 eb 28 3e fc 32 a4 bd
       0.21004015 -0.0695345 0.16496004 -0.08017537
000310 3e 84 ee bd a1 3d a8 3b 3d ce 12 3e 8a 16 5b bd
       -0.11646317 0.0051343 0.14336486 -0.05348829
000320 c5 5e a0 bc 92 6d 6a 3d 66 48 f3 3d 27 f6 0b bd
       -0.01957644 0.0572334 0.11879043 -0.034170296
000330 f8 6e da 3d 89 03 be 3c c5 08 4e 3e 90 b5 4b 3e
       0.10665697 0.023195045 0.20120533 0.1989348
000340 0f 7e 52 3e e4 2b 9a 3d 48 68 37 3e 54 fb 66 be
       0.205559 0.07527903 0.17910874 -0.22556812
000350 5b 8a 02 be c2 01 47 be c1 95 23 3e de 02 94 bd
       -0.12748091 -0.19434264 0.15975095 -0.072271094
000360 bf 02 1a bd 10 12 45 bb 0b 95 d2 bd dc 95 69 be
       -0.037600275 -0.003007058 -0.10282334 -0.22811073
000370 3a 38 58 be c1 28 e9 bd 18 3f 85 bc 80 e1 45 bd
       -0.21115199 -0.11384726 -0.016265437 -0.048310757
000380 60 ae 73 b6 84 41 82 bd 92 10 92 3d 83 ca 1a be
       -3.6311321e-06 -0.06360152 0.07132067 -0.15116315
000390 38 ec 8a 3d ca a8 a7 3d de 81 60 be 7f 8a de 3d
       0.067833364 0.08186491 -0.2192454 0.1086626
0003a0 5e c9 9e bd 15 eb 29 be 3e 98 92 3d 96 57 3d be
       -0.077532515 -0.16593583 0.07157944 -0.18490443
0003b0 cf 10 5e 3e 92 fc 1f bc 5b 6e da bd 6f 8d 8b bc
       0.216861 -0.009764807 -0.1066558 -0.017035214
0003c0 68 80 b9 3d 75 26 07 3e 1b a3 b2 3d bf 92 35 be
       0.09057695 0.13198264 0.08722516 -0.1773176
0003d0 05 65 39 3e 73 be 37 3d 02 93 e2 bb c4 7a 8e bc
       0.18104942 0.04485936 -0.0069144974 -0.017392524
0003e0 d9 c7 85 3c 78 4a 1e be 56 f7 40 3e 2e fa 14 3d
       0.016330646 -0.15458095 0.18844351 0.036371402
0003f0 f8 a1 30 3e 77 92 96 3d 74 46 5b 3e e0 28 e2 3d
       0.17249286 0.07352155 0.21413594 0.110429525

fc3._model.0.bias f4 [64]
000000 b7 58 2d bb 49 88 2d 3b 1f b8 2d bb 4d e0 2d 3b
       -0.0026450583 0.0026478937 -0.002650745 0.0026531399
000010 7e c4 2d bb 0f 9c 2d 3b b4 b9 2d bb e7 c2 2d 3b
       -0.0026514824 0.0026490723 -0.0026508393 0.0026513876
000020 e9 5b 1c bb e9 ff 2d bb d9 cd 2d 3b 12 ad 2d 3b
       -0.0023858494 -0.002655024 0.00265204 0.0026500863
000030 46 dc 2d bb 01 83 2d bb 71 13 2d 3b 60 b3 2d 3b
       -0.0026528998 -0.002647579 0.0026409293 0.002650462
000040 d5 80 2d 3b 26 ce 2d bb 9a c1 2d bb 15 ac 2d 3b
       0.0026474495 -0.002652058 -0.00265131 0.0026500274
000050 50 82 2d bb d5 7a 2d 3b 77 be 2d 3b 70 83 2d bb
       -0.0026475377 0.0026470919 0.002651123 -0.0026476048
000060 c7 56 2d 3b fd af 30 3b 2e a2 2d 3b 2f 63 2d bb
       0.0026449428 0.0026960366 0.0026494372 -0.0026456823
000070 11 c3 2d 3b 5d 9d 2d 3b a6 7e 2c bb 30 93 2d bb
       0.0026513974 0.00264915 -0.0026320606 -0.0026485436
000080 5f 82 2d bb 46 cb 2d 3b 93 5c 2b 3b 89 c2 2d bb
       -0.0026475412 0.0026518865 0.0026147708 -0.0026513657
000090 1a ad 2c bb a9 ca 2d bb 81 bc 2d 3b b1 a0 2d 3b
       -0.0026348294 -0.00265185 0.0026510062 0.0026493485
0000a0 2b a3 2d 3b 73 be 2a bb 59 b4 2d bb 0f 8a 2d bb
       0.002649496 -0.0026053458 -0.00265052 -0.0026479994
0000b0 02 7d 2d 3b 97 ae 2d 3b b4 b3 2d bb d0 b1 2d 3b
       0.0026472216 0.0026501769 -0.0026504816 0.002650369
0000c0 f1 d7 2c 3b 0e de 2d bb 9f 9c 2d bb c8 11 2d bb
       0.0026373828 -0.002653006 -0.0026491059 -0.0026408304
0000d0 ae e8 2d 3b d7 bd 2d 3b 7e 6d 2d 3b 8f 1e 2e 3b
       0.0026536393 0.0026510858 0.0026462968 0.0026568507
0000e0 c1 0a 2e bb e0 d0 2d bb a5 c0 2d 3b 4a 19 2d bb
       -0.0026556703 -0.0026522204 0.002651253 -0.0026412779
0000f0 4b b1 2d 3b 71 71 2e 3b fe bb 2d 3b 01 be 2d bb
       0.002650338 0.002661791 0.0026509757 -0.0026510956

fc4._model.0.weight f4 [1, 64]
000000 6e 6b 34 3d 24 ab 2c be bb 02 82 3e ec 16 28 be
       0.044047765 -0.1686216 0.25392708 -0.16414994
000010 3b 83 5b 3c 90 55 83 be 99 b7 60 3e d5 c8 d9 bd
       0.013397987 -0.25651217 0.21945037 -0.10634009
000020 1f 9a b5 3b e0 52 9d 3d b2 3b 1b be b5 43 ef bc
       0.0055420543 0.07681823 -0.1515949 -0.02920709
000030 2d 83 4b 3e ab b5 c4 3d 03 d7 0a bc 95 7b 3d be
       0.19874258 0.09604963 -0.008474114 -0.18504174
000040 82 80 59 bd fe 98 84 3e 1b b3 50 3e b0 28 43 be
       -0.05310107 0.25897974 0.20380823 -0.1905849
000050 3c 8c 37 3d c5 5f 93 be ef 27 95 be 63 b6 64 3e
       0.044811472 -0.28784004 -0.2913203 0.223352
000060 d5 cd 69 be a4 bb d4 bb b8 1f 8a be c4 d7 0c 3e
       -0.22832425 -0.006492095 -0.26977324 0.13754183
000070 f5 70 90 be b4 00 42 be 9e 3a cb 3c ce 7f 73 3e
       -0.2821118 -0.1894558 0.024808224 0.23779222
000080 28 f1 78 3e 6f f3 38 be 80 a1 5f bc 02 18 83 3e
       0.24310744 -0.18061613 -0.013649344 0.25604254
000090 23 77 a5 3d 15 36 8f 3e 71 a5 4b be 4d f0 a5 bd
       0.08079364 0.2797095 -0.1988733 -0.08102474
0000a0 90 02 3a bd ff f8 b0 3c ff 62 50 3d 72 42 23 3e
       -0.0454126 0.021603106 0.05087566 0.15943316
0000b0 c7 da ce bd 59 a8 ca bd 1a cd 76 3e cc 75 d3 bd
       -0.10100322 -0.09895391 0.24101678 -0.10325202
0000c0 50 48 f8 bc ad 7c d4 3d 18 ec 88 3e d1 ab a1 3d
       -0.030307919 0.103753425 0.26742625 0.078940995
0000d0 8d 74 df bd bd b3 3c be eb 44 80 be 80 8c 18 bd
       -0.10910902 -0.1842794 -0.2505258 -0.037243366
0000e0 58 ce 13 3d e9 b7 6d 3d c1 94 5f be 87 ef 95 3d
       0.036085457 0.05803672 -0.21834089 0.07321077
0000f0 7e 2f 40 be ae c2 5c bd b9 07 61 be 4f 63 69 3e
       -0.18768117 -0.0538966 -0.21975602 0.2279179
